data/ForestSegmentationOutput/experiemnts/FIXED_BLOCK_run_FINAL_28-12-2023_19h23min/unet_id=3nphM_width=32_num_layers=2_lr=0.00085_epochs=400.pth (torch, 115765 bytes, 16 tensors)

weight f4 [16, 8, 3, 3]
000000 23 0c db ad 78 86 f8 ad e5 6f 05 ae be 3c c8 ad
       -2.4902807e-11 -2.8254052e-11 -3.034008e-11 -2.2764342e-11
000010 a6 c1 e2 ad 9b fa e1 ad 98 bf e2 ad 04 ac d4 ad
       -2.5779223e-11 -2.569083e-11 -2.577831e-11 -2.4178e-11
000020 e5 2f c0 ad b7 d0 db a2 71 52 fe a2 db ab db a2
       -2.1849142e-11 -5.9581054e-18 -6.8934126e-18 -5.954203e-18
000030 53 e0 c1 a2 7b 20 e0 a2 5f cb d5 a2 b3 e3 c6 a2
       -5.2550267e-18 -6.074971e-18 -5.7949093e-18 -5.3909093e-18
000040 99 33 b1 a2 e3 b6 a8 a2 3b 18 8f aa e2 a7 9b aa
       -4.8030577e-18 -4.573013e-18 -2.5418716e-13 -2.7650023e-13
000050 bd 2c 97 aa 37 7b 84 aa bf f4 88 aa 00 10 81 aa
       -2.6854032e-13 -2.3533408e-13 -2.432828e-13 -2.2926105e-13
000060 4c 77 86 aa a9 11 8d aa f7 bc 6c aa 95 f6 03 aa
       -2.388596e-13 -2.5058886e-13 -2.1026571e-13 -1.1720688e-13
000070 3e 9d 1b aa a6 c3 12 aa bd 8d 08 aa 3b e0 0c aa
       -1.382132e-13 -1.3035284e-13 -1.2128402e-13 -1.2512293e-13
000080 ae e0 fb a9 49 3a 08 aa 37 30 fe a9 fe 00 d0 a9
       -1.1185615e-13 -1.2099448e-13 -1.128823e-13 -9.237228e-14
000090 ae 87 41 99 ea b0 60 99 74 39 5d 99 88 7f 68 99
       -1.00052664e-23 -1.1616256e-23 -1.1437035e-23 -1.2019874e-23
0000a0 c6 3a 3b 99 89 ca fc 98 b1 8d 4e 99 78 03 03 99
       -9.679543e-24 -6.534498e-24 -1.0678565e-23 -6.773242e-24
0000b0 e7 fd 82 98 76 35 6c b4 10 f4 af b4 27 8d c0 b4
       -3.386059e-24 -2.1998662e-07 -3.277387e-07 -3.586549e-07
0000c0 f3 2d 53 b4 fe a5 95 b4 3f 4f b6 b4 8b 96 64 b4
       -1.9667623e-07 -2.7874188e-07 -3.39578e-07 -2.1288922e-07
0000d0 ce 62 a3 b4 79 db a3 b4 aa 7c 28 36 53 ac 04 36
       -3.0433006e-07 -3.0520803e-07 2.5106515e-06 1.9769839e-06
0000e0 20 ca b5 35 e0 83 2b 36 6b b5 00 36 5d c5 d4 35
       1.3544377e-06 2.5557747e-06 1.9179085e-06 1.5852671e-06
0000f0 5d 13 3c 36 01 45 1d 36 ed 71 0f 36 3a 1c d2 35
       2.8025454e-06 2.3434989e-06 2.1374974e-06 1.5654434e-06
000100 88 04 9f 35 0e bd 8c 35 95 46 d2 35 83 ff a5 35
       1.1847742e-06 1.0485835e-06 1.5666761e-06 1.2367822e-06
000110 22 39 8d 35 18 18 f4 35 1d 73 c5 35 34 f3 ca 35
       1.0521946e-06 1.8186429e-06 1.4711146e-06 1.5120954e-06
000120 f5 3f 00 80 b1 1d 00 00 1b 41 00 80 cb 40 00 80
       -2.2943e-41 1.0651e-41 -2.3355e-41 -2.3243e-41
000130 7b 2a 00 00 10 13 00 00 75 41 00 00 cb 40 00 00
       1.5239e-41 6.838e-42 2.3482e-41 2.3243e-41
000140 96 3c 00 00 ca 29 00 00 8e 46 00 00 ce 3b 00 00
       2.1734e-41 1.4991e-41 2.531e-41 2.1454e-41
000150 e5 04 00 00 3b 34 00 00 6b 2d 00 00 72 32 00 80
       1.756e-42 1.8737e-41 1.6293e-41 -1.8096e-41
000160 0f 42 00 80 c0 17 00 80 b7 19 00 00 32 24 00 80
       -2.3697e-41 -8.52e-42 9.225e-42 -1.2984e-41
000170 30 36 00 00 a9 04 00 00 5a 07 00 80 0d 3f 00 80
       1.9439e-41 1.672e-42 -2.637e-42 -2.2618e-41
000180 a8 04 00 80 13 17 00 80 09 0d 00 00 a7 31 00 00
       -1.67e-42 -8.277e-42 4.676e-42 1.7812e-41
000190 9e 3b 00 00 00 1a 00 80 51 33 00 00 51 27 00 00
       2.1387e-41 -9.327e-42 1.8409e-41 1.4104e-41
0001a0 15 15 00 00 6d 11 00 00 3d 0c 00 80 e8 3c 00 80
       7.563e-42 6.251e-42 -4.39e-42 -2.1849e-41
0001b0 fd 22 00 00 e8 1f 00 80 b2 44 00 00 00 42 00 00
       1.2551e-41 -1.1446e-41 2.4643e-41 2.3676e-41
0001c0 af 14 00 80 f2 1b 00 80 81 11 00 80 c8 41 00 80
       -7.42e-42 -1.0025e-41 -6.279e-42 -2.3598e-41
0001d0 b9 1d 00 80 b8 48 85 10 00 bf e9 91 28 a5 bc 91
       -1.0662e-41 5.257129e-29 -3.687863e-28 -2.9762955e-28
0001e0 b0 61 cf 92 bf 14 7d 12 20 c5 8b 12 88 c5 6b 12
       -1.3087618e-27 7.9858295e-28 8.820728e-28 7.43964e-28
0001f0 d0 df 3d 93 b9 59 06 13 da 3d e7 a2 a9 fe 20 a2
       -2.3965502e-27 1.6957414e-27 -6.2678163e-18 -2.181886e-18
000200 ac c9 14 a0 f6 bd 17 22 90 53 ec 22 91 64 f8 a2
       -1.2602815e-19 2.056488e-18 6.4056403e-18 -6.7327014e-18
000210 05 83 43 22 9d 37 46 a2 7b cd d9 22 15 bc 98 a0
       2.649679e-18 -2.6863445e-18 5.903553e-18 -2.5874264e-19
000220 d2 a9 76 1e 79 42 40 20 db f9 93 9e 90 f3 9a a0
       1.30582496e-20 1.6285027e-19 -1.5667568e-20 -2.624979e-19
000230 c1 98 0d 21 1e b2 f4 1e 41 ac 86 a0 b7 d9 9d 20
       4.7974826e-19 2.5908172e-20 -2.281447e-19 2.6740906e-19
000240 2b 86 aa b4 80 e7 a5 b4 08 00 a5 b4 a0 4e ac b4
       -3.1762588e-07 -3.0902083e-07 -3.0733668e-07 -3.2094704e-07
000250 a5 1b a8 b4 a5 fb a6 b4 33 05 b0 b4 c6 46 ad b4
       -3.1312553e-07 -3.1103005e-07 -3.2786338e-07 -3.2275256e-07
000260 a6 ce a9 b4 71 bd 7c ad db 72 69 ad 2e 0a 62 ad
       -3.162906e-07 -1.4366606e-11 -1.327002e-11 -1.2848873e-11
000270 ed 9d 89 ad fc d2 78 ad f4 f7 6f ad a7 bb 95 ad
       -1.564523e-11 -1.4144016e-11 -1.3640634e-11 -1.7022673e-11
000280 a4 92 87 ad 96 a2 80 ad 26 3d e1 b1 3d 1b cf b1
       -1.5412845e-11 -1.4624118e-11 -6.5553136e-09 -6.0275895e-09
000290 ca 5d c2 b1 85 e7 fe b1 1e 4d e8 b1 ce 05 d7 b1
       -5.6568057e-09 -7.4186937e-09 -6.760856e-09 -6.2579835e-09
0002a0 bd 3e 0d b2 b4 ec 02 b2 46 8c f3 b1 35 74 94 b0
       -8.221545e-09 -7.620816e-09 -7.088178e-09 -1.0801445e-09
0002b0 c9 8e 70 b0 41 35 55 b0 32 1f b8 b0 a7 b7 95 b0
       -8.75144e-10 -7.7564627e-10 -1.3396628e-09 -1.0893374e-09
0002c0 55 4c 84 b0 61 01 e6 b0 62 de bf b0 f8 9a a7 b0
       -9.625959e-10 -1.6735094e-09 -1.3960284e-09 -1.2194894e-09
0002d0 a1 d8 3b a4 3d f7 c9 a3 63 f8 91 a3 35 c8 b0 a4
       -4.0732653e-17 -2.1897173e-17 -1.5826127e-17 -7.6667e-17
0002e0 5b d1 39 a4 14 6b 01 a4 d3 ae 2c a5 e6 27 be a4
       -4.029281e-17 -2.8063115e-17 -1.4977855e-16 -8.2466956e-17
0002f0 cd 43 79 a4 15 10 6b b9 67 5d 6a b9 96 49 66 b9
       -5.4050698e-17 -0.00022417337 -0.00022350774 -0.00021961922
000300 3d e3 70 b9 33 2e 72 b9 f2 08 6f b9 97 30 72 b9
       -0.00022972836 -0.00023096129 -0.00022796149 -0.0002309702
000310 63 85 75 b9 66 47 71 b9 2c 42 97 ba 66 67 98 ba
       -0.00023414711 -0.00023010149 -0.0011540106 -0.0011627495
000320 2e 37 96 ba 6b 1f 99 ba b5 c9 9b ba 11 c1 99 ba
       -0.0011460537 -0.0011682337 -0.0011885675 -0.0011730512
000330 a5 e1 97 ba ed bf 9a ba aa 94 9a ba 76 27 61 ba
       -0.0011587633 -0.0011806466 -0.0011793573 -0.0008588949
000340 41 7a 66 ba a6 0e 63 ba 53 f4 68 ba 5c 5d 6c ba
       -0.0008792021 -0.00086615456 -0.0008886505 -0.0009016597
000350 92 2e 64 ba c7 10 67 ba 3e 78 6c ba 5e d8 6a ba
       -0.0008704449 -0.00088144507 -0.0009020603 -0.0008958633
000360 2c 33 00 80 b8 26 00 00 e7 28 00 80 8e 1c 00 80
       -1.8357e-41 1.389e-41 -1.4673e-41 -1.0243e-41
000370 82 29 00 80 77 37 00 80 ff 19 00 00 05 06 00 00
       -1.489e-41 -1.9897e-41 9.326e-42 2.16e-42
000380 e1 27 00 00 74 3b 00 00 56 3c 00 00 c3 19 00 80
       1.4306e-41 2.1328e-41 2.1644e-41 -9.242e-42
000390 99 13 00 80 8d 16 00 00 15 1a 00 80 82 13 00 00
       -7.03e-42 8.09e-42 -9.356e-42 6.998e-42
0003a0 a2 03 00 80 c0 3b 00 00 c1 34 00 00 17 44 00 80
       -1.303e-42 2.1434e-41 1.8925e-41 -2.4426e-41
0003b0 20 00 00 00 2f 01 00 00 28 1a 00 80 de 0e 00 00
       4.5e-44 4.25e-43 -9.383e-42 5.333e-42
0003c0 ba 3f 00 00 c3 20 00 00 3a 39 00 00 f5 30 00 00
       2.2861e-41 1.1753e-41 2.0529e-41 1.7562e-41
0003d0 b6 3d 00 00 8f 42 00 80 91 36 00 00 c0 1e 00 80
       2.2138e-41 -2.3877e-41 1.9575e-41 -1.1031e-41
0003e0 32 30 00 00 ba 44 00 80 5f 25 00 00 8a 2f 00 00
       1.7289e-41 -2.4654e-41 1.3406e-41 1.7054e-41
0003f0 d6 45 00 00 3c 36 00 80 a7 3f 00 80 f4 05 00 00
       2.5052e-41 -1.9456e-41 -2.2834e-41 2.136e-42

bias f4 [16]
000000 b9 5b bb b9 87 d6 db b1 e3 7d db bb 07 21 73 b1
       -0.00035735758 -6.398128e-09 -0.0066983565 -3.5379928e-09
000010 70 1d 1d b9 28 79 89 bb b0 d1 d9 b9 ef 34 33 bd
       -0.00014983653 -0.004195351 -0.00041545695 -0.043751653
000020 d2 cb 39 3e 1e 7e 57 3e 79 89 ed 3c 20 78 eb 3d
       0.18144158 0.21044204 0.028996216 0.114975214
000030 f0 58 89 3d ee b0 d9 bd 91 86 aa bd 20 3e c6 bd
       0.067064166 -0.1062945 -0.08326448 -0.09679818

weight f4 [16, 16, 3, 3]
000000 9f 4e cd 35 df eb d3 35 62 5f e1 35 9e b9 b4 35
       1.5296572e-06 1.5789373e-06 1.6791566e-06 1.3465067e-06
000010 5b 5e b3 35 39 f1 b3 35 eb f1 b1 35 fc 90 ca 35
       1.3364e-06 1.3406744e-06 1.3257935e-06 1.5092369e-06
000020 be dd c8 35 70 5b 00 00 57 27 00 80 e6 71 00 00
       1.4965697e-06 3.2802e-41 -1.4112e-41 4.0859e-41
000030 3d 36 00 00 7b 73 00 00 95 4d 00 00 76 12 00 80
       1.9457e-41 4.1427e-41 2.7831e-41 -6.623e-42
000040 d5 c2 00 80 af e0 00 80 3a ec be 3a 99 cb c0 3a
       -6.9893e-41 -8.0601e-41 0.0014566251 0.0014709114
000050 ab 87 bf 3a d2 5e c0 3a 73 8c c1 3a 30 e8 c0 3a
       0.0014612576 0.0014676696 0.0014766589 0.0014717635
000060 d0 1a bf 3a 30 4a c2 3a 5c 2d c2 3a d5 c6 01 80
       0.0014580134 0.0014823135 0.0014814544 -1.63163e-40
000070 a4 1d 00 00 f7 f1 00 00 44 90 00 00 7d 18 00 80
       1.0633e-41 8.68e-41 5.1753e-41 -8.785e-42
000080 92 2f 00 80 29 cb 01 80 9a 5a 00 00 ae 7d 00 00
       -1.7065e-41 -1.64716e-40 3.2502e-41 4.5085e-41
000090 37 2e 7f 37 4b e4 6d 37 12 64 5b 37 b6 87 85 37
       1.5209945e-05 1.4179454e-05 1.3076717e-05 1.591803e-05
0000a0 22 f2 6a 37 e8 10 44 37 35 ac 75 37 06 ea 5d 37
       1.4003863e-05 1.1686447e-05 1.4643233e-05 1.3227114e-05
0000b0 7e 3a 47 37 bb a4 a0 bc 4b ef 9d bc 13 77 9f bc
       1.1874943e-05 -0.0196098 -0.019279143 -0.019465959
0000c0 3b 71 9f bc ad 84 9f bc 5c 8c 9e bc 94 0f 9f bc
       -0.019463172 -0.019472444 -0.019354038 -0.019416608
0000d0 a9 b5 9f bc 7a 3e a1 bc df 07 b4 bb d1 e7 8f 3c
       -0.019495802 -0.019683111 -0.0054941024 0.017566593
0000e0 56 12 8c 3c 07 f1 d8 bb 45 8f f7 3c 09 6e 07 3d
       0.017098587 -0.0066205296 0.030219683 0.033063922
0000f0 bb 5a ca bb 91 c8 8d 3c 67 74 99 3c 51 89 0a bc
       -0.0061753667 0.017307552 0.018732263 -0.00845559
000100 c9 d2 6b bc ec 0f 13 3c 14 c2 c8 bb 0e a5 42 bc
       -0.014393517 0.008975964 -0.0061266515 -0.011880172
000110 18 b8 af bc 32 e5 7c bc 61 87 ab bc 27 fe 34 bc
       -0.021450087 -0.015435504 -0.020938577 -0.011046923
000120 55 2b 8b bc 18 ae 4c 3b 48 d1 86 bb c2 c6 05 3d
       -0.016988436 0.0031231698 -0.0041143037 0.032660253
000130 2a ce 36 3d 34 6d b2 3c dc 97 24 3d 6f ce 69 3d
       0.044630207 0.021780588 0.040183887 0.057081636
000140 e6 b4 f6 3c 4f 64 55 bd 01 b1 82 bd bd 1e 1c bd
       0.030115556 -0.052097615 -0.06381417 -0.03811525
000150 14 fa 9d bc ec 4a 08 bc 5e 3b bc bc 77 58 32 bc
       -0.019284286 -0.008318644 -0.022977527 -0.0108853495
000160 54 e1 04 bc 37 10 d3 bb 2b 39 92 3e fd 38 8e 3e
       -0.008110363 -0.006441142 0.2855924 0.27777854
000170 ac 38 92 3e f7 56 8c 3e df 94 89 3e 45 71 8e 3e
       0.28558862 0.274101 0.26871392 0.27820793
000180 9a 61 97 3e 0d 4a 94 3e 40 c5 98 3e e7 b4 88 3b
       0.29566652 0.28962746 0.2983799 0.004171956
000190 97 6c dd bb 31 81 e2 bb df 01 ca 3b 96 54 38 3c
       -0.0067573297 -0.0069123735 0.006164774 0.011250636
0001a0 2a 7e 92 b8 01 1b bd 3b b2 84 48 3c f2 eb db 3b
       -6.9853224e-05 0.0057710414 0.012238668 0.0067114765
0001b0 72 e2 25 bd 68 1a 1e bd e1 76 07 bd 71 bd 31 bd
       -0.04049916 -0.0385994 -0.033072356 -0.043393556
0001c0 d7 0f b3 bc c3 9b cf bc c0 4e 02 bd 7d 48 39 bc
       -0.021858139 -0.025342828 -0.031813383 -0.011308786
0001d0 3b 56 68 bc c3 da e8 bc ff fd bb 3c 44 0e 52 3c
       -0.014180715 -0.028424626 0.022948263 0.012820784
0001e0 e1 0d 7f bc 2e 9a 96 3c 7f f1 c3 3b 2c e9 8c bd
       -0.015567274 0.018384065 0.0059797163 -0.068804115
0001f0 00 a8 9c bc 88 fc b4 ba e2 9b 1c 3e 75 cd 0d 3e
       -0.019123077 -0.001380817 0.1529384 0.13847907
000200 5d 53 12 3e 91 61 09 3e 65 7b fb 3d ab 6c 0a 3e
       0.14289613 0.13416125 0.12279395 0.13518016
000210 5f 06 13 3e ce c4 09 3e 36 5c 1b 3e d7 be 87 bd
       0.14357899 0.13453981 0.15171894 -0.06628197
000220 49 95 58 bd c8 bd 5d bd 44 33 bb bd 7b a9 a0 bd
       -0.052876744 -0.054136068 -0.091406375 -0.07844826
000230 11 7b 9f bd cc 41 ed bd 5b 73 e5 bd d8 ff d5 bd
       -0.07787145 -0.115848154 -0.11203643 -0.10449189
000240 f0 70 00 80 33 06 01 80 4f 6c 00 80 7b 93 00 80
       -4.0514e-41 -9.406e-41 -3.8854e-41 -5.2906e-41
000250 86 f1 00 00 c5 6c 00 00 49 e0 01 00 f8 d5 00 80
       8.6642e-41 3.9019e-41 1.72294e-40 -7.6758e-41
000260 de 2a 00 00 b6 2f 00 80 cd 5b 00 80 16 66 00 80
       1.5378e-41 -1.7115e-41 -3.2932e-41 -3.6622e-41
000270 16 50 00 00 de 67 00 00 79 dc 00 80 e4 ac 00 80
       2.873e-41 3.726e-41 -7.909e-41 -6.2021e-41
000280 07 ee 00 00 c5 a5 00 80 03 ef 01 80 54 16 01 80
       8.5388e-41 -5.9467e-41 -1.77577e-40 -9.9845e-41
000290 22 c7 01 00 62 75 00 00 0e 1f 00 80 3a 49 00 80
       1.63271e-40 4.2109e-41 -1.114e-41 -2.6269e-41
0002a0 75 e5 00 80 e5 54 00 00 8d 22 01 80 41 ae 00 80
       -8.2314e-41 3.0454e-41 -1.0423e-40 -6.251e-41
0002b0 dc bd 00 80 17 d0 00 80 14 4b 00 80 35 13 01 80
       -6.8109e-41 -7.4649e-41 -2.6933e-41 -9.8726e-41
0002c0 a4 7f 00 80 87 53 00 80 41 76 00 00 15 a9 00 80
       -4.5789e-41 -2.9964e-41 4.2422e-41 -6.0655e-41
0002d0 91 a7 00 80 db 15 00 00 96 fe 00 80 98 d4 00 80
       -6.0112e-41 7.84e-42 -9.1328e-41 -7.6264e-41
0002e0 3e d1 00 80 d3 a1 00 00 3a a2 00 80 c2 cc 00 80
       -7.5062e-41 5.8052e-41 -5.8196e-41 -7.3453e-41
0002f0 e5 19 00 80 a4 f7 00 80 17 5e 00 80 f6 c0 00 00
       -9.289e-42 -8.8837e-41 -3.3753e-41 6.9221e-41
000300 bf 0d 01 00 cf fb 00 00 b8 8c 00 80 4e 7b 00 80
       9.6767e-41 9.0332e-41 -5.048e-41 -4.4233e-41
000310 fc 9a 00 80 82 80 00 80 a4 5e 00 80 9a 4a 00 00
       -5.5598e-41 -4.61e-41 -3.395e-41 2.6762e-41
000320 cb 55 00 00 5d 53 00 80 80 09 00 80 11 52 00 00
       3.0777e-41 -2.9905e-41 -3.408e-42 2.944e-41
000330 ac 28 00 00 b6 24 00 00 a1 5f 00 00 eb 0c 00 00
       1.459e-41 1.317e-41 3.4305e-41 4.634e-42
000340 6d 00 00 80 9a 0f 00 00 fb 38 00 80 47 2e 00 80
       -1.53e-43 5.597e-42 -2.0441e-41 -1.6601e-41
000350 43 49 00 00 84 02 00 00 72 0a 00 80 84 43 00 80
       2.6281e-41 9.02e-43 -3.747e-42 -2.422e-41
000360 63 21 00 80 68 26 00 00 c1 4f 00 80 2f 0e 00 00
       -1.1977e-41 1.3778e-41 -2.861e-41 5.088e-42
000370 ce 38 00 80 a9 50 00 00 fc 45 00 00 b8 0a 00 00
       -2.0378e-41 2.8935e-41 2.5106e-41 3.845e-42
000380 c3 06 00 80 94 53 00 80 38 50 00 80 e6 02 00 80
       -2.426e-42 -2.9982e-41 -2.8777e-41 -1.04e-42
000390 04 3c 00 00 74 53 00 80 7d 54 00 00 c5 48 00 80
       2.153e-41 -2.9937e-41 3.0309e-41 -2.6105e-41
0003a0 d2 0b 00 80 f4 41 00 80 6b 3e 00 00 ba 30 00 80
       -4.24e-42 -2.366e-41 2.2391e-41 -1.748e-41
0003b0 b3 32 00 00 cd 0e 00 00 10 23 00 80 49 16 00 00
       1.8187e-41 5.31e-42 -1.2578e-41 7.994e-42
0003c0 da 0f 00 80 c3 1e 00 80 d8 17 00 00 10 40 00 00
       -5.686e-42 -1.1035e-41 8.554e-42 2.2981e-41
0003d0 97 31 00 80 ac 23 00 80 15 02 00 00 8b 4c 00 80
       -1.779e-41 -1.2797e-41 7.47e-43 -2.7458e-41
0003e0 e8 0e 00 00 65 50 00 80 e7 1f 00 00 2a 0d 00 00
       5.347e-42 -2.884e-41 1.1444e-41 4.722e-42
0003f0 40 74 00 00 41 60 00 00 b8 19 00 80 b3 5e 00 00
       4.1703e-41 3.453e-41 -9.226e-42 3.3972e-41

bias f4 [16]
000000 d1 c1 84 3d 6e 62 4a 9f cc 26 84 bc 19 ca c0 8f
       0.0648228 -4.2856583e-20 -0.016131781 -1.9010507e-29
000010 ff 77 37 3e 11 cc 71 b4 4e 32 df 3d 2a 7f 26 3e
       0.17916869 -2.2519113e-07 0.10898267 0.16259447
000020 97 75 1b b7 91 50 aa bc 47 5f cd b1 48 e3 3e bc
       -9.2660985e-06 -0.02079037 -5.977117e-09 -0.011650868
000030 b6 db 7c a8 91 aa 10 3e ec 50 ae b3 66 5c 25 3c
       -1.4036452e-14 0.14127566 -8.117226e-08 0.01009283

weight f4 [32, 16, 3, 3]
000000 c2 ad eb bd c2 cc f4 bd 06 1e 99 bd c3 04 03 be
       -0.11507751 -0.11953117 -0.0747643 -0.12794785
000010 bb 4c f8 bd ca 78 e5 ba 97 5b 10 be 38 cf d4 bd
       -0.1212401 -0.0017507311 -0.14097439 -0.10391086
000020 34 d4 3c 3d dd 03 01 00 c1 73 00 00 c9 12 02 00
       0.04610081 9.3221e-41 4.1525e-41 1.9041e-40
000030 5f 5e 01 00 69 5b 01 00 27 1f 00 00 46 00 01 80
       1.2569e-40 1.24627e-40 1.1175e-41 -9.1934e-41
000040 2d 19 00 80 e0 85 01 80 6e 1c d0 8a de f9 f6 8a
       -9.031e-42 -1.39861e-40 -2.0040365e-32 -2.3782928e-32
000050 73 06 9d 8a ae 91 ef 8a 94 6c f1 8a 03 c6 a2 8a
       -1.5120976e-32 -2.3069661e-32 -2.3248298e-32 -1.5674516e-32
000060 a1 34 ca 8a 92 55 e7 8a e1 60 48 8a 57 0c 00 00
       -1.9471689e-32 -2.2276679e-32 -9.6478706e-33 4.427e-42
000070 aa 18 00 80 51 57 00 80 93 33 00 80 83 20 00 80
       -8.848e-42 -3.1323e-41 -1.8501e-41 -1.1663e-41
000080 db 34 00 00 2a 01 00 80 b4 53 00 00 20 3c 00 80
       1.8961e-41 -4.18e-43 3.0027e-41 -2.1569e-41
000090 db f3 98 3d 68 d8 4c 3b 6d 66 8d 3c f1 98 98 3d
       0.07468387 0.0031256918 0.017260754 0.07451046
0000a0 38 e6 ca 3c 24 fd a1 3b 20 e7 a2 3d f0 70 a4 3d
       0.02476798 0.004943507 0.0795424 0.080293536
0000b0 c8 52 0b bd c8 0b 67 84 86 8a 7b 84 12 29 48 84
       -0.034014493 -2.715933e-36 -2.9568515e-36 -2.3528746e-36
0000c0 f7 6d 4f 84 fc 55 2e 84 09 4b 1d 83 84 f2 77 83
       -2.4383226e-36 -2.0493084e-36 -4.622429e-37 -7.286517e-37
0000d0 e1 59 f6 02 57 82 81 03 d3 10 1c 3d 10 97 b1 bb
       3.619804e-37 7.611863e-37 0.038101982 -0.0054196194
0000e0 e4 45 f0 3c a9 f1 26 3d 17 c5 f3 bb 57 5f ed bc
       0.029330201 0.04075781 -0.0074392664 -0.028976126
0000f0 a0 33 f6 3c e1 80 8d bc 7e 35 e2 bc 22 96 de 3c
       0.030053914 -0.017273368 -0.027613398 0.027171198
000100 bd 76 b7 bc 8c 51 7d bd 08 e6 5d 3c f3 15 c0 3c
       -0.022395486 -0.061845347 0.013543613 0.023447966
000110 d2 6e 5f bd f3 79 fb 3c 18 41 18 bc 99 44 53 3c
       -0.054549046 0.030697798 -0.009292863 0.012894773
000120 c0 12 00 00 f4 27 00 00 a1 11 00 80 18 43 00 80
       6.726e-42 1.4332e-41 -6.324e-42 -2.4069e-41
000130 7f 3e 00 80 6d 21 00 00 6c 42 00 80 45 42 00 80
       -2.242e-41 1.1991e-41 -2.3828e-41 -2.3773e-41
000140 ac 1a 00 00 68 88 c8 28 f3 da 4a 29 46 7b 1c 29
       9.568e-42 2.2263617e-14 4.504292e-14 3.474588e-14
000150 5e 10 48 29 7d 8c 15 29 3c 1e bf 28 1d e3 23 29
       4.4423117e-14 3.32065e-14 2.1218372e-14 3.639026e-14
000160 2b dc 0e 29 a4 22 d9 28 f2 18 00 00 02 1a 00 00
       3.17213e-14 2.4106863e-14 8.949e-42 9.33e-42
000170 cb 11 00 00 6d 30 00 00 d7 2d 00 00 57 36 00 00
       6.383e-42 1.7372e-41 1.6444e-41 1.9493e-41
000180 20 09 00 80 33 1d 00 00 97 26 00 00 a9 62 72 b9
       -3.273e-42 1.0475e-41 1.3843e-41 -0.00023115672
000190 5e 71 6b b9 15 9e 48 b9 cd 88 78 b9 0d 34 72 b9
       -0.00022453579 -0.00019132376 -0.00023702085 -0.00023098309
0001a0 62 52 5b b9 5e e6 7c b9 80 d0 72 b9 81 bf 65 b9
       -0.00020916158 -0.00024118411 -0.00023156591 -0.00021910483
0001b0 68 45 00 00 cc 4e 00 80 81 09 00 80 85 49 00 00
       2.4898e-41 -2.8267e-41 -3.41e-42 2.6374e-41
0001c0 18 0b 00 80 7f 42 00 00 5f 39 00 00 c2 1c 00 80
       -3.98e-42 2.3854e-41 2.0581e-41 -1.0316e-41
0001d0 84 21 00 00 28 6e b7 3c 66 d5 e1 bb 74 ea 37 bd
       1.2023e-41 0.022391394 -0.006891894 -0.044901326
0001e0 01 63 6a 3c f7 20 3a bd 77 0e 93 bc 96 92 09 bd
       0.014305831 -0.045441594 -0.017951233 -0.03358706
0001f0 5c 6e 5b 3c 9f c1 81 3b 75 2f 00 00 af 0f 00 00
       0.013393011 0.003959849 1.7024e-41 5.626e-42
000200 11 16 00 80 75 17 00 00 a2 2c 00 00 54 18 00 00
       -7.916e-42 8.415e-42 1.6011e-41 8.727e-42
000210 66 0d 00 80 9f 03 00 80 ac 29 00 00 2d 7e 21 be
       -4.806e-42 -1.299e-42 1.4949e-41 -0.15770788
000220 b9 a7 04 be f4 ce 8e bd 8a 20 29 be a6 f0 1c be
       -0.12954606 -0.06973067 -0.16516319 -0.15326175
000230 e2 e5 18 bd 17 d4 33 be 90 1a 0d be 80 a5 20 bc
       -0.03732861 -0.17561375 -0.13779664 -0.009805083
000240 b0 e5 93 3d 1e b0 30 bd 12 a6 f1 bd 87 11 9a 3d
       0.07221544 -0.04313671 -0.117992535 0.07522874
000250 6c 73 a6 bd 55 3b 31 be 46 11 8e 3d 63 11 87 bd
       -0.08127484 -0.1730779 0.069368884 -0.06595113
000260 0b 8c 09 be ec 30 01 00 3f c4 00 00 28 c3 00 80
       -0.13432328 1.09385e-40 7.04e-41 -7.0009e-41
000270 dd 1b 01 80 06 40 00 00 ef 09 01 80 6d 79 00 80
       -1.01831e-40 2.2967e-41 -9.5399e-41 -4.356e-41
000280 fd d2 00 00 35 15 00 80 7c 00 46 b5 1b ea 6c b5
       7.5688e-41 -7.608e-42 -7.376145e-07 -8.825752e-07
000290 b8 8c 66 b5 b7 b8 f8 b4 20 ed 61 b5 af 01 38 b5
       -8.588645e-07 -4.6327997e-07 -8.4164094e-07 -6.854779e-07
0002a0 87 94 b2 b4 52 7b 17 b5 53 d1 70 b5 ab 10 00 80
       -3.3263152e-07 -5.643134e-07 -8.9711574e-07 -5.98e-42
0002b0 6a 4c 00 80 3d 46 00 80 ce 53 00 80 5f 5f 00 80
       -2.7412e-41 -2.5197e-41 -3.0063e-41 -3.4213e-41
0002c0 c0 0f 00 00 2a 58 00 80 49 48 00 80 7e 09 00 80
       5.65e-42 -3.1627e-41 -2.5931e-41 -3.405e-42
0002d0 7b ee c7 bc cc c0 4e bd f6 dd 61 3d c1 9c 0f be
       -0.024405709 -0.050476834 0.05514332 -0.1402464
0002e0 a8 d5 12 3c 40 98 ec 3d 23 09 49 bd e3 7e d6 bc
       0.008962072 0.11552477 -0.04908098 -0.026183551
0002f0 65 0e dd 3d af 1a c0 00 6a 89 e6 80 f4 05 42 81
       0.10793761 1.7641988e-38 -2.1171459e-38 -3.5636444e-38
000300 e0 fb 5c 01 d8 f8 3a 80 a1 99 ec 00 92 03 bc 00
       4.058833e-38 -5.415727e-39 2.1728289e-38 1.7266354e-38
000310 d8 7c 3b 01 19 9a 7a 80 50 8a 0e 3c 85 96 ac 3d
       3.4436047e-38 -1.125921e-38 0.008699968 0.08427147
000320 e6 7e f7 3d c9 03 82 bd 17 b2 0b 3d 77 66 3f 3e
       0.12084751 -0.06348378 0.034105387 0.18691431
000330 44 ca aa bc 55 3b 38 3d 21 94 10 3e fa 37 88 bc
       -0.0208484 0.04497846 0.14119007 -0.016628254
000340 4b 0c ba 3d d0 6d 06 3e 09 d9 06 3d 67 df f0 3d
       0.09084376 0.13127828 0.032921825 0.117613606
000350 5e 3b f1 3d 34 3a a6 bd 8b 63 86 3d 5e fa 9c 3d
       0.117789015 -0.0811657 0.06561955 0.07664941
000360 73 3c 00 00 45 33 00 00 bb 39 00 00 51 0d 00 00
       2.1685e-41 1.8392e-41 2.071e-41 4.777e-42
000370 07 04 00 80 16 04 00 80 00 1a 00 00 86 04 00 80
       -1.445e-42 -1.466e-42 9.327e-42 -1.623e-42
000380 f7 2a 00 80 b4 ec 85 3b 55 24 87 3b e1 9b 87 3b
       -1.5413e-41 0.004087055 0.004124204 0.0041384553
000390 c5 6e 84 3b 95 99 85 3b ca b3 86 3b 10 6e 86 3b
       0.004041525 0.0040771463 0.004110788 0.004102476
0003a0 84 85 87 3b 09 0c 88 3b e1 1b 00 00 9c 42 00 00
       0.0041357893 0.0041518253 1.0001e-41 2.3895e-41
0003b0 60 3c 00 00 7c 43 00 00 51 1d 00 00 c1 34 00 00
       2.1658e-41 2.4209e-41 1.0517e-41 1.8925e-41
0003c0 f9 39 00 00 65 35 00 00 56 2e 00 00 de e1 16 ba
       2.0797e-41 1.9154e-41 1.6622e-41 -0.0005755703
0003d0 20 8d f0 b9 9f b9 b7 b9 89 5e e0 b9 d7 fb be b9
       -0.00045881514 -0.00035042778 -0.00042795044 -0.0003642726
0003e0 0d b3 a5 b9 0e c9 7f b9 ad 41 bd b8 39 ab 17 b9
       -0.00031604656 -0.00024393594 -9.024455e-05 -0.00014464268
0003f0 2a 44 00 00 0b 07 00 80 6e 4c 00 00 f3 3a 00 80
       2.4453e-41 -2.527e-42 2.7418e-41 -2.1147e-41

bias f4 [32]
000000 89 87 08 3c fb c0 4f bc bb f0 9c 3d d8 05 0c 3c
       0.008333095 -0.0126802875 0.07663103 0.008546315
000010 7b e9 b3 3c 0c 63 ec bc 16 36 6b b7 06 47 80 a6
       0.021961918 -0.028855823 -1.4019684e-05 -8.901035e-16
000020 a5 e5 07 3d 3b 7b b6 3b fe 25 34 b7 9d 33 ca 3d
       0.03317799 0.0055688894 -1.0737682e-05 0.09873126
000030 0f 47 ac ba fa 2c eb aa 3a 15 0c bd 0e e4 78 9d
       -0.0013143736 -4.1775594e-13 -0.03419993 -3.2940428e-21
000040 11 7f 92 3c 28 df cb 3c 07 16 a8 a2 24 f6 b8 bc
       0.017882856 0.024886683 -4.5559814e-18 -0.022578306
000050 a2 45 02 3c f3 52 ab bc 20 ac 53 93 6a 8d 5a bd
       0.007951172 -0.020913577 -2.6716808e-27 -0.05335752
000060 c2 66 58 bc 98 cd 93 3c 22 58 62 bc 75 01 ac bc
       -0.013208093 0.01804237 -0.013814958 -0.020996789
000070 40 b1 e0 bd 6f c7 7e 3d 94 08 a7 b6 98 f9 62 98
       -0.10971308 0.062201913 -4.9779865e-06 -2.9335828e-24

weight f4 [32, 32, 3, 3]
000000 ce 7d 00 00 0b 7d 00 00 b0 9e 00 80 8a 21 00 00
       4.513e-41 4.4857e-41 -5.6926e-41 1.2032e-41
000010 a9 7b 00 00 c1 5b 00 00 3f 03 01 00 6f af 00 00
       4.4361e-41 3.2915e-41 9.3e-41 6.2934e-41
000020 b3 12 00 80 ca 16 00 00 d5 73 00 80 bd 06 00 00
       -6.708e-42 8.175e-42 -4.1553e-41 2.417e-42
000030 d6 41 00 80 8d 05 00 00 e9 05 00 80 cd 3f 00 80
       -2.3617e-41 1.991e-42 -2.12e-42 -2.2887e-41
000040 03 2c 00 00 12 32 00 00 2b 84 00 80 f5 74 00 80
       1.5788e-41 1.7962e-41 -4.7413e-41 -4.1956e-41
000050 e6 2f 00 80 27 1a 00 80 40 56 00 00 49 bc 00 80
       -1.7183e-41 -9.382e-42 3.094e-41 -6.7544e-41
000060 45 a5 00 80 57 13 00 00 ed 13 00 80 c1 86 00 00
       -5.9288e-41 6.938e-42 -7.148e-42 4.834e-41
000070 b6 15 00 00 77 3a 00 80 88 af 00 80 54 74 00 80
       7.788e-42 -2.0973e-41 -6.2969e-41 -4.173e-41
000080 26 a4 00 80 d3 a4 00 00 51 5c 00 00 bd 89 00 80
       -5.8885e-41 5.9128e-41 3.3117e-41 -4.9411e-41
000090 8a 46 00 80 a9 df 00 80 0b 94 00 80 98 0d 00 00
       -2.5305e-41 -8.0234e-41 -5.3108e-41 4.877e-42
0000a0 b8 40 00 00 95 9f 00 00 61 6f 00 80 5a 69 00 80
       2.3217e-41 5.7247e-41 -3.9955e-41 -3.7793e-41
0000b0 29 a8 00 80 72 60 00 80 e5 ff 00 00 0d be 01 00
       -6.0324e-41 -3.4598e-41 9.1798e-41 1.60013e-40
0000c0 ed 3c 02 80 ab f3 00 80 6c 07 00 80 78 7d 00 00
       -2.05527e-40 -8.7412e-41 -2.662e-42 4.501e-41
0000d0 a5 36 00 80 d8 aa 00 00 00 22 00 80 7a 35 00 00
       -1.9603e-41 6.1287e-41 -1.2197e-41 1.9184e-41
0000e0 f9 a8 01 00 15 15 00 80 c8 99 01 80 f5 7e 00 00
       1.52451e-40 -7.563e-42 -1.47002e-40 4.5544e-41
0000f0 d9 12 01 80 f1 99 00 80 32 79 01 80 c6 98 00 80
       -9.8597e-41 -5.5224e-41 -1.35312e-40 -5.4805e-41
000100 56 c0 01 80 51 92 01 80 d4 c2 00 80 7e 66 00 80
       -1.60833e-40 -1.44324e-40 -6.9891e-41 -3.6767e-41
000110 57 89 00 80 2a dd 00 00 88 d0 00 80 17 59 00 00
       -4.9268e-41 7.9339e-41 -7.4807e-41 3.196e-41
000120 2a 3e 00 00 f5 31 00 00 8e ab 00 00 e4 9a 00 00
       2.23e-41 1.7921e-41 6.1542e-41 5.5564e-41
000130 b8 3a 00 80 6f 38 00 00 c4 86 00 00 7c b2 00 80
       -2.1064e-41 2.0245e-41 4.8345e-41 -6.4028e-41
000140 01 1f 00 80 dd 3a 00 00 81 2b 00 80 51 65 00 80
       -1.1122e-41 2.1116e-41 -1.5606e-41 -3.6345e-41
000150 b6 3b 00 00 c9 22 00 00 b8 a2 00 00 b1 74 00 00
       2.142e-41 1.2479e-41 5.8372e-41 4.1861e-41
000160 f0 90 00 00 9c 41 00 80 96 e1 01 80 ff 65 00 80
       5.1994e-41 -2.3536e-41 -1.7276e-40 -3.659e-41
000170 bc 8e 00 00 48 90 01 00 e4 5b 00 00 33 63 01 00
       5.1203e-41 1.43594e-40 3.2964e-41 1.27421e-40
000180 49 3c 02 00 3a 06 00 80 a7 3b 01 80 50 1e 00 80
       2.05297e-40 -2.234e-42 -1.13235e-40 -1.0874e-41
000190 10 17 00 00 fd 46 01 80 c2 10 00 80 e3 b6 00 00
       8.273e-42 -1.17301e-40 -6.012e-42 6.5607e-41
0001a0 5f 50 00 80 45 68 00 00 f7 a3 00 00 53 b6 00 00
       -2.8832e-41 3.7405e-41 5.882e-41 6.5406e-41
0001b0 7d 6a 00 80 6e 5e 00 80 0f 19 01 00 81 01 00 00
       -3.8201e-41 -3.3875e-41 1.00825e-40 5.4e-43
0001c0 83 04 00 00 67 98 00 80 ca 8f 00 00 55 c5 00 80
       1.618e-42 -5.4672e-41 5.1582e-41 -7.079e-41
0001d0 09 ce 00 00 d2 8d 00 00 c9 ff 01 80 a9 36 01 00
       7.3911e-41 5.0876e-41 -1.83594e-40 1.11444e-40
0001e0 59 6b 01 80 d9 92 00 00 c8 0e 00 80 9d 23 00 00
       -1.30345e-40 5.2679e-41 -5.303e-42 1.2776e-41
0001f0 93 0e 02 80 15 a4 00 80 76 47 00 00 cc 3d 00 00
       -1.88899e-40 -5.8862e-41 2.5635e-41 2.2169e-41
000200 d2 16 00 00 9c 1f 00 80 a9 27 00 00 55 09 00 00
       8.186e-42 -1.134e-41 1.4227e-41 3.348e-42
000210 65 16 00 80 f5 1f 00 80 55 33 00 00 a4 fe 00 00
       -8.034e-42 -1.1464e-41 1.8414e-41 9.1348e-41
000220 53 0f 01 00 bb 48 00 80 d2 0d 00 80 d8 f9 00 00
       9.7333e-41 -2.6091e-41 -4.958e-42 8.9627e-41
000230 bc 35 01 00 38 76 00 80 d7 f8 00 80 c2 61 00 80
       1.11112e-40 -4.2409e-41 -8.9267e-41 -3.5069e-41
000240 f8 86 00 00 4e b3 00 00 d3 4c 00 80 34 d4 00 00
       4.8418e-41 6.4322e-41 -2.756e-41 7.6124e-41
000250 96 c6 00 00 a7 6b 00 80 9c 90 00 00 eb 86 00 80
       7.1239e-41 -3.8618e-41 5.1876e-41 -4.84e-41
000260 cf 87 00 80 81 56 00 80 82 64 00 80 8b 1f 00 80
       -4.8719e-41 -3.1032e-41 -3.6055e-41 -1.1315e-41
000270 00 3b 00 80 f4 a1 00 00 11 aa 00 00 a6 4f 00 80
       -2.1165e-41 5.8098e-41 6.1008e-41 -2.8572e-41
000280 17 5a 00 80 75 5b 00 00 86 26 01 00 10 fb 00 80
       -3.2318e-41 3.2809e-41 1.05655e-40 -9.0064e-41
000290 ce 07 01 80 be d6 00 00 76 a3 01 80 77 74 00 80
       -9.4635e-41 7.7035e-41 -1.50474e-40 -4.178e-41
0002a0 12 d1 00 80 d7 a8 01 80 d5 b5 01 80 f8 a7 01 80
       -7.5e-41 -1.52404e-40 -1.57065e-40 -1.52091e-40
0002b0 8c f0 00 80 b3 b0 01 80 12 07 01 00 a0 d7 02 00
       -8.6292e-41 -1.55223e-40 9.4372e-41 2.61023e-40
0002c0 43 e9 00 00 50 0a 02 80 bb e3 00 00 5f d7 00 80
       8.3679e-41 -1.8737e-40 8.1694e-41 -7.726e-41
0002d0 67 4f 00 80 6a 5e 00 80 6b 29 00 00 bb 03 00 00
       -2.8484e-41 -3.387e-41 1.4858e-41 1.338e-42
0002e0 f8 9d 00 00 29 53 00 00 f2 4f 00 80 eb 73 00 00
       5.6669e-41 2.9832e-41 -2.8679e-41 4.1584e-41
0002f0 90 3e 00 00 b5 7c 01 00 55 71 00 80 04 78 00 80
       2.2443e-41 1.36572e-40 -4.0656e-41 -4.3053e-41
000300 2e 8b 00 80 d5 a1 01 00 c8 69 01 80 93 c7 01 00
       -4.9928e-41 1.4989e-40 -1.29783e-40 1.63429e-40
000310 9f d8 00 80 03 c1 01 00 d1 54 00 80 f1 fd 00 80
       -7.7709e-41 1.61075e-40 -3.0426e-41 -9.1097e-41
000320 41 92 01 00 51 9b 00 00 b5 23 00 00 13 de 00 00
       1.44302e-40 5.5717e-41 1.2809e-41 7.9665e-41
000330 9f ba 00 80 a7 93 00 00 5e 3e 00 00 c1 8c 00 00
       -6.6947e-41 5.2968e-41 2.2373e-41 5.0493e-41
000340 3d 4a 00 00 c2 00 01 00 2e 63 00 80 1b bb 00 00
       2.6632e-41 9.2107e-41 -3.5579e-41 6.7121e-41
000350 b2 52 00 80 e6 77 00 80 10 a2 00 80 da 63 00 80
       -2.9665e-41 -4.3011e-41 -5.8137e-41 -3.582e-41
000360 c7 8c 01 00 62 af 00 00 99 09 00 80 7b 8a 01 80
       1.42337e-40 6.2915e-41 -3.443e-42 -1.41513e-40
000370 82 97 00 80 5a 52 00 80 5b cc 02 00 93 12 00 80
       -5.4351e-41 -2.9542e-41 2.5698e-40 -6.663e-42
000380 1d 4d 00 00 af e0 00 80 4b 42 00 80 56 95 00 00
       2.7663e-41 -8.0601e-41 -2.3781e-41 5.3572e-41
000390 b6 b1 00 80 c0 da 00 80 dc 07 00 80 ee 04 00 00
       -6.375e-41 -7.8473e-41 -2.82e-42 1.768e-42
0003a0 7c ce 00 00 7f 64 00 80 6d 2c 00 00 53 cb 00 00
       7.4073e-41 -3.6051e-41 1.5937e-41 7.2939e-41
0003b0 02 d6 00 00 52 5b 00 00 aa 6b 00 80 77 2b 00 80
       7.6772e-41 3.276e-41 -3.8623e-41 -1.5592e-41
0003c0 fa 85 00 80 c1 20 00 00 85 b1 00 00 b1 25 00 00
       -4.8062e-41 1.175e-41 6.3682e-41 1.3521e-41
0003d0 36 31 00 80 40 28 00 00 6e 02 00 80 01 25 00 00
       -1.7654e-41 1.4439e-41 -8.72e-43 1.3275e-41
0003e0 7f 3f 00 80 55 28 00 80 93 40 00 80 e8 1a 00 00
       -2.2778e-41 -1.4468e-41 -2.3165e-41 9.652e-42
0003f0 5e be 03 9d f1 d1 e7 9e a8 64 6b 96 4f c6 5a 9e
       -1.7436123e-21 -2.4544906e-20 -1.901491e-25 -1.1581833e-20

bias f4 [32]
000000 ee db 25 ae 3f d4 d4 b5 19 00 82 bd b4 6e 8f bc
       -3.7711993e-11 -1.5857003e-06 -0.06347675 -0.017508842
000010 19 ff 6d bb 57 b7 26 3e 8a a7 c1 9d dd d5 04 17
       -0.003631538 0.16280876 -5.1259906e-21 4.2921434e-25
000020 c5 19 a3 3e 44 26 87 3c b0 c4 0f bb aa 60 4a 3d
       0.31855598 0.016497739 -0.0021937303 0.049408592
000030 74 65 45 3c 36 cb b4 bd d8 a3 43 bd 84 80 2c ba
       0.012048114 -0.08827822 -0.047763675 -0.00065804296
000040 f4 77 e1 bd e2 09 3f 3c dd 1e ea 3c 1c 22 a6 bc
       -0.11009207 0.011660071 0.02857917 -0.020279936
000050 c4 4c e9 bd b8 06 8b b9 ed 51 07 92 d8 2e 40 95
       -0.11391595 -0.00026517152 -4.269947e-28 -3.8811044e-26
000060 ba ef b5 bc 82 50 08 a4 ac e0 5c bb 3c c3 c7 af
       -0.022209037 -2.9558492e-17 -0.003370325 -3.6336611e-10
000070 d7 dd d0 bc 50 54 25 a9 74 3b 32 af cb ac 7a b7
       -0.025496406 -3.671049e-14 -1.6210128e-10 -1.4941393e-05

weight f4 [32, 16, 2, 2]
000000 03 26 00 00 73 33 00 80 a1 40 00 00 13 2d 00 00
       1.3636e-41 -1.8457e-41 2.3184e-41 1.617e-41
000010 2a 24 00 00 1a 02 00 00 21 1e 00 00 89 31 00 80
       1.2973e-41 7.54e-43 1.0808e-41 -1.777e-41
000020 02 16 00 00 20 16 00 80 cd 04 00 00 a2 1d 00 00
       7.895e-42 -7.937e-42 1.722e-42 1.063e-41
000030 07 06 00 00 3e 41 00 00 77 01 00 80 01 0a 00 00
       2.162e-42 2.3404e-41 -5.25e-43 3.589e-42
000040 e4 21 00 00 19 3d 00 80 37 22 00 00 66 17 00 00
       1.2158e-41 -2.1918e-41 1.2274e-41 8.394e-42
000050 de 45 00 00 17 00 00 00 75 3c 00 00 33 1f 00 00
       2.5064e-41 3.2e-44 2.1688e-41 1.1192e-41
000060 80 26 00 80 7f 3b 00 00 37 1e 00 80 eb 09 00 00
       -1.3811e-41 2.1343e-41 -1.0839e-41 3.558e-42
000070 ae 37 00 80 b6 2a 00 80 ab 06 00 00 17 39 00 00
       -1.9974e-41 -1.5322e-41 2.392e-42 2.048e-41
000080 07 19 7b 00 9a 33 dc 09 e9 79 06 00 01 02 92 07
       1.1304744e-38 5.30116e-33 5.94746e-40 2.1968816e-34
000090 3e 3d 00 00 2a 01 00 00 1c 27 00 80 2a 30 00 00
       2.197e-41 4.18e-43 -1.403e-41 1.7278e-41
0000a0 1b 12 00 80 cf 12 00 00 39 2e 00 00 ac 43 00 00
       -6.495e-42 6.747e-42 1.6582e-41 2.4276e-41
0000b0 41 48 00 00 aa 08 00 00 e1 41 00 80 85 3f 00 00
       2.592e-41 3.108e-42 -2.3633e-41 2.2787e-41
0000c0 0f 2c 00 00 a4 12 00 80 ed 01 00 00 c4 3c 00 80
       1.5805e-41 -6.687e-42 6.91e-43 -2.1799e-41
0000d0 57 46 00 00 4a 3e 00 80 3f 11 00 00 8c 1f 00 00
       2.5233e-41 -2.2345e-41 6.187e-42 1.1317e-41
0000e0 31 01 00 80 27 0c 00 00 02 41 00 80 37 29 00 80
       -4.27e-43 4.36e-42 -2.332e-41 -1.4785e-41
0000f0 70 07 00 00 8b 3a 00 80 cb 26 00 00 22 09 00 00
       2.668e-42 -2.1001e-41 1.3916e-41 3.276e-42
000100 2b 0b 00 80 d8 33 00 80 5d 1e 00 00 69 10 00 80
       -4.006e-42 -1.8598e-41 1.0892e-41 -5.887e-42
000110 fa f3 ac 2c ab ba d2 2c 51 f5 f9 2b 32 c1 54 2c
       4.915621e-12 5.9892833e-12 1.7760603e-12 3.0234257e-12
000120 34 11 00 80 63 20 00 00 96 18 00 00 e9 2e 00 00
       -6.171e-42 1.1618e-41 8.82e-42 1.6828e-41
000130 4c 15 2f 9d 39 73 03 9d 0f 02 01 9c 23 d1 27 9c
       -2.3172067e-21 -1.7397274e-21 -4.268518e-22 -5.552597e-22
000140 d9 69 08 80 e9 ca 05 80 c5 09 00 00 34 d6 00 80
       -7.72655e-40 -5.31968e-40 3.505e-42 -7.6842e-41
000150 5e 3e 00 80 6b 3a 00 80 33 21 00 00 26 0f 00 80
       -2.2373e-41 -2.0956e-41 1.191e-41 -5.434e-42
000160 71 a4 b2 a4 29 18 6d a4 61 17 cf a3 e6 3d fe a3
       -7.747377e-17 -5.1411647e-17 -2.2452886e-17 -2.756495e-17
000170 91 34 00 00 f9 24 00 00 b5 33 00 80 f1 0e 00 00
       1.8857e-41 1.3263e-41 -1.8549e-41 5.36e-42
000180 db f0 88 32 ae 9d 87 32 05 12 1b 32 5a 48 3d 32
       1.5942012e-08 1.5787773e-08 9.026285e-09 1.1017699e-08
000190 95 26 00 80 d4 3e 00 80 2e 19 00 80 11 2e 00 80
       -1.384e-41 -2.2538e-41 -9.033e-42 -1.6526e-41
0001a0 16 1d d3 8b 37 dd e2 8b b2 f5 13 8b ee 00 39 8b
       -8.131801e-32 -8.738488e-32 -2.849601e-32 -3.5630403e-32
0001b0 dc 1e 00 80 a7 21 00 80 4e 17 00 00 e6 0f 00 00
       -1.107e-41 -1.2072e-41 8.36e-42 5.703e-42
0001c0 88 9c 0a a8 f3 bf 04 a8 77 b5 27 a7 0d 68 7f a7
       -7.694481e-15 -7.369094e-15 -2.3274278e-15 -3.5444765e-15
0001d0 4f 3c 00 00 bb 43 00 00 a2 2f 00 80 94 07 00 00
       2.1635e-41 2.4297e-41 -1.7087e-41 2.719e-42
0001e0 86 b9 e1 2b 7f cf e9 2b 7b 71 1e 2b df b7 80 2b
       1.6038705e-12 1.6613237e-12 5.629036e-13 9.145981e-13
0001f0 95 3e 00 00 00 1c 00 80 f1 03 00 00 24 41 00 00
       2.245e-41 -1.0045e-41 1.414e-42 2.3368e-41
000200 73 3c 93 bd d9 43 d0 3d b7 55 b0 bd a9 2c dd 3d
       -0.07189264 0.10169191 -0.08610099 0.10799534
000210 84 28 9a be f0 b6 61 be e3 f4 94 be 18 5e 0c be
       -0.30109036 -0.22042441 -0.29093084 -0.13707769
000220 8f 17 0e be cf cd 83 be 13 e4 19 be e5 0f 7f be
       -0.13876174 -0.25742957 -0.1502841 -0.24908407
000230 3e 5f 4f 3e 12 95 6d 3e 18 d7 3c 3e 4e cd 7c 3e
       0.20251176 0.23201397 0.18441427 0.24687693
000240 86 76 3f bd be c9 ec 3d 97 7f ac 3b 54 b8 33 3e
       -0.046743892 0.11561917 0.0052642333 0.17550784
000250 c1 61 2f 3d 77 d1 0e be 0f 83 33 bd c5 c7 4a be
       0.042817835 -0.13947092 -0.04382616 -0.19802769
000260 a1 b2 83 3d 61 57 87 3e 34 4d 1b 3e af 9e a2 3e
       0.06430555 0.26433852 0.1516617 0.3176169
000270 09 dc 27 3d 97 80 0f be d5 77 b0 bc 2b c3 22 be
       0.040981326 -0.14013897 -0.021541515 -0.15894763
000280 25 47 87 be 8f 2b 62 be 68 d2 92 be 1e 9d 5d be
       -0.26421466 -0.22086929 -0.28676152 -0.21641967
000290 c9 c6 84 3d 7e 01 cd bd 48 3d bb ba 5f 5c 19 be
       0.06483228 -0.1001005 -0.0014285231 -0.14976643
0002a0 40 45 34 bd 7c 42 56 be 7d 3b ee bd 21 8a 7f be
       -0.044011354 -0.209238 -0.1163244 -0.24955036
0002b0 e5 c2 fb bc 39 56 04 3e 6a 36 58 3b 96 87 5a 3e
       -0.030732581 0.12923516 0.0032991418 0.21340784
0002c0 0c b7 54 3e 17 4a 9b 3e b8 b3 65 3e 84 08 97 3e
       0.20772952 0.30329964 0.22431839 0.29498684
0002d0 13 5d d8 3d 14 62 69 3e 37 94 07 3e fc 44 4f 3e
       0.105646275 0.2279132 0.13240133 0.20241159
0002e0 06 94 9c be cd 95 7c be 61 c8 99 be a7 bc 71 be
       -0.30581683 -0.2466652 -0.3003569 -0.23607121
0002f0 c7 5b dd bd 55 27 56 be 92 49 f4 bd d6 63 5a be
       -0.10808521 -0.20913441 -0.11928095 -0.21327147
000300 1b a3 3f 39 5d a0 0e 39 21 f2 99 38 4e 51 39 38
       0.00018275941 0.00013601915 7.3407085e-05 4.4183158e-05
000310 c1 fc 28 3a 26 d6 98 3a 8b 75 23 38 9d 6b 7a 39
       0.00064463547 0.0011660501 3.89717e-05 0.00023881947
000320 27 67 fb b9 69 16 c6 b9 15 a2 87 b9 59 dc 2c b9
       -0.00047951305 -0.000377822 -0.00025869967 -0.00016485284
000330 e1 81 94 b9 b5 fa a1 b9 74 97 a2 b9 0e ff ad b9
       -0.00028325527 -0.00030895104 -0.0003101189 -0.00033187162
000340 86 6f b5 ba 2b f6 ae ba 4a 4a b9 ba de 86 bc ba
       -0.0013842441 -0.001334851 -0.001413652 -0.0014383455
000350 67 cb 74 39 8f cf 7f 39 be 0e 90 39 d9 cd 9e 39
       0.00023345427 0.00024396017 0.00027476804 0.00030289477
000360 82 59 13 bb 34 94 12 bb 47 6d 0d bb 91 75 13 bb
       -0.002248377 -0.0022366168 -0.0021580027 -0.0022500495
000370 75 35 8b b8 b3 dc 46 b8 a6 19 b4 b7 89 30 d7 b6
       -6.637994e-05 -4.741242e-05 -2.1469616e-05 -6.4131495e-06
000380 50 99 28 3b 2c 53 2c 3b e3 e0 c7 3a d3 de dc 3a
       0.0025726147 0.0026294691 0.0015249517 0.0016851075
000390 f1 4b b0 b9 16 ac 8e b9 99 56 38 b9 28 7e 00 b9
       -0.00033625917 -0.00027212565 -0.00017579868 -0.00012254028
0003a0 99 de 4b 39 91 1f 59 39 e1 db 78 39 d8 bf 84 39
       0.00019442513 0.00020706492 0.00023733034 0.00025319937
0003b0 89 cb 1e ba 3f f3 21 ba 5c 75 22 ba 9f 0b 2e ba
       -0.0006057551 -0.0006177909 -0.00061972975 -0.0006639305
0003c0 17 ba 27 bb 3c 8c 27 bb b7 3c 0f bb e8 15 17 bb
       -0.0025593096 -0.0025565764 -0.0021856257 -0.0023053829
0003d0 e1 fe 4a 3a 9b 25 2f 3a 1b 5b 02 3a 91 26 d1 39
       0.00077436684 0.0006681324 0.0004972682 0.0003989232
0003e0 c8 20 84 3a 39 91 5f 3a d6 1a 46 39 1e c0 4b 39
       0.001008057 0.0008528415 0.00018892749 0.00019431158
0003f0 d9 dc 60 ba d5 c5 3d ba 84 fa 0c ba 9c a4 d7 b9
       -0.0008577831 -0.0007239257 -0.0005377906 -0.0004113064

bias f4 [16]
000000 6a f0 df bc 42 3d f4 3d fa 17 3e 3d c0 b0 06 be
       -0.027336318 0.119257465 0.046409585 -0.13153362
000010 94 54 7b be c5 35 45 3e 05 f4 79 be d4 2d 25 3d
       -0.24543983 0.19258793 -0.24409492 0.04032691
000020 c8 fd 7d 3e e1 63 fd 3c 9b dd 1c 3e 50 1d 6e be
       0.24803841 0.030931415 0.15318911 -0.2325337
000030 16 73 76 be 18 44 14 3c 99 9d 05 3e b5 32 49 bb
       -0.2406734 0.009049438 0.130484 -0.003070039

weight f4 [16, 32, 3, 3]
000000 7c 53 ee 23 d6 2b df 23 12 8e a6 23 a0 cb 9e 23
       2.5839369e-17 2.4196274e-17 1.8057925e-17 1.7216633e-17
000010 15 19 a0 23 3b d6 52 23 00 18 36 23 62 1e 36 23
       1.7357857e-17 1.1429488e-17 9.871322e-18 9.8726736e-18
000020 4f ab f9 22 ad aa de 03 d9 e1 4b 03 a1 4b b9 82
       6.7672965e-18 1.30871725e-36 5.99156e-37 -2.7226716e-37
000030 7c 18 bc 03 90 e8 52 03 78 d9 b2 82 e9 f4 51 82
       1.1055268e-36 6.198042e-37 -2.627957e-37 -1.5425181e-37
000040 3f ab 9d 82 7e 1a 2c 82 a3 3c 00 80 d8 15 00 80
       -2.3167367e-37 -1.2644167e-37 -2.1752e-41 -7.836e-42
000050 40 40 00 80 ba 37 00 80 6c 27 00 80 3b 35 00 80
       -2.3049e-41 -1.9991e-41 -1.4142e-41 -1.9095e-41
000060 bc 37 00 80 32 1c 00 80 6f 3e 00 80 ba e0 06 80
       -1.9994e-41 -1.0115e-41 -2.2397e-41 -6.3163e-40
000070 41 4b 04 00 e1 dd 06 80 d1 ae 07 80 f8 13 0b 00
       3.94338e-40 -6.30608e-40 -7.05561e-40 1.017354e-39
000080 c2 b8 06 80 47 95 07 80 ba ba 13 00 45 8a 06 80
       -6.17292e-40 -6.96399e-40 1.811859e-39 -6.00615e-40
000090 de ea 11 2e e4 f8 1b 2e d9 a8 11 2e 8e 1a 03 2e
       3.3177787e-11 3.546398e-11 3.311915e-11 2.9809537e-11
0000a0 5f 59 0e 2e f8 13 00 2e 7a a5 f0 2d 06 1b 03 2e
       3.236644e-11 2.9121566e-11 2.7358327e-11 2.9809953e-11
0000b0 53 f2 ef 2d 4a 46 7e a9 f7 13 7e a9 ed d6 74 a9
       2.7278768e-11 -5.6460296e-14 -5.6416646e-14 -5.4365302e-14
0000c0 52 08 81 a9 c6 87 6a a9 63 41 72 a9 02 49 4c a9
       -5.730194e-14 -5.2076202e-14 -5.379151e-14 -4.5360424e-14
0000d0 d1 c9 50 a9 f6 95 46 a9 53 74 ac 9f e5 3e a0 9f
       -4.6360326e-14 -4.4094902e-14 -7.3037276e-20 -6.7866686e-20
0000e0 0c 7e ac 9f 8f 96 be 9f 81 4c 9c 9f ec 4b bc 9f
       -7.305336e-20 -8.071721e-20 -6.6195135e-20 -7.97467e-20
0000f0 61 ad e9 9f 81 aa d4 9f c3 05 dd 9f 68 fc b2 11
       -9.896617e-20 -9.006757e-20 -9.360667e-20 2.8239006e-28
000100 b5 09 8d 11 f6 d8 32 11 a7 36 92 11 eb 78 70 11
       2.225186e-28 1.410858e-28 2.306842e-28 1.8969922e-28
000110 74 b4 16 11 85 4e 70 11 93 20 54 11 78 4e fc 10
       1.188852e-28 1.8956857e-28 1.6733889e-28 9.9517374e-29
000120 84 5e 85 93 53 60 4c 93 32 1a 5a 93 7c 90 e5 93
       -3.366712e-27 -2.5795911e-27 -2.7528384e-27 -5.79502e-27
000130 5f 3d bb 93 af c4 e8 93 7c 34 8d 94 f0 c5 6e 94
       -4.7265953e-27 -5.875898e-27 -1.4258063e-26 -1.20549656e-26
000140 a7 57 80 94 ba 2d b2 03 a9 ec e4 83 e1 f5 c5 02
       -1.295927e-26 1.0472398e-36 -1.345497e-36 2.9087676e-37
000150 9f 80 8f 03 8f 11 b8 83 9d 98 aa 02 c6 d3 1d 03
       8.434315e-37 -1.0818579e-36 2.506685e-37 4.6381257e-37
000160 43 81 bb 03 90 a8 2e 01 34 de 3e 16 6e 1f 7f 15
       1.1020549e-36 3.207969e-38 1.5418193e-25 5.1521634e-26
000170 1e fb 0a 16 44 8d 3a 16 1a 03 cc 14 97 70 0a 16
       1.122679e-25 1.5069536e-25 2.059996e-26 1.1183078e-25
000180 ff d3 90 16 f6 c4 df 15 bb 68 5b 16 92 7b e0 2d
       2.3398243e-25 9.037973e-26 1.7723726e-25 2.5520728e-11
000190 71 98 0c 2e a8 cd cb 2d 89 bc de 2d 4a d8 0a 2e
       3.196771e-11 2.3169758e-11 2.5322204e-11 3.156967e-11
0001a0 54 c8 cc 2d cd ee bf 2d ae 82 f2 2d e4 86 b1 2d
       2.3281078e-11 2.1820235e-11 2.7570248e-11 2.0182474e-11
0001b0 2d 28 1b 95 22 98 89 96 fa 1e cd 95 bf ef 86 94
       -3.1333694e-26 -2.2229553e-25 -8.284771e-26 -1.3625105e-26
0001c0 52 2c 40 96 f6 6b 2c 95 e2 ff 8b 96 83 dc 23 97
       -1.5523622e-25 -3.482029e-26 -2.2618146e-25 -5.2946465e-25
0001d0 49 4a 97 96 96 29 00 80 57 2b 00 80 95 35 00 80
       -2.4442246e-25 -1.4918e-41 -1.5547e-41 -1.9222e-41
0001e0 2a 3f 00 80 77 3d 00 80 b8 09 00 80 f0 40 00 80
       -2.2659e-41 -2.205e-41 -3.486e-42 -2.3295e-41
0001f0 f1 3f 00 80 f5 0e 00 80 9a ec 00 80 56 91 00 80
       -2.2938e-41 -5.366e-42 -8.4877e-41 -5.2137e-41
000200 36 84 00 00 40 55 02 80 db 6a 02 80 7e 60 00 00
       4.7428e-41 -2.14253e-40 -2.22004e-40 3.4615e-41
000210 ca 7a 00 00 a3 79 00 00 b2 31 00 00 69 00 00 80
       4.4048e-41 4.3635e-41 1.7827e-41 -1.47e-43
000220 cf 35 00 80 85 1e 00 00 22 30 00 00 92 02 00 00
       -1.9303e-41 1.0948e-41 1.7267e-41 9.22e-43
000230 e7 42 00 00 ce 32 00 00 0c 08 00 80 ba 37 00 00
       2.4e-41 1.8225e-41 -2.887e-42 1.9991e-41
000240 d2 4c d1 b6 e1 7c d2 b6 be b8 c9 b6 9b 36 f0 b6
       -6.2376284e-06 -6.2730255e-06 -6.0117736e-06 -7.1589143e-06
000250 fd 91 ec b6 a2 c5 de b6 c2 9a fc b6 e8 14 f3 b6
       -7.0503434e-06 -6.639123e-06 -7.5282014e-06 -7.244398e-06
000260 62 4d e1 b6 d4 21 01 80 2b 0c 02 00 0f 6f 00 80
       -6.714531e-06 -1.03971e-40 1.88036e-40 -3.984e-41
000270 73 ec 00 80 f4 80 00 00 47 ba 00 80 67 08 00 00
       -8.4822e-41 4.626e-41 -6.6824e-41 3.014e-42
000280 51 d9 00 00 8e 58 00 00 e0 14 01 80 b7 1c 00 00
       7.7958e-41 3.1767e-41 -9.9324e-41 1.0301e-41
000290 92 c6 00 80 8b b1 00 80 0c a8 00 80 02 56 00 00
       -7.1234e-41 -6.369e-41 -6.0284e-41 3.0854e-41
0002a0 cc 8f 00 00 1b 64 00 00 82 1c 00 00 b9 da 00 00
       5.1585e-41 3.5911e-41 1.0227e-41 7.8463e-41
0002b0 ab b2 00 00 33 59 02 00 0d e9 00 80 ef 77 00 00
       6.4094e-41 2.1567e-40 -8.3603e-41 4.3024e-41
0002c0 51 6b 00 00 20 d2 00 80 37 2c 00 80 e0 de 00 80
       3.8498e-41 -7.5379e-41 -1.5861e-41 -7.9952e-41
0002d0 e7 1c 31 b6 d5 a5 31 b6 09 9c 2e b6 32 29 20 b6
       -2.6391879e-06 -2.6471582e-06 -2.6018845e-06 -2.3865837e-06
0002e0 cf 80 1f b6 aa de 27 b6 c6 32 18 b6 22 82 1b b6
       -2.3767823e-06 -2.5014547e-06 -2.267932e-06 -2.3172547e-06
0002f0 e0 d9 21 b6 e4 31 00 00 07 9f 00 00 55 33 00 00
       -2.411769e-06 1.7897e-41 5.7048e-41 1.8414e-41
000300 32 6d 00 00 6d 57 00 00 f6 91 00 80 8b 4f 00 00
       3.9172e-41 3.1362e-41 -5.2361e-41 2.8535e-41
000310 c8 7d 00 80 12 66 00 00 d7 bf c2 b2 46 e2 c2 b2
       -4.5122e-41 3.6616e-41 -2.2671811e-08 -2.268747e-08
000320 d0 97 c9 b2 db e0 a7 b2 4d 28 ac b2 2b 20 b6 b2
       -2.3468516e-08 -1.9543611e-08 -2.0041762e-08 -2.1202217e-08
000330 3a 8c 98 b2 3a f3 9e b2 09 1e aa b2 5f 1c e5 b5
       -1.7758897e-08 -1.8504227e-08 -1.9804263e-08 -1.7070087e-06
000340 a8 a2 e4 b5 aa dc e8 b5 b0 80 d2 b5 f3 93 cd b5
       -1.7034663e-06 -1.7349569e-06 -1.5683672e-06 -1.5316749e-06
000350 68 f5 e0 b5 43 89 b4 b5 a9 e4 c4 b5 59 ba cf b5
       -1.6760723e-06 -1.3450993e-06 -1.4669687e-06 -1.5476936e-06
000360 4f a2 00 00 30 a5 00 00 52 d6 00 00 1c 56 00 00
       5.8225e-41 5.9258e-41 7.6884e-41 3.089e-41
000370 0d db 00 00 75 fa 00 80 9c 05 00 80 6c fd 00 80
       7.858e-41 -8.9847e-41 -2.012e-42 -9.091e-41
000380 2a 88 00 80 2c 28 00 80 ee 4b 01 00 ea 89 00 00
       -4.8846e-41 -1.4411e-41 1.19074e-40 4.9474e-41
000390 4b 01 00 00 ff 04 01 00 a7 12 01 00 88 50 00 80
       4.64e-43 9.3628e-41 9.8527e-41 -2.8889e-41
0003a0 36 de 00 00 d4 2a 00 00 ae c4 01 00 26 5f 00 80
       7.9714e-41 1.5364e-41 1.62391e-40 -3.4133e-41
0003b0 2d b2 00 80 4f 5e 01 80 87 82 00 00 85 1b 01 00
       -6.3917e-41 -1.25667e-40 4.6824e-41 1.01708e-40
0003c0 cd f4 01 00 a0 ac 00 00 72 2d 01 00 68 bf 01 00
       1.79653e-40 6.1926e-41 1.08138e-40 1.60499e-40
0003d0 77 e6 00 80 a0 26 01 80 89 07 00 00 03 01 01 00
       -8.2675e-41 -1.05692e-40 2.703e-42 9.2198e-41
0003e0 9e 94 00 80 c2 db 02 00 ef f5 00 80 46 d7 00 00
       -5.3314e-41 2.62505e-40 -8.8224e-41 7.7226e-41
0003f0 75 98 00 80 f3 15 00 00 c5 12 01 80 b1 08 00 00
       -5.4691e-41 7.874e-42 -9.8569e-41 3.118e-42

bias f4 [16]
000000 5a 3d 25 37 6f a3 60 3e 7a cd ad b9 a5 e3 e0 3d
       9.849051e-06 0.21937345 -0.00033150223 0.1098092
000010 39 50 10 3e 52 93 67 3e 64 8f e2 3d 70 b3 ed b6
       0.14093103 0.22614792 0.11062506 -7.0840397e-06
000020 ea 7f a4 af bf 06 09 3e 96 d2 9e b9 55 56 0a 3d
       -2.9922315e-10 0.1338148 -0.00030293007 0.03377374
000030 df cc 4d 3e 00 96 9f bc 4a c9 cb 3d 2d c4 fd b6
       0.20097683 -0.019480705 0.09950502 -7.5628254e-06
