data/ForestSegmentationOutput/experiemnts/REAL_RERUN_02_run_17-12-2023_12h12min/unet_id=Zcjk6_width=32_num_layers=2_lr=0.003_epochs=140.pth (torch, 115317 bytes, 16 tensors)

weight f4 [16, 8, 3, 3]
000000 bf f8 c5 a9 ce bc c9 a9 a8 77 cc a9 8d c6 c7 a9
       -8.791708e-14 -8.9589455e-14 -9.080177e-14 -8.8718183e-14
000010 8c b0 cd a9 4d 58 d1 a9 51 3c c8 a9 d8 78 cf a9
       -9.134455e-14 -9.296782e-14 -8.8922474e-14 -9.21361e-14
000020 5f a6 d3 a9 64 87 27 97 3c dd 2f 97 ca 5d 34 97
       -9.399143e-14 -5.4131497e-25 -5.6824787e-25 -5.8279515e-25
000030 4e 36 37 97 fa d7 48 97 eb 06 51 97 1e c3 44 97
       -5.919903e-25 -6.4896086e-25 -6.7540274e-25 -6.357729e-25
000040 a7 7b 5c 97 21 69 66 97 5f d2 92 a3 b6 05 90 a3
       -7.1241905e-25 -7.44497e-25 -1.5918447e-17 -1.561493e-17
000050 28 f5 8c a3 4d 70 95 a3 66 62 96 a3 a2 23 94 a3
       -1.5282658e-17 -1.6202174e-17 -1.6304706e-17 -1.6061283e-17
000060 42 e3 96 a3 ff e6 99 a3 99 7d 97 a3 b9 f0 b3 a1
       -1.635928e-17 -1.6686124e-17 -1.6424645e-17 -1.2193231e-18
000070 4e b8 ad a1 51 fd a0 a1 70 af ca a1 8d b5 d1 a1
       -1.1771721e-18 -1.0909074e-18 -1.373449e-18 -1.4210447e-18
000080 0a bf c6 a1 13 9d d9 a1 ae f0 e9 a1 e1 c4 e1 a1
       -1.346757e-18 -1.4746069e-18 -1.5852402e-18 -1.5298706e-18
000090 e0 20 5d 81 be 86 58 81 f4 4d 32 81 90 ff a8 81
       -4.0614876e-38 -3.9769607e-38 -3.2749365e-38 -6.208017e-38
0000a0 c9 c5 ba 81 b3 05 b2 81 29 b0 c1 81 20 bb ad 81
       -6.8609417e-38 -6.539505e-38 -7.114978e-38 -6.3818675e-38
0000b0 5d 1a b5 81 2d 2f 26 b5 9d a3 24 b5 f7 44 25 b5
       -6.652673e-38 -6.190847e-07 -6.133285e-07 -6.1567647e-07
0000c0 0d f4 1e b5 44 87 1c b5 cf a8 1c b5 10 e3 1a b5
       -5.921473e-07 -5.8311366e-07 -5.836018e-07 -5.769989e-07
0000d0 c6 86 17 b5 40 67 16 b5 b5 91 f6 b7 8c bd f8 b7
       -5.6448005e-07 -5.6029603e-07 -2.9393335e-05 -2.9652168e-05
0000e0 c3 35 fd b7 26 1d ed b7 f5 89 ed b7 b0 0e f1 b7
       -3.0184985e-05 -2.8266175e-05 -2.8316843e-05 -2.8736278e-05
0000f0 b3 7c e8 b7 80 8d e7 b7 14 01 e9 b7 d0 eb 94 b7
       -2.7714623e-05 -2.7603237e-05 -2.7776267e-05 -1.7752784e-05
000100 c4 2d 96 b7 0c cc 98 b7 4c 1a 8f b7 1a 43 8f b7
       -1.7902705e-05 -1.8214829e-05 -1.7059174e-05 -1.7078175e-05
000110 2b 30 91 b7 df 5d 8c b7 fd a6 8b b7 90 42 8c b7
       -1.7307777e-05 -1.6733013e-05 -1.6647851e-05 -1.6720296e-05
000120 a7 fa ac 0d 06 14 a3 8b 68 c4 29 8d 8d cf 02 8e
       1.0660661e-30 -6.2815444e-32 -5.231356e-31 -1.612367e-30
000130 2c 20 a9 8d 6d 02 ed 8d 8d ad 79 8e c1 1c 07 8e
       -1.0423174e-30 -1.4606837e-30 -3.0775181e-30 -1.665388e-30
000140 1f 40 79 89 15 99 00 00 44 a0 00 00 55 83 00 80
       -3.0002434e-33 5.4915e-41 5.7492e-41 -4.7113e-41
000150 be 21 00 80 42 45 00 80 e5 a1 00 00 1a 37 00 80
       -1.2104e-41 -2.4845e-41 5.8077e-41 -1.9767e-41
000160 e8 35 00 80 54 55 00 00 9e 49 00 80 05 85 00 80
       -1.9338e-41 3.061e-41 -2.6409e-41 -4.7718e-41
000170 e4 ab 00 80 20 ba 00 00 65 b4 00 80 20 b2 00 00
       -6.1663e-41 6.6769e-41 -6.4713e-41 6.3899e-41
000180 fc 98 00 00 88 61 00 80 de 92 00 80 23 27 00 00
       5.488e-41 -3.4988e-41 -5.2686e-41 1.404e-41
000190 2a 45 00 00 a7 08 00 00 75 0e 00 80 3e 03 00 00
       2.4811e-41 3.104e-42 -5.186e-42 1.163e-42
0001a0 99 6f 00 00 9c 1b 00 00 20 51 00 00 3b 02 00 80
       4.0034e-41 9.904e-42 2.9102e-41 -8e-43
0001b0 cd 9c 00 80 08 7c 00 80 93 06 00 00 99 4a 00 80
       -5.625e-41 -4.4494e-41 2.358e-42 -2.676e-41
0001c0 36 0c 00 80 e6 15 00 00 29 4c 00 00 df 20 00 00
       -4.38e-42 7.856e-42 2.7321e-41 1.1792e-41
0001d0 bf 41 00 00 62 e1 61 a9 08 1d 90 a9 cf 72 bf aa
       2.3585e-41 -5.0155525e-14 -6.399921e-14 -3.400808e-13
0001e0 11 02 49 ab ae d0 2d 29 3c 9b 4a 2a 20 78 e5 28
       -7.141241e-13 3.8594717e-14 1.7995062e-13 2.5476203e-14
0001f0 42 39 3a 28 e5 57 34 ab f4 3e 94 af b7 25 9b b0
       1.033749e-14 -6.4070824e-13 -2.6965774e-10 -1.1288454e-09
000200 97 ba 0a b0 f0 66 de b0 39 48 a1 2f 19 45 32 b1
       -5.046927e-10 -1.6181883e-09 2.9337047e-10 -2.5941687e-09
000210 c6 f6 6b b1 36 e2 20 b0 9f 2b 2e b1 09 0c 20 2f
       -3.4337275e-09 -5.8529126e-10 -2.5345128e-09 1.4556191e-10
000220 cf 1d 2e b0 dd a7 bf 2e 90 db 88 b0 ac 87 45 2f
       -6.334319e-10 8.715493e-11 -9.957706e-10 1.7965246e-10
000230 d7 76 80 b0 52 e5 23 b0 6a 6b 94 b0 93 a0 0e b0
       -9.347002e-10 -5.962494e-10 -1.0798946e-09 -5.188749e-10
000240 9d 93 45 b2 79 cc 44 b2 3b c1 3d b2 3f bc 44 b2
       -1.1500473e-08 -1.1455193e-08 -1.1045183e-08 -1.1451504e-08
000250 e3 34 44 b2 0f 88 3d b2 db 74 3f b2 c7 85 3e b2
       -1.1420727e-08 -1.1032184e-08 -1.1144233e-08 -1.1089873e-08
000260 a7 87 38 b2 79 53 55 a8 a2 f5 52 a8 d2 79 39 a8
       -1.0741053e-08 -1.18419755e-14 -1.1710605e-14 -1.02959785e-14
000270 9c 88 52 a8 cb 47 51 a8 86 da 38 a8 c1 34 3c a8
       -1.1686964e-14 -1.1617398e-14 -1.02614365e-14 -1.0447536e-14
000280 e3 8d 39 a8 e4 62 25 a8 e8 8d 04 af 9e 9c 02 af
       -1.030033e-14 -9.1807834e-15 -1.2055745e-10 -1.1879073e-10
000290 d5 90 dd ae bf 31 01 af 55 92 fe ae a5 03 da ae
       -1.0075644e-10 -1.1750155e-10 -1.15765765e-10 -9.9141396e-11
0002a0 49 d0 e4 ae d0 cd de ae 33 1a c1 ae 48 0f ae ad
       -1.04052385e-10 -1.0131951e-10 -8.781278e-11 -1.9788296e-11
0002b0 df f4 aa ad 05 14 84 ad 48 4a aa ad 7c ee a8 ad
       -1.9435507e-11 -1.5015553e-11 -1.935975e-11 -1.9205297e-11
0002c0 5c 41 83 ad dd 49 87 ad 1c 02 84 ad c6 fe 50 ad
       -1.4922001e-11 -1.5380525e-11 -1.50076e-11 -1.1880002e-11
0002d0 46 e1 6b 9d 66 b5 5f 9d 32 ac ce 9c 49 a1 65 9d
       -3.1218455e-21 -2.9607585e-21 -1.3676448e-21 -3.039128e-21
0002e0 28 a6 65 9d 67 e2 d4 9c 01 00 d7 9c 95 59 ce 9c
       -3.0393798e-21 -1.4087507e-21 -1.4227508e-21 -1.3655093e-21
0002f0 ed a4 47 9c 0a 4c 19 b9 12 7a 17 b9 49 2a 0f b9
       -6.605674e-22 -0.00014619544 -0.00014445957 -0.00013653295
000300 c5 e0 15 b9 8a 0d 13 b9 dd 0c 0c b9 3b ce 13 b9
       -0.0001429348 -0.00014024056 -0.00013356232 -0.0001409584
000310 aa 34 10 b9 72 8c 09 b9 0e f0 a7 ba cb b4 a5 ba
       -0.00013752529 -0.00013117658 -0.0012812631 -0.0012642381
000320 a9 bc 9f ba 1e a2 a4 ba 85 6b a1 ba 5d 80 9c ba
       -0.0012186962 -0.0012560522 -0.0012315369 -0.0011940111
000330 70 23 a4 ba 04 49 a0 ba b1 67 9b ba 1d f5 83 ba
       -0.0012522768 -0.0012228792 -0.0011856464 -0.0010067556
000340 02 ae 81 ba a3 b8 77 ba 91 41 81 ba b4 8d 7c ba
       -0.0009893777 -0.0009449815 -0.0009861459 -0.00096341525
000350 30 d3 72 ba 50 7a 80 ba 31 f5 79 ba 5d 82 70 ba
       -0.0009263037 -0.0009802077 -0.00095351326 -0.0009174699
000360 03 55 2a b9 02 6a 8a b8 8e 48 06 b8 e6 8e ce b8
       -0.00016244133 -6.600098e-05 -3.201566e-05 -9.8494624e-05
000370 20 46 25 b9 66 59 36 b9 e3 47 31 b9 71 f7 cc b8
       -0.0001576175 -0.00017390176 -0.00016906815 -9.7735676e-05
000380 9f f0 cd b8 01 b7 0b b5 11 a3 c5 b4 00 ad b7 b4
       -9.819981e-05 -5.204784e-07 -3.6812756e-07 -3.421228e-07
000390 d8 70 00 b5 4a 4f 15 b5 3e a6 23 b5 8b c0 ce b4
       -4.7847925e-07 -5.5622206e-07 -6.0964146e-07 -3.8510584e-07
0003a0 9c 92 d1 b4 70 67 f5 b4 a6 6b b2 b7 6b 39 b1 b7
       -3.9035956e-07 -4.5710067e-07 -2.1269381e-05 -2.1126782e-05
0003b0 dd 45 31 b7 59 ff 17 b7 cc 2c f9 b6 ce ad 35 b7
       -1.0566288e-05 -9.059754e-06 -7.4259933e-06 -1.0828908e-05
0003c0 07 59 62 b7 69 e4 f6 b6 6f 2e 4b b7 d6 b7 96 b6
       -1.3491378e-05 -7.3579617e-06 -1.2110554e-05 -4.4917497e-06
0003d0 8e 79 c1 b6 ae 40 11 b7 75 8a 04 b7 15 f6 09 b7
       -5.765999e-06 -8.657733e-06 -7.90005e-06 -8.223132e-06
0003e0 eb 44 de b6 7a b4 80 b6 e8 0f 10 b7 4f 02 ab b6
       -6.6241387e-06 -3.8357075e-06 -8.586772e-06 -5.096466e-06
0003f0 a9 98 8e af 3b 78 8e af f8 84 cb af 76 d0 6e af
       -2.593812e-10 -2.5915078e-10 -3.7019965e-10 -2.1720034e-10

bias f4 [16]
000000 43 04 26 bb 25 94 1b b8 38 15 3e bc b4 6c 0f bd
       -0.002533213 -3.709285e-05 -0.011601739 -0.035015777
000010 2f a5 d7 a6 67 f0 fd bb 96 6f f2 a2 26 db d6 bc
       -1.4963395e-15 -0.0077496055 -6.5712378e-18 -0.026227545
000020 5e ba 5b b7 90 0f d2 bc 3f 70 f8 3e 4c 1f b2 bd
       -1.3096809e-05 -0.025642186 0.48523137 -0.08697376
000030 89 2c 00 b5 d7 93 a1 be 3f a9 85 bd fd 3b 10 bc
       -4.7748523e-07 -0.31558105 -0.06526422 -0.008803365

weight f4 [16, 16, 3, 3]
000000 8e bb 9d b7 1a 19 99 b7 54 ea 98 b7 2e 2b 9c b7
       -1.8803195e-05 -1.825071e-05 -1.822893e-05 -1.8616756e-05
000010 51 f1 98 b7 7a 24 97 b7 a6 36 9c b7 1c 44 99 b7
       -1.8232184e-05 -1.8017588e-05 -1.8622097e-05 -1.8270737e-05
000020 be d6 97 b7 33 38 00 80 0a 8a 00 00 52 7c 00 00
       -1.81006e-05 -2.016e-41 4.9519e-41 4.4598e-41
000030 10 80 00 00 6f 28 00 80 2f 51 00 00 16 95 00 80
       4.594e-41 -1.4505e-41 2.9123e-41 -5.3482e-41
000040 81 a1 00 80 05 63 00 80 67 08 c1 bb 57 1a c0 bb
       -5.7937e-41 -3.5522e-41 -0.005890894 -0.005862515
000050 70 11 bd bb e4 99 bf bb a2 9a be bb 78 34 bc bb
       -0.005769901 -0.0058472026 -0.0058167735 -0.0057435594
000060 4d 43 be bb d9 08 bd bb 50 e6 ba bb 06 cb a1 b1
       -0.0058063627 -0.005768877 -0.005703725 -4.708798e-09
000070 d9 1f bb b1 02 6f c8 b1 f3 d0 87 b1 a3 2d bc b1
       -5.446037e-09 -5.833386e-09 -3.952772e-09 -5.4767084e-09
000080 ec 60 39 30 4a 70 d0 31 b1 14 48 b1 19 aa 74 b1
       6.744034e-10 6.0663625e-09 -2.9115592e-09 -3.5603362e-09
000090 e8 d3 00 00 27 62 00 00 15 63 00 00 4f 84 00 00
       7.6018e-41 3.521e-41 3.5544e-41 4.7463e-41
0000a0 fe cc 00 80 0e 78 00 00 3b 93 00 00 40 4b 00 80
       -7.3537e-41 4.3068e-41 5.2816e-41 -2.6995e-41
0000b0 cb 64 00 80 6f 5f 43 3b ea 0b 81 3a 70 6b 5e bb
       -3.6158e-41 0.0029811522 0.000984547 -0.003393855
0000c0 6d 89 52 3c 6e a2 be 3b f4 53 f8 3a c2 e8 9c 3c
       0.012850148 0.005817703 0.0018945918 0.019153956
0000d0 05 16 94 3c 20 4f 4f 3c ca c3 00 00 5c e4 00 80
       0.018076906 0.012653142 7.0236e-41 -8.192e-41
0000e0 28 0b 01 80 65 ac 00 00 b5 72 00 00 62 27 00 00
       -9.5838e-41 6.1844e-41 4.1149e-41 1.4128e-41
0000f0 fc d6 00 00 ee fc 00 00 90 a9 00 80 cf ec 86 bc
       7.7122e-41 9.0734e-41 -6.0828e-41 -0.016470341
000100 af 2f 87 bc cb 4f 87 bc 4f 3e 87 bc ef 94 87 bc
       -0.01650223 -0.01651754 -0.016509203 -0.01655051
000110 ee 69 87 bc 55 87 87 bc 96 73 87 bc c6 6e 87 bc
       -0.016530003 -0.016544024 -0.016534608 -0.016532313
000120 70 7f 87 25 d4 78 3b 26 88 d5 6f 25 d3 58 ff 26
       2.3505122e-16 6.504241e-16 2.0802293e-16 1.7718255e-15
000130 dc 42 82 26 23 87 ef 25 30 a0 78 27 7a e7 c4 27
       9.038684e-16 4.1551463e-16 3.4503752e-15 5.4651896e-15
000140 d3 7f 6e 27 bd 80 6b 3a 7e a5 55 3b 3a 74 b6 3b
       3.3098429e-15 0.0008983722 0.0032599862 0.0055680545
000150 7c 38 5c 3a be a0 02 3b 02 ea 61 3b a8 c6 a4 3a
       0.0008400751 0.0019932236 0.0034471755 0.0012571411
000160 a3 0a 4b 3a 60 68 52 3b 4a b1 ea bc 29 07 96 3d
       0.00077454204 0.003210567 -0.028648991 0.073255844
000170 fb 5c c7 3d bc aa 78 3c 5f 52 25 3c e1 72 47 3d
       0.097345315 0.015177425 0.01009044 0.04869354
000180 19 2e 2a 3e 75 8b 33 3e a9 29 c4 3d 10 9a 09 88
       0.16619147 0.17533667 0.095782585 -4.1408037e-34
000190 94 c5 10 88 49 79 0a 88 cb 86 10 88 ec 8f 10 88
       -4.3565676e-34 -4.1670434e-34 -4.349187e-34 -4.3502603e-34
0001a0 52 35 08 88 23 29 f9 87 9b cd 00 88 41 aa 06 88
       -4.098869e-34 -3.7489534e-34 -3.8760287e-34 -4.052429e-34
0001b0 c4 9b 00 80 70 72 00 80 d2 67 00 00 40 5a 00 00
       -5.5878e-41 -4.1052e-41 3.7244e-41 3.2376e-41
0001c0 82 b5 00 00 8b 63 00 00 37 af 00 80 79 9b 00 00
       6.5113e-41 3.5709e-41 -6.2855e-41 5.5773e-41
0001d0 8a 0c 00 00 09 ca 7b 3e a9 0c 5a 3e 32 d6 1a 3e
       4.498e-42 0.24588789 0.21293892 0.15120772
0001e0 87 0c 37 3e a7 08 46 3e 6c a1 02 3e ae 4e 05 3e
       0.17875873 0.19339238 0.1275689 0.13018295
0001f0 df 4d 15 3e e7 11 05 3e c4 3e bc bd 2d e1 b9 bd
       0.14580487 0.1299511 -0.09191659 -0.09076152
000200 e4 c2 b7 bd 6f 41 c0 bd ae 0c be bd 87 d0 bb bd
       -0.08972719 -0.093874805 -0.09279762 -0.09170633
000210 a5 59 c3 bd 54 cc c1 bd 18 07 c0 bd 2e 68 91 3b
       -0.09538583 -0.094628006 -0.09376353 0.004437468
000220 a2 e4 59 3b 96 c9 36 3b 4b 5d e3 3b 3b ac db 3b
       0.0033247848 0.002789115 0.0069386116 0.006703881
000230 f9 c2 b9 3b 03 9e 41 3c 0d 7e 1d 3c e3 35 11 3c
       0.0056689945 0.011817458 0.009612572 0.008862945
000240 10 38 71 1c cd 53 78 1c 8d 7f 6d 1c af a9 67 1c
       7.981267e-22 8.2164627e-22 7.858158e-22 7.66508e-22
000250 c5 a3 72 1c ca 18 6f 1c 1a a2 56 1c 8a 5e 5d 1c
       8.028275e-22 7.9110506e-22 7.101617e-22 7.3244955e-22
000260 64 4b 5a 1c 9c 1e 00 80 68 1f 00 00 e4 0f 00 00
       7.222759e-22 -1.098e-41 1.1266e-41 5.7e-42
000270 16 2c 00 00 5f 7a 00 00 26 9d 00 80 0c a0 00 00
       1.5815e-41 4.3898e-41 -5.6374e-41 5.7414e-41
000280 51 50 00 00 eb 59 00 00 ac 06 00 00 37 05 00 80
       2.8812e-41 3.2256e-41 2.393e-42 -1.871e-42
000290 d1 bb 00 80 93 a3 00 00 bc 42 00 00 eb a7 00 00
       -6.7376e-41 5.868e-41 2.394e-41 6.0238e-41
0002a0 9d c2 00 80 61 c8 00 00 50 81 00 00 c4 d8 00 aa
       -6.9814e-41 7.1882e-41 4.6389e-41 -1.144389e-13
0002b0 61 5c 05 27 29 03 1c aa cc 99 bf aa 87 1d 63 aa
       1.8507536e-15 -1.385668e-13 -3.4035134e-13 -2.0171894e-13
0002c0 d4 07 65 2a db ab 52 2a 63 dc a5 a9 9f b1 d6 2a
       2.0342002e-13 1.8711371e-13 -7.365703e-14 3.8137286e-13
0002d0 fe d0 00 80 d8 ae 00 00 d2 e6 00 80 95 11 00 80
       -7.4972e-41 6.2722e-41 -8.2803e-41 -6.307e-42
0002e0 e8 d7 00 00 90 96 00 00 35 62 00 80 cb 2c 00 00
       7.7453e-41 5.4012e-41 -3.523e-41 1.6069e-41
0002f0 96 5b 00 80 f4 b9 df b6 e2 79 89 b6 79 0b fc b5
       -3.2855e-41 -6.6675657e-06 -4.097107e-06 -1.8778802e-06
000300 75 01 cb b6 f0 1c d6 b6 26 aa 96 b6 24 70 43 b6
       -6.050041e-06 -6.3810658e-06 -4.4901562e-06 -2.9122539e-06
000310 5e 7a 90 b6 de 81 91 b6 41 65 00 00 25 9c 00 80
       -4.30578e-06 -4.3364553e-06 3.6323e-41 -5.6014e-41
000320 8e 9e 00 00 91 f6 00 80 6b f8 00 00 c0 d5 00 00
       5.6879e-41 -8.8451e-41 8.9116e-41 7.6679e-41
000330 e6 2b 01 80 76 e0 00 00 a1 f3 00 00 25 05 16 92
       -1.07583e-40 8.0521e-41 8.7398e-41 -4.7337995e-28
000340 b6 44 e6 92 af 8e 87 92 44 37 58 92 16 4d 2d 93
       -1.4531979e-27 -8.554872e-28 -6.82257e-28 -2.1873676e-27
000350 2a 7a c1 92 b9 ef 18 92 44 b2 97 92 48 aa 7b 92
       -1.2210128e-27 -4.8258224e-28 -9.573386e-28 -7.9411523e-28
000360 a2 ba 97 1c 4e 79 e3 1c 3c 27 06 1c ec 01 10 1c
       1.0040585e-21 1.5052956e-21 4.438759e-22 4.7648087e-22
000370 4c 34 b4 1b 5f d9 b7 9a 32 00 81 9b e6 cc d6 1b
       2.9812298e-22 -7.603821e-23 -2.1341386e-22 3.5535743e-22
000380 b5 bc 9b 1b 71 83 4a b8 db bc 59 b8 2b d2 b5 b8
       2.5764548e-22 -4.8282967e-05 -5.1912717e-05 -8.6698994e-05
000390 27 d7 28 b8 48 ff 5d b8 ec c0 7d b8 cc 21 a3 b8
       -4.0254698e-05 -5.2928255e-05 -6.0499573e-05 -7.778741e-05
0003a0 f0 a8 6f b8 e8 9d af b8 35 28 64 bc 05 a8 17 be
       -5.7139376e-05 -8.3740626e-05 -0.013925602 -0.14810188
0003b0 70 31 e7 bd b0 1b 57 bd 48 e0 a2 bd e1 7f ba 3d
       -0.11288726 -0.05251664 -0.079529345 0.09106422
0003c0 84 95 4d 3e 89 d4 d8 3d 1f 5f 0d 3e 91 19 e0 04
       0.20076567 0.10587413 0.13805817 5.2685626e-36
0003d0 2a 3f d3 85 90 89 7d 85 28 8a db 05 73 5c 7d 83
       -1.9865547e-35 -1.1921269e-35 2.0645412e-35 -7.4456144e-37
0003e0 43 52 ac 85 79 f2 35 85 4e 41 c4 05 15 44 2a 84
       -1.620502e-35 -8.555114e-36 1.845574e-35 -2.0014666e-36
0003f0 98 94 00 00 9f 37 00 80 80 6c 00 00 90 10 00 80
       5.3305e-41 -1.9953e-41 3.8922e-41 -5.942e-42

bias f4 [16]
000000 ff 57 97 be 53 1c 95 3b 01 6a 03 bc e4 e9 b5 bc
       -0.29559323 0.0045504957 -0.008020879 -0.022206254
000010 34 a1 12 bb a7 f1 48 be 2b 83 58 bc 18 fd a6 ba
       -0.0022373917 -0.19623433 -0.013214867 -0.0012740223
000020 29 c3 a3 bd 75 b6 32 3a b0 2e 1e 3d 90 42 af bc
       -0.07996208 0.00068173493 0.038618743 -0.021394044
000030 c3 1f f4 3c 49 d7 ab bb d0 31 be 3d b0 74 d6 bc
       0.029800301 -0.00524417 0.09286845 -0.026178688

weight f4 [32, 16, 3, 3]
000000 e7 ee 17 bd 48 55 c4 bc 57 6d 8e bc 71 0c 6a bd
       -0.03709307 -0.023966447 -0.017386122 -0.05714077
000010 32 92 5f bd c9 bc 3b bd d7 b8 7e bd b8 05 62 bd
       -0.054582782 -0.045834336 -0.062187996 -0.055181235
000020 3f 67 41 bd 24 cc 0c b7 aa 51 97 b7 95 b9 e8 b7
       -0.047217604 -8.3921805e-06 -1.803863e-05 -2.7742974e-05
000030 ee a0 0b 37 80 6b b3 35 5b ba 17 b7 8a 5e 0a 37
       8.322515e-06 1.3367826e-06 -9.043691e-06 8.247453e-06
000040 b7 28 46 37 be 06 a9 38 f8 d6 41 ba a1 19 af ba
       1.1811199e-05 8.059804e-05 -0.00073943986 -0.0013359078
000050 45 56 14 bb ac 77 63 b9 5e ed ee b9 dd 05 79 ba
       -0.0022634428 -0.00021692988 -0.0004557175 -0.000949947
000060 f2 74 8a b8 af 28 4a b9 fa e3 df b6 3f bc 8e 3b
       -6.6021355e-05 -0.00019279377 -6.672458e-06 0.004355937
000070 5c ba 7a 3b 51 a6 8d 3b 9b a1 0e 3a 86 ef f4 39
       0.0038258051 0.004322805 0.0005440951 0.00046717766
000080 72 2e 06 39 fa 3b cd 37 e3 52 80 38 6b b5 9f b9
       0.00012796538 2.4465833e-05 6.1189545e-05 -0.0003046201
000090 34 d1 3a b5 a9 cc 2c b5 4d aa b4 b4 91 50 f9 33
       -6.959483e-07 -6.4372813e-07 -3.3651523e-07 1.1609621e-07
0000a0 60 78 03 34 31 9f 3a 34 4b 12 0b 35 c9 2a 08 35
       1.2244118e-07 1.7380513e-07 5.1808155e-07 5.072621e-07
0000b0 1e ec 19 35 94 25 b2 bb 0a 8e 3f 3c 08 54 95 3c
       5.734054e-07 -0.0054366086 0.01169158 0.018228546
0000c0 dc f9 f9 bc f2 b9 bc bc f0 54 4b bc e1 b3 2a bd
       -0.03051465 -0.023037884 -0.012410387 -0.041675452
0000d0 e7 b4 fd bc dd 8b 93 bc b1 c1 91 39 b3 e2 ab 39
       -0.03097005 -0.018011028 0.00027800867 0.00032784566
0000e0 15 c3 80 3a f4 49 24 b8 8a 29 9a b7 13 41 fd b8
       0.0009823764 -3.916952e-05 -1.8377574e-05 -0.00012076101
0000f0 fb 5e 63 b9 6a 2f 9b b7 8b 6c 43 b9 80 b0 05 39
       -0.0002168379 -1.8499519e-05 -0.00018637085 0.0001274962
000100 f9 0d 30 3a 39 bc a2 38 44 da 23 36 2d 92 da 37
       0.0006715949 7.759821e-05 2.441594e-06 2.6055694e-05
000110 6d a6 02 39 b6 d8 a5 35 cb a8 2e b5 f3 34 47 39
       0.00012459765 1.2356529e-06 -6.506568e-07 0.00018997844
000120 aa b8 94 bb 3f aa 04 bc 18 34 53 bc af f7 af bb
       -0.0045386152 -0.00809723 -0.012890838 -0.0053701024
000130 ff 8c 44 bc dc 39 69 bc 61 18 3c bb 2e 53 06 bc
       -0.011996507 -0.014234986 -0.0028701054 -0.0081985425
000140 e0 59 5b bc 9b 7d bb 39 e0 ea fb 39 36 8c 2c 3a
       -0.013388127 0.00035761003 0.00048049446 0.00065821724
000150 f8 2d 27 b7 6e 41 f7 b6 88 4a 3d b7 5a db 04 b7
       -9.964679e-06 -7.3687906e-06 -1.1282631e-05 -7.918885e-06
000160 6f 5f 5c b6 36 b7 eb b6 1e 25 84 3b ab 50 35 3b
       -3.2838104e-06 -7.0248743e-06 0.004032745 0.002766649
000170 74 25 84 3b 17 f0 fd 3b e9 ec e2 3b 10 e1 c4 3b
       0.004032785 0.007749568 0.0069252145 0.006008275
000180 eb ee f8 3b 46 c6 b3 3b 3f 1e 71 3b 54 2d 8d b9
       0.0075968406 0.0054862825 0.003679171 -0.00026927388
000190 e9 8e 34 ba d7 66 96 b8 f3 31 c6 b8 68 aa ad b8
       -0.00068877504 -7.171713e-05 -9.4506795e-05 -8.2810235e-05
0001a0 8f 7d 92 b9 a6 60 43 39 28 8a 7d 39 21 15 b1 39
       -0.00027940838 0.00018632654 0.00024179427 0.00033775813
0001b0 be 19 89 3b ba 7b 82 3b 30 51 2b 3c bc 06 72 39
       0.004183977 0.0039820345 0.010456368 0.00023081427
0001c0 75 45 d1 b9 cd ec 53 ba de b6 fc ba 3d f5 76 ba
       -0.00039915336 -0.00080842973 -0.0019280573 -0.00094206986
0001d0 41 7f f2 ba 1f 7d 1d 36 e8 e6 ab 36 7b f3 b3 36
       -0.0018501059 2.3467653e-06 5.123078e-06 5.3629606e-06
0001e0 c0 19 cb b6 d2 71 2f b6 e6 d7 03 b6 11 9f 37 b6
       -6.052869e-06 -2.6143284e-06 -1.964619e-06 -2.7361714e-06
0001f0 37 53 d4 b5 2f be 32 b6 23 b9 a3 b9 d7 0f 46 bb
       -1.581945e-06 -2.6634768e-06 -0.0003122772 -0.0030221844
000200 45 75 83 bb 41 c2 c3 3b 86 6e 78 3b 08 0c 23 3b
       -0.0040117824 0.0059740846 0.0037907674 0.0024878997
000210 6c 45 0b 3c 4e 34 89 3b 02 30 05 3b 81 09 e3 b7
       0.008500438 0.0041871434 0.0020322804 -2.7064934e-05
000220 da a8 38 b8 27 f4 09 b8 92 e0 ec b5 d7 9d 63 b6
       -4.4026274e-05 -3.289073e-05 -1.7648729e-06 -3.391751e-06
000230 a3 71 80 b7 9e e7 09 b5 2c 55 d7 b4 d4 ff ff 36
       -1.5311705e-05 -5.1373524e-07 -4.010884e-07 7.6293745e-06
000240 e9 82 f8 05 db f6 de 8d 14 1f 2f 8e ed 38 2d 06
       2.3369897e-35 -1.3741235e-30 -2.1585379e-30 3.2579506e-35
000250 a4 c4 66 89 06 64 3d 06 3d 54 02 80 0a 20 13 80
       -2.7777703e-33 3.5620435e-35 -2.1389e-40 -1.756368e-39
000260 ad 77 00 00 02 b8 00 00 f2 8d 00 80 a5 b7 00 80
       4.2932e-41 6.601e-41 -5.092e-41 -6.5879e-41
000270 e0 b8 00 80 51 39 00 80 b8 ca 00 80 d0 81 00 80
       -6.632e-41 -2.0561e-41 -7.2722e-41 -4.6568e-41
000280 23 6d 00 80 64 8d 00 80 aa 9d 00 80 3d d3 00 00
       -3.9151e-41 -5.0721e-41 -5.6559e-41 7.5778e-41
000290 f6 c2 00 80 56 bd 00 80 7f cf 00 80 03 be 00 80
       -6.9939e-41 -6.7921e-41 -7.4436e-41 -6.8163e-41
0002a0 97 46 00 00 e9 b4 00 80 4b 3f 00 00 f3 7a 00 00
       2.5323e-41 -6.4898e-41 2.2705e-41 4.4106e-41
0002b0 73 19 00 00 39 87 00 80 ac 4f 00 00 38 c8 00 80
       9.13e-42 -4.8509e-41 2.8581e-41 -7.1825e-41
0002c0 8a 2f 00 00 fb bb 00 00 31 61 00 80 0b 4d 00 80
       1.7054e-41 6.7435e-41 -3.4866e-41 -2.7638e-41
0002d0 7c 4d 00 00 ad 6c 00 00 51 25 00 00 84 22 00 80
       2.7796e-41 3.8986e-41 1.3387e-41 -1.2382e-41
0002e0 95 a4 00 00 4f 66 00 80 5d 0c 00 00 28 d4 00 80
       5.9041e-41 -3.6701e-41 4.435e-42 -7.6107e-41
0002f0 e8 69 00 80 8e 87 00 00 3a f0 06 07 64 62 64 07
       -3.7992e-41 4.8628e-41 1.0151636e-34 1.7181728e-34
000300 d7 68 00 80 b2 2c 52 81 09 63 0a 80 83 13 00 00
       -3.761e-41 -3.8602976e-38 -9.53882e-40 7e-42
000310 03 4d 00 00 a6 b8 00 00 b0 31 00 80 20 c3 00 80
       2.7627e-41 6.624e-41 -1.7825e-41 -6.9998e-41
000320 4f d4 00 00 79 03 00 80 91 22 00 80 42 43 00 80
       7.6162e-41 -1.246e-42 -1.24e-41 -2.4128e-41
000330 27 a4 00 00 19 6d 00 80 f5 bf 00 80 ed 69 00 80
       5.8887e-41 -3.9137e-41 -6.8861e-41 -3.7999e-41
000340 ce b2 00 80 98 ae 00 80 c9 1c 00 00 fc 05 00 80
       -6.4143e-41 -6.2632e-41 1.0326e-41 -2.147e-42
000350 0a c0 00 80 c4 d0 00 00 3d 9a 00 80 f2 b1 00 00
       -6.889e-41 7.4891e-41 -5.533e-41 6.3835e-41
000360 f1 35 00 00 7d 86 00 00 98 88 00 00 77 65 00 80
       1.935e-41 4.8245e-41 4.9e-41 -3.6399e-41
000370 5a ec 00 00 45 bd 00 80 05 c6 00 80 30 9d 00 00
       8.4787e-41 -6.7897e-41 -7.1036e-41 5.6388e-41
000380 df e6 00 80 73 12 00 00 ae 31 00 80 91 7f 00 00
       -8.2821e-41 6.618e-42 -1.7822e-41 4.5762e-41
000390 19 a7 00 00 d1 1a 00 00 18 b3 00 00 f9 9d 00 00
       5.9943e-41 9.62e-42 6.4247e-41 5.667e-41
0003a0 28 c6 00 00 3d 19 00 00 76 28 00 00 f9 81 00 00
       7.1085e-41 9.054e-42 1.4515e-41 4.6625e-41
0003b0 b8 bb 00 00 08 31 00 80 c6 42 00 00 db 8b 00 00
       6.7341e-41 -1.7589e-41 2.3954e-41 5.017e-41
0003c0 bf 8c 00 00 2b 40 00 00 df 4f 00 80 53 5e 00 80
       5.049e-41 2.3019e-41 -2.8652e-41 -3.3837e-41
0003d0 5c 39 00 00 2a 0e 00 00 09 44 00 00 70 c5 00 00
       2.0577e-41 5.081e-42 2.4406e-41 7.0827e-41
0003e0 0b c0 00 80 2b 4d 00 00 75 e2 00 00 33 25 00 80
       -6.8892e-41 2.7683e-41 8.1237e-41 -1.3345e-41
0003f0 a5 cd 00 00 2a 37 00 00 63 91 00 00 51 b4 00 00
       7.3771e-41 1.9789e-41 5.2155e-41 6.4685e-41

bias f4 [32]
000000 74 bc 82 be 87 f0 a7 ba e2 cb 9e 9b 1d 28 b6 be
       -0.25534403 -0.0012812772 -2.6270664e-22 -0.3557748
000010 63 78 73 be 45 92 87 be af 18 de ba 77 95 43 be
       -0.23776393 -0.26478782 -0.0016944612 -0.19099985
000020 c5 2c 5a bc 7a 8b 78 ba 7f 87 15 b8 ab d4 92 be
       -0.013316338 -0.0009481233 -3.565056e-05 -0.28677878
000030 f8 17 d7 bd d9 e7 0b ba ca b1 86 b8 c0 6e b8 3d
       -0.105026186 -0.0005336977 -6.422734e-05 0.09005499
000040 d8 5b 6d be 37 1d 1b b8 3c 16 15 bf 7b 25 cd bd
       -0.23179567 -3.698209e-05 -0.5823705 -0.100169145
000050 44 e5 d3 be 32 0c 1d bb 54 63 c5 bd 6f e5 90 bd
       -0.41385853 -0.0023963568 -0.09638086 -0.07075011
000060 3f b7 04 be ec 78 24 b9 88 2a 9e 9d b7 dc 16 b3
       -0.12960528 -0.00015685306 -4.186623e-21 -3.5125336e-08
000070 2a de c4 ba 0c 79 1e be 8f 70 1b b9 a3 34 67 b1
       -0.0015019823 -0.15475863 -0.00014823883 -3.3644845e-09

weight f4 [32, 32, 3, 3]
000000 bb 89 ed bb 79 62 11 bc 90 68 3a bc 41 db a5 bb
       -0.0072490848 -0.008873575 -0.011377469 -0.0050615375
000010 19 6b e4 bb cb ef fa bb 87 95 67 bb 62 d4 70 bb
       -0.006970775 -0.00765798 -0.0035336928 -0.0036747684
000020 28 fd 0d bb 02 61 00 00 13 06 00 80 9a 82 00 00
       -0.0021665785 3.48e-41 -2.179e-42 4.6851e-41
000030 0a a1 00 80 c0 42 00 80 04 3f 00 00 de a2 00 80
       -5.777e-41 -2.3945e-41 2.2606e-41 -5.8426e-41
000040 91 51 00 80 21 c4 00 00 7a 5c 01 80 b9 65 01 80
       -2.926e-41 7.0358e-41 -1.2501e-40 -1.28327e-40
000050 0d 93 00 00 26 51 00 00 1f 11 00 80 57 69 00 80
       5.2752e-41 2.911e-41 -6.142e-42 -3.7789e-41
000060 83 d8 00 80 d7 b5 00 00 78 08 00 80 c1 57 44 bc
       -7.767e-41 6.5232e-41 -3.038e-42 -0.011983813
000070 ae e9 80 3c 4c b5 55 3c 40 f5 9e bd ff c9 f2 bc
       0.015736427 0.013043713 -0.077616215 -0.029637335
000080 41 2f 8f bc ea 41 f0 bd 3d 6b a5 bd df f2 9c bd
       -0.017478587 -0.11731322 -0.08077095 -0.076635115
000090 73 de f0 3c 6e c7 d7 3c e4 6d f3 3c e9 23 56 3d
       0.029402947 0.026340213 0.029715486 0.05228034
0000a0 22 3d d6 3c 3d d4 2d 3c 0b 41 ee 3c e4 94 b0 bb
       0.026152197 0.010609684 0.02908375 -0.005388843
0000b0 0e b8 04 3c 01 b4 db 39 15 a3 96 39 89 4d b6 36
       0.008100523 0.00041905048 0.00028731735 5.433049e-06
0000c0 d5 6b d7 3a 8a bd 46 3a 24 96 8e 38 bf 66 c2 3a
       0.0016435335 0.0007581344 6.7990535e-05 0.0014831646
0000d0 7f bb ce 39 70 b2 00 b9 77 19 00 80 c4 bc 00 00
       0.00039431077 -0.00012273504 -9.135e-42 6.7716e-41
0000e0 47 aa 00 80 e5 3b 00 80 a6 7a 00 80 ed 12 00 80
       -6.1084e-41 -2.1486e-41 -4.3998e-41 -6.789e-42
0000f0 07 b8 00 80 45 6e 00 00 40 98 00 80 c2 98 c8 bd
       -6.6017e-41 3.9557e-41 -5.4617e-41 -0.09794761
000100 03 03 b1 3d 66 6d fd 3c aa 50 1d bc 89 1f f3 3d
       0.086431526 0.030935954 -0.009601751 0.11871249
000110 e8 ba 9a 3d 18 d2 a2 3d 97 82 1c 3e 4e 35 2e 3e
       0.07555181 0.079502285 0.15284191 0.17012522
000120 5b 3a 82 1d 2e 10 35 9d 8e 54 e6 9a 9b db 98 1c
       3.447105e-21 -2.3963515e-21 -9.5262376e-23 1.0115283e-21
000130 cd de c7 1b 18 54 d6 96 ec 5d 6a 1a 3e da 98 1a
       3.306577e-22 -3.4626635e-25 4.8465935e-23 6.3218316e-23
000140 07 a1 07 18 a6 32 00 80 5a b8 00 80 3f 77 00 00
       1.752964e-24 -1.8169e-41 -6.6133e-41 4.2777e-41
000150 cd 5e 00 80 b4 76 00 80 ef 42 00 00 8c 68 00 80
       -3.4008e-41 -4.2583e-41 2.4011e-41 -3.7504e-41
000160 b3 bf 00 80 db 97 00 00 f8 8f 00 80 3e 46 00 80
       -6.8769e-41 5.4475e-41 -5.1646e-41 -2.5198e-41
000170 c1 38 00 80 3a bc 00 80 5f d5 00 80 8e 2c 00 80
       -2.036e-41 -6.7523e-41 -7.6543e-41 -1.5983e-41
000180 b5 d5 00 00 00 93 00 00 dc 35 00 00 b6 a9 13 be
       7.6664e-41 5.2734e-41 1.9321e-41 -0.14420208
000190 79 e3 5f 3d 0a 45 a5 be 4f fc 15 3e f1 ac 9b 3d
       0.054660294 -0.32279235 0.1464703 0.07601345
0001a0 d4 cb 70 be 3d bf fd 3a 35 a2 2c bd e9 d6 a3 be
       -0.23515254 0.0019359362 -0.04214688 -0.319999
0001b0 74 2a b7 a1 b5 3b 5d 16 62 64 a1 94 31 8b 1b aa
       -1.24118e-18 1.7871078e-25 -1.629644e-26 -1.3815057e-13
0001c0 d1 ad 5f a8 23 5f 6a a4 cd 81 83 a8 d3 01 59 a8
       -1.2416677e-14 -5.0821246e-17 -1.4600214e-14 -1.2046315e-14
0001d0 1e 3c d0 a3 4b a6 00 00 a9 00 00 80 c2 08 00 00
       -2.2576866e-17 5.9655e-41 -2.37e-43 3.142e-42
0001e0 27 57 00 80 de 6a 00 00 f5 b9 00 80 b3 09 00 00
       -3.1264e-41 3.8337e-41 -6.6709e-41 3.48e-42
0001f0 4a 55 00 00 f1 9c 00 00 44 b4 00 00 61 71 00 00
       3.0596e-41 5.63e-41 6.4667e-41 4.0673e-41
000200 c4 2b 00 80 df ca 00 00 90 67 00 80 bd 14 00 00
       -1.57e-41 7.2776e-41 -3.7151e-41 7.44e-42
000210 ee 2f 00 00 58 93 00 80 a6 59 00 80 af 77 4e be
       1.7194e-41 -5.2857e-41 -3.216e-41 -0.20162843
000220 dc 23 12 3c 49 ca 8e be 58 75 31 3d 0f 43 ac 3e
       0.008919682 -0.27888706 0.0433248 0.33644912
000230 bb c1 d3 3d 70 cb 81 be 31 ef cb 3d fc 92 45 bd
       0.103396855 -0.25350523 0.099577315 -0.04823588
000240 bc b4 cc 3b e5 02 8a 3b fb ae 0f 3b a2 dd 0e 3c
       0.006247131 0.004211771 0.0021924365 0.008719834
000250 fa 11 c1 3b 5b 3e 82 3b 55 b6 2c 3c 97 63 03 3c
       0.0058920356 0.0039747185 0.010541518 0.00801935
000260 37 20 d3 3b bd d0 00 80 b2 ae 00 80 32 ab 00 80
       0.0064430493 -7.4881e-41 -6.2669e-41 -6.1413e-41
000270 ae 4b 00 00 fc 95 00 00 ee a9 00 00 f0 0c 00 80
       2.7149e-41 5.3804e-41 6.0959e-41 -4.641e-42
000280 49 21 00 80 c2 ce 00 80 0e 57 f2 3e 46 2f 43 3e
       -1.194e-41 -7.4171e-41 0.47332042 0.19061002
000290 07 b7 9d bd 27 d7 aa 3e 8f 02 81 3e 0c 77 c1 bb
       -0.07700925 0.33367273 0.25197265 -0.005904084
0002a0 e7 32 01 3f 32 50 af 3e 16 15 9c 3e d5 2e 30 3d
       0.50468296 0.34240872 0.30484837 0.043013413
0002b0 d8 56 8e 3d 19 d7 b6 3d 19 08 28 3d 4f ea eb 3c
       0.06950158 0.08927745 0.041023348 0.02879825
0002c0 d6 48 17 3d 1a 35 b3 bb 0e 85 fe 3b 28 e2 83 3d
       0.036934696 -0.0054689767 0.007767326 0.0643962
0002d0 62 5a 6a bc 7a 65 01 bd a4 50 9a bc 65 f7 bf bb
       -0.0143037755 -0.031590916 -0.01883728 -0.005858349
0002e0 ed 0a 0e 3c a6 b2 67 3d 8b 6b 19 3c 63 5f 80 3d
       0.008669597 0.056566857 0.009364019 0.062681936
0002f0 67 3f ea 3d e1 a8 00 80 17 95 00 80 c7 80 e8 00
       0.11437874 -6.0582e-41 -5.3483e-41 2.1352032e-38
000300 1a fb 61 00 d3 cd c1 01 58 16 07 87 92 2a 07 84
       8.998121e-39 7.1192346e-38 -1.0162837e-34 -1.5888721e-36
000310 5d df 1c 87 e8 af 7a 0d 25 22 5b 33 5a 3f cc 32
       -1.1801776e-34 7.7248937e-31 5.1020965e-08 2.3777535e-08
000320 47 48 0c 32 60 50 3d 34 c8 4c e4 33 c3 bc 4d 33
       8.1655065e-09 1.7631237e-07 1.0631044e-07 4.790196e-08
000330 be aa d5 34 6a 19 94 34 e9 cb 0c 34 5c 5a 30 b8
       3.9798573e-07 2.758564e-07 1.3112698e-07 -4.2045824e-05
000340 e6 7e a6 b6 2f fc 2c b4 9f 72 a1 b9 7e b3 2b b9
       -4.9619584e-06 -1.6110492e-07 -0.00030793712 -0.00016374697
000350 61 69 61 b8 48 a5 9f b9 2c f7 b9 b9 4e cf b3 b9
       -5.3742322e-05 -0.00030449987 -0.00035470107 -0.00034295995
000360 cc 3b 45 be 5f 35 0b 3d 6b cd 49 3e 28 85 46 be
       -0.19261092 0.033986446 0.19707267 -0.19386733
000370 66 79 0d 3d 55 f1 34 3c 06 3b 8b be 43 57 f3 bc
       0.034539603 0.011043866 -0.2719347 -0.029704696
000380 36 51 17 3c 9f c6 00 80 63 bb 00 80 fc a7 00 80
       0.009235671 -7.1252e-41 -6.7222e-41 -6.0261e-41
000390 ec b3 00 80 6d c6 00 00 8f 01 00 80 84 6a 00 00
       -6.4544e-41 7.1182e-41 -5.59e-43 3.821e-41
0003a0 4f c4 00 00 9a cb 00 00 f3 01 01 00 85 2e 00 00
       7.0422e-41 7.3038e-41 9.2535e-41 1.6688e-41
0003b0 b9 29 00 80 2f ab 00 80 9f f7 00 80 f2 a1 00 80
       -1.4967e-41 -6.1409e-41 -8.883e-41 -5.8095e-41
0003c0 94 06 00 80 72 e1 00 00 ea 4c 00 00 ba f9 00 00
       -2.36e-42 8.0875e-41 2.7592e-41 8.9585e-41
0003d0 54 6e 00 00 86 c7 00 00 03 56 00 80 e8 56 00 00
       3.9578e-41 7.1576e-41 -3.0855e-41 3.1176e-41
0003e0 9a f7 00 00 db d1 00 00 a6 e5 00 80 0d c1 00 00
       8.8823e-41 7.5282e-41 -8.2382e-41 6.9254e-41
0003f0 7d 47 00 80 47 06 00 00 0d 40 00 80 7f 81 00 00
       -2.5645e-41 2.252e-42 -2.2977e-41 4.6454e-41

bias f4 [32]
000000 1e 2c b2 3b 49 72 85 bc d2 94 46 3b d3 1d f6 3b
       0.005437388 -0.016289847 0.0030301106 0.0075108795
000010 62 ef 08 bb a8 71 d8 bc d7 e0 69 bc 2b e3 ea 3b
       -0.0020894636 -0.026421383 -0.014274797 0.007168194
000020 6c 9c d7 3b cd ea df b9 70 bc 49 bc 4b d8 39 3d
       0.0065799262 -0.00042708815 -0.012312993 0.04537229
000030 72 30 89 3b 1a 1b 85 3e 92 b2 e6 bb 2c 02 e2 ba
       0.0041866833 0.2599724 -0.00704033 -0.0017243079
000040 f4 eb 24 3c bf 22 15 3c 8f a3 bd bb e8 75 14 3b
       0.010066021 0.009102522 -0.00578732 0.0022653285
000050 fc c1 86 3e 99 5e a6 bb 58 44 82 3b c5 c7 76 3b
       0.26319873 -0.005077195 0.0039754324 0.0037655693
000060 2a c5 a1 ba 2a 57 ce 3b ef 2f 16 3b 10 04 9d 3b
       -0.0012342085 0.006297012 0.0022916754 0.004791744
000070 c2 40 ee bb 1a 65 56 bb 6f f0 36 bd 64 42 9d 3b
       -0.0072709033 -0.003271407 -0.04466289 0.004799174

weight f4 [32, 16, 2, 2]
000000 43 0e 81 be 3d 95 36 be 0b 82 aa 3d e7 d0 f7 3d
       -0.25206193 -0.17830367 0.08325585 0.12100392
000010 e6 d8 de 3d c9 c4 39 3d 8c e3 b0 bd dc 77 07 3d
       0.10881214 0.045353685 -0.08637151 0.03307329
000020 cf e9 7c 3d 70 ac b8 3c 7a c1 8d bb ad fc 5e 3d
       0.061746415 0.022543162 -0.0043260427 0.05444019
000030 a8 65 38 be d9 44 11 3d 0b 1f 64 be d8 42 92 bd
       -0.18007529 0.03546605 -0.22277467 -0.07141656
000040 b5 2d d5 bd cf 68 fa 3d d4 7c 36 3e 4b 8d 94 3e
       -0.104091085 0.12227022 0.17821056 0.29014048
000050 03 c9 59 3d cc ee b9 bd a0 b7 ba 3d f6 87 5c 3d
       0.053170215 -0.0907875 0.09117055 0.0538406
000060 61 e1 cd 3b 99 bb d4 bc 06 7f 0d 3d c5 2c 32 3e
       0.006282971 -0.02596836 0.034544967 0.1739989
000070 1f d1 a9 bd 82 be 0b 3e 3d 63 d0 bd cd 38 c3 3b
       -0.0829184 0.13646892 -0.10175178 0.005957699
000080 3e 46 39 be 0f f0 3a be 69 60 07 3e 7b d5 60 3e
       -0.18093202 -0.18255638 0.13220371 0.21956436
000090 c9 0a cf bd c8 f0 0f be c7 39 4f bd 30 85 a0 be
       -0.10109479 -0.14056695 -0.05059221 -0.31351614
0000a0 35 46 30 be 12 a0 a3 be 83 31 07 3d 29 fa 4c bd
       -0.17214282 -0.3195806 0.033006202 -0.05004326
0000b0 e2 9a 28 3e 22 9f 4b be 3e 7c 39 bd fd c0 0d bd
       0.16465333 -0.19884923 -0.045284502 -0.034607876
0000c0 6f 3f 0a be 97 f9 f1 bd 37 ec 63 bd ce 82 ca bd
       -0.1350076 -0.118151836 -0.055645194 -0.0988823
0000d0 f6 ef 82 bd bb 66 66 bd e6 5d 81 3b ee 3b cb bd
       -0.06393425 -0.056250315 0.003947961 -0.0992354
0000e0 30 4d 72 3d c5 37 12 3e 73 ca 0c bd 1b b1 0c be
       0.059155643 0.14279087 -0.034372758 -0.13739435
0000f0 a7 40 eb bd f8 d5 5d 3e 7a 3e a4 bd 4f 3a 17 3d
       -0.11486941 0.21663654 -0.08019729 0.03692084
000100 a2 c0 25 be b2 3f a5 3c 05 8b 26 3e bb a9 ec bd
       -0.16186765 0.020171974 0.16263969 -0.11555811
000110 94 c1 8b 3d eb 79 1d 3d dd d7 32 3d 43 46 56 bd
       0.068240315 0.03844635 0.043662895 -0.0523131
000120 e1 94 36 be 25 98 87 be 26 47 32 3e 1e 36 59 3e
       -0.1783023 -0.26483265 0.17409953 0.2121205
000130 6f 7e be 3d 99 cc fb bd 07 15 c1 3d 02 6e 14 3e
       0.09301459 -0.12294883 0.09427839 0.1449509
000140 35 ca 50 be 80 f9 f0 3d 4a 32 85 be 4b e1 97 be
       -0.20389636 0.11766338 -0.2601493 -0.29664072
000150 5c 01 00 3b 1e 55 e8 bd b9 07 6d bc 91 0f 52 bd
       0.001953206 -0.1134436 -0.014467173 -0.051284377
000160 1d 90 4c 3d 63 79 a3 bd 7a 90 0e 3d ef 4f d6 bd
       0.049942125 -0.07982137 0.034805752 -0.10464465
000170 d5 49 9e bd 39 ec 4f 3d 09 d7 d7 3c e3 2d 04 3e
       -0.07728926 0.05076239 0.026347654 0.1290813
000180 72 1a 00 3e 44 2f e6 bc ad 41 ec bd 9b d0 70 bd
       0.12510088 -0.02809871 -0.11535964 -0.05879269
000190 01 18 f1 bd 65 bb 9a bc f8 87 de bc 06 16 28 3d
       -0.117721565 -0.018888185 -0.027164444 0.04103663
0001a0 84 f1 b4 bd 69 34 c7 bd 4e 66 0f be 09 8f 7d be
       -0.08835128 -0.09726793 -0.1400387 -0.24761595
0001b0 e2 a2 a4 3d 76 59 7c 3d c4 aa 10 be f6 48 86 bc
       0.0803888 0.061608754 -0.14127642 -0.016392212
0001c0 d0 5d 9b bd b7 ee 8c bd c5 7d de bc 66 f2 71 bc
       -0.07586253 -0.06881469 -0.027159581 -0.014767265
0001d0 00 4c d7 3d d8 bb 29 3c 70 fa 7e bd 62 c9 6a bc
       0.10512543 0.010359727 -0.062250555 -0.01433024
0001e0 98 58 c2 bd 61 17 aa bd d9 3f 2c 3e bd 05 e7 ba
       -0.09489554 -0.083052404 0.16821231 -0.0017625612
0001f0 20 2b af 3d db 92 71 3d c1 a0 c3 3d c9 08 93 bd
       0.08553147 0.058977943 0.09552146 -0.0717941
000200 7a 51 89 3c ba 54 93 3d 22 a0 7f 3d 28 81 5b bc
       0.016762484 0.07193895 0.062408574 -0.0133974925
000210 b0 5e fc 3b 49 39 12 bd 4d c3 d7 3d 74 21 c6 bd
       0.0077017173 -0.035699163 0.105352975 -0.096743494
000220 2a 33 f3 3d 30 4d 20 be c4 8e 32 3e a9 6b d0 bd
       0.11874993 -0.15654445 0.17437273 -0.101767845
000230 88 72 26 be 9f ee 42 bd 3e af ac bd 1b 5d b4 3d
       -0.16254628 -0.047590848 -0.08431862 0.08806821
000240 9d 9d d6 3c a6 25 14 3d 60 98 cd bd 71 97 ad 3c
       0.026198203 0.036168717 -0.10038829 0.021190377
000250 84 93 fd 3c 57 01 d3 bc c8 b5 f8 bc cd 7e 3e bd
       0.03095413 -0.025757475 -0.030360118 -0.046507645
000260 e2 c1 2c 3d 80 25 e7 bd 1b ca 61 3d ad 15 e8 bd
       0.04217709 -0.112864494 0.055124383 -0.11332259
000270 ed 11 cc 3c b3 dd e6 3c 47 75 d4 bc 25 dc 9d 3c
       0.024910891 0.028181886 -0.025934828 0.019270012
000280 39 5b c3 bc 86 38 11 bd 07 a1 89 bd 85 8d 10 3b
       -0.02384721 -0.035454296 -0.06720167 0.0022057008
000290 43 34 a0 3c 39 7f 78 3c 4a 63 a8 3d 0f 63 09 bd
       0.01955617 0.015167051 0.08222063 -0.033541735
0002a0 ac bc 97 3d ed 66 b2 bd 1c 30 6c bc 2a 7e 64 bc
       0.07409033 -0.08711038 -0.014415767 -0.0139460955
0002b0 95 e5 ec bb 8d aa 83 bd 1c 8c 43 bc db 50 cc bc
       -0.0072295167 -0.06429014 -0.01193526 -0.024940899
0002c0 8a 19 94 bb 4e cf 32 bc 45 4b 32 bc f5 a9 b0 3d
       -0.004519646 -0.010913683 -0.0108822035 0.08626167
0002d0 d0 e9 19 3d fe d8 d8 bd 0c 57 8c 3c f5 c1 49 3d
       0.037576497 -0.10588263 0.017131351 0.049257237
0002e0 6a ce 4d 3d 45 51 19 bd 8f 6e 0f bd cb e6 ef bb
       0.05024568 -0.03743102 -0.035017546 -0.007321214
0002f0 7a e3 26 3c ed bb d8 bc 18 99 50 3c fd 80 c5 3d
       0.010186071 -0.026456797 0.012731813 0.09643743
000300 2a 06 3e 3d d0 bc 60 be 03 f7 42 bd ee b4 25 3d
       0.046392597 -0.21947026 -0.04759885 0.04045575
000310 68 dd 32 bd 73 35 76 3c a2 e2 88 ba 44 f6 59 3d
       -0.04366818 0.015027392 -0.0010443518 0.053213373
000320 e1 07 83 3e 36 4b 10 3e 21 ff dc bb 91 f3 72 be
       0.2559195 0.1409119 -0.006744281 -0.23725726
000330 e9 45 ac bd 18 d4 28 3d 41 e8 91 3d 91 d9 c3 bc
       -0.08411772 0.041217893 0.07124377 -0.023907455
000340 61 68 73 3e 98 8f a2 bb a7 a9 97 3d 3e b2 7a 3e
       0.23770286 -0.0049609654 0.074054055 0.24482056
000350 b1 ba a6 bb bc d4 1b 3e 58 eb 97 bc 09 84 a6 bc
       -0.0050881733 0.1521787 -0.018544838 -0.020326631
000360 72 53 61 3c 9d e6 fc bd d2 c9 0f 3d 39 78 82 3d
       0.013752805 -0.123486735 0.03510458 0.06370587
000370 e3 62 4d bd c6 d8 d2 bc b1 12 86 bd 8b bf d8 bc
       -0.050143134 -0.025738131 -0.06546534 -0.026458522
000380 1b 02 cc bc 3c c6 93 bd 8b ad 06 3e 53 21 a0 3d
       -0.024903348 -0.072155446 0.13152139 0.07818856
000390 9f 0a 8c 3c e3 ac 38 bc c5 8e 02 be 41 d7 f3 bd
       0.017094908 -0.011271688 -0.12749775 -0.11906291
0003a0 33 cf 4e bb d4 c0 90 bd 0d 75 97 bc c0 44 0e 3e
       -0.0031556606 -0.07068029 -0.018488431 0.13893414
0003b0 38 d6 fd bd d8 c0 40 3b e8 b0 92 3d 45 11 35 3d
       -0.123943746 0.0029411819 0.071626484 0.044205923
0003c0 a3 dd 0d bd af f1 76 bd f2 4a 0b bd 7d d1 0b 3c
       -0.034635197 -0.06028908 -0.03400702 0.008533833
0003d0 2a 34 2f 3d c4 62 8e bd 50 57 f8 3c 07 51 7a 3c
       0.042774357 -0.06952432 0.030315071 0.0152781075
0003e0 64 23 38 3e 20 39 d2 3d df 90 ca bd 56 a9 27 bd
       0.1798225 0.10264802 -0.09890913 -0.040932976
0003f0 b5 33 97 3d e9 a2 43 bd 70 ec 72 bd 35 79 97 3d
       0.07382909 -0.047762785 -0.059307516 0.07396165

bias f4 [16]
000000 9e 90 89 bb 8d 0a b6 bb a6 bb 05 be fb 10 ed ba
       -0.004198148 -0.005555457 -0.13059863 -0.0018086726
000010 d4 e1 93 3b 30 a6 6c bb 4d bf 0d bb 66 5f 4d 3a
       0.004513005 -0.0036109798 -0.0021628917 0.0007834345
000020 f2 92 31 3b f8 e2 b1 3a 35 ab 60 3c d9 83 b9 3b
       0.0027095643 0.001357167 0.013712694 0.0056614694
000030 4b 00 84 3c ae 8c a9 bb c6 4c 8e 3b e2 71 97 ba
       0.016113421 -0.005174241 0.004342648 -0.0011554325

weight f4 [16, 32, 3, 3]
000000 03 15 23 bd cb 8d 8f 3d 43 5b 9f 3e dd 1f fd bd
       -0.03981496 0.07009467 0.31124315 -0.12359593
000010 5d c5 5e bc ad c6 13 3e a4 52 a2 be ba b4 ec bd
       -0.01359686 0.14431258 -0.31703675 -0.11557908
000020 f8 91 0e bd 67 18 1e 3e c9 ba e6 bd e2 11 23 bd
       -0.034807175 0.15438996 -0.11266095 -0.039811976
000030 0c a0 01 3e a2 aa bc bc 90 5f a9 3d ee 6a 8c 3d
       0.1265871 -0.023030583 0.0827018 0.06856333
000040 f8 17 97 bd c4 f8 95 bd 20 c6 2b be 5c 3e 0e be
       -0.073776186 -0.07322839 -0.16774797 -0.13890976
000050 c2 2f c0 bd 9f c6 2a bd 30 ed 8e bc 1d 54 c7 bc
       -0.09384109 -0.041693326 -0.017447084 -0.0243321
000060 e7 c7 c7 3d d0 f6 98 3d 27 78 0c 3e 98 71 66 be
       0.09754925 0.07468951 0.1371771 -0.2250427
000070 9d c6 24 be 69 fd 66 be 5d 51 d9 bd 82 62 8f 3d
       -0.1609139 -0.22557606 -0.10611222 0.07001211
000080 a5 e0 a6 bc c1 d9 75 3e 1c 15 b2 3e 8c 01 32 3e
       -0.02037079 0.24008848 0.3478173 0.17383403
000090 e4 e1 50 bc d0 62 5c bc 17 cb e3 3d 28 f7 20 3e
       -0.012749169 -0.013451293 0.11122721 0.15719283
0000a0 59 d9 2f 3d c0 6a 40 be b0 16 cf bd 77 a0 33 3d
       0.04293189 -0.18790722 -0.10111749 0.043854203
0000b0 1f b8 af bd d9 e5 12 bd a3 04 17 bc a0 75 00 3d
       -0.0858004 -0.03586373 -0.009217414 0.031362176
0000c0 6a bc bf ba f2 90 5c bd 02 ea 04 be 0a 75 76 3d
       -0.0014628295 -0.053849168 -0.12979892 0.06017021
0000d0 a3 0d 92 bc 76 2f 25 3d 10 76 7a 3d 5b 81 d4 bd
       -0.017828768 0.040328465 0.06114775 -0.10376235
0000e0 66 cc d8 3c 47 61 87 bd d3 2a 9e 3b 26 d5 e9 bc
       0.026464652 -0.06610351 0.0048268824 -0.02854402
0000f0 e2 06 33 3d 7e 35 41 bd ac ca 01 3d 14 e7 84 be
       0.043707736 -0.047170155 0.031687424 -0.2595755
000100 95 71 6b be 43 d7 22 be 02 68 61 be 46 59 d1 bd
       -0.22992547 -0.15902428 -0.22012332 -0.10222106
000110 03 2d 2a 3e 26 5d 3f bd a7 b6 c4 3d 74 27 af 3e
       0.16618733 -0.046719693 0.09605151 0.34209788
000120 ba a7 f2 bd 6a 46 ff bc 59 db 39 3d c3 8f f4 bd
       -0.118483976 -0.031161506 0.0453752 -0.11941483
000130 3a a0 03 3e 24 ad c9 bd e4 17 9a bc 0b 2c 9e 3d
       0.1285409 -0.09847477 -0.01881022 0.07723244
000140 01 8a a9 3c a0 67 21 3e e5 fc 4a 3e 39 db ba 3d
       0.020695688 0.15762186 0.19823034 0.09123845
000150 2d ea 58 bc 07 c4 10 be b8 aa d2 bd 95 08 10 be
       -0.013239426 -0.14137278 -0.10286468 -0.14065774
000160 63 63 06 be 82 6b d3 bd 04 16 ff bc 68 0a 8f bd
       -0.1312385 -0.1032324 -0.031138428 -0.06984407
000170 83 b7 e4 3c 93 46 8f bd 12 1f df bc 4c 08 23 be
       0.027919536 -0.06995883 -0.027236495 -0.15921134
000180 37 7f 1c be 09 b0 9b bd 68 cf 41 bd 24 54 8d bb
       -0.15282904 -0.076019354 -0.04731694 -0.004313009
000190 31 89 5a bd 77 84 73 3c 18 e5 a7 3c 80 90 9b 3c
       -0.053353492 0.014863125 0.020494983 0.018989801
0001a0 6f 33 29 3d 81 a5 81 bc 68 88 6d bd fd ab 23 3d
       0.041308817 -0.015825989 -0.057991415 0.039958943
0001b0 1b 62 49 bd 56 ff 77 3d 55 f8 2f bd 2c b6 f5 bc
       -0.049165826 0.06054624 -0.042961437 -0.029994093
0001c0 87 96 18 bc 4b df 89 bd 0f b5 72 bd 40 8c 8d 3d
       -0.009313232 -0.06732043 -0.059254702 0.06911516
0001d0 95 ea 20 bd 98 dd 8c 3d 35 24 0f 3b 44 02 54 3e
       -0.039286215 0.06878203 0.002184165 0.2070399
0001e0 9c 65 eb bd fb a7 aa bc be d4 b6 bd d5 60 bd bd
       -0.1149399 -0.020832052 -0.08927296 -0.09246985
0001f0 b2 68 4d bd be 80 3b 3d 1c 4d 92 bd 5f 4f 16 3d
       -0.050148673 0.045777075 -0.07143614 0.036696788
000200 ce 86 2c bc a6 b3 53 3c 47 9e d1 bd 04 70 ad bc
       -0.010530187 0.0129212495 -0.10235267 -0.021171577
000210 f1 17 7d bd e4 17 d6 3d 16 3a be 3d c1 4d 14 3e
       -0.06179041 0.104537755 0.09288423 0.14482786
000220 37 03 a7 bc 62 01 bd 3c 5d 77 3f 3d 74 8a 2a 3d
       -0.020387275 0.023071948 0.046744693 0.041635945
000230 ad 8d e9 3c 2a 07 b0 bc 0c cf ea bb cd 52 c8 bd
       0.02850994 -0.021487791 -0.007165795 -0.09781418
000240 ff a3 25 be 01 c2 45 be 42 95 b3 be e7 39 31 bc
       -0.16175841 -0.19312288 -0.35074812 -0.010817028
000250 ef 81 48 bd f4 06 3c be 64 02 87 bc 23 a9 33 bd
       -0.04895204 -0.18362027 -0.016480632 -0.043862473
000260 9a f2 44 be db 0b 55 3d 73 c8 0f 3d 02 c4 0b 3d
       -0.1923317 0.05201326 0.035103273 0.034122474
000270 97 1c 82 3d d2 fd f2 bc 7d 4a 96 bd 67 36 88 3d
       0.06353109 -0.029662047 -0.07338426 0.066510014
000280 54 fd 0d bd e7 ae e2 bc 63 dd c3 3e cc c5 46 3e
       -0.03466542 -0.02767129 0.38254842 0.19411391
000290 f1 8d cf 3d e5 71 6c bd 51 b6 0b be 40 45 13 be
       0.10134495 -0.057725806 -0.13643767 -0.14381886
0002a0 ce 7f 98 be 6a 9b 71 be ca 48 71 be 8b 97 5e 3e
       -0.29785007 -0.23594442 -0.23562923 0.21737497
0002b0 b9 48 7e 3d ba a0 11 bd 01 69 cd bd 53 7f 88 bd
       0.062081072 -0.03555367 -0.100297935 -0.0666491
0002c0 53 10 bc bd 65 0a 2d be 4a 54 87 bd 84 da 2e be
       -0.09182801 -0.16898496 -0.06607874 -0.17075545
0002d0 fe 5c 5c 3b 81 ab 25 3a 82 23 ed bb df 4e c4 bc
       0.0033624764 0.00063198066 -0.007236899 -0.02396339
0002e0 20 d1 df bc c5 aa d3 bc aa b0 0e bd 16 52 ea bc
       -0.027321398 -0.025838265 -0.03483645 -0.028603595
0002f0 bc 5c 76 bc 7b 3c a4 be e9 00 94 be 49 bf d4 be
       -0.015036758 -0.32077393 -0.28906944 -0.4155219
000300 02 08 37 be d4 41 20 be 41 6f 93 be 60 74 2e be
       -0.17874148 -0.15650111 -0.28795817 -0.17036581
000310 cd 6b 33 be d9 3e b9 be 40 8e 89 bd e0 5c 01 bd
       -0.17521591 -0.3618076 -0.06716585 -0.031582713
000320 99 97 04 3d 7f 71 a4 bd 1a c9 0f bc 99 6d ff bb
       0.032371137 -0.0802946 -0.008775974 -0.0077950475
000330 42 33 a6 bd d4 8b 27 3d 0e 44 a6 bc b3 b7 a8 bd
       -0.081152454 0.040904835 -0.020296123 -0.08238163
000340 95 12 60 bd 90 a8 51 bd b0 25 22 bd d1 53 cd bb
       -0.05470522 -0.051186144 -0.039586723 -0.006266095
000350 0e e4 ff 3b d5 14 82 bd f6 1b b8 bd 4a 72 d6 bc
       0.0078091687 -0.0635163 -0.08989708 -0.026177544
000360 ce d9 65 3e e8 57 a4 3d 26 b4 cf 3c 02 c3 5a 3e
       0.22446367 0.08024579 0.025354456 0.21363452
000370 89 d6 e4 3d 21 d0 ef 3d 55 4b 98 3e 7c c2 34 3e
       0.11173732 0.11709619 0.29744974 0.17652315
000380 ce 13 59 3e 67 f0 6e 3d 17 8e 83 3b e4 12 54 bd
       0.21198961 0.058334734 0.004014741 -0.051775828
000390 b3 7d 48 bd a6 42 14 bd d9 66 07 bd b9 45 c8 bc
       -0.048948 -0.036196373 -0.033057068 -0.024447309
0003a0 85 de ee bc 80 b0 7d bd ea 10 57 bd 18 12 83 bb
       -0.02915884 -0.0619359 -0.052506365 -0.0039999597
0003b0 87 ef 16 3e 4e 7f ec bd 7a 7a 66 bd 8f 2f cd 3d
       0.1473981 -0.11547719 -0.056269147 0.10018837
0003c0 0f 99 08 be 8d d7 3f bc a1 87 c6 3d 5c cc b4 3c
       -0.13339637 -0.011709106 0.09693838 0.022070102
0003d0 26 64 9f 3d 50 15 1d 3e ab 82 8c 3c fb c2 4c bd
       0.07782774 0.15340161 0.017152151 -0.049990635
0003e0 54 d1 fe bd 34 15 8f 3d 7b fb 1c 3d 77 17 f8 bd
       -0.1244227 0.06986466 0.038325768 -0.121138506
0003f0 34 e6 bd be 63 36 2d be a0 59 28 3d fb 67 51 be
       -0.37089694 -0.16915278 0.041101098 -0.20449822

bias f4 [16]
000000 58 57 10 3e b4 7e 48 b9 ca fb 51 be 1a a3 bd be
       0.14095819 -0.00019120687 -0.20506206 -0.370385
000010 7e ad 4e ba 16 3d a1 95 2a 77 17 3f 9d 23 21 bf
       -0.0007884129 -6.512376e-26 0.59166205 -0.62944967
000020 ac bf 98 3e 07 3e 7c 3d 07 c1 30 3f 14 80 25 bb
       0.29833734 0.06158259 0.69044536 -0.0025253342
000030 0d 74 0c bf c3 18 ab b9 7b a2 5f 3e dd c3 b1 be
       -0.5486458 -0.0003263411 0.21839325 -0.34719744
