data/ForestSegmentationOutput/experiemnts/FIXED_BLOCK_run_01_28-12-2023_16h12min/unet_id=4mFow_width=32_num_layers=2_lr=0.01_epochs=140.pth (torch, 115765 bytes, 16 tensors)

weight f4 [16, 8, 3, 3]
-1.1982269e-31 -9.1124287e-32 -6.538333e-32 -1.2515912e-31 -9.0390743e-32 -6.008605e-32 -1.3235703e-31 -9.0758743e-32
-5.638171e-32 5.433e-41 6.2518e-41 6.7004e-41 5.3958e-41 6.4383e-41 6.0783e-41 5.6598e-41
6.3489e-41 6.3969e-41 -4.719246e-38 -4.1135327e-38 -3.4274272e-38 -4.781393e-38 -4.1077896e-38 -3.365664e-38
-4.964368e-38 -4.2220786e-38 -3.4240212e-38 1.016194e-39 6.41425e-40 2.28584e-40 1.129637e-39 7.75252e-40
3.18039e-40 1.298425e-39 9.41482e-40 4.29156e-40 -7.3424e-41 -7.3455e-41 -6.3927e-41 -6.992e-41
-7.3642e-41 -6.4294e-41 -6.0053e-41 -7.5492e-41 -7.2806e-41 4.252984e-12 4.197882e-12 4.1418184e-12
4.1829678e-12 4.1804698e-12 4.196422e-12 4.309978e-12 4.376727e-12 4.4794e-12 3.112048e-08 3.2550993e-08
3.403165e-08 2.9952346e-08 3.1504516e-08 3.317024e-08 2.953453e-08 3.1330806e-08 3.3311835e-08 1.0686427e-08
1.10574545e-08 1.1386783e-08 1.023931e-08 1.0654639e-08 1.1047992e-08 1.0040688e-08 1.05435385e-08 1.1049072e-08
-3.7339e-41 -1.8651e-41 -6.4945e-41 -5.9917e-41 -4.0898e-41 -5.0291e-41 -5.249e-41 -3.4993e-41
-2.5537e-41 6.8263e-41 6.1422e-41 6.8009e-41 5.0756e-41 6.1031e-41 6.1576e-41 2.951e-41
6.1567e-41 6.7732e-41 -4.2908e-41 -2.6925e-41 -1.626e-41 -5.1059e-41 -5.7469e-41 -4.9406e-41
-4.1827e-41 -4.6537e-41 -4.1518e-41 6.6601e-41 4.6544e-41 6.894e-42 6.0872e-41 4.9777e-41
6.8722e-41 3.5082e-41 4.9523e-41 5.4298e-41 -6.4741e-41 -2.4242e-41 1.9348e-41 -5.5493e-41
-3.4506e-41 3.0283e-41 -2.6773e-41 1.3057e-41 -6.142e-42 -5.4182448e-17 -4.9003245e-17 -2.310765e-18
-5.284922e-17 -5.81291e-17 7.4667096e-18 4.1105206e-18 -3.7177246e-17 1.4731613e-18 -1.1605145e-12 -3.302381e-12
-2.0560099e-12 2.7419913e-12 2.2984975e-12 -1.5796522e-12 -7.353467e-13 1.3578685e-12 2.0327286e-12 7.970034e-14
2.0848712e-13 -4.932717e-14 -4.6745184e-14 4.0791746e-13 3.0232652e-13 2.391092e-13 -6.4909395e-13 3.1992413e-13
1.45956e-40 1.43347e-40 -1.32454e-40 1.55404e-40 1.44185e-40 -5.927e-41 1.46916e-40 1.66403e-40
-2.9988e-41 -1.32915e-40 2.26395e-40 7.0824e-41 7.8145e-41 2.22071e-40 -2.05579e-40 -4.9864e-41
1.92995e-40 -2.0396e-40 1.23691e-40 -1.15505e-40 -1.89737e-40 1.98846e-40 -3.329e-41 -8.5837e-41
2.9664e-41 -1.6526e-40 -6.268e-41 1.9449e-40 8.1121e-41 1.73042e-40 -1.74125e-40 1.38947e-40
1.89184e-40 1.91447e-40 1.1433e-41 -2.06195e-40 -4.125e-42 3.08253e-40 1.85484e-40 -1.8695e-40
-4.9062e-41 2.63112e-40 -2.48425e-40 2.63356e-40 -3.8401e-41 -8.7581e-41 -1.04353e-40 -1.05868e-40
1.153e-42 -1.00441e-40 -7.7497e-41 2.2055e-41 -9.156e-41 8.3227e-41 8.0151e-41 9.2665e-41
8.859e-41 4.1125e-41 4.0998e-41 6.5708e-41 -5.472e-42 7.6304e-41 9.5158e-41 7.7837e-41
1.3555e-41 -7.211e-42 7.663e-41 6.9511e-41 6.8318e-41 1.3503e-41 4.0646e-41 -5.892e-42
7.06e-41 6.4266e-41 6.903e-41 6.9077e-41 4.5993e-41 5.3129e-41 6.2216e-41 5.9142e-41
4.8451e-41 -2.082e-41 -2.3716e-41 -2.3643e-41 8.788e-42 1.84e-42 8.011e-42 3.9781e-41
5.7271e-41 -7.1426e-41 -7.0227e-41 -5.9104e-41 -6.9677e-41 -1.2892e-41 -1.0563e-41 -6.3298e-41
-1.8015e-41 2.6553e-41 7.473e-42 -2.1445e-41 -2.231e-41 -5.5597e-41 3.631e-42 -1.003e-42
2.626e-42 6.2593e-41 6.6667e-41 5.4749e-41 2.8906e-41 -4.33e-43 1.1542e-41 -4.936e-41
00000000: eb89 1b8c 7a92 ec8b adbe a98b 4077 228c
00000010: f4aa ea8b 08fe 9b8b 2bcf 2b8c 889f eb8b
00000020: 1360 928b 7397 0000 46ae 0000 c8ba 0000
00000030: 6a96 0000 79b3 0000 70a9 0000 c69d 0000
00000040: fbb0 0000 52b2 0000 5878 8081 47f6 5f81
00000050: 5d9b 3a81 7229 8281 3ba6 5f81 823e 3781
00000060: 9824 8781 30df 6581 e46b 3a81 bc10 0b00
00000070: 08fc 0600 337d 0200 f84c 0c00 1671 0800
00000080: 9076 0300 7b23 0e00 7840 0a00 50ac 0400
00000090: adcc 0080 c3cc 0080 34b2 0080 e9c2 0080
000000a0: 49cd 0080 3ab3 0080 67a7 0080 71d2 0080
000000b0: f4ca 0080 79a3 952c 29b3 932c 2fba 912c
000000c0: d32c 932c 5316 932c 02a6 932c d5a4 972c
000000d0: 0dfe 992c d99a 9d2c 54a9 0533 32ce 0b33
000000e0: 322a 1233 f4a4 0033 954f 0733 1177 0e33
000000f0: 1eb3 fd32 9690 0633 c012 0f33 6797 3732
00000100: 33f7 3d32 9a9f 4332 f6e8 2f32 990b 3732
00000110: 95cd 3d32 6a7f 2c32 f922 3532 55d2 3d32
00000120: 1668 0080 fe33 0080 0ab5 0080 06a7 0080
00000130: 0272 0080 318c 0080 5292 0080 8c61 0080
00000140: 3047 0080 4abe 0000 38ab 0000 95bd 0000
00000150: 7d8d 0000 21aa 0000 a6ab 0000 4352 0000
00000160: a0ab 0000 cfbc 0000 9c77 0080 0e4b 0080
00000170: 542d 0080 558e 0080 33a0 0080 b989 0080
00000180: 9974 0080 ba81 0080 bc73 0080 a8b9 0000
00000190: bf81 0000 3813 0000 b0a9 0000 c28a 0000
000001a0: 92bf 0000 cb61 0000 0d8a 0000 5c97 0000
000001b0: 79b4 0080 9443 0080 ef35 0000 b19a 0080
000001c0: 3060 0080 6b54 0000 a24a 0080 6624 0000
000001d0: 1f11 0080 58df 79a4 d2fc 61a4 1e81 2aa2
000001e0: 59b9 73a4 5d09 86a4 8abc 0923 c5a6 9722
000001f0: 2573 2ba4 7666 d921 f153 a3ab 6862 68ac
00000200: c8ad 10ac 53f3 402c 0dbe 212c f850 deab
00000210: 50fb 4eab 5e1a bf2b 620a 0f2c 1e78 b329
00000220: 52bc 6a2a 5b26 5ea9 8785 52a9 1aa3 e52a
00000230: d831 aa2a 449b 862a 26b4 36ab ed19 b42a
00000240: de96 0100 988f 0100 3a71 0180 34b1 0100
00000250: ee91 0100 38a5 0080 8b99 0100 ddcf 0100
00000260: 9853 0080 8372 0180 1977 0200 6ec5 0000
00000270: d6d9 0000 0b6b 0200 123d 0280 008b 0080
00000280: fe19 0200 8f38 0280 cd58 0100 fb41 0180
00000290: e910 0280 4d2a 0200 cd5c 0080 47ef 0080
000002a0: b152 0000 adcc 0180 baae 0080 291e 0200
000002b0: 22e2 0000 5fe2 0100 64e5 0180 5483 0100
000002c0: 5e0f 0200 ad15 0200 df1f 0000 ca3e 0280
000002d0: 800b 0080 495b 0300 0e05 0200 2409 0280
000002e0: c488 0080 73dd 0200 82b4 0280 21de 0200
000002f0: 0c6b 0080 24f4 0080 e522 0180 1e27 0180
00000300: 3703 0000 fd17 0180 08d8 0080 7b3d 0000
00000310: 3bff 0080 01e8 0000 6edf 0000 5002 0100
00000320: f4f6 0000 a472 0000 4972 0000 2bb7 0000
00000330: 410f 0080 b4d4 0000 4309 0100 fad8 0000
00000340: c925 0000 1a14 0080 9dd5 0000 c5c1 0000
00000350: 71be 0000 a425 0000 4e71 0000 6d10 0080
00000360: cec4 0000 26b3 0000 6dc0 0000 8fc0 0000
00000370: 3680 0000 1a94 0000 6fad 0000 dda4 0000
00000380: 1087 0000 0a3a 0080 1c42 0080 e841 0080
00000390: 7f18 0000 2105 0000 5516 0000 e56e 0000
000003a0: a69f 0000 1bc7 0080 c4c3 0080 c2a4 0080
000003b0: 3bc2 0080 f023 0080 721d 0080 73b0 0080
000003c0: 3832 0080 054a 0000 d514 0000 c83b 0080
000003d0: 313e 0080 fb9a 0080 1f0a 0000 cc02 0080
000003e0: 5207 0000 7cae 0000 d7b9 0000 9e98 0000
000003f0: 9450 0000 3501 0080 2d20 0000 9889 0080

bias f4 [16]
0.00043751512 -4.634039e-06 -3.5767e-41 -9.171939e-09 -2.2222824e-08 -3.5592643e-18 1.71558e-40 -9.8038e-41
-3.2551e-41 -1.71522e-40 7.1249e-41 -3.234684e-21 6.5052e-41 -1.3606648e-10 3.8966843e-35 -1.3118081e-06
00000000: 4962 e539 187e 9bb6 b463 0080 9d92 1db2
00000010: 82e4 beb2 4d50 83a2 3cde 0100 4a11 0180
00000020: bd5a 0080 22de 0180 9dc6 0000 e367 749d
00000030: 57b5 0000 4f9b 15af eb2e 4f06 6211 b0b5

weight f4 [16, 16, 3, 3]
7.6282e-41 7.4784e-41 7.5452e-41 7.2741e-41 7.4445e-41 7.5697e-41 6.7488e-41 7.4983e-41
7.5878e-41 -6.88927e-40 -3.00778e-40 7.66083e-40 -5.39386e-40 -2.61583e-40 8.1528e-40 4.99529e-40
-3.41904e-40 -4.8502e-41 -3.400738e-06 2.88218e-10 -9.573799e-13 -4.4566775e-07 4.2299766e-12 -6.0514054e-08
-8.212984e-12 -3.7382752e-10 3.0357803e-06 -9.62696e-40 4.4736e-40 1.132385e-39 -7.75867e-40 1.5226e-40
9.3315e-41 1.2186e-39 -5.249e-40 2.45817e-40 6.03964e-40 1.094839e-39 -2.94046e-40 6.84341e-40
-8.72242e-40 4.25017e-40 -6.85438e-40 2.772e-41 2.57378e-40 -0.0011667679 3.8664302e-06 0.0009895039
9.7515454e-05 -1.1421e-39 2.1003667e-10 5.78984e-40 -9.23365e-07 1.646287e-09 -1.4577766e-07 1.2857984e-10
6.064571e-05 0.00015379906 1.2493986e-10 -1.9467672e-09 4.7636135e-09 -2.475077e-10 -0.0004710793 -7.241922e-05
-1.0446532e-06 5.7939396e-06 -4.8491324e-07 -6.1529016e-07 -2.7760844e-10 -1.16509796e-07 -0.00047762704 -2.3144815e-12
-3.348571e-13 7.1648905e-08 -3.0567896e-13 6.7335935e-11 -1.5574289e-13 -2.4479132e-12 2.9140302e-13 1.8354654e-10
-5.947661e-07 -9.45909e-11 6.2017156e-05 6.70337e-08 -8.705577e-12 -4.9495092e-11 -2.4966646e-06 -0.0011872491
-1.124293e-11 -6.545301e-07 -7.56939e-05 -2.6358466e-05 -2.459362e-05 2.627226e-12 0.00011136415 1.6719296e-05
-0.00028309104 -2.4759578e-12 -2.0617468e-13 2.0307264e-06 -1.109601e-07 1.27906045e-11 -5.031316e-06 8.964406e-16
-6.0121413e-10 -0.00042135757 2.9100994e-15 7.077453e-16 -1.1295437e-10 1.4441813e-14 -7.944162e-05 0.0011022718
1.2164301e-05 -5.385352e-12 -0.0006703199 2.0908563e-11 3.1315483e-06 -6.63e-40 -3.83943e-40 3.037e-40
-2.08994e-40 -2.86105e-40 1.66669e-40 -2.67438e-40 -6.3112e-40 7.4151e-41 2.8732296e-05 -7.521269e-06
-5.1199633e-10 1.6731463e-05 -7.494258e-05 -1.1126535e-06 0.00012990371 -6.5085632e-12 -5.3009496e-13 5.47934e-40
-2.77177e-40 -1.40444e-40 2.2314e-41 1.64448e-40 -5.3842e-41 4.65134e-40 5.52298e-40 -5.15646e-40
9.7035e-40 3.226392e-39 4.71328e-40 1.1521258e-36 -4.287794e-36 8.5802e-41 3.5848614e-37 2.2977686e-35
2.83882e-40 1.6632e-41 6.5008e-41 3.2528e-41 4.025e-42 6.7753e-41 6.1853e-41 4.2665e-41
4.6414e-41 6.7054e-41 3.03736e-40 6.28848e-40 2.53076e-40 5.37803e-40 3.89502e-40 -1.46053e-40
1.79285e-40 1.63243e-40 -1.67423e-40 6.7959e-41 4.9149e-41 -2.4862e-41 3.569e-41 3.128e-42
1.0239e-41 2.3598e-41 -3.1305e-41 -5.5487e-41 3.6414e-41 5.161e-41 2.0738e-41 6.6221e-41
-2.3791e-41 1.334e-42 -6.895e-41 2.597e-41 -3.3663e-41 -5.1048e-41 -7.2576e-41 -6.076e-41
5.388e-41 -7.2151e-41 -6.0536e-41 6.0668e-41 -7.2985e-41 2.1293e-41 -1.6270293e-24 -5.340511e-23
-5.909625e-20 -8.961986e-20 1.7263205e-24 -4.146453e-20 -4.405991e-24 -8.9863706e-26 -5.912076e-26 -2.29505e-40
-1.26197e-40 -3.65508e-40 4.93927e-40 -6.3245e-40 9.0977e-41 1.44599e-40 -1.8335e-40 1.31318e-40
3.66099e-40 4.54527e-40 -3.11593e-40 3.20724e-40 4.31365e-40 -2.43431e-40 -1.39261e-40 -2.64759e-40
-2.35013e-40 -1.7030646e-17 4.5345158e-17 -7.0233997e-16 0.00022844311 -4.624845e-08 -1.3422318e-14 -1.8645e-12
-4.57025e-05 1.10748094e-13 -4.3654383e-20 1.637761e-09 -1.0747749e-08 -0.00019254765 -6.8710757e-09 -3.9685983e-09
4.5025947e-05 -2.1237243e-07 1.4753894e-18 -1.8342e-41 7.5185e-41 6.3678e-41 3.2614e-41 6.4552e-41
4.7454e-41 -7.25e-41 7.4564e-41 7.7604e-41 4.9543e-41 -5.2507e-41 -5.7867e-41 -7.8698e-41
00000000: a5d4 0000 78d0 0000 54d2 0000 c6ca 0000
00000010: 86cf 0000 03d3 0000 21bc 0000 06d1 0000
00000020: 84d3 0000 7380 0780 7246 0380 8757 0800
00000030: 97df 0580 30d9 0280 abe0 0800 7c70 0500
00000040: 17b9 0380 3487 0080 3c38 64b6 1473 9e2f
00000050: 3fbd 86ab 1c44 efb4 3ed4 942c f4f3 81b3
00000060: fe7b 10ad 8c83 cdaf 4fba 4b36 9b7b 0a80
00000070: 0fdf 0400 a154 0c00 cd72 0880 70a8 0100
00000080: 2004 0100 f644 0d00 35b7 0580 3dad 0200
00000090: 9b93 0600 f7eb 0b00 ae33 0380 aa73 0700
000000a0: 757f 0980 c6a0 0400 b976 0780 464d 0000
000000b0: 77cd 0200 3cee 98ba 62bc 8136 3eb2 813a
000000c0: 3681 cc38 b66f 0c80 11f0 662f f94d 0600
000000d0: 29dd 77b5 9343 e230 0f87 1cb4 0260 0d2f
000000e0: d65d 7e38 1f45 2139 725f 092f e4c7 05b1
000000f0: 30ad a331 9d11 88af 31fb f6b9 c6df 97b8
00000100: 0336 8cb5 9069 c236 fc2a 02b5 6b2a 25b5
00000110: ea9d 98af f033 fab3 046a fab9 fedd 22ac
00000120: fe81 bcaa 67dd 9933 fb14 acaa c312 942e
00000130: d559 2faa af41 2cac 9a0b a42a c2cf 492f
00000140: 04a8 1fb5 f101 d0ae 350f 8238 2bf4 8f33
00000150: 6f26 19ad 85ae 59ae 5f8c 27b6 789d 9bba
00000160: a8c9 45ad f7b2 2fb5 dabd 9eb8 601c ddb7
00000170: 664e ceb7 e5df 382c 2c8c e938 6a40 8c37
00000180: d66b 94b9 e43a 2eac ce21 68aa 9d47 0836
00000190: f648 eeb3 c303 612d add2 a8b6 d230 8126
000001a0: af42 25b0 a8e9 dcb9 dcb1 5127 63fe 4b26
000001b0: a863 f8ae 8e14 8228 e599 a6b8 1b7a 903a
000001c0: 4615 4c37 f07a bdac 68b8 2fba e6e9 b72d
000001d0: 9727 5236 2d38 0780 472e 0480 984e 0300
000001e0: 9746 0280 8b1d 0380 9bd0 0100 82e9 0280
000001f0: 4edf 0680 b4ce 0000 2306 f137 355f fcb6
00000200: 8abc 0cb0 8b5a 8c37 7e2a 9db8 7c56 95b5
00000210: c336 0839 edff e4ac 5e35 15ab 6bf7 0500
00000220: a804 0380 8087 0180 343e 0000 6aca 0100
00000230: 1796 0080 9b10 0500 9503 0600 699d 0580
00000240: f190 0a00 de21 2300 df21 0500 2806 c403
00000250: f161 b684 2eef 0000 18f9 f302 3657 f405
00000260: 5917 0300 5d2e 0000 37b5 0000 ad5a 0000
00000270: 380b 0000 debc 0000 6cac 0000 ef76 0000
00000280: 6281 0000 ebba 0000 b14e 0300 f9d8 0600
00000290: 79c1 0200 2ddb 0500 c63d 0400 2397 0180
000002a0: c6f3 0100 0ec7 0100 b5d2 0180 71bd 0000
000002b0: 0289 0000 4e45 0080 7d63 0000 b808 0000
000002c0: 8b1c 0000 c841 0000 4457 0080 ad9a 0080
000002d0: 8265 0000 de8f 0000 cf39 0000 99b8 0000
000002e0: 5242 0080 b803 0000 34c0 0080 6548 0000
000002f0: d75d 0080 4d8e 0080 50ca 0080 60a9 0080
00000300: 3296 0000 21c9 0080 c0a8 0080 1ea9 0000
00000310: 74cb 0080 5b3b 0000 45c5 fb97 2920 819a
00000320: 7e89 8b9f e29b d39f 4d91 0518 8acf 439f
00000330: d272 aa98 e47d de95 3c60 9295 c47f 0280
00000340: c95f 0180 e3fa 0380 de60 0500 03e3 0680
00000350: 9bfd 0000 1593 0100 1bff 0180 106e 0100
00000360: 89fc 0300 09f3 0400 9864 0380 0c7e 0300
00000370: 78b2 0400 96a6 0280 3484 0180 0ae2 0280
00000380: 1f8f 0280 7a14 9da3 1d1e 5124 8b6f 4aa6
00000390: 3b8a 6f39 b5a2 46b3 84cb 71a8 d933 03ac
000003a0: b0b0 3fb8 ee61 f929 e926 4e9f 9817 e130
000003b0: 1aa5 38b2 9ee6 49b9 9f16 ecb1 295c 88b1
000003c0: 3eda 3c38 7d08 64b4 a3ba d921 2133 0080
000003d0: 96d1 0000 82b1 0000 ea5a 0000 f2b3 0000
000003e0: 4884 0000 1aca 0080 dbcf 0000 54d8 0000
000003f0: 1b8a 0000 5e92 0080 4fa1 0080 61db 0080

bias f4 [16]
-0.043795016 -9.249117e-10 -9.231314e-21 -1.7895402e-08 -0.0003977196 -1.9039935e-19 -3.2253395e-12 -1.6569416e-29
-1.3111624e-07 -5.395459e-17 -5.2781186e-20 -1.8133043e-05 -4.3311056e-15 -0.00073847146 -1.6940525e-05 1.7271149e-35
00000000: 6762 33bd e03c 7eb0 e55f 2e9e 68b8 99b2
00000010: 0585 d0b9 acc8 60a0 8df6 62ac aa08 a88f
00000020: f5c8 0cb4 56d2 78a4 8a40 799f 6a1c 98b7
00000030: 660b 9ca7 fb95 41ba 801b 8eb7 8aa8 b705

weight f4 [32, 16, 3, 3]
9.312261e-09 2.4653876e-10 3.1029126e-09 7.433178e-12 6.601821e-06 -2.1936437e-06 -2.4725394e-05 5.532459e-11
-8.439902e-09 5.7834e-40 3.58231e-40 -3.77681e-40 6.76934e-40 -4.39304e-40 -5.524e-42 -9.7404e-41
-8.66629e-40 3.97824e-40 1.58288e-40 3.0239e-41 -1.5058e-41 -1.8714e-41 -1.23705e-40 -2.02034e-40
-7.8974e-40 -3.4979e-41 5.19342e-40 -3.96164e-40 -2.20311e-40 3.0215e-40 5.06761e-40 -2.79361e-40
-4.40152e-40 -6.2124e-41 -3.23238e-40 -5.5253e-41 4.625513e-14 3.9140246e-13 2.7859591e-11 8.900294e-12
-1.1452053e-11 -7.064027e-06 9.2501466e-08 -0.0001170605 1.2314596e-06 5.79947e-40 -5.87852e-40 -3.33837e-40
1.85935e-40 1.19776e-40 6.10935e-40 6.7021e-41 2.29663e-40 -3.84401e-40 -9.55517e-09 8.403476e-09
-1.5554257e-08 4.5584658e-10 5.832954e-10 6.509048e-07 1.556643e-06 6.077982e-11 8.161858e-10 3.98039e-40
2.24927e-40 5.2553e-41 3.07271e-40 -9.992e-41 6.37985e-40 -5.61185e-40 -5.42706e-40 3.17767e-40
-5.806375e-12 -0.00011839809 1.6586785e-13 -7.9463075e-07 -3.538584e-14 -9.807923e-12 8.39752e-11 -0.00022228126
-5.6001478e-11 2.66023e-40 -1.52223e-40 7.23566e-40 -5.32252e-40 7.14061e-40 -3.30052e-40 1.5047e-41
-7.14851e-40 2.06826e-40 -0.00025394285 2.7369388e-13 1.7258385e-09 5.5201566e-10 2.8493282e-11 8.288509e-09
-2.3718016e-09 -3.2393464e-07 1.8613875e-09 -2.39881e-40 -3.684e-41 1.46329e-40 -2.1342e-40 2.891e-42
-2.5106e-41 5.2631e-41 -2.0577e-41 -9.8843e-41 -5.336e-42 -5.80289e-40 -1.45577e-40 -3.22346e-40
2.71696e-40 -3.80492e-40 4.461e-41 -1.51618e-40 5.59452e-40 -1.5719404e-12 -1.6715233e-11 0.0015637279
-7.42278e-05 2.090836e-09 -1.1861798e-10 2.129104e-05 3.804895e-12 3.786576e-10 -2.5338293e-05 4.0008358e-10
-0.0003423905 -2.504475e-12 1.2534556e-12 -5.0969185e-05 4.655924e-10 3.9150535e-07 1.8263558e-08 1.76729e-40
1.57216e-40 2.4164e-41 1.70646e-40 -2.21313e-40 8.02144e-40 -2.9743e-41 -3.68715e-40 -7.19673e-40
3.2450513e-14 -8.0562255e-13 -1.6384107e-06 -1.1371042e-11 0.00015119315 6.462821e-05 -4.5654753e-05 -1.7888661e-11
-5.894907e-06 -1.0244347e-18 -4.8702227e-17 1.0387763e-19 2.38729e-06 1.4339056e-05 -4.881579e-07 0.00042673005
-1.2253238e-05 -7.600111e-07 1.20593e-40 3.4083e-40 -1.12767e-40 -3.9812e-41 -5.10391e-40 -4.21093e-40
2.01191e-40 -8.75485e-40 1.1247e-40 9.871335e-15 -2.6983893e-18 6.4532965e-17 -1.5852145e-15 -2.2914517e-20
1.5255646e-18 -1.4502905e-12 -1.435636e-20 -4.3174556e-18 -2.6977085e-07 -3.046251e-06 2.6964245e-11 8.769706e-11
-5.4541335e-08 -1.8339023e-08 -4.954601e-10 -1.3637974e-07 -1.1407993e-10 4.2706407e-08 2.9983507e-10 -1.0003011e-11
6.3933317e-27 -0.0005217205 -2.757383e-09 5.3262355e-09 -5.7568727e-08 2.4999345e-11 -4.04059e-40 -2.54095e-40
-9.2709e-41 2.69914e-40 -4.406e-42 2.31293e-40 -2.04364e-40 4.12046e-40 3.18222e-40 -2.8800633e-07
-7.321558e-19 1.5334603e-25 1.247076e-27 2.3588931e-21 6.305459e-05 -0.0006249525 -1.4364275e-12 -1.3137894e-13
-6.299043e-06 -1.2796434e-06 7.0628624e-07 -3.1882175e-09 -5.690693e-14 4.7840206e-07 6.4820965e-14 4.621668e-10
4.2576402e-12 1.44286e-40 4.82e-43 -6.04089e-40 6.91619e-40 -6.04894e-40 4.38595e-40 -6.4645e-41
1.06663e-40 -5.09019e-40 1.9112111e-08 2.5807523e-09 2.3059377e-07 3.0603773e-12 -5.6624217e-06 6.031678e-13
-5.014441e-10 -0.00021639561 -3.8908816e-08 -2.06487e-40 -9.712e-41 -2.73496e-40 2.71076e-40 -3.2893e-41
2.56447e-40 -4.46506e-40 3.33893e-40 8.2806e-41 3.0165256e-07 -3.6037625e-13 5.6220306e-36 -1.8745388e-27
00000000: c2fb 1f32 3f89 872f 043b 5531 0fc4 022d
00000010: 3685 dd36 8336 13b6 6169 cfb7 f351 732e
00000020: 15ff 10b2 2d4c 0600 9ae6 0300 d21c 0480
00000030: 045f 0700 9ac8 0480 660f 0080 860f 0180
00000040: cf6f 0980 f954 0400 3eb9 0100 4b54 0000
00000050: fa29 0080 2b34 0080 d758 0180 3033 0280
00000060: 7999 0880 8261 0080 b7a7 0500 5850 0480
00000070: 2366 0280 454a 0300 a584 0500 bf0a 0380
00000080: f7ca 0480 2dad 0080 0e85 0380 069a 0080
00000090: 8950 5029 0a57 dc2a 390e f52d 5c93 1c2d
000000a0: 7677 49ad 8807 edb6 38a5 c633 617e f5b8
000000b0: a148 a535 a850 0600 b166 0680 9aa2 0380
000000c0: 5006 0200 e34d 0100 0aa7 0600 d4ba 0000
000000d0: 3580 0200 8e2f 0480 1528 24b2 e15e 1032
000000e0: 2c9c 85b2 b49a fa2f c455 2030 d6b9 2e35
000000f0: d9ed d035 ffa7 852e f859 6030 9255 0400
00000100: 0173 0200 7f92 0000 8c58 0300 8916 0180
00000110: 71f2 0600 5b1c 0680 d8e8 0580 ce75 0300
00000120: 2d4b ccac 7e4c f8b8 27c0 3a2a 9c4e 55b5
00000130: 195d 1fa9 f58a 2cad d6a9 b82e 2c14 69b9
00000140: 0f4c 76ae 90e5 0200 56a8 0180 02e1 0700
00000150: b4cb 0580 83c6 0700 0d98 0380 f229 0000
00000160: b7c8 0780 8c40 0200 a223 85b9 7213 9a2a
00000170: 8b32 ed30 a6bc 1730 2ba1 fa2d 4065 0e32
00000180: 2dfd 22b1 3de9 adb4 c0d3 ff30 b19c 0280
00000190: b266 0080 e897 0100 ee52 0280 0f08 0000
000001a0: fc45 0080 b792 0000 5c39 0080 8913 0180
000001b0: e00e 0080 9c51 0680 cf95 0180 9282 0380
000001c0: 61f5 0200 a824 0480 5b7c 0000 a6a6 0180
000001d0: 8617 0600 1f3b ddab 5c07 93ad 00f6 cc3a
000001e0: bfaa 9bb8 60ae 0f31 fe6b 02af 299a b237
000001f0: 73df 852c 522b d02f 928d d4b7 c2f2 db2f
00000200: e082 b3b9 9c3c 30ac 7f68 b02b bfc7 55b8
00000210: 4ef6 ff2f 1630 d234 fde1 9c32 a6ec 0100
00000220: 41b6 0100 5c43 0000 b1db 0100 ee68 0280
00000230: 0dbc 0800 e952 0080 d403 0480 28d6 0780
00000240: e524 1229 39c3 62ab 5de7 dbb5 9f0a 48ad
00000250: 9a89 1e39 0289 8738 6b7d 3fb8 af59 9dad
00000260: decc c5b6 0c2e 97a1 7199 60a4 2d46 f51f
00000270: 5435 2036 c791 7037 f509 03b5 bdba df39
00000280: 4293 4db7 9103 4cb5 2a50 0100 18b6 0300
00000290: 593a 0180 fb6e 0080 c38e 0580 d695 0480
000002a0: d730 0200 7f88 0980 8539 0100 7fd3 3128
000002b0: 221b 47a2 8acd 9424 1874 e4a6 e76b d89e
000002c0: 3322 e121 391c ccab 8c97 879e 3749 9fa2
000002d0: 06d5 90b4 326e 4cb6 152e ed2d 0ed9 c02e
000002e0: d540 6ab3 f087 9db2 e830 08b0 c76f 12b4
000002f0: 4bdd faae 316c 3733 09d6 a42f 8ef9 2fad
00000300: 1644 fd13 12c4 08ba 657c 3db1 1002 b731
00000310: 7c41 77b3 85e5 db2d 5a66 0480 50c4 0280
00000320: 6f02 0180 69f0 0200 480c 0080 c084 0200
00000330: af39 0280 9e7c 0400 1377 0300 4a9f 9ab4
00000340: 2118 58a1 4cd5 3d16 6a9b c512 a13b 321d
00000350: 2d3c 8438 dad3 23ba c128 caab 67eb 13aa
00000360: 5e5c d3b6 36c0 abb5 9f97 3d35 b717 5bb1
00000370: 9d24 80a9 8a6b 0035 bef6 9129 3214 fe2f
00000380: 6acd 952c 3692 0100 5801 0000 f493 0680
00000390: f487 0700 3396 0680 a0c6 0400 34b4 0080
000003a0: 5529 0100 f08a 0580 fa2b a432 1359 3131
000003b0: 2299 7734 db5a 572c d5ff bdb6 d2c6 292b
000003c0: fed5 09b0 41e8 62b9 b21c 27b3 9a3f 0280
000003d0: bb0e 0180 65fa 0280 a6f3 0200 b15b 0080
000003e0: dfca 0200 addc 0480 c2a2 0300 d4e6 0000
000003f0: d0f2 a134 b1df caaa 7e22 ef04 2a84 1493

bias f4 [32]
-0.087370016 -4.1984297e-10 -3.5e-44 -6.0625473e-07 -5.29415e-07 3.806803e-13 4.4465077e-27 -2.36265e-40
-3.3796518e-05 8.237942e-27 -0.0051942836 1.6256e-41 1.7171087e-35 -3.5057598e-20 -1.4235169e-36 -1.4733768e-16
1.4717352e-13 -5.4146216e-36 -1.8364842e-30 -0.00023708523 -4.5984216e-25 -8.491746e-15 -3.484e-42 1.491368e-39
2.3422933e-26 -0.0014491398 5.8848512e-36 5.55e-43 7.867729e-37 -2.16551e-40 -1.8224e-41 -2.1335104e-06
00000000: 0def b2bd a5cf e6af 1900 0080 82bd 22b5
00000010: 1f1d 0eb5 d04d d62a f224 b013 9c92 0280
00000020: bcc0 0db8 542b 2314 cf34 aabb 512d 0000
00000030: 2598 b605 098e 259f e832 f283 68de 29a5
00000040: e1b3 252a 0250 e684 49fe 148e 159a 78b9
00000050: 7350 0e97 44f9 18a8 b609 0080 543d 1000
00000060: 31f8 e714 10f1 bdba 5b50 fa04 8c01 0000
00000070: cbdc 8503 a85b 0280 cd32 0080 6e2d 0fb6

weight f4 [32, 32, 3, 3]
9.9167e-41 1.16533e-40 6.64814e-40 6.43762e-40 -5.5441e-41 6.546e-41 6.25273e-40 -5.32708e-40
-6.75478e-40 9.229168e-06 -1.8980468e-09 0.0001536333 -2.0457728e-13 0.00016022536 2.7116397e-07 -3.1755502e-07
6.31317e-13 -7.337883e-15 -7.0987e-41 -2.9815e-41 -4.6665e-41 -7.399e-41 -5.0245e-41 -2.9644e-41
-8.2611e-41 -7.0019e-41 -5.7253e-41 5.9111834e-14 -2.5081527e-11 -6.0339784e-07 2.3327301e-08 1.0940341e-11
-1.1151456e-12 3.231116e-06 -5.999848e-14 4.78188e-06 8.2885e-41 -4.1208e-41 -8.895e-41 3.202e-41
-3.1426e-41 -9.0098e-41 7.1587e-41 -5.287e-42 -6.5107e-41 -1.5257936e-06 1.7910644e-07 -1.6516547e-07
-6.4746054e-08 2.0421679e-08 2.5616764e-08 2.5306642e-11 -4.590399e-13 3.812939e-13 -3.0677e-41 7.9011e-41
-4.0621e-41 -2.173e-42 5.9181e-41 6.0797e-41 7.1773e-41 5.1428e-41 2.9287e-41 1.251246e-10
0.00062494026 -4.4446187e-14 4.047869e-13 -5.64849e-12 -5.416298e-09 -4.7677904e-13 2.291205e-12 -4.880136e-09
-3.2201225e-12 1.391914e-12 -2.6737229e-14 2.1615518e-10 1.4154508e-12 9.627024e-08 -3.8592443e-06 9.767249e-07
1.8343535e-06 -1.1732926e-14 2.3666094e-07 4.5857423e-06 -1.4541746e-12 -1.0894294e-08 -3.199996e-11 5.4673533e-11
-1.8453682e-09 4.9130634e-08 -4.0369765e-20 -4.9393053e-19 6.5356504e-13 1.38397925e-14 1.6586887e-18 -1.6828893e-12
-5.82907e-20 -3.0314195e-12 4.0214403e-16 4.2068224e-09 -1.114954e-08 3.956369e-11 6.042984e-11 -1.0895592e-13
-1.6481132e-13 -1.0187622e-10 1.1351228e-09 3.4395594e-12 -1.09558e-40 -9.8211e-41 3.4975e-41 -1.17511e-40
-1.20666e-40 1.42761e-40 -1.19853e-40 1.1964e-40 1.0188e-40 -3.334432e-11 -1.0606453e-08 -2.791509e-06
3.1456177e-05 -3.6253556e-11 4.5302784e-08 4.2586762e-13 -6.8336426e-06 -4.9561404e-08 1.41032e-40 1.47005e-40
-3.1965e-41 1.26453e-40 1.44245e-40 -1.331e-41 -1.2037e-40 9.2197e-41 1.18761e-40 -6.182e-41
-8.6257e-41 -8.2635e-41 -8.7747e-41 -7.2827e-41 -6.208e-41 -3.9742e-41 7.305e-42 -9.5993e-41
4.5155e-41 7.893e-41 1.9195e-41 6.505e-42 7.8121e-41 8.862e-42 1.5787e-41 7.5215e-41
3.1766e-41 2.9529443e-12 1.1184196e-06 -1.7455537e-11 -5.6257177e-10 8.4453694e-07 3.386889e-05 7.818197e-10
-2.7838723e-06 4.667839e-11 5.839e-41 3.9306e-41 8.6764e-41 4.3862e-41 8.4774e-41 8.4018e-41
7.038e-41 7.1752e-41 6.6274e-41 -0.0006925637 1.6617151e-34 1.350806e-22 5.87046e-32 1.104138e-39
-7.016474e-10 -0.00036605538 8.35604e-40 -2.7082906e-31 -8.5359e-41 -1.9074e-41 -1.3317e-41 -8.598e-41
-6.1458e-41 -6.848e-42 -4.7105e-41 -6.6946e-41 -8.458e-42 -1.0689327e-09 1.918856e-12 9.127871e-14
4.0442663e-13 1.2830859e-08 2.5298647e-05 2.9181358e-12 2.0401893e-13 -4.054499e-07 3.1573468e-06 1.0984241e-12
-2.6027692e-05 6.2215315e-14 -1.8689275e-12 -5.5311946e-09 -4.054368e-06 1.4031826e-10 -6.2200044e-05 3.9746e-41
9.3946e-41 1.738e-41 9.0486e-41 -6.2241e-41 4.1844e-41 9.592e-41 5.8214e-41 3.4419e-41
9.2999865e-11 1.604242e-08 -1.6470348e-07 3.4006318e-06 -2.7652789e-08 -2.437463e-06 -4.4342032e-05 2.404113e-12
1.3128332e-11 3.0190414e-12 0.0003686846 -2.5291774e-12 -1.6145855e-12 -3.0644467e-05 1.9185866e-12 7.296343e-13
-2.7813038e-10 8.508992e-07 3.602881e-07 -1.4751103e-10 1.5413907e-08 -8.22326e-11 2.3781732e-10 -5.3422995e-15
-3.8054772e-08 -9.729739e-13 1.35504e-07 -7.152817e-05 -6.6731225e-08 -3.020297e-08 -3.724092e-11 5.9271764e-07
5.798908e-07 -5.462655e-06 -1.3340908e-05 -1.2694021e-12 1.3764714e-08 -0.0007409022 -1.7444478e-07 8.870984e-06
00000000: 7014 0100 d944 0100 3b3d 0700 8c02 0700
00000010: 8c9a 0080 7ab6 0000 02cf 0600 f9cc 0580
00000020: f55a 0780 fad6 1a37 cb6e 02b1 a018 2139
00000030: 6355 66aa 2b02 2839 7e94 9134 6e7c aab4
00000040: 2fb3 312b 0330 04a8 e2c5 0080 1d53 0080
00000050: 1582 0080 41ce 0080 108c 0080 a352 0080
00000060: 49e6 0080 2fc3 0080 999f 0080 a71b 8529
00000070: 949e dcad 2ff9 21b5 4761 c832 ea76 402d
00000080: 5bf1 9cab 26d6 5836 c51a 87a9 0974 a036
00000090: 0de7 0000 df72 0080 f5f7 0080 4259 0000
000000a0: 9a57 0080 28fb 0080 8ec7 0000 bd0e 0080
000000b0: 7eb5 0080 dec9 ccb5 6750 4034 5758 31b4
000000c0: 850a 8bb3 bf6b af32 dc0b dc32 7e99 de2d
000000d0: 5035 01ab 3ea6 d62a 8455 0080 40dc 0000
000000e0: 3c71 0080 0f06 0080 f9a4 0000 7aa9 0000
000000f0: 13c8 0000 5c8f 0000 a451 0000 7293 092f
00000100: 08d3 233a f72a 48a9 f1df e32a 13bd c6ac
00000110: 431a bab1 8d33 06ab ae3a 212c 21ae a7b1
00000120: 9298 62ac fde4 c32b dad3 f0a8 46aa 6d2f
00000130: fd34 c72b 20bd ce33 a87e 81b6 0318 8335
00000140: e833 f635 925c 53a8 dd1c 7e34 3adf 9936
00000150: 29a8 ccab 9d29 3bb2 c1bc 0cae ed74 702e
00000160: 1fa0 fdb0 b403 5333 0da4 3e9f 56c8 11a1
00000170: 53f6 372b c750 7928 7dc7 f421 7ad8 ecab
00000180: 91a2 899f 3351 55ac fcd1 e725 9a8b 9031
00000190: 328c 3fb2 c100 2e2e fae2 842e d058 f5a9
000001a0: a18f 39aa 3707 e0ae 9502 9c30 9809 722c
000001b0: 6731 0180 c611 0180 7f61 0000 9347 0180
000001c0: 5e50 0180 f68d 0100 1a4e 0180 824d 0100
000001d0: 001c 0100 5ea6 12ae ac37 36b2 c255 3bb6
000001e0: d0ef 0338 e071 1fae f092 4233 febd ef2a
000001f0: 8b4c e5b6 57dd 54b3 2489 0100 ca99 0100
00000200: 1b59 0080 8060 0100 1992 0100 1a25 0080
00000210: 8b4f 0180 0201 0100 0f4b 0100 54ac 0080
00000220: 73f0 0080 5ae6 0080 9af4 0080 03cb 0080
00000230: 0ead 0080 c96e 0080 5d14 0000 970b 0180
00000240: e07d 0000 06dc 0000 8235 0000 2212 0000
00000250: c5d9 0000 b418 0000 022c 0000 abd1 0000
00000260: 8d58 0000 84cb 4f2c 9b1c 9635 608a 99ad
00000270: 78a3 1ab0 23b4 6235 720e 0e38 ace7 5630
00000280: 90d2 3ab6 324b 4d2e c4a2 0000 926d 0000
00000290: ddf1 0000 457a 0000 51ec 0000 35ea 0000
000002a0: 31c4 0000 04c8 0000 bfb8 0000 2a8d 35ba
000002b0: 3ce1 5c07 6c4d 231b e667 980b e305 0c00
000002c0: 0cde 40b0 1feb bfb9 5319 0900 32c7 af8c
000002d0: f2ed 0080 2c35 0080 1f25 0080 adef 0080
000002e0: 52ab 0080 1713 0080 4f83 0080 9eba 0080
000002f0: 9417 0080 bae9 92b0 0907 072c 988a cd29
00000300: 05ac e32a b76e 5c32 6e38 d437 7658 4d2c
00000310: 74b4 652a 9cac d9b4 cee2 5336 e696 9a2b
00000320: 0b56 dab7 b018 8c29 9b83 03ac e70c beb1
00000330: c20a 88b6 1448 1a2f 6571 82b8 cc6e 0000
00000340: e205 0100 7330 0000 3dfc 0000 81ad 0080
00000350: a574 0000 630b 0100 47a2 0000 f25f 0000
00000360: 4582 cc2e a8cd 8932 59d9 30b4 6936 6436
00000370: 2089 edb2 4c93 23b6 e5fb 39b8 a62c 292c
00000380: c0f4 662d 3772 542c 024c c139 9cf9 31ac
00000390: 933b e3ab 3f88 00b8 2f02 072c b15f 4d2b
000003a0: 5fe7 98af 5969 6435 9f6d c134 aa30 22af
000003b0: 8a67 8432 d7d4 b4ae d0bd 822f 047a c0a7
000003c0: aa71 23b3 14ef 88ab 0e7f 1134 6501 96b8
000003d0: e14d 8fb3 84b8 01b3 8cc9 23ae 3f1b 1f35
000003e0: cba9 1b35 d94b b7b6 c3d2 5fb7 08a7 b2ab
000003f0: da79 6c32 1b39 42ba 044f 3bb4 96d4 1437

bias f4 [32]
1.0918e-40 3.4010742e-35 2.021699e-31 -3.8143e-41 5.2543e-41 -6.156826e-24 0.15055668 -3.841015e-11
-5.7271e-41 4.3914e-41 7.9354e-41 6.741e-41 -2.6730764e-09 4.374e-41 3.9203e-41 1.2411e-41
-9.326e-41 -1.12705e-40 2.333e-42 9.339591e-39 4.672136e-39 -2.18003e-17 -3.5804594e-38 -8.103997e-08
1.058212e-39 9.6628e-41 -1.1874e-40 4.5981e-41 5.26098e-22 -8.739643e-39 2.6854e-41 3.5808308e-34
00000000: 5930 0100 06d5 3406 3d37 830c 546a 0080
00000010: 7892 0000 402e ee98 882b 1a3e fced 28ae
00000020: a69f 0080 6a7a 0000 35dd 0000 e9bb 0000
00000030: 42b1 37b1 ee79 0000 486d 0000 9922 0000
00000040: f903 0180 2d3a 0180 8106 0000 fbb2 6500
00000050: 04e0 3200 8112 c9a3 52f0 4281 3208 aeb3
00000060: dd85 0b00 5c0d 0100 004b 0180 2d80 0000
00000070: dc00 1f1c 922a 5f80 dc4a 0000 aefc ed07

weight f4 [32, 16, 2, 2]
1.4646593e-32 1.8930941e-32 1.5759732e-32 1.7928021e-32 -4.4908645e-32 1.98074e-32 -6.506089e-32 -4.0335105e-32
-2.3804948e-32 -2.3728861e-32 -2.619978e-32 -2.5825502e-32 -2.7703105e-32 -2.8723736e-32 -2.7759763e-32 -2.86791e-32
-2.9049157e-32 -3.020654e-32 -2.8834962e-32 -2.9179996e-32 -2.7500723e-32 -2.8004822e-32 -2.6240237e-32 -2.7560952e-32
3.214239e-32 3.372474e-32 3.1904016e-32 3.3598852e-32 -6.939687e-32 1.9467371e-32 -7.015738e-32 -2.5452662e-32
2.2425277e-32 2.5680573e-32 2.0327151e-32 2.488862e-32 -1.4653395e-32 -1.6105895e-32 -1.5174897e-32 -1.582727e-32
3.636547e-32 -7.218772e-32 1.9960906e-32 -8.719569e-32 -3.820117e-32 -4.3228487e-32 -3.5877724e-32 -4.297346e-32
-1.4572962e-32 -1.34124e-32 -1.5624013e-32 -1.4841346e-32 -2.703167e-34 7.547394e-33 -5.1827445e-34 6.432672e-33
2.4630677e-32 3.005551e-32 2.3961042e-32 2.9270955e-32 -2.59373e-32 -2.2512279e-32 -2.668069e-32 -2.404361e-32
-6.1267587e-25 -6.400333e-25 -6.2171474e-25 -6.383501e-25 2.246896e-25 1.392565e-24 -9.28138e-25 6.1636927e-25
-4.6630776e-26 -6.7609564e-26 7.774427e-27 -2.3874062e-26 3.6922243e-25 3.5432252e-25 3.760935e-25 3.5627473e-25
8.9569135e-26 8.539232e-26 8.2854967e-26 6.5672436e-26 5.663254e-25 5.6935277e-25 5.72918e-25 5.7553196e-25
-5.0973963e-25 -4.976974e-25 -5.190744e-25 -5.0599895e-25 -8.977407e-25 -1.1164642e-24 -2.0870952e-25 -2.597778e-25
-6.50647e-25 -6.57733e-25 -6.449006e-25 -6.6175766e-25 -1.1775398e-25 -1.0451833e-25 -1.0709481e-25 -1.0879409e-25
-6.028683e-26 -8.875663e-25 -7.1543955e-25 -1.5567403e-24 7.289437e-25 6.89587e-25 7.4183e-25 7.004258e-25
-1.0645287e-25 -1.371068e-25 -8.738617e-26 -1.1400181e-25 -3.3402032e-25 -4.130501e-25 -3.3042322e-25 -4.0698897e-25
-5.1160696e-25 -4.801839e-25 -5.1431473e-25 -4.9438135e-25 2.0685642e-26 -6.699998e-26 3.6618467e-26 -3.922348e-26
-1.3479913e-23 -1.3393822e-23 -1.3177757e-23 -1.2909937e-23 -7.228252e-25 3.422914e-25 1.5396756e-24 2.9041632e-24
-3.4627215e-24 -2.560106e-24 -1.5203514e-24 -3.294735e-25 1.272566e-23 1.3022359e-23 1.3191788e-23 1.3293887e-23
-6.248103e-24 -6.953728e-24 -7.677321e-24 -8.4804764e-24 -5.4289546e-24 -6.314079e-24 -7.248128e-24 -8.294026e-24
-7.112435e-24 -7.8845685e-24 -8.673842e-24 -9.550331e-24 -5.287305e-24 -6.1351495e-24 -7.030901e-24 -8.0307626e-24
1.4344585e-23 1.4494254e-23 1.4468824e-23 1.4323183e-23 1.12071e-23 1.1692696e-23 1.2102715e-23 1.2503555e-23
-1.07082015e-23 -1.11928216e-23 -1.1634321e-23 -1.2115054e-23 -1.2986481e-23 -1.3404975e-23 -1.3713078e-23 -1.397914e-23
9.003872e-25 2.561402e-25 -4.580106e-25 -1.2592214e-24 1.0011322e-23 1.06849545e-23 1.13276355e-23 1.2009189e-23
1.0259765e-23 1.0989145e-23 1.1692398e-23 1.24428506e-23 1.3112852e-23 1.2873558e-23 1.2490167e-23 1.2032816e-23
-7.314e-41 -4.1292e-41 -3.2656e-41 -3.3613e-41 1.853e-42 -1.03671e-40 -8.883e-41 5.4586e-41
4.2578e-41 6.7739e-41 1.35e-43 4.4505e-41 -6.452e-42 4.271e-42 -4.05e-43 -7.75e-43
-7.647e-41 -7.8469e-41 -7.9859e-41 -8.1142e-41 1.5374e-41 6.086e-42 -4.396e-42 1.3748e-41
-3.2209e-41 -3.9435e-41 -1.6835e-41 -4.7597e-41 1.01273e-40 1.00948e-40 -2.278e-41 8.6588e-41
-7.0934e-41 -8.7365e-41 -8.1757e-41 -8.9113e-41 7.124e-41 5.237e-41 7.7398e-41 6.724e-41
-4.8926e-41 -6.5861e-41 -1.04088e-40 -1.04266e-40 -7.9515e-41 -9.5194e-41 -4.4615e-41 -9.0396e-41
-2.6733e-41 -1.2235e-41 -2.278e-41 -1.9782e-41 7.538e-42 -2.2899e-41 -7.1092e-41 -4.2842e-41
-3.6034e-41 -6.927e-41 -6.2087e-41 -2.7753e-41 -4.5357e-41 -5.5737e-41 -4.2103e-41 -2.4277e-41
00000000: 5319 980a 1397 c40a 8ea8 a30a db2c ba0a
00000010: d42d 698b 1ab1 cd0a 61e8 a88b 8d6e 518b
00000020: 6834 f78a 226a f68a 7b09 088b fb17 068b
00000030: bed7 0f8b 6524 158b 0e23 108b 10e9 148b
00000040: f4d4 168b 61d7 1c8b 3db8 158b de82 178b
00000050: bbca 0e8b cb68 118b 423f 088b ca1a 0f8b
00000060: 91e4 260b de1b 2f0b b6a7 250b 8974 2e0b
00000070: 222a b48b 2629 ca0a 9423 b68b 6428 048b
00000080: 9de0 e80a 5657 050b d616 d30a a73a 010b
00000090: 682b 988a d040 a78a cc95 9d8a 1a5c a48a
000000a0: 00d2 3c0b f868 bb8b 3149 cf0a 7a5f e28b
000000b0: 115a 468b 8474 608b ad49 3a8b 8721 5f8b
000000c0: 9455 978a 4648 8b8a c03f a28a 111f 9a8a
000000d0: 01a8 b387 d4c0 1c0a ea39 2c88 f399 050a
000000e0: 92c7 ff0a a00e 1c0b 60d3 f80a c6fb 170b
000000f0: 96ac 068b e7c7 e98a b888 0a8b e1ae f98a
00000100: 2f9d 3d97 aa14 4697 5169 4097 4e8f 4597
00000110: 7d13 8b16 2f7d d717 569f 8f97 cec1 3e17
00000120: 88e7 6695 a764 a795 07fd 1914 f06f ec94
00000130: a189 e416 a550 db16 65ca e816 fc85 dc16
00000140: 2fc3 dd15 d06b d315 9323 cd15 da98 a215
00000150: ec44 2f17 c634 3017 3e4f 3117 571e 3217
00000160: bcc1 1d97 a707 1a97 50a5 2097 5e99 1c97
00000170: 2ceb 8a97 b4c3 ac97 582f 8196 6fcb a096
00000180: 915d 4997 fa8e 4b97 4a96 4797 d8cd 4c97
00000190: bac5 1196 2e63 0196 b393 0496 39ae 0696
000001a0: 5143 9595 2058 8997 f66a 5d97 d6e4 f097
000001b0: df98 6117 b66a 5517 d495 6517 73c5 5817
000001c0: 43c8 0396 e1ba 2996 915b d895 9e20 0d96
000001d0: a2bf ce96 67aa ff96 a685 cc96 fae9 fb96
000001e0: ae55 1e97 179c 1497 362c 1f97 ed00 1997
000001f0: 55dc cc14 48e2 a595 6c53 3515 ab39 4295
00000200: a65e 8299 7f89 8199 18e5 7e99 e9b6 7999
00000210: 1db4 5f97 3dde d316 d640 ee17 e1b2 6018
00000220: 22f5 8598 2014 4698 5343 eb97 29ef cb96
00000230: 6b26 7619 99e3 7b19 922a 7f19 1292 8019
00000240: 37b6 f198 3181 0699 4180 1499 4909 2499
00000250: c305 d298 9c43 f498 fe32 0c99 076e 2099
00000260: 1293 0999 7e82 1899 c9c6 2799 f3ba 3899
00000270: ef8a cc98 9457 ed98 56ff 0799 6956 1b99
00000280: 79bb 8a19 092e 8c19 13ef 8b19 7c86 8a19
00000290: dfc6 5819 6d2b 6219 be19 6a19 9bda 7119
000002a0: 7220 4f99 2b80 5899 5e0a 6199 d756 6a99
000002b0: f031 7b99 1ca5 8199 f09f 8499 ad32 8799
000002c0: 0354 8b17 098b 9e16 57bf 0d97 e6da c297
000002d0: aaa5 4119 55ad 4e19 bc1b 5b19 a04a 6819
000002e0: e573 4619 9c8f 5419 f329 6219 03ae 7019
000002f0: b3a3 7d19 c602 7919 5098 7119 9ebf 6819
00000300: e2cb 0080 1b73 0080 085b 0080 b35d 0080
00000310: 2a05 0000 fe20 0180 9ff7 0080 2a98 0000
00000320: b176 0000 d4bc 0000 6000 0000 107c 0000
00000330: fc11 0080 e80b 0000 2101 0080 2902 0080
00000340: 2bd5 0080 bdda 0080 9dde 0080 31e2 0080
00000350: db2a 0000 f710 0000 410c 0080 5326 0000
00000360: c959 0080 ee6d 0080 ee2e 0080 ae84 0080
00000370: 4f1a 0100 6719 0100 803f 0080 5ff1 0000
00000380: bcc5 0080 8af3 0080 e8e3 0080 69f8 0080
00000390: 97c6 0000 fc91 0000 c1d7 0000 70bb 0000
000003a0: 6388 0080 98b7 0080 2822 0180 a722 0180
000003b0: a8dd 0080 5d09 0180 5e7c 0080 fdfb 0080
000003c0: 854a 0080 1b22 0080 803f 0080 2537 0080
000003d0: 0315 0000 d53f 0080 2dc6 0080 6d77 0080
000003e0: 7364 0080 19c1 0080 13ad 0080 5d4d 0080
000003f0: 707e 0080 5f9b 0080 5e75 0080 ad43 0080

bias f4 [16]
0.1539469 0.115434736 0.11832973 0.08917053 0.13633049 -0.08676175 0.14567424 -0.081668116
0.102608405 0.08307194 0.14705479 -0.09660708 0.10836771 0.08606479 0.09264669 -0.14854701
00000000: 42a4 1d3e 0c69 ec3d dc56 f23d 0a9f b63d
00000010: 389a 0b3e 25b0 b1bd a12b 153e 9d41 a7bd
00000020: 5b24 d23d 9f21 aa3d 8895 163e efd9 c5bd
00000030: e4ef dd3d bd42 b03d 8cbd bd3d b51c 18be

weight f4 [16, 32, 3, 3]
3.6941e-41 7.815e-42 -9.061e-42 4.9785e-41 -9.216e-42 -2.951e-42 3.4412e-41 -1.5816e-41
-1.7316e-41 -1.26417e-40 -1.21394e-40 -6.4841e-41 -6.7205e-41 -1.70206e-40 -1.1637e-40 9.0373e-41
-1.24983e-40 -1.65863e-40 7.1962e-41 -5.3188e-41 -6.398e-42 -1.0462e-40 -7.0698e-41 -8.502e-41
8.0751e-41 -6.3236e-41 4.6652e-41 -4.389e-41 -5.489e-42 -6.348e-42 -6.7817e-41 4.7e-43
-5.4998e-41 -7.086e-42 -5.787e-42 -8.46e-42 -2.1062e-41 -5.685e-42 -3.5772e-41 -4.7992e-41
-1.8664e-41 -8.327e-42 4.41e-43 8.533e-42 1.0312e-41 5.2816e-41 9.8891e-41 1.11826e-40
8.4493e-41 1.03786e-40 9.4515e-41 1.01816e-40 1.05516e-40 1.0878e-40 -1.4585e-41 -1.0472e-41
3.435e-41 -1.5144e-41 1.1097e-41 2.3007e-41 -1.9523e-41 -2.8008e-41 2.1602e-41 -8.9324e-41
1.37935e-40 -3.6902e-41 -7.6815e-41 -1.55398e-40 1.4822e-41 -5.8148e-41 1.54444e-40 1.0535e-41
-2.06006e-40 -1.26886e-40 1.0322e-41 1.90764e-40 -8.8097e-41 1.93598e-40 1.2227e-40 3.685e-41
7.4265e-41 7.4269e-41 -2.836e-42 6.2757e-41 7.2028e-41 2.3042e-41 6.9741e-41 7.8013e-41
-5.408e-41 7.8729e-41 -3.536e-41 7.9018e-41 3.31e-41 -4.401e-41 8.6298e-41 -8.7281e-41
-8.668e-42 -9.7456e-41 1.00074e-40 8.0869e-41 -2.704e-41 1.17712e-40 4.6496e-41 5.0179e-41
1.14259e-40 -2.734e-41 1.6992e-41 1.15899e-40 -4.7779e-41 -4.0984e-41 -5.5892e-41 -3.6306e-41
-2.6653e-41 -2.6584e-41 -3.5833e-41 -7.1117e-41 -4.2339e-41 5.1e-43 2.728e-42 -6.602e-42
4.64e-42 -9.26e-42 7.385e-42 1.0705e-41 -1.6149e-41 -9.628e-42 -8.8961e-41 -3.0628e-41
-6.4803e-41 -8.2288e-41 8.7084e-41 -9.4725e-41 -9.3647e-41 8.923e-42 -4.9606e-41 3.5147e-41
4.5521e-41 4.9357e-41 4.5652e-41 5.4393e-41 4.4421e-41 4.8796e-41 4.944e-41 4.5317e-41
6.050113e-14 -2.2533914e-14 4.3352604e-05 4.1139772e-13 1.4075987e-13 -2.5975506e-09 -3.1603125e-13 -4.884851e-06
7.560928e-10 7.2324e-41 -8.814e-42 1.3073e-41 4.56e-41 5.8787e-41 1.181e-42 2.517e-42
7.2514e-41 1.9607e-41 -7.647e-41 -4.9938e-41 -6.9706e-41 1.7795e-41 4.7962e-41 -6.9846e-41
6.4715e-41 -6.4725e-41 -5.9649e-41 7.5474e-41 7.8979e-41 1.5814e-41 5.527e-41 8.1406e-41
2.3054e-41 6.8616e-41 -2.144e-41 3.178e-41 -8.76627e-40 3.61465e-40 -6.31625e-40 -9.41835e-40
6.83231e-40 -3.16204e-40 9.04098e-40 4.02487e-40 7.66786e-40 1.8619e-41 -4.1634e-41 -2.5181e-41
-7.3232e-41 -3.6857e-41 -1.0679e-41 4.514e-41 -5.2634e-41 -8.0638e-41 -1.18987e-40 8.2615e-41
-5.9854e-41 -6.3878e-41 -1.08606e-40 2.5027e-41 -5.5318e-41 1.32259e-40 7.9648e-41 7.6008e-41
7.1641e-41 -3.5303e-41 7.8303e-41 4.6725e-41 -6.656e-42 6.9595e-41 1.6507e-41 1.2245e-41
-4.804406e-12 0.0004859919 1.0779624e-05 0.0005733571 -1.1935591e-05 -1.5050098e-12 -0.0016617224 -1.3146913e-10
-2.5145834e-12 4.0615e-41 -9.142e-42 -7.4738e-41 -4.676e-42 1.674e-41 -7.1547e-41 1.168e-41
4.2176e-41 1.3901e-41 2.18547e-40 -2.95272e-40 -2.22446e-40 -1.22426e-40 1.44139e-40 -2.93606e-40
-5.7155e-41 1.85753e-40 -3.08352e-40 1.1453e-41 1.05172e-40 -7.2449e-41 8.9968e-41 1.389e-41
3.7217e-41 1.07097e-40 8.9826e-41 -2.3213e-41 -2.5666e-41 5.5849e-41 -7.5998e-41 1.2857e-41
00000000: fa66 0000 c915 0000 4219 0080 c88a 0000
00000010: b119 0080 3a08 0080 ed5f 0000 172c 0080
00000020: 4530 0080 6660 0180 6652 0180 c0b4 0080
00000030: 57bb 0080 77da 0180 6444 0180 ecfb 0000
00000040: 675c 0180 5cce 0180 9ac8 0000 4494 0080
00000050: d611 0080 a323 0180 14c5 0080 00ed 0080
00000060: 1ae1 0000 47b0 0080 0c82 0000 597a 0080
00000070: 4d0f 0080 b211 0080 0cbd 0080 4f01 0000
00000080: 5099 0080 c113 0080 2210 0080 9517 0080
00000090: b63a 0080 d90f 0080 b863 0080 c885 0080
000000a0: 0734 0080 3617 0080 3b01 0000 c917 0000
000000b0: bf1c 0000 3b93 0000 ab13 0100 ba37 0100
000000c0: 88eb 0000 5021 0100 7807 0100 d21b 0100
000000d0: 2326 0100 3c2f 0100 a828 0080 311d 0080
000000e0: c15f 0000 372a 0080 ef1e 0000 2240 0000
000000f0: 6c36 0080 134e 0080 383c 0000 00f9 0080
00000100: 8280 0100 de66 0080 21d6 0080 30b1 0180
00000110: 5129 0000 18a2 0080 87ae 0100 5e1d 0000
00000120: 433e 0280 b561 0180 c61c 0000 c613 0200
00000130: 94f5 0080 ac1b 0200 d754 0100 b966 0000
00000140: 05cf 0000 08cf 0000 e807 0080 f1ae 0000
00000150: c9c8 0000 3b40 0000 69c2 0000 78d9 0000
00000160: c196 0080 77db 0000 9262 0080 45dc 0000
00000170: 455c 0000 af7a 0080 90f0 0000 4ef3 0080
00000180: 2a18 0080 ab0f 0180 f716 0100 6ee1 0000
00000190: 604b 0080 2248 0100 9d81 0000 e18b 0000
000001a0: 823e 0100 364c 0080 5e2f 0000 1443 0100
000001b0: 3085 0080 3f72 0080 ce9b 0080 3565 0080
000001c0: 4c4a 0080 1b4a 0080 e363 0080 3fc6 0080
000001d0: 0676 0080 6c01 0000 9b07 0000 6712 0080
000001e0: ef0c 0000 d019 0080 9614 0000 d71d 0000
000001f0: 042d 0080 d71a 0080 fdf7 0080 6155 0080
00000200: a5b4 0080 63e5 0080 c1f2 0000 0e08 0180
00000210: 0d05 0180 e018 0000 488a 0080 fa61 0000
00000220: e57e 0000 9689 0000 427f 0000 a097 0000
00000230: d47b 0000 0688 0000 d289 0000 537e 0000
00000240: 873c 8829 abf7 caa8 81d5 3538 a998 e72a
00000250: 457b 1e2a 9880 32b1 e7e8 b1aa 8de8 a3b6
00000260: 4dd5 4f30 9cc9 0000 9218 0080 7124 0000
00000270: 1d7f 0000 e0a3 0000 4b03 0000 0407 0000
00000280: 24ca 0000 a836 0000 2bd5 0080 358b 0080
00000290: 50c2 0080 9b31 0000 b385 0000 b4c2 0080
000002a0: 66b4 0000 6db4 0080 47a6 0080 64d2 0000
000002b0: 29dc 0000 152c 0000 129a 0000 ede2 0000
000002c0: 4440 0000 46bf 0000 c43b 0080 9758 0000
000002d0: ae8b 0980 9eef 0300 b7e0 0680 7441 0a80
000002e0: 9270 0700 7371 0380 42d8 0900 f861 0400
000002f0: 7d59 0800 e733 0000 0f74 0080 3246 0080
00000300: 24cc 0080 be66 0080 c51d 0080 d57d 0000
00000310: b992 0080 c9e0 0080 b04b 0180 4ce6 0000
00000320: d9a6 0080 11b2 0080 c02e 0180 c445 0000
00000330: 349a 0080 af70 0100 07de 0000 e1d3 0000
00000340: b5c7 0000 6962 0080 47da 0000 4082 0000
00000350: 8e12 0080 01c2 0000 042e 0000 2222 0000
00000360: 3e0a a9ac bbcc fe39 22da 3437 584d 163a
00000370: f93e 48b7 b1cf d3ab 27ce d9ba 458d 10af
00000380: b5f2 30ac 3871 0000 7c19 0080 57d0 0080
00000390: 090d 0080 aa2e 0000 72c7 0080 8f20 0000
000003a0: 9275 0000 c026 0000 3861 0200 1937 0380
000003b0: 176c 0280 4655 0180 cd91 0100 7432 0380
000003c0: 539f 0080 ce05 0200 8f5b 0380 ed1f 0000
000003d0: 2d25 0100 f5c9 0080 cbfa 0000 b826 0000
000003e0: bf67 0000 8b2a 0100 66fa 0000 b540 0080
000003f0: 8c47 0080 af9b 0000 dad3 0080 d723 0000

bias f4 [16]
-5.9062e-41 -4.6938316e-05 -1.491054e-39 -0.039691564 -2.7733241e-08 -0.08864442 -1.3688999e-18 0.09480378
-2.1637037e-14 -5.2404507e-06 -0.06416401 -0.066921175 -7.830461e-09 -5.3772126e-10 -8.1718933e-16 -4.580782e-10
00000000: a4a4 0080 a2df 44b8 743c 1080 9f93 22bd
00000010: 0b3a eeb2 358b b5bd 9303 caa1 7c28 c23d
00000020: 9ce3 c2a8 21d7 afb6 6c68 83bd f80d 89bd
00000030: bb86 06b2 c5ce 13b0 ee89 6ba6 c6d4 fbaf

weight f4 [16, 16, 3, 3]
-8.6394e-41 -9.0789e-41 -3.2369e-41 -5.4436e-41 -5.4307e-41 -7.757e-41 8.5352e-41 -1.6792e-41
8.647e-42 -3.59954e-14 -3.1317592e-12 -1.4549948e-12 -3.4150044e-12 -3.325051e-13 -1.5937062e-12 -2.2900334e-12
-2.993667e-12 2.5603209e-14 2.2618e-41 4.7587e-41 2.4654e-41 -6.833e-42 3.7842e-41 -8.8401e-41
-7.478e-41 -2.5225e-41 5.8604e-41 6.1171e-41 -6.736e-41 3.952e-42 -9.9028e-41 -1.1192e-41
3.7741e-41 2.6445e-41 -6.1803e-41 8.541e-41 -1.318e-41 6.0315e-41 2.6014e-41 8.165e-41
6.7428e-41 6.8456e-41 8.3213e-41 -5.009e-41 5.3014e-41 -2.04053e-40 -6.23931e-40 3.9174e-40
-2.71043e-40 -1.37341e-40 -4.49077e-40 1.4349e-41 3.70789e-40 -4.83695e-40 7.1313e-41 2.8888e-41
-3.5705e-41 3.8321e-41 9.3394e-41 2.8331e-41 -1.236e-42 4.6576e-41 3.8017e-41 -6.191e-40
-9.67e-43 6.21505e-40 3.99456e-40 3.5326e-40 2.44032e-40 -1.31496e-40 -5.92494e-40 4.36824e-40
2.3702e-40 -6.6932e-41 -1.6224e-41 7.7919e-41 6.214e-41 -2.4217e-40 1.39488e-40 1.5321e-40
-1.34043e-40 -6.014818e-14 -7.423687e-14 -7.364368e-14 -6.656203e-14 -1.2811658e-13 -9.15672e-15 -5.61752e-14
-6.658737e-14 -6.835344e-14 -4.1913934e-19 5.9496714e-24 5.0622564e-19 -1.8881e-23 2.7720187e-23 -1.15652476e-23
1.0073657e-24 -3.0693843e-23 1.2565598e-18 7.4007e-41 6.494e-41 5.2612e-41 5.3814e-41 5.0951e-41
2.6696e-41 5.582e-41 4.8725e-41 2.2077e-41 -5.2472267e-09 1.1062427e-06 -6.6880153e-07 -1.1209148e-05
-6.461475e-05 4.4677495e-06 -0.00013512587 -8.089056e-18 -4.1515216e-07 1.9912e-41 3.6417e-41 1.9823e-41
3.9852e-41 4.3765e-41 1.9912e-41 1.6545e-41 1.2528e-41 8.816e-42 -2.6959184e-28 8.960122e-27
9.715881e-28 2.2433644e-29 2.3695556e-26 4.943147e-27 -1.2356166e-26 3.1412819e-27 9.966958e-27 -0.00042678628
-3.8070384e-06 -1.816863e-06 6.6717257e-06 -4.030459e-05 -3.3668099e-28 1.1741994e-27 0.0002732173 4.5922593e-07
1.1579e-41 9.5e-43 7.5133e-41 3.1632e-41 -2.4771e-41 7.794e-41 -2.033e-42 -6.143e-41
5.6317e-41 -1.3498643e-25 -2.0913855e-26 -7.001695e-26 -1.0835076e-26 -7.779677e-26 -3.751272e-26 -9.162937e-26
-4.1608062e-26 -4.267106e-26 -1.1322e-41 7.7881e-41 5.0595e-41 -4.7864e-41 5.5239e-41 8.2183e-41
1.4499e-41 4.8448e-41 -1.4191e-41 6.41821e-40 -1.93235e-40 -2.38326e-40 2.5435e-41 -6.57115e-40
-4.36844e-40 1.081264e-39 -1.24693e-40 3.57052e-40 -6.751886e-08 -2.611948e-07 -4.9390288e-05 9.019762e-09
-4.0942572e-07 1.9183046e-05 -1.713296e-10 1.603002e-14 1.8017904e-14 -0.08355195 -0.08357257 -0.0835732
-0.08357483 -0.08357442 -0.08358249 -0.0835732 -0.08357441 -0.0834708 -4.433e-41 7.0505e-41
-5.217e-42 -1.6486e-41 3.5586e-41 -1.045e-41 -4.0477e-41 1.4603e-41 2.0047e-41 -0.06633391
-0.0663337 -0.06633391 -0.066335194 -0.06633495 -0.066335194 -0.06633391 -0.0663337 -0.06633391
-1.4970452e-11 -3.5409727e-15 -3.158771e-12 -6.0379903e-06 1.3355561e-08 -1.13724045e-05 1.455439e-07 -0.0015326636
-1.1980988e-09 -6.50019e-39 -4.048074e-39 -2.915012e-39 -1.322131e-38 -1.1054015e-38 -8.708424e-39 -2.2651878e-38
-2.0321497e-38 -1.2608637e-38 -0.0006882786 -0.00068827596 -0.0006882779 -0.00068830786 -0.0006883116 -0.00068830786
-0.0006882786 -0.00068827596 -0.0006882786 -0.010548642 -0.010549789 -0.010548449 -0.010549064 -0.010550107
-0.01054891 -0.010548713 -0.010549873 -0.010548529 5.4219054e-06 -2.7156984e-15 -1.0833094e-13 -3.2815134e-10
00000000: d5f0 0080 15fd 0080 3b5a 0080 bf97 0080
00000010: 6397 0080 3cd8 0080 eded 0000 cf2e 0080
00000020: 1b18 0000 df1b 22a9 c260 5cac b6c5 ccab
00000030: 404f 70ac 092f bbaa 514b e0ab 9325 21ac
00000040: 1ca9 52ac fb9c e628 0d3f 0000 a784 0000
00000050: ba44 0000 0c13 0080 7d69 0000 6df6 0080
00000060: 75d0 0080 5146 0080 5da3 0000 85aa 0000
00000070: c6bb 0080 040b 0000 0d14 0180 331f 0080
00000080: 3569 0000 b849 0000 48ac 0080 17ee 0000
00000090: be24 0080 22a8 0000 8448 0000 9be3 0000
000000a0: f6bb 0000 d4be 0000 f7e7 0000 a18b 0080
000000b0: c893 0000 d138 0280 44cb 0680 0344 0400
000000c0: 8ff3 0280 da7e 0180 d8e3 0480 0028 0000
000000d0: 9c09 0400 5844 0580 cbc6 0000 8750 0000
000000e0: 8863 0080 d36a 0000 5804 0100 fa4e 0000
000000f0: 7203 0080 d681 0000 fa69 0000 cdbd 0680
00000100: b202 0080 81c4 0600 8559 0400 bfd8 0300
00000110: 43a8 0200 8f6e 0180 a273 0680 b0c1 0400
00000120: b794 0200 94ba 0080 3a2d 0080 35d9 0000
00000130: 39ad 0000 12a3 0280 d684 0100 16ab 0100
00000140: a875 0180 1171 87a9 a42a a7a9 b1d4 a5a9
00000150: 66e2 95a9 173f 10aa ebf3 24a8 99fd 7ca9
00000160: 01f1 95a9 13eb 99a9 8c6a f7a0 b12a e618
00000170: 5469 1521 179b b699 ee0b 061a 55b4 5f99
00000180: dee1 9b17 236d 149a 7d6f b921 4dce 0000
00000190: 07b5 0000 a992 0000 0396 0000 088e 0000
000001a0: 6b4a 0000 9a9b 0000 d387 0000 8b3d 0000
000001b0: 184b b4b1 367a 9435 b187 33b5 ed0e 3cb7
000001c0: c881 87b8 ade9 9536 93b0 0db9 7d37 15a3
000001d0: 14e2 deb4 8237 0000 8465 0000 4237 0000
000001e0: 176f 0000 007a 0000 8237 0000 1f2e 0000
000001f0: ec22 0000 9318 0000 c7df aa91 3779 3114
00000200: 4cf4 9912 1281 e30f 5fab ea14 77d1 c313
00000210: 34bd 7494 c4e0 7813 7b6a 4514 49c2 dfb9
00000220: 6c7c 7fb6 f0da f3b5 b0dd df36 b90c 29b8
00000230: 9d65 d591 300f ba12 9b3e 8f39 888b f634
00000240: 4720 0000 a602 0000 71d1 0000 2d58 0000
00000250: 0d45 0080 44d9 0000 ab05 0080 3eab 0080
00000260: fd9c 0000 e81a 2796 ec1e cf94 845a ad95
00000270: 5d9c 5694 909d c095 06c1 3995 03dd e295
00000280: 7c08 4e95 ff4b 5395 901f 0080 1ad9 0000
00000290: 0a8d 0000 6d85 0080 fc99 0000 18e5 0000
000002a0: 6b28 0000 0e87 0000 8f27 0080 23fd 0600
000002b0: a91a 0280 5b98 0280 e746 0000 c527 0780
000002c0: bec1 0480 20c6 0b00 985b 0180 51e3 0300
000002d0: e3fe 90b3 573a 8cb4 6b28 4fb8 55f5 1a32
000002e0: 0bcf dbb4 47eb a037 ff60 3caf b662 9028
000002f0: 754a a228 491d abbd 1828 abbd 6d28 abbd
00000300: 4829 abbd 1129 abbd 4c2d abbd 6d28 abbd
00000310: 0f29 abbd bdf2 aabd 937b 0080 8ac4 0000
00000320: 8b0e 0080 f52d 0080 3363 0000 211d 0080
00000330: d570 0080 b528 0000 e237 0000 13da 87bd
00000340: f7d9 87bd 13da 87bd bfda 87bd 9eda 87bd
00000350: bfda 87bd 13da 87bd f7d9 87bd 13da 87bd
00000360: 76ae 83ad 6b27 7fa7 5c47 5eac f199 cab6
00000370: 6172 6532 1bcc 3eb7 cd46 1c34 a8e3 c8ba
00000380: 5baa a4b0 e3c7 4680 6214 2c80 debd 1f80
00000390: a2f7 8f80 195e 7880 8bd3 5e80 38a8 f680
000003a0: 1148 dd80 c04b 8980 986d 34ba 6b6d 34ba
000003b0: 8c6d 34ba 8f6f 34ba cf6f 34ba 8f6f 34ba
000003c0: 986d 34ba 6b6d 34ba 986d 34ba 36d4 2cbc
000003d0: 06d9 2cbc 67d3 2cbc fbd5 2cbc 5bda 2cbc
000003e0: 56d5 2cbc 82d4 2cbc 60d9 2cbc bdd3 2cbc
000003f0: d0ed b536 cbaf 43a7 89f0 f3a9 3267 b4af

bias f4 [16]
-0.001202807 -0.0019716637 -2.5868763e-07 -3.2993194e-10 -0.03652058 -4.4089293e-06 0.12974545 -0.0108236065
-4.492176e-05 -5.99999e-07 -0.015525392 -3.5068152e-07 -3.683996e-15 -0.0050489954 -0.014767261 -0.008943761
00000000: 81a7 9dba 0737 01bb c2e1 8ab4 cb61 b5af
00000010: 9b96 15bd 6af0 93b6 fedb 043e 7f55 31bc
00000020: 5f6a 3cb8 9e0f 21b5 375e 7ebc 4d45 bcb4
00000030: deba 84a7 0b72 a5bb 62f2 71bc da88 12bc
