data/ForestSegmentationOutput/experiemnts/FIXED_BLOCK_run_04_28-12-2023_18h16min/unet_id=6Hhjb_width=32_num_layers=2_lr=0.00085_epochs=140.pth (torch, 115765 bytes, 16 tensors)

weight f4 [16, 8, 3, 3]
-0.00079467846 -0.00078969053 -0.00079323427 -0.00080274185 -0.0008042981 -0.0008053998 -0.00080922875 -0.0008125159
-0.00080940145 -4.4523094e-05 -4.328391e-05 -4.393612e-05 -4.617749e-05 -4.6197158e-05 -4.634058e-05 -4.7813657e-05
-4.8099602e-05 -4.7373556e-05 -0.00052217674 -0.00050873344 -0.00051852997 -0.0005377491 -0.00054722273 -0.0005533678
-0.00055451563 -0.00057233893 -0.00057244755 -0.00040016728 -0.00037473443 -0.00037371396 -0.00042833955 -0.00042270194
-0.00041407268 -0.00045240225 -0.00045304987 -0.0004358007 -4.502156e-06 -3.4615548e-06 -3.3230365e-06 -5.7844377e-06
-5.0216104e-06 -4.540553e-06 -6.8679938e-06 -6.1567785e-06 -5.1726947e-06 -0.0081262 -0.008196907 -0.008380582
-0.008095859 -0.008324464 -0.008512334 -0.008055627 -0.008369045 -0.008564537 -0.011772824 -0.011934857
-0.012170915 -0.011691369 -0.012014381 -0.012287869 -0.011564335 -0.011985166 -0.012284237 -0.011280232
-0.0114123495 -0.011635187 -0.011213174 -0.011515665 -0.011779143 -0.011085965 -0.011491064 -0.011785158
-0.010786749 -0.0107990885 -0.010807244 -0.010780704 -0.010790097 -0.010802 -0.01077755 -0.010784146
-0.010793035 -0.0063130013 -0.006330442 -0.006348443 -0.0063011656 -0.006312665 -0.00633435 -0.006296257
-0.0062992345 -0.0063147377 -0.009018129 -0.009054197 -0.009099035 -0.008980774 -0.009002495 -0.009045882
-0.008960492 -0.008969144 -0.008987917 -0.008636412 -0.008671721 -0.00871285 -0.008606126 -0.0086273495
-0.008673308 -0.008588307 -0.008595327 -0.008621838 -0.0041371984 -0.004168217 -0.0042080437 -0.0041197953
-0.00413697 -0.0041839518 -0.0041126125 -0.0041084206 -0.00414226 -0.015317323 -0.015350723 -0.015420125
-0.015217411 -0.015225147 -0.015283498 -0.015173604 -0.015161528 -0.015165693 -0.016467622 -0.01646781
-0.016532257 -0.01636898 -0.016341142 -0.01640632 -0.016346846 -0.016298207 -0.016313449 -0.016283538
-0.016277276 -0.01633425 -0.016191056 -0.016156305 -0.01621424 -0.016169814 -0.016117873 -0.016129568
0.12277324 0.19789134 0.035580732 0.009928636 0.08315151 0.09465119 0.1411234 0.1246157
0.16914925 0.09967534 0.020802343 0.070905715 0.1281475 0.051741675 -0.01750809 -0.012242359
-0.0052098217 0.07924863 0.046378657 0.019536799 -0.005558263 0.060757797 -0.021718534 -0.08236447
-0.09409538 -0.11542622 0.065908864 0.02273022 0.019435303 0.027697379 -0.01894124 0.05646777
0.051403385 -0.1084938 0.03295181 -0.011612452 -0.18981542 -0.110196285 -0.10851379 -0.21199153
-0.26394698 -0.29439497 -0.14901812 -0.2494131 -0.29270625 -0.1906133 -0.17710412 -0.10940914
-0.13098696 -0.07357552 -0.10253777 -0.14938806 -0.06744171 -0.20695578 -0.09131422 0.037466537
0.027053606 0.077390656 -0.100702226 -0.1032371 0.090918034 0.03940162 -0.029441968 0.02367976
-0.007807041 0.0540907 -0.00934867 0.02907403 0.07922731 0.09047397 0.11012073 0.06559542
-0.0047698827 -0.004752593 -0.0047458564 -0.0047795083 -0.004759571 -0.004749747 -0.004795053 -0.0047721504
-0.0047579664 -0.0012201017 -0.0012091392 -0.0012072852 -0.0012275982 -0.0012142169 -0.0012102257 -0.0012397146
-0.0012226691 -0.0012167074 -0.0029247738 -0.0028944374 -0.0028845617 -0.0029258253 -0.002889576 -0.0028764023
-0.0029444585 -0.0028981017 -0.0028765285 -0.0023358427 -0.002292179 -0.0022813557 -0.0023458602 -0.0022933045
-0.002277669 -0.0023777168 -0.0023115943 -0.0022857683 -0.00025309983 -0.00024065452 -0.00023896438 -0.00026001147
00000000: f851 50ba 3c03 4fba 0df1 4fba 186f 52ba
00000010: 88d7 52ba 7721 53ba 6c22 54ba 05ff 54ba
00000020: 032e 54ba 4fbe 3ab8 bf8b 35b8 0d48 38b8
00000030: b4ae 41b8 d2c3 41b8 d25d 42b8 868b 48b8
00000040: 8ebe 49b8 f8b2 46b8 b0e2 08ba 865c 05ba
00000050: f5ed 07ba bbf7 0cba 7f73 0fba e20f 11ba
00000060: ea5c 11ba 0409 16ba 4e10 16ba 8bcd d1b9
00000070: 0178 c4b9 0aef c3b9 c392 e0b9 189e ddb9
00000080: e517 d9b9 6730 edb9 5387 edb9 2e7c e4b9
00000090: 3a11 97b6 0f4d 68b6 5501 5fb6 f117 c2b6
000000a0: 4e7f a8b6 0e5b 98b6 9e73 e6b6 5396 ceb6
000000b0: 1c91 adb6 c123 05bc 524c 06bc b54e 09bc
000000c0: 7ea4 04bc 5563 08bc 5177 0bbc c0fb 03bc
000000d0: 521e 09bc 4652 0cbc cee2 40bc 6b8a 43bc
000000e0: 8468 47bc 288d 3fbc f7d7 44bc 0f53 49bc
000000f0: 5678 3dbc 6e5d 44bc d343 49bc b9d0 38bc
00000100: ddfa 3abc 83a1 3ebc 76b7 37bc 33ac 3cbc
00000110: 4efd 40bc e8a1 35bc 0445 3cbc 8916 41bc
00000120: e8ba 30bc a9ee 30bc de10 31bc 8da1 30bc
00000130: f2c8 30bc dffa 30bc 5294 30bc fdaf 30bc
00000140: 45d5 30bc 4bdd cebb 996f cfbb 9a06 d0bb
00000150: 027a cebb 79da cebb 6190 cfbb d550 cebb
00000160: cf69 cebb dceb cebb c6c0 13bc 0e58 14bc
00000170: 1e14 15bc 1924 13bc 337f 13bc 2e35 14bc
00000180: 07cf 12bc 51f3 12bc 0e42 13bc bd7f 0dbc
00000190: d613 0ebc 57c0 0ebc b500 0dbc ba59 0dbc
000001a0: 7e1a 0ebc f8b5 0cbc 6ad3 0cbc 9c42 0dbc
000001b0: 5691 87bb 8a95 88bb a1e3 89bb 59ff 86bb
000001c0: 6b8f 87bb 8819 89bb 18c3 86bb ee9f 86bb
000001d0: ccbb 87bb 82f5 7abc 9981 7bbc b1a4 7cbc
000001e0: 7352 79bc e572 79bc a367 7abc b59a 78bc
000001f0: 0f68 78bc 8779 78bc 1be7 86bc 80e7 86bc
00000200: a86e 87bc 3d18 86bc dcdd 85bc 8c66 86bc
00000210: d2e9 85bc d183 85bc c8a3 85bc 0e65 85bc
00000220: ec57 85bc 68cf 85bc 1ba3 84bc 3a5a 84bc
00000230: bad3 84bc 8f76 84bc a109 84bc 2822 84bc
00000240: 8970 fb3d 07a4 4a3e 1abd 113d b8ab 223c
00000250: 574b aa3d 7cd8 c13d a782 103e 8436 ff3d
00000260: 7635 2d3e 9622 cc3d ad69 aa3c 0437 913d
00000270: 1939 033e 14ef 533d 206d 8fbc 2d94 48bc
00000280: 27b7 aabb 1b4d a23d 8cf7 3d3d a30b a03c
00000290: 1722 b6bb 2bdd 783d 11eb b1bc b4ae a8bd
000002a0: 14b5 c0bd 9564 ecbd 3afb 863d ba34 ba3c
000002b0: c936 9f3c 9de5 e23c a92a 9bbc c04a 673d
000002c0: 5b8c 523d ff31 debd 7af8 063d 2742 3ebc
000002d0: f95e 42be 97ae e1bd 7a3c debd 4f14 59be
000002e0: 0f24 87be f0ba 96be 3598 18be 2666 7fbe
000002f0: 98dd 95be 2230 43be c85a 35be e611 e0bd
00000300: 7221 06be c3ae 96bd 53ff d1bd 2ff9 18be
00000310: e11e 8abd 37ec 53be f302 bbbd 8376 193d
00000320: 869f dd3c fe7e 9e3d f83c cebd f96d d3bd
00000330: 3c33 ba3d 9863 213d 4830 f1bc 0efc c13c
00000340: 35d2 ffbb 368e 5d3d 2a2b 19bc a92c ee3c
00000350: ee41 a23d 6b4a b93d fa86 e13d e456 863d
00000360: ad4c 9cbb a4bb 9bbb 2183 9bbb 6c9d 9cbb
00000370: 2df6 9bbb c4a3 9bbb d21f 9dbb b35f 9cbb
00000380: b7e8 9bbb d2eb 9fba fb7b 9eba c53d 9eba
00000390: 5ce7 a0ba 5c26 9fba 70a0 9eba eb7d a2ba
000003a0: f841 a0ba ed79 9fba 90ad 3fbb 9ab0 3dbb
000003b0: ea0a 3dbb 34bf 3fbb 0a5f 3dbb 0682 3cbb
000003c0: d1f7 40bb 14ee 3dbb 2484 3cbb f014 19bb
000003d0: 6238 16bb cc82 15bb 01bd 19bb 444b 16bb
000003e0: f244 15bb 78d3 1bbb 1e7e 17bb d4cc 15bb
000003f0: 7cb2 84b9 3558 7cb9 8392 7ab9 2652 88b9

bias f4 [16]
-0.015230354 -0.019616557 0.20379695 -0.02086936 0.1977734 -0.11442722 -1.4821726e-05 -0.0006346959
0.15267444 -0.007974587 0.28403336 -3.6175195e-06 -4.070745e-16 -0.002613401 -0.016741797 -0.12144149
00000000: bc88 79bc e7b2 a0bc 26b0 503e 38f6 aabc
00000010: 1c85 4a3e d158 eabd d4aa 78b7 b961 26ba
00000020: b056 1c3e d8a7 02bc d26c 913e 83c4 72b6
00000030: 98a9 eaa5 9845 2bbb 1826 89bc 51b6 f8bd

weight f4 [16, 16, 3, 3]
-1.1016458e-07 -4.0343133e-07 -3.1349225e-07 -3.4222545e-08 -1.3485204e-08 -6.641843e-09 -1.4073622e-08 -1.918867e-10
-3.2965915e-11 0.0012523172 0.0012733554 0.0014470919 0.0008084907 0.0008091671 0.0009613369 0.00080935116
0.0007979939 0.0008476227 0.20624529 0.038472734 0.13419087 0.2257847 0.069363266 0.14884813
0.17191423 0.2362473 0.17265831 -0.014005548 -0.0139513165 -0.013969192 -0.013954955 -0.0138685815
-0.0138653675 -0.013945027 -0.013849314 -0.013837484 0.080903746 -0.044652604 -0.04638651 0.17753962
0.13985565 0.04605466 0.09495908 0.13850975 0.12438122 -0.022895038 0.048019264 -0.027904063
-0.023695784 -0.019977847 -0.07289696 -0.020671666 -0.087327756 -0.11673048 -2.2276e-41 5.549e-42
-1.955e-41 2.5853e-41 -1.8717e-41 1.23e-43 -1.8186e-41 -2.3522e-41 -2.4837e-41 1.4871263e-18
6.0074814e-19 -6.152131e-18 6.549722e-18 3.5240967e-18 -9.741802e-19 4.269201e-19 2.2874104e-18 -2.034366e-18
0.015365672 0.084612004 0.107704945 -0.1487349 -0.0136224795 -0.051002488 -0.051779155 -0.03181516
0.03199864 2.2863045e-11 2.3454197e-11 2.6759215e-11 1.8443781e-11 1.869676e-11 2.2025977e-11 2.2214244e-11
2.1802405e-11 2.348683e-11 -0.12851728 -0.09199865 -0.12541893 -0.15699781 -0.18429886 -0.19684042
-0.17138673 -0.2500516 -0.25761837 2.008e-42 -2.8341e-41 1.0552e-41 7.029e-42 -1.5179e-41
9.393e-42 -2.623e-42 -2.5298e-41 1.8026e-41 -1.9e-41 -1.4732e-41 -1.8905e-41 -2.2082e-41
-2.2288e-41 -2.234e-41 -2.2279e-41 -2.3276e-41 3.901e-42 -2.0775416e-11 -2.1738129e-11 -2.3269785e-11
-2.0544464e-11 -2.053976e-11 -2.3396488e-11 -1.9988802e-11 -2.1549089e-11 -2.4558196e-11 0.1263381 0.07178719
0.05896163 -0.06700363 -0.045578595 -0.00057214824 -0.11840691 -0.106358066 0.064598255 -0.16607822
-0.181543 -0.2150823 -0.10605728 -0.1006758 -0.19504237 -0.035645865 -0.11553591 -0.13565922
0.010780608 0.010856216 0.010973862 0.010748927 0.010885961 0.011003309 0.010764608 0.010933468
0.011059915 0.015181353 0.015237484 0.01524782 0.014968866 0.015008109 0.015012502 0.014810221
0.014817099 0.014802971 0.07681634 0.114358015 0.12620348 0.13492453 0.078712285 0.1689764
0.068838514 0.05605869 0.20016004 -0.003053009 -0.003063746 -0.0030481431 -0.003021165 -0.0030456255
-0.002992717 -0.0029979362 -0.0029893122 -0.0029635534 -0.12519601 -0.24826595 -0.11134326 0.01966616
-0.16223353 -0.10962627 0.1745545 0.035078093 0.038969975 0.12536186 0.059368562 0.08506177
0.039981198 0.059532985 0.041315123 0.052570473 -0.057570513 -0.062001407 -2.6648e-41 3.4272e-41
4.1111e-41 -3.3145e-41 5.144e-42 3.3368e-41 1.902e-42 1.3217e-41 3.2252e-41 9.378329e-19
2.788389e-20 -4.4973324e-19 6.7426025e-19 1.3576961e-18 1.2457438e-20 1.582177e-20 1.931999e-19 1.951529e-19
-0.2568269 -0.13335465 0.12594306 -0.1511349 0.051781964 0.1714118 -0.10105895 0.052929074
0.1630386 -6.882339e-13 -8.1552446e-13 -1.0398324e-12 -5.856167e-13 -7.0461584e-13 -1.0645939e-12 -4.4892012e-13
-5.0809194e-13 -8.410796e-13 0.05240759 0.07373121 0.068405345 -0.0076244418 0.005541041 0.025122734
-0.08914846 -0.08576127 -0.062296577 -1.826e-41 -3.6622e-41 -2.3501e-41 -1.737e-41 8.678e-42
-2.2082e-41 -2.5408e-41 -2.9594e-41 -2.8826e-41 -9.087e-42 -3.903e-42 -8.073e-42 -9.958e-42
00000000: 9e93 ecb3 2e97 d8b4 0c4e a8b4 16fc 12b3
00000010: 8eac 67b2 4536 e4b1 72c8 71b2 4efb 52af
00000020: 52fc 10ae cb24 a43a b8e6 a63a 59ac bd3a
00000030: e4f0 533a 491e 543a 3a02 7c3a a32a 543a
00000040: 7730 513a ff32 5e3a f731 533e 9695 1d3d
00000050: 5569 093e 1b34 673e 540e 8e3d a56b 183e
00000060: 490a 303e d0ea 713e 57cd 303e 8777 65bc
00000070: 1094 64bc 0adf 64bc 53a3 64bc 0c39 63bc
00000080: 912b 63bc af79 64bc 3ce8 62bc 9db6 62bc
00000090: ddb0 a53d a6e5 36bd c8ff 3dbd f2cc 353e
000000a0: 5236 0f3e d0a3 3c3d e879 c23d 80d5 0d3e
000000b0: 95bb fe3d 608e bbbc d9af 443d 1097 e4bc
000000c0: a91d c2bc 95a8 a3bc 004b 95bd a057 a9bc
000000d0: e5d8 b2bd 6410 efbd 193e 0080 780f 0000
000000e0: 7f36 0080 1148 0000 2d34 0080 5800 0000
000000f0: b232 0080 9241 0080 3c45 0080 0b76 db21
00000100: 3f4f 3121 3cf9 e2a2 60a4 f122 2704 8222
00000110: 7dc3 8fa1 5702 fc20 f6c7 2822 161c 16a2
00000120: 4dc0 7b3c 0f49 ad3d 6994 dc3d f64d 18be
00000130: d230 5fbc fce7 50bd 6116 54bd 9d50 02bd
00000140: 0211 033d 001b c92d 284e ce2d 6560 eb2d
00000150: b43b a22d 5c75 a42d 17be c12d 0866 c32d
00000160: a7c6 bf2d a497 ce2d 099a 03be ca69 bcbd
00000170: d26d 00be 09c4 20be d7b8 3cbe 8990 49be
00000180: 0180 2fbe c306 80be 8ee6 83be 9905 0000
00000190: 014f 0080 6a1d 0000 9813 0000 502a 0080
000001a0: 2f1a 0000 5007 0080 8546 0080 4032 0000
000001b0: f734 0080 1129 0080 b334 0080 8e3d 0080
000001c0: 213e 0080 463e 0080 1b3e 0080 e240 0080
000001d0: e00a 0000 14be b6ad ea35 bfad e6ae ccad
000001e0: 05b6 b4ad 6eab b4ad 35cc cdad c8d2 afad
000001f0: 3c8c bdad 2404 d8ad c65e 013e 2a05 933d
00000200: c081 713d 3339 89bd 9fb0 3abd 38fc 15ba
00000210: 527f f2bd 42d2 d9bd 174c 843d 6910 2abe
00000220: 68e6 39be 893e 5cbe 8f34 d9bd 1d2f cebd
00000230: 30b9 47be 6601 12bd 179e ecbd 40ea 0abe
00000240: 26a1 303c 45de 313c b7cb 333c 441c 303c
00000250: 085b 323c 3947 343c 0a5e 303c 4a22 333c
00000260: a534 353c 36bb 783c a4a6 793c fed1 793c
00000270: f93f 753c 92e4 753c fff6 753c 92a6 723c
00000280: 6bc3 723c 2988 723c e351 9d3d 8934 ea3d
00000290: 7c3b 013e a829 0a3e e833 a13d 2608 2d3e
000002a0: 35fb 8c3d cc9d 653d c1f6 4c3e fe14 48bb
000002b0: 21c9 48bb 5bc3 47bb bdfe 45bb 1e99 47bb
000002c0: 7621 44bb 0679 44bb 56e8 43bb 2d38 42bb
000002d0: 6233 00be 6e39 7ebe ef07 e4bd ed1a a13c
000002e0: 8c20 26be bd83 e0bd 6abe 323e 0cae 0f3d
000002f0: fb9e 1f3d dc5e 003e 732c 733d de34 ae3d
00000300: 53c3 233d dcd8 733d 0c3a 293d 2354 573d
00000310: 0fcf 6bbd 30f5 7dbd 494a 0080 895f 0000
00000320: 9a72 0000 655c 0080 570e 0000 045d 0000
00000330: 4d05 0000 d824 0000 e859 0000 5366 8a21
00000340: 8ead 031f e2bc 04a1 aa01 4721 4f5c c821
00000350: 7950 6b1e b16e 951e 1617 6420 5865 6620
00000360: d17e 83be 1f8e 08be 38f7 003e 1bc3 1abe
00000370: 5319 543d 9386 2f3e fff7 cebd 28cc 583d
00000380: 97f3 263e 7bb8 41ab bb8c 65ab e957 92ab
00000390: 21d6 24ab ec54 46ab 0ad4 95ab 35b8 fcaa
000003a0: e203 0fab 2cbe 6cab 57a9 563d 6300 973d
000003b0: 1a18 8c3d 74d6 f9bb 9f91 b53b 31ce cd3c
000003c0: 7893 b6bd 9ba3 afbd b22a 7fbd e732 0080
000003d0: 1666 0080 8341 0080 6c30 0080 3118 0000
000003e0: 8e3d 0080 d446 0080 7f52 0080 5b50 0080
000003f0: 5519 0080 e10a 0080 8116 0080 c21b 0080

bias f4 [16]
0.111058176 0.009365678 -0.010658769 -0.006659637 -0.04150477 0.19316171 -0.013480048 0.09897853
0.048239615 -0.11645787 0.14421754 -0.017444594 0.09255341 0.0195631 -0.023256348 0.0787483
00000000: 7872 e33d 8072 193c 1ea2 2ebc 1639 dabb
00000010: e800 2abd 2fcc 453e 6bdb 5cbc 41b5 ca3d
00000020: e796 453d 7781 eebd c3ad 133e f7e7 8ebc
00000030: a48c bd3d cb42 a03c 1984 bebc ca46 a13d

weight f4 [32, 16, 3, 3]
-0.0051030493 -0.0050922916 -0.005476375 -0.004833813 -0.004535754 -0.0048785703 -0.0051082396 -0.0044682533
-0.0045310375 -2.3303382e-06 -1.2668629e-06 -1.1505314e-06 -5.269966e-06 -2.628493e-06 -1.6314544e-06 -6.5224804e-06
-3.7707653e-06 -2.7561068e-06 -4.5521e-41 -1.13173e-40 1.1159e-41 -5.6088e-41 1.63372e-40 -2.52419e-40
-2.5557e-41 -6.459e-41 5.4435e-41 6.5034e-41 1.6457e-41 -6.753e-41 1.04065e-40 4.7144e-41
3.461e-41 1.38228e-40 8.4634e-41 -3.8218e-41 -0.008236519 -0.0080516795 -0.0072563146 -0.008440654
-0.008426061 -0.008000334 -0.008521526 -0.00886566 -0.008909324 -0.012702239 -0.0120411655 -0.012141071
-0.01269725 -0.011498651 -0.011341502 -0.013838536 -0.011947032 -0.011257306 -0.008362338 -0.0075349114
-0.010390744 -0.010661636 -0.00820792 -0.008122991 -0.013239066 -0.010073475 -0.007967816 -0.010445084
-0.010137147 -0.009436874 -0.0105932765 -0.010488845 -0.010274836 -0.010356573 -0.010639701 -0.011062707
-0.013055786 -0.014034481 -0.015397558 -0.013453406 -0.014054865 -0.014573162 -0.0130191585 -0.013414671
-0.013368961 -0.0018343711 -0.0024111934 -0.0029176208 -0.0028142023 -0.0034042376 -0.003196051 -0.0020500983
-0.0030776754 -0.0027358592 -0.0069106817 -0.0068400907 -0.006834624 -0.0065863496 -0.006525026 -0.0067631695
-0.006636436 -0.0065451874 -0.0068734144 -1.26691e-40 5.6016e-41 -1.58331e-40 8.181e-41 -1.14792e-40
-1.643e-40 -2.33357e-40 1.6531e-41 9.459e-42 -0.010737 -0.01096654 -0.010342216 -0.010832482
-0.011367973 -0.011305251 -0.010359574 -0.01130569 -0.011870374 -5.67155e-08 -2.6616016e-08 -2.9215174e-08
-2.9581452e-07 -9.4205625e-08 -5.0331913e-08 -3.874423e-07 -1.4320744e-07 -9.558435e-08 -0.007847938 -0.009124605
-0.010811331 -0.008435642 -0.009166008 -0.009755645 -0.008055002 -0.008421311 -0.008240817 -0.0029967162
-0.0027515742 -0.0026564018 -0.0030722166 -0.0028381369 -0.002870474 -0.0031795767 -0.0030456728 -0.0031490666
0.14665659 0.093274735 0.07848618 0.2000086 0.13017401 0.0043513756 0.14298314 0.059009343
-0.055077184 0.4016495 0.30128312 0.108857565 0.256088 0.10986294 -0.10962154 0.037762627
-0.11554325 -0.17465788 -9.321572e-11 -6.6617975e-11 -6.615199e-11 -1.3477041e-11 -6.896736e-12 -4.960678e-12
-3.9780264e-13 -3.5435514e-13 -2.3657202e-13 9.860117e-23 2.775658e-27 -4.8047623e-37 1.9525921e-21 1.3038201e-24
6.6020545e-31 8.8704645e-20 4.6343753e-22 2.092489e-26 0.20307638 0.13833761 0.016379785 0.1269238
-0.03978953 -0.21488124 -0.033789452 -0.19376521 -0.23436111 0.07398876 0.01143453 -0.012438371
0.09874091 0.02708497 -0.006657338 0.08977289 0.014662214 -0.051780194 -0.41528943 -0.24464294
-0.016070353 -0.27027604 -0.07573307 0.12425248 -0.040102895 0.10347585 0.21418847 0.20250446
0.069793746 -0.038195293 0.08033675 -0.075700186 -0.20908573 -0.03344687 -0.109939635 -0.1778721
-0.12290446 -0.034906264 0.062592246 -0.061500378 0.022894392 0.108125314 0.04441027 0.08898169
0.13168493 -0.3656914 -0.12780641 0.15376887 -0.24202582 -0.04187906 0.22640449 0.030773304
0.14941451 0.3126307 0.21660875 0.15804167 0.09993663 0.21352476 0.112197876 -0.053971536
0.068423584 -0.05064763 -0.11527884 0.018318987 0.018593764 0.019400945 0.018269306 0.018645894
0.020205246 0.01915885 0.019857034 0.019808413 0.08816031 0.0025112464 0.0047765006 0.05113615
00000000: 7b37 a7bb 3ddd a6bb 2a73 b3bb f664 9ebb
00000010: aaa0 94bb 6adc 9fbb 0563 a7bb 6d6a 92bb
00000020: 1979 94bb e862 1cb6 1409 aab5 f56b 9ab5
00000030: aad4 b0b6 2a65 30b6 59f8 dab5 aedb dab6
00000040: 410d 7db6 8ef5 38b6 e57e 0080 7b3b 0180
00000050: 1b1f 0000 5a9c 0080 6ac7 0100 a4bf 0280
00000060: 3e47 0080 0db4 0080 be97 0000 4ab5 0000
00000070: e02d 0000 3fbc 0080 1722 0100 6b83 0000
00000080: 7b60 0000 5381 0100 edeb 0000 896a 0080
00000090: 77f2 06bc 31eb 03bc 61c6 edbb ab4a 0abc
000000a0: 760d 0abc d513 03bc df9d 0bbc 4641 11bc
000000b0: 6af8 11bc 0d1d 50bc 4f48 45bc 58eb 46bc
000000c0: 2008 50bc d664 3cbc b5d1 39bc 07bb 62bc
000000d0: 7cbd 43bc 9070 38bc 3002 09bc 6be7 f6bb
000000e0: f03d 2abc 24ae 2ebc 837a 06bc 4b16 05bc
000000f0: abe8 58bc 370b 25bc 718b 02bc dc21 2bbc
00000100: 4716 26bc 1e9d 1abc 6c8f 2dbc 68d9 2bbc
00000110: c957 28bc 9eae 29bc 2452 2ebc 5b40 35bc
00000120: efe7 55bc e1f0 65bc 0a46 7cbc ad6b 5cbc
00000130: 6046 66bc 46c4 6ebc 4f4e 55bc 35c9 5bbc
00000140: 7d09 5bbc 486f f0ba 1d05 1ebb 8e35 3fbb
00000150: 7b6e 38bb a119 5fbb d774 51bb f15a 06bb
00000160: d3b2 49bb 1a4c 33bb 0073 e2bb d722 e0bb
00000170: fbf4 dfbb 4ed2 d7bb e3cf d5bb 949d ddbb
00000180: 7676 d9bb 0379 d6bb 613a e1bb 2a61 0180
00000190: 269c 0000 5db9 0180 0ee4 0000 fe3f 0180
000001a0: 00ca 0180 818a 0280 152e 0000 5e1a 0000
000001b0: 3eea 2fbc 01ad 33bc 6672 29bc b97a 31bc
000001c0: bc40 3abc a939 39bc 34bb 29bc 803b 39bc
000001d0: f57b 42bc 5a97 73b3 3da1 e4b2 d9f4 fab2
000001e0: 70d0 9eb4 174e cab3 862c 58b3 aa01 d0b4
000001f0: 90c4 19b4 0d44 cdb3 a394 00bc 5e7f 15bc
00000200: 0222 31bc a635 0abc 062d 16bc 24d6 1fbc
00000210: 21f9 03bc 8af9 09bc 7e04 07bc 8e64 44bb
00000220: c153 34bb 0717 2ebb 3e57 49bb 0900 3abb
00000230: 901e 3cbb 7260 50bb e999 47bb 9260 4ebb
00000240: 252d 163e d306 bf3d 5dbd a03d 0ecf 4c3e
00000250: 564c 053e fc95 8e3b 2c6a 123e c8b3 713d
00000260: 9d98 61bd 01a5 cd3e c841 9a3e b7f0 de3d
00000270: f71d 833e d2ff e03d 4281 e0bd fcac 1a3d
00000280: f1a1 ecbd 84d9 32be c9fb ccae 967e 92ae
00000290: 4278 91ae 3217 6dad 46a8 f2ac d189 aeac
000002a0: 67f1 dfaa f57b c7aa 9f2d 85aa 2b67 ee1a
000002b0: 08e9 5b13 627f 2383 a088 131d a3c1 c917
000002c0: b93f 560d ab72 d11f be10 0c1c e63a cf14
000002d0: 41f3 4f3e 60a8 0d3e e62e 863c 50f8 013e
000002e0: 59fa 22bd d409 5cbe cf66 0abd 636a 46be
000002f0: 5cfc 6fbe 6b87 973d e557 3b3c 4fca 4bbc
00000300: ad38 ca3d 4de1 dd3c cc25 dabb d9da b73d
00000310: c839 703c 7817 54bd d1a0 d4be ae83 7abe
00000320: f9a5 83bc 9f61 8abe f119 9bbd 1678 fe3d
00000330: ef42 24bd 25eb d33d 3954 5b3e 545d 4f3e
00000340: 06f0 8e3d ab72 1cbd 9887 a43d b308 9bbd
00000350: 921a 56be 96ff 08bd 0828 e1bd 1b24 36be
00000360: 55b5 fbbd dff9 0ebd 5d30 803d d2e7 7bbd
00000370: 058d bb3c ce70 dd3d 8be7 353d 083c b63d
00000380: 6ad8 063e e73b bbbe afdf 02be 9675 1d3e
00000390: 9ed5 77be 6189 2bbd 94d6 673e 4c18 fc3c
000003a0: 1e00 193e 2211 a03e afce 5d3e add5 213e
000003b0: 93ab cc3d 3ca6 5a3e 00c8 e53d 4211 5dbd
000003c0: aa21 8c3d e473 4fbd 5017 ecbd b311 963c
000003d0: f351 983c bbee 9e3c 83a9 953c 46bf 983c
000003e0: 7985 a53c 05f3 9c3c 38ab a23c 4145 a23c
000003f0: 658d b43d b993 243b 3184 9c3b 2474 513d

bias f4 [32]
-0.022081094 -0.13145684 -0.10239418 -0.051953662 0.0066963444 -0.034074366 -4.0575022e-16 -0.096338265
-1.0016717e-05 -0.028520197 -2.9449524e-21 -0.1900494 -1.6544895e-05 -0.11971588 -0.005945327 -0.0012662415
-0.006464649 -0.0009819034 -0.03341071 -0.00012587833 -0.14338231 -0.027740762 -0.008391015 -0.0004925751
-0.021389173 -0.0065476927 -0.004856841 -0.016328856 -0.0004709444 -0.0011242182 -0.13530143 0.029948903
00000000: 69e3 b4bc 9f9c 06be 0ab4 d1bd 5dcd 54bd
00000010: 026d db3b 9091 0bbd 2ae6 e9a5 ff4c c5bd
00000020: 790d 28b7 30a3 e9bc aa83 5e9d 4f9c 42be
00000030: e4c9 8ab7 992d f5bd 05d1 c2bb 04f8 a5ba
00000040: 68d5 d3bb 36b3 80ba abd9 08bd 35fe 03b9
00000050: d0d2 12be 9840 e3bc 787a 09bc 2820 01ba
00000060: 5938 afbc 078e d6bb 2326 9fbb 18c4 85bc
00000070: 16e9 f6b9 815a 93ba 758c 0abe 6757 f53c

weight f4 [32, 32, 3, 3]
-8.2441e-41 -2.0599e-41 1.20785e-40 2.16367e-40 -2.2306e-40 -2.10724e-40 -1.93281e-40 -7.9098e-41
-1.12814e-40 1.2958e-41 1.4564e-41 -1.1435e-41 -2.873e-42 -1.9486e-41 -4.798e-42 -2.654e-42
1.4407e-41 2.242e-41 -4.3208046e-30 -4.701328e-34 3.6796035e-35 -2.6326743e-29 -3.6244653e-33 5.3350477e-35
-1.20520084e-29 -2.7531391e-33 1.2779178e-35 -2.1647e-41 -5.102e-42 3.62e-42 7.498e-42 5.202e-42
-2.3113e-41 -2.546e-42 -3.339e-42 -9.71e-43 -1.0095e-41 -6.966e-42 -8.719e-42 4.116e-42
-7.114e-42 -2.267e-42 3.8708e-41 3.656e-42 1.3223e-41 4.9183e-41 -3.5367e-41 -3.048e-41
2.7887e-41 3.9536e-41 -5.786e-42 7.4717e-41 -6.22e-41 -3.9327e-41 9.6821e-41 -8.4252e-41
-5.6611e-41 -2.554e-41 -5.5093e-41 7.347e-41 7.6385e-41 -7.629e-42 6.3724e-41 3.188e-42
1.792e-42 -9.669e-42 1.5243e-41 -1.131e-41 1.867e-42 -2.0009e-41 1.1613e-41 1.4694e-41
2.05129e-40 -2.2208e-41 5.9164e-41 1.8852e-40 -2.0542e-40 -6.0284e-41 -2.1731e-40 -8.8065e-41
-5.6887e-41 3.628e-41 -8.4973e-41 -1.11412e-40 1.71344e-40 -8.7305e-41 4.1428e-41 1.7026e-41
4.3617e-41 2.6039e-40 -1.62112e-40 -2.6472e-41 -2.47165e-40 -6.9647e-41 7.7772e-41 -2.68406e-40
-1.44763e-40 9.1262e-41 -1.31347e-40 -2.0257e-41 1.7186e-41 1.1188e-41 -1.2616e-41 -3.398e-42
-1.702e-41 -1.95e-42 2.5194e-41 2.3135e-41 7.27e-41 -4.4382e-41 -8.7847e-41 -3.0942e-41
1.9627e-41 3.4527e-41 5.6709e-41 9.2577e-41 2.196e-41 -8.313193e-22 -2.1251342e-22 -1.6734823e-23
-6.5605593e-21 -4.476603e-21 -5.4795334e-22 -1.7494673e-20 -2.0283032e-20 -5.274545e-21 9.5744e-41 -1.6184e-40
-2.42108e-40 -6.38e-42 -6.7054e-41 -2.50289e-40 1.30842e-40 -1.27548e-40 1.36879e-40 -2.4753e-41
-5.981e-42 -3.9354e-41 4.6075e-41 1.80182e-40 -2.3264e-41 -1.07645e-40 -1.17656e-40 1.62925e-40
4.5593e-41 -7.804e-42 -2.8103e-41 -4.333e-42 -5.2881e-41 -6.0025e-41 -1.8947e-41 -7.2956e-41
-7.176e-42 1.00205e-40 -5.645e-41 1.84104e-40 -6.634e-41 -1.1709e-41 -8.1153e-41 3.643e-42
5.6755e-41 6.0808e-41 -5.0447e-41 -7.1058e-41 -6.8927e-41 4.6276e-41 2.14736e-40 -1.69739e-40
-1.10815e-40 -1.52599e-40 2.4624e-40 -4.0101e-41 3.8312e-41 -7.4154e-41 -7.0736e-41 -2.1936e-41
1.5367e-41 6.0095e-41 2.3603e-41 -6.6374e-41 -4.275e-41 -4.3073e-41 -8.659e-42 -3.575e-42
1.3141e-41 -3.847e-41 -2.0341e-41 4.5338e-41 2.6727e-41 3.119e-42 -1.695e-41 5.364e-42
-1.8937e-41 -7.41e-42 9.768e-42 1.9615e-41 1.908e-41 2.1923e-41 -9.5014e-41 1.96909e-40
2.29676e-40 -8.785e-41 -2.0316e-41 1.0574e-40 -6.7911e-41 -2.65023e-40 1.16242e-40 5.846e-42
1.18114e-40 -5.4335e-41 -1.96748e-40 -2.77585e-40 1.97723e-40 -1.08652e-40 4.7445e-41 8.99e-42
-3.3682e-41 -2.8145e-41 -2.2705e-41 -3.435e-41 1.9276e-41 7.4332e-41 -8.999e-42 -4.4107e-41
6.5554e-41 -3.4742e-40 -1.69542e-40 -1.25603e-40 -6.6811e-41 1.11245e-40 2.50566e-40 -5.368e-42
2.05325e-40 -1.98812e-40 4.278e-42 -1.0071e-41 2.3036e-41 9.58e-42 -4.4699e-41 1.7362e-41
-5.0507e-41 2.0565e-41 -4.993e-41 -1.17108e-40 1.61374e-40 9.337e-41 -1.17894e-40 -3.18689e-40
-1.5893e-40 -8.0245e-41 -1.02902e-40 -1.56454e-40 4.5062e-41 -3.1496e-41 2.145e-42 -2.4834e-41
00000000: d0e5 0080 6c39 0080 b350 0100 255b 0200
00000010: cd6d 0280 6a4b 0280 ca1a 0280 7edc 0080
00000020: 7b3a 0180 1f24 0000 9928 0000 e01f 0080
00000030: 0208 0080 5236 0080 600d 0080 6607 0080
00000040: 2928 0000 7f3e 0000 cd45 af8e 7a3a 1c88
00000050: 2ba4 4306 117e 0590 ed8d 9689 74d4 8d06
00000060: 9b71 748f cbb8 6489 3be4 8705 583c 0080
00000070: 390e 0080 170a 0000 e714 0000 800e 0000
00000080: 6e40 0080 1907 0080 4f09 0080 b502 0080
00000090: 241c 0080 6b13 0080 4e18 0080 790b 0000
000000a0: d513 0080 5206 0080 e76b 0000 310a 0000
000000b0: dc24 0000 1a89 0000 9762 0080 f754 0080
000000c0: bd4d 0000 366e 0000 2110 0080 48d0 0000
000000d0: 63ad 0080 a16d 0080 e60d 0100 dcea 0080
000000e0: cf9d 0080 3247 0080 9499 0080 cecc 0000
000000f0: eed4 0000 4415 0080 a3b1 0000 e308 0000
00000100: ff04 0000 f41a 0080 7e2a 0000 871f 0080
00000110: 3405 0000 c737 0080 5f20 0000 f628 0000
00000120: d13b 0200 e83d 0080 eda4 0000 840d 0200
00000130: a13c 0280 0ca8 0080 c65d 0280 7df5 0080
00000140: 949e 0080 2265 0000 dfec 0080 9236 0180
00000150: a3dd 0100 5ff3 0080 7c73 0000 762f 0000
00000160: 9679 0000 ddd5 0200 e7c3 0180 cb49 0080
00000170: ffb0 0280 26c2 0080 ccd8 0000 35ec 0280
00000180: 8a93 0180 67fe 0000 246e 0180 7838 0080
00000190: e82f 0000 301f 0000 2b23 0080 7909 0080
000001a0: 722f 0080 7005 0080 3b46 0000 7e40 0000
000001b0: a8ca 0000 b87b 0080 e2f4 0080 4156 0080
000001c0: b636 0000 3f60 0000 159e 0000 1102 0100
000001d0: 373d 0000 3740 7b9c dc74 809b 6ad9 a199
000001e0: d6d9 f79d 0c1f a99d d69b 259c 863b a59e
000001f0: 5d91 bf9e 4544 c79d e50a 0100 25c3 0180
00000200: e6a2 0280 c911 0080 ebba 0080 b4b9 0280
00000210: bc6c 0100 8d63 0180 907d 0100 0045 0080
00000220: ac10 0080 b46d 0080 7080 0000 46f6 0100
00000230: da40 0080 122c 0180 fa47 0180 2bc6 0100
00000240: 187f 0000 c115 0080 574e 0080 140c 0080
00000250: 6993 0080 53a7 0080 d134 0080 5fcb 0080
00000260: 0114 0080 5517 0100 5c9d 0080 3501 0200
00000270: eeb8 0080 a420 0080 39e2 0080 280a 0000
00000280: 369e 0000 82a9 0000 a08c 0080 15c6 0080
00000290: 24c0 0080 0081 0000 9956 0200 2ad9 0180
000002a0: e834 0180 62a9 0180 6bae 0200 c96f 0080
000002b0: cc6a 0000 b6ce 0080 2fc5 0080 263d 0080
000002c0: d62a 0000 85a7 0000 cc41 0000 06b9 0080
000002d0: 2b77 0080 1278 0080 2318 0080 f709 0080
000002e0: a224 0000 3d6b 0080 b438 0080 627e 0000
000002f0: 814a 0000 b208 0000 402f 0080 f40e 0000
00000300: ca34 0080 a814 0080 3b1b 0000 ae36 0000
00000310: 3035 0000 1d3d 0000 dc08 0180 e724 0200
00000320: 3e80 0200 e4f4 0080 a238 0080 c326 0100
00000330: 4fbd 0080 c7e2 0280 0944 0100 4c10 0000
00000340: 4149 0100 7797 0080 7424 0280 cb05 0380
00000350: 2c27 0200 e12e 0180 4284 0000 0f19 0000
00000360: e45d 0080 754e 0080 4b3f 0080 c15f 0080
00000370: bc35 0000 35cf 0000 1619 0080 f47a 0080
00000380: bdb6 0000 77c8 0380 9dd8 0180 215e 0180
00000390: 3eba 0080 1b36 0100 7aba 0200 f70e 0080
000003a0: 5d3c 0200 352a 0280 ed0b 0000 131c 0080
000003b0: 3740 0000 b51a 0000 9a7c 0080 6630 0000
000003c0: cb8c 0080 5439 0000 2f8b 0080 7346 0180
000003d0: d8c1 0100 4704 0100 a448 0180 6078 0380
000003e0: 08bb 0180 b1df 0080 d91e 0180 21b4 0180
000003f0: 9d7d 0000 cc57 0080 fb05 0000 3a45 0080

bias f4 [32]
-1.1354188e-07 -0.00568573 -0.094686 -4.6057172e-10 -8.935552e-06 -5.2092337e-06 -1.964207e-07 0.0076334323
0.070921145 0.14370193 0.07909833 -1.12012685e-05 -0.03850524 0.034327462 -0.16825166 -0.014329841
0.11275344 -0.022353612 -0.007509381 -0.044163622 -0.0031247083 0.10067657 0.12733684 0.0044524637
-0.00048433372 0.13614164 -0.014854348 -0.01779588 0.025708592 -6.156401e-07 -4.7029116e-15 -2.3443746e-16
00000000: 4fd4 f3b3 5c4f babb bcea c1bd b533 fdaf
00000010: e7e9 15b7 faca aeb6 b6e7 52b4 df21 fa3b
00000020: 1b3f 913d 9926 133e 4efe a13d 15ed 3bb7
00000030: acb7 1dbd f49a 0c3d 2a4a 2cbe b6c7 6abc
00000040: 47eb e63d ec1e b7bc 4111 f6bb eae4 34bd
00000050: e8c7 4cbb 842f ce3d 9764 023e f9e5 913b
00000060: 2cee fdb9 b768 0b3e a75f 73bc aac8 91bc
00000070: d39a d23c 7742 25b5 b470 a9a7 dd24 87a5

weight f4 [32, 16, 2, 2]
3.0140685e-11 1.8073584e-11 3.035848e-11 2.073324e-11 -1.6606755e-35 7.928965e-33 -6.9226894e-35 1.1099222e-32
2.7925422e-16 1.3795844e-16 1.8060994e-16 1.1147034e-16 2.8565678e-16 1.3168162e-16 3.9566428e-16 2.2877015e-16
-3.8838914e-13 -2.2295871e-13 -3.054695e-13 -2.0239935e-13 2.9170033e-20 3.490914e-20 1.2706357e-20 1.4939686e-20
-6.3504766e-12 -3.890164e-12 -6.3025136e-12 -4.445845e-12 1.9380692e-25 -6.379978e-26 1.832917e-25 -1.3415974e-26
-6.698998e-14 -2.7379574e-13 -5.7266725e-14 -2.2334639e-13 -3.2506404e-11 -7.5704984e-11 -1.9827194e-11 -5.3073986e-11
-5.7936305e-26 -4.321552e-26 -1.5279017e-26 -7.0981704e-27 4.219352e-14 2.1254867e-14 3.8581737e-14 2.0259673e-14
-6.470507e-14 -7.4678775e-14 -3.7396603e-14 -4.6051755e-14 -2.8558048e-13 -7.557693e-13 -1.6638316e-13 -4.0716085e-13
9.551713e-13 7.3096e-13 7.1901117e-13 7.494886e-13 -1.458754e-13 -8.9763876e-14 -1.2542436e-13 -8.946096e-14
0.0006076245 0.00061922194 0.00067444827 0.0007201219 0.00039578613 0.00039847058 0.00046129027 0.0004750581
0.00016250812 0.00018431494 0.00017351369 0.000201144 0.00027747467 0.00028962604 0.0003013827 0.00032690546
-0.00024384224 -0.00026651938 -0.00025822915 -0.0002892878 -0.00040943024 -0.00038823133 -0.00047105883 -0.00046320067
-0.00067757553 -0.0006905861 -0.000738435 -0.00079850835 -0.00029692973 -0.00028373874 -0.00034519495 -0.00033808232
-0.0004798933 -0.000503236 -0.00057370524 -0.00059534435 -2.397623e-05 -3.9494807e-05 -6.244225e-05 -7.39265e-05
7.420299e-05 7.1702234e-05 8.32086e-05 8.506278e-05 0.00026733428 0.0002929272 0.00030918347 0.0003547799
0.0005897804 0.00050487864 0.0006797759 0.00059264834 0.00015893958 0.00015753429 0.0001474543 0.00015404023
0.000114160546 0.00012629341 9.8002965e-05 0.00011684065 -0.00031639877 -0.00031978844 -0.00032523953 -0.00035986665
-0.21897742 -0.10079412 -0.08446054 -0.1766604 0.07898333 0.11371251 0.0423466 -0.006974548
0.03434346 0.1317193 0.1592498 0.101796605 -0.010226759 -0.0865131 0.0068286136 -0.06466095
-0.13995674 -0.092630334 -0.0007830819 -0.12877318 0.011559472 -0.024596645 0.03945402 -0.076474324
0.17635478 0.12750742 0.108667925 0.07792653 0.010961914 -0.029035768 -0.049452484 -0.056094237
0.011238357 0.10409036 0.07004625 0.13987859 0.22308531 0.09818681 0.17109412 0.2016768
0.19589221 0.18570271 0.07705342 0.054835208 0.02707529 0.08828264 0.068898164 0.07567703
0.09065909 -0.0013659972 -0.031034835 -0.009127866 0.22475891 0.19805397 0.19900773 0.2239406
0.005873949 0.07652099 0.04484769 0.0059159263 -0.019909965 -0.04373033 -0.069405444 -0.15427397
-2.6769163e-22 -6.488869e-22 -1.8085322e-22 -3.412816e-22 2.0626e-41 -5.27e-42 3.507e-42 1.049e-41
2.3266e-41 2.132e-41 -2.3037e-41 7.01e-42 5.939e-42 -1.4768e-41 1.3933e-41 6.49e-43
-1.429e-41 2.241e-41 -1.3465e-41 -1.43e-42 -2.2962e-41 8.439648e-39 2.2249e-39 5.669753e-37
3.7446234e-32 4.524589e-32 1.7326112e-32 1.0069193e-32 -3.859e-42 5.874e-42 1.6356e-41 1.7163e-41
4.49455e-39 -8.105985e-38 -1.9307418e-38 -1.2375694e-36 1.8085e-41 2.3629e-41 6.543e-42 -2.3158e-41
2.3222e-41 -7.8e-44 -8.293e-42 2.2169e-41 5.073e-42 1.3869e-41 1.5257e-41 -1.8322e-41
4.4248388e-24 9.190195e-23 3.438187e-23 5.3665745e-22 1.7816e-41 9.708e-42 1.6929e-41 2.2435e-41
-1.91995e-40 -2.15126e-40 -2.72229e-40 -1.94736e-40 1.5298e-41 3.315e-42 2.0442e-41 -1.6122e-41
00000000: 658f 042e 18fa 9e2d 9c84 052e 1b5f b62d
00000010: e397 b085 9cad 240a 6209 b886 9685 660a
00000020: a6fa a025 250e 1f25 a53a 5025 3d84 0025
00000030: 80ab a425 8ed1 1725 be15 e425 84e0 8325
00000040: c6a4 daaa 7907 7baa cbf6 abaa a4e1 63aa
00000050: 68c0 091f 90da 241f 2c04 701e f219 8d1e
00000060: 0270 dfac 7bdf 88ac ffbf ddac 9d6c 9cac
00000070: ddeb 6f16 eaf5 9d95 75e7 6216 89dd 8494
00000080: 18d9 96a9 2022 9aaa 05f4 80a9 3777 7baa
00000090: f5f6 0eae 1e7a a6ae df66 aead ff6b 69ae
000000a0: 7f71 8f95 2efe 5595 e950 9794 0098 0c94
000000b0: d105 3e29 6372 bf28 b7c1 2d29 a07b b628
000000c0: efb3 91a9 6229 a8a9 596b 28a9 0f66 4fa9
000000d0: 7cc4 a0aa ebba 54ab ae54 3baa 1036 e5aa
000000e0: ac6d 862b 38bf 4d2b 3762 4a2b 58f6 522b
000000f0: b93d 24aa 5a21 caa9 1c37 0daa bb72 c9a9
00000100: fd48 1f3a 4853 223a 75cd 303a 90c6 3c3a
00000110: 8481 cf39 d1e9 d039 55d9 f139 3811 f939
00000120: f166 2a39 aa44 4139 3af1 3539 2eea 5239
00000130: 057a 9139 f3d8 9739 e702 9e39 8264 ab39
00000140: e7af 7fb9 a0bb 8bb9 ee62 87b9 8dab 97b9
00000150: cca8 d6b9 878b cbb9 72f8 f6b9 bed9 f2b9
00000160: 539f 31ba 7308 35ba 8993 41ba fd52 51ba
00000170: 3cad 9bb9 c5c2 94b9 48fb b4b9 a440 b1b9
00000180: 309a fbb9 99eb 03ba b564 16ba e210 1cba
00000190: 9020 c9b7 3aa7 25b8 6df3 82b8 fd08 9bb8
000001a0: 6d9d 9b38 d85e 9638 4780 ae38 bb63 b238
000001b0: 0029 8c39 0694 9939 e719 a239 c101 ba39
000001c0: 7e9b 1a3a d559 043a fd32 323a f55b 1b3a
000001d0: 05a9 2639 ca2f 2539 f69d 1a39 dc85 2139
000001e0: 7a69 ef38 a16d 0439 f186 cd38 5908 f538
000001f0: 53e2 a5b9 47a9 a7b9 e984 aab9 7cac bcb9
00000200: 9e3b 60be 266d cebd a6f9 acbd 77e6 34be
00000210: 03c2 a13d 1be2 e83d a173 2d3d c08a e4bb
00000220: baab 0c3d 6de1 063e 6112 233e bd7a d03d
00000230: 238e 27bc c82d b1bd 90c2 df3b f66c 84bd
00000240: d250 0fbe f9b4 bdbd bd47 4dba 1edd 03be
00000250: f163 3d3c e77e c9bc 8a9a 213d 929e 9cbd
00000260: 5996 343e 4e91 023e 4a8d de3d f297 9f3d
00000270: 9a99 333c 6bdc edbc b08e 4abd 12c3 65bd
00000280: 1621 383c 542d d53d 6974 8f3d 553c 0f3e
00000290: 7a70 643e 2b16 c93d 4c33 2f3e 5d84 4e3e
000002a0: f897 483e da28 3e3e 2fce 9d3d e29a 603d
000002b0: 00cd dd3c 87cd b43d 7b1a 8d3d 8ffc 9a3d
000002c0: 79ab b93d 430b b3ba c43c febc 0b8d 15bc
000002d0: 3327 663e a9ce 4a3e afc8 4b3e af50 653e
000002e0: 417a c03b 09b7 9c3d 36b2 373d 63da c13b
000002f0: 391a a3bc 931e 33bd 7124 8ebd fff9 1dbe
00000300: 46cf a19b 311d 449c 5ca3 5a9b c54a ce9b
00000310: 7f39 0000 b10e 0080 c709 0000 3e1d 0000
00000320: db40 0000 6e3b 0000 3840 0080 8b13 0000
00000330: 8e10 0000 2b29 0080 d726 0000 cf01 0000
00000340: d627 0080 783e 0000 8925 0080 fc03 0080
00000350: 0240 0080 4ee6 5b00 1e3a 1800 84ee 4003
00000360: 956e 420b 1bee 6a0b b5ec b30a 0321 510a
00000370: c20a 0080 6010 0000 982d 0000 d82f 0000
00000380: faf0 3000 78aa dc81 3a3d d280 c08f d283
00000390: 6a32 0000 de41 0000 3d12 0000 8e40 0080
000003a0: bc40 0000 3800 0080 1e17 0080 cc3d 0000
000003b0: 240e 0000 a926 0000 882a 0000 1333 0080
000003c0: 7b2d ab18 8d34 de1a b242 261a dc31 221c
000003d0: aa31 0000 101b 0000 312f 0000 8a3e 0000
000003e0: 3417 0280 af57 0280 ddf6 0280 d81e 0280
000003f0: a52a 0000 3e09 0000 fc38 0000 f12c 0080

bias f4 [16]
-0.18601803 -0.09212123 -0.13318762 -0.13780393 0.15984625 0.041452132 0.2051298 0.07827555
-0.041616492 -0.11774621 -0.08017085 -0.15079561 0.0062659387 -0.1217032 -0.16497362 0.2059172
00000000: 837b 3ebe 0eaa bcbd 5662 08be 791c 0dbe
00000010: bcae 233e b6c9 293d 8c0d 523e ee4e a03d
00000020: 0e76 2abd ed24 f1bd 9d30 a4bd 2a6a 1abe
00000030: 8152 cd3b 873f f9bd d8ee 28be f5db 523e

weight f4 [16, 32, 3, 3]
-0.055880014 -0.005423519 0.008014457 -0.060026668 -0.07346294 -0.045121085 -0.07522298 -0.046063904
-0.01672248 0.056546595 0.053159516 0.04561849 0.04540093 0.01883752 0.040788807 0.017785706
0.051050227 0.07306047 -0.004743099 0.0008341078 0.019986106 0.013428772 -0.005423188 -0.0008115153
0.008537077 -0.0031976583 0.020821134 -0.093240686 -0.064486966 -0.017676175 -0.101664275 -0.058192592
-0.037049122 -0.08639563 -0.05697716 -0.01652487 6.5161454e-05 -0.004168485 -0.03696625 -0.027337287
0.0068161166 -0.04938676 0.017013857 0.007974381 0.0108141685 -0.15269208 -0.15256822 -0.112292536
-0.14219438 -0.12465773 -0.068564914 -0.1208422 -0.15044916 -0.0807648 0.09804331 0.041772913
0.033107474 0.05982999 0.005071661 0.032411627 0.030603867 0.002446531 -0.033201244 -0.12472771
-0.121835716 -0.10010733 -0.10434136 -0.087787025 -0.044222426 -0.06924123 -0.07578425 -0.0392258
-0.0656856 -0.047159053 -0.09221762 -0.03674228 0.0041928277 -0.035687197 -0.06502236 -0.027767768
-0.061440833 0.034219544 -0.013112015 -0.097879715 0.057408445 0.060882 -0.057373866 0.023399387
0.011813664 -0.07539119 0.097718164 0.081615955 0.04497218 0.10385853 0.08915583 0.02284285
0.037371 0.018997932 -0.036633383 -0.058865722 -0.044909794 -0.021961108 -0.015909715 -0.021374043
-0.0069931387 0.020525953 -0.01805777 -0.010958789 0.15319444 0.19314197 0.16894853 0.14375518
0.15761791 0.12854584 0.16553752 0.17597693 0.13539232 0.09176636 0.06289873 -0.023303652
0.09613913 0.10579966 0.021035241 0.11156297 0.107872136 0.013401344 -0.14447801 -0.13450041
-0.11521691 -0.10348316 -0.08316523 -0.07417908 -0.06979879 -0.047479823 -0.030524295 0.10245577
0.06053114 0.06996098 0.062999666 0.052937705 0.018542979 0.01562293 -0.033249117 0.012127375
-0.0012624048 -0.0077729397 -0.057662793 0.028727021 0.010361714 -0.053305767 -0.028490664 -0.037923843
-0.12777962 -0.011675863 -0.0282611 -0.058561657 -0.039445985 -0.079222806 -0.10754871 -0.07247144
-0.11785581 -0.13083364 3.9022667e-22 1.03182173e-22 2.0904104e-23 6.746936e-21 1.0538864e-21 8.9410315e-23
3.1267582e-20 3.8034173e-21 2.32974e-22 1.4861e-41 5.628e-42 2.607e-41 2.458e-42 -2.649e-41
2.4052e-41 -3.15e-42 -2.0421e-41 -1.008e-42 0.09774314 0.056316786 0.022672523 0.040591273
-0.00815111 -0.047510833 0.025874527 -0.03816617 -0.07178095 -0.040423576 -0.036310367 -0.06722541
-0.028376572 -0.0036614644 -0.03936896 -0.0822602 -0.018028399 -0.09076095 -0.15790649 -0.122738935
-0.21287826 -0.13969712 -0.0997965 -0.19080004 -0.20346002 -0.14975084 -0.22764489 0.1381597
0.11361867 0.097553685 0.10586878 0.09481443 0.041962598 0.09714993 0.050918162 0.06178224
0.113934524 0.1132111 0.108638436 0.11051525 0.1166122 0.12045243 0.11918444 0.13154927
0.14126743 -0.030024247 -0.024629785 0.012744903 -0.08428946 -0.06927667 -0.008380134 -0.056183442
-0.02898256 0.04482697 0.13395296 0.09714543 0.050028127 0.11818368 0.08520636 0.042556945
0.06339523 0.050090194 -0.009285481 0.013621367 0.0136020975 0.013771236 0.01345207 0.013413259
0.013597271 0.013458884 0.013434067 0.013648574 0.16516773 0.17752922 0.20129038 0.16282691
00000000: 71e2 64bd c6b7 b1bb 124f 033c 86de 75bd
00000010: bd73 96bd e3d0 38bd 810e 9abd 81ad 3cbd
00000020: 95fd 88bc 679d 673d cbbd 593d 74da 3a3d
00000030: 53f6 393d 2551 9a3c 2a12 273d 54b3 913c
00000040: 0b1a 513d baa0 953d 006c 9bbb 07a8 5a3a
00000050: e7b9 a33c 5a04 5c3c 00b5 b1bb dfbb 54ba
00000060: 19df 0b3c ce8f 51bb 1591 aa3c f9f4 bebd
00000070: be11 84bd a0cd 90bc 5c35 d0bd 5b5b 6ebd
00000080: d2c0 17bd 31f0 b0bd e260 69bd 2a5f 87bc
00000090: 4aa7 8838 c997 88bb ec69 17bd 72f2 dfbc
000000a0: bb59 df3b c549 4abd a560 8b3c faa6 023c
000000b0: e92d 313c 505b 1cbe d83a 1cbe a1f9 e5bd
000000c0: 679b 11be 8d4c ffbd c36b 8cbd 1e7c f7bd
000000d0: 580f 1abe 0468 a5bd eeca c83d 131a 2b3d
000000e0: b49b 073d 4b10 753d 2d30 a63b 0ec2 043d
000000f0: f6b4 fa3c fb55 203b 07fe 07bd 3e71 ffbd
00000100: 0185 f9bd 1205 cdbd ecb0 d5bd afc9 b3bd
00000110: 9322 35bd 59ce 8dbd c634 9bbd 3cab 20bd
00000120: 2c86 86bd da29 41bd 97dc bcbd 137f 16bd
00000130: fd63 893b bd2c 12bd 712a 85bd 3b79 e3bc
00000140: 62a9 7bbd cb29 0c3d c7d3 56bc 2975 c8bd
00000150: 1e25 6b3d 675f 793d dc00 6bbd 12b0 bf3c
00000160: 198e 413c b266 9abd 7620 c83d 4426 a73d
00000170: c034 383d c8b3 d43d 5597 b63d ee20 bb3c
00000180: 5512 193d 8da1 9b3c e30c 16bd 2f1d 71bd
00000190: 55f3 37bd c8e7 b3bc 1755 82bc 9e18 afbc
000001a0: b326 e5bb 0b26 a83c e3ed 93bc 7e8c 33bc
000001b0: 01df 1c3e 02c7 453e d800 2d3e 8f34 133e
000001c0: 9766 213e 85a1 033e ab82 293e 4c33 343e
000001d0: 49a4 0a3e 00f0 bb3d 0dd1 803d 4de7 bebc
000001e0: 98e4 c43d 7ead d83d 1952 ac3c 207b e43d
000001f0: 11ec dc3d 5091 5b3c 0bf2 13be 7aba 09be
00000200: d8f6 ebbd fbee d3bd 8852 aabd 34eb 97bd
00000210: abf2 8ebd 347a 42bd 160e fabc 55d4 d13d
00000220: 80ef 773d b447 8f3d f805 813d 35d5 583d
00000230: 72e7 973c 51f7 7f3c 3a30 08bd e6b1 463c
00000240: 4777 a5ba 25b4 febb d22f 6cbd ee54 eb3c
00000250: 2ec4 293c 2657 5abd 4165 e9bc 0856 1bbd
00000260: a9d8 02be 1e4c 3fbc d383 e7bc 59de 6fbd
00000270: 1d92 21bd 913f a2bd 8042 dcbd e86b 94bd
00000280: 635e f1bd 41f9 05be a7e0 eb1b ac7a f91a
00000290: 0e2c ca19 5ce4 fe1d 4142 9f1c 4e2e d81a
000002a0: 30a8 131f 65b0 8f1d fbd2 8c1b 6d29 0000
000002b0: b00f 0000 ac48 0000 da06 0000 d849 0080
000002c0: 0c43 0000 c808 0080 ed38 0080 cf02 0080
000002d0: 8e2d c83d 6eac 663d babb b93c 0943 263d
000002e0: 3c8c 05bc b89a 42bd d1f6 d33c 2154 1cbd
000002f0: e401 93bd 3193 25bd 2eba 14bd 7aad 89bd
00000300: fc75 e8bc 2ef5 6fbb 5941 21bd 0978 a8bd
00000310: 4bb0 93bc e1e0 b9bd 3db2 21be 8d5e fbbd
00000320: c2fc 59be c30c 0fbe 1b62 ccbd 1661 43be
00000330: d357 50be 4958 19be be1b 69be bd79 0d3e
00000340: e8b0 e83d 3aca c73d bbd1 d83d 112e c23d
00000350: f9e0 2b3d 8bf6 c63d 908f 503d 600f 7d3d
00000360: 8156 e93d 39db e73d d47d de3d d255 e23d
00000370: 61d2 ee3d c3af f63d f916 f43d dab4 063e
00000380: 69a8 103e 69f5 f5bc 67c4 c9bc ffcf 503c
00000390: f49f acbd ede0 8dbd d44c 09bc 9c20 66bd
000003a0: d56c edbc 7c9c 373d f72a 093e 2ff4 c63d
000003b0: 4bea 4c3d 490a f23d ac80 ae3d 3150 2e3d
000003c0: 5cd5 813d 602b 4d3d 2122 18bc 272c 5f3c
000003d0: 55db 5e3c c0a0 613c 1266 5c3c 49c3 5b3c
000003e0: 17c7 5e3c a782 5c3c 901a 5c3c 459e 5f3c
000003f0: bb21 293e 38ca 353e 111f 4e3e 19bc 263e

bias f4 [16]
0.14795022 0.062800914 -0.034197908 0.13600007 -0.100846894 0.07635858 -8.796184e-17 -0.022446597
0.16109917 -4.9258683e-30 0.094714686 0.14872713 0.14140406 -0.04583656 0.083022065 0.22756405
00000000: 4380 173e c49d 803d 1b13 0cbd 9a43 0b3e
00000010: d188 cebd e361 9c3d 81d3 caa4 ede1 b7bc
00000020: 2ef7 243e 24d1 c78e c6f9 c13d ed4b 183e
00000030: 3acc 103e 1ebf 3bbd 7907 aa3d 8d06 693e

weight f4 [16, 16, 3, 3]
0.020865457 -0.0058022407 -0.01848738 0.012651282 0.005679011 0.07317482 0.035030823 0.02022511
0.06083374 0.10420803 -0.01340907 0.13422391 0.093730025 -0.0017399464 0.013648582 0.0097938115
0.05979024 -0.022516122 0.01095048 0.015496512 0.020394977 0.012842941 0.016720042 0.021033276
0.015274044 0.018715262 0.022366425 -0.07240278 -0.058600273 -0.07397401 -0.015911356 -0.001525617
-0.012627473 -0.061923064 -0.062406354 -0.07078929 -0.03442115 -0.110030636 -0.1447313 -0.069291964
-0.1334041 -0.1538771 -0.027888188 -0.09939322 -0.11533519 -0.039947692 0.054993525 -0.033974826
0.057646632 0.053291585 -0.022894144 0.07729845 0.042198576 -0.041547816 4.124e-42 1.5704e-41
-2.299e-41 6.302e-42 2.413e-41 4.884e-42 8.935e-42 2.4251e-41 1.899e-42 -0.019593306
-0.01854802 -0.013505178 -0.017894467 -0.015762264 -0.008828002 -0.0121680405 -0.010442971 -0.003173761
0.08909662 0.036843255 -0.12470022 0.028920816 0.052723613 -0.031034619 0.16914889 0.046837784
-0.080272734 -1.2898086e-16 -1.2999653e-16 -9.966574e-17 -1.1948005e-16 -1.1887595e-16 -1.1584449e-16 -9.364257e-17
-1.1330433e-16 -1.1384279e-16 0.07998146 0.0020190899 0.02467737 0.12566382 0.08121395 0.001990211
0.12566906 0.17093526 0.115747765 -0.029882595 -0.10229423 0.0043114247 -0.08156768 0.001376006
0.032360565 0.02278047 0.016986104 0.01787954 0.0871497 0.033055976 0.075036325 0.102603085
0.041736443 0.0665204 0.10823018 0.118227 0.056687985 0.12430408 0.046782054 0.016264789
0.11017054 0.030168867 0.0020512412 0.12433795 0.03856406 0.008482067 0.07465386 0.07168568
0.053604156 0.051860105 0.086043715 0.10929624 0.15036555 0.041839853 0.13479832 -0.0078111147
0.074855804 0.10043413 0.009476382 0.10429285 0.13395555 0.021364642 -0.0432317 0.09329989
-0.040190358 -0.045322757 0.01805271 -0.0076875985 -0.01838025 0.028902555 0.019960124 -0.075400054
-0.044881914 -0.0603906 -0.09866317 -0.1346763 -0.105482355 -0.026949413 -0.10980411 0.019170394
-0.024522437 -0.045142278 0.0042126575 0.002405686 0.0026868584 0.007700087 0.0053032795 0.0049744593
0.011130183 0.0084171 0.0070754844 -0.0010327633 0.047946114 0.08453055 -0.013452817 0.014969332
0.0500702 -0.017984178 0.015916754 0.062126108 -0.1000894 0.00615951 0.0807846 -0.04162574
0.028135309 0.086425155 0.03629867 0.06454363 0.072988115 0.08330971 -0.03904172 -0.0070861652
0.0433582 -0.034034498 0.062052492 0.12765309 0.102177024 0.025726086 5.171e-42 1.7603e-41
1.88e-41 -1.3291e-41 9.324e-42 2.4228e-41 -2.04e-42 1.9182e-41 4.997e-42 -0.028398955
-0.029306231 -0.027999695 -0.026349967 -0.028329335 -0.027990554 -0.023744699 -0.025467962 -0.025109079
0.17362514 0.12075715 0.1514783 0.13512225 0.18669334 0.20035979 0.18488649 0.21134266
0.1813466 -1.4385298e-17 -2.0398486e-17 -2.7921258e-16 -3.155834e-16 -3.2542982e-16 -3.4887045e-16 -3.1499128e-16
-3.2418148e-17 -2.1197056e-16 0.13466868 0.108939335 0.09432222 0.029002326 0.102400996 0.05263428
0.05509317 0.12449452 0.049897756 0.08214837 0.05103153 0.09088031 0.12360695 0.081153035
0.08422766 0.039365526 0.10501046 0.023776624 -0.04267517 0.010276901 -0.01664562 0.023866052
00000000: 09ee aa3c b920 bebb d972 97bc 5347 4f3c
00000010: ff16 ba3b aedc 953d 7b7c 0f3d 21af a53c
00000020: cd2c 793d 056b d53d b7b1 5bbc fe71 093e
00000030: 87f5 bf3d ea0e e4ba 4d9e 5f3c 3976 203c
00000040: 9ce6 743d bb73 b8bc a469 333c 15e5 7d3c
00000050: 5e13 a73c 336b 523c 78f8 883c fa4d ac3c
00000060: fc3f 7a3c c050 993c cb39 b73c e947 94bd
00000070: d706 70bd b07f 97bd 8858 82bc 36f7 c7ba
00000080: 76e3 4ebc 0aa3 7dbd ce9d 7fbd faf9 90bd
00000090: 31fd 0cbd be57 e1bd 7134 14be f2e8 8dbd
000000a0: 169b 08be f591 1dbe c575 e4bc ac8e cbbd
000000b0: db34 ecbd 31a0 23bd e440 613d 3029 0bbd
000000c0: e01e 6c3d 4748 5a3d 808c bbbc a64e 9e3d
000000d0: 6ad8 2c3d 0b2e 2abd 7f0b 0000 c72b 0000
000000e0: 1640 0080 9111 0000 4443 0000 9d0d 0000
000000f0: e818 0000 9a43 0000 4b05 0000 2482 a0bc
00000100: 04f2 97bc d244 5dbc 6b97 92bc dd1f 81bc
00000110: 53a3 10bc 765c 47bc ff18 2bbc e0fe 4fbb
00000120: 4a78 b63d f4e8 163d d462 ffbd 59eb ec3c
00000130: b7f4 573d 503c febc 5e35 2d3e fad8 3f3d
00000140: 0866 a4bd 6eb4 14a5 34e0 15a5 45d0 e5a4
00000150: 49c0 09a5 fd0d 09a5 428f 05a5 d1ec d7a4
00000160: 89a1 02a5 7640 03a5 52cd a33d b552 043b
00000170: 3228 ca3c 04ae 003e 8053 a63d 336e 023b
00000180: 64af 003e a709 2f3e 2a0d ed3d 58cc f4bc
00000190: a37f d1bd da46 8d3b f50c a7bd 1a5b b43a
000001a0: 838c 043d 1c9e ba3c 7126 8b3c 1d78 923c
000001b0: 8b7b b23d b465 073d a5ac 993d 9121 d23d
000001c0: d5f3 2a3d d93b 883d c9a7 dd3d ff20 f23d
000001d0: a931 683d 2393 fe3d 8a9e 3f3d bc3d 853c
000001e0: 18a1 e13d b324 f73c 1e6e 063b e5a4 fe3d
000001f0: 59f5 1d3d 5ef8 0a3c 1fe4 983d f1cf 923d
00000200: 0890 5b3d 436b 543d b037 b03d b5d6 df3d
00000210: 6df9 193e 4460 2b3d 9208 0a3e 61f4 ffbb
00000220: 004e 993d 69b0 cd3d d442 1b3c 7d97 d53d
00000230: a52b 093e e704 af3c b913 31bd 0314 bf3d
00000240: a59e 24bd 5ba4 39bd 47e3 933c 40e8 fbbb
00000250: 2e92 96bc 0dc5 ec3c 6a83 a33c 586b 9abd
00000260: 19d6 37bd 225c 77bd eb0f cabd 96e8 09be
00000270: 2207 d8bd 04c5 dcbc fae0 e0bd 3b0b 9d3c
00000280: 47e3 c8bc 1ce7 38bd 550a 8a3b b7a8 1d3b
00000290: 0116 303b 0351 fc3b 22c7 ad3b ca00 a33b
000002a0: 5f5b 363c e0e7 093c 77d9 e73b c95d 87ba
000002b0: 2563 443d 5a1e ad3d 3469 5cbc ee41 753c
000002c0: 6916 4d3d 8e53 93bc da63 823c f277 7e3d
000002d0: acfb ccbd b7d5 c93b 6572 a53d c07f 2abd
000002e0: 057c e63c acff b03d eaad 143d 732f 843d
000002f0: cb7a 953d 489e aa3d 36ea 1fbd 1033 e8bb
00000300: 5e98 313d c267 0bbd c12a 7e3d 7eb7 023e
00000310: 3042 d13d 83bf d23c 6a0e 0000 1231 0000
00000320: 6834 0000 0d25 0080 fe19 0000 8a43 0000
00000330: b005 0080 7935 0000 ee0d 0000 eda4 e8bc
00000340: 9f13 f0bc 9e5f e5bc e3db d7bc ec12 e8bc
00000350: 724c e5bc 3e84 c2bc 30a2 d0bc 8eb1 cdbc
00000360: caca 313e 864f f73d 211d 1b3e 7d5d 0a3e
00000370: 8a2c 3f3e 1e2b 4d3e e252 3d3e 366a 583e
00000380: ecb2 393e 53ae 84a3 9024 bca3 81f4 a0a5
00000390: e4eb b5a5 f798 bba5 311c c9a5 8294 b5a5
000003a0: 9880 15a4 ab62 74a5 96e6 093e 961b df3d
000003b0: 022c c13d 4996 ed3c 9db7 d13d 0b97 573d
000003c0: 60a9 613d fcf6 fe3d 9761 4c3d 683d a83d
000003d0: 7006 513d 751f ba3d a425 fd3d 9033 a63d
000003e0: 8d7f ac3d bf3d 213d b90f d73d 32c7 c23c
000003f0: 29cc 2ebd 7260 283c 655c 88bc bd82 c33c

bias f4 [16]
0.21671443 0.20695545 0.062477965 0.14557736 -0.041172687 0.069220036 -0.004750144 -6.5696455e-11
0.1302766 0.14389597 0.09079956 -7.510772e-10 -2.2178884e-12 -0.00045962824 0.019117473 -1.7839862e-18
00000000: 63ea 5d3e 21ec 533e e5e8 7f3d 3b12 153e
00000010: b1a4 28bd 3cc3 8d3d 19a7 9bbb d177 90ae
00000020: 3b67 053e 7759 133e 1ff5 b93d 5c74 4eb0
00000030: ed11 1cac 42fa f0b9 3f9c 9c3c 8ca2 03a2
