data/ForestSegmentationOutput/experiemnts/REAL_RERUN_01_run_17-12-2023_11h22min/unet_id=PREaK_width=32_num_layers=2_lr=0.01_epochs=140.pth (torch, 115317 bytes, 16 tensors)

weight f4 [16, 8, 3, 3]
0	0x00065cc4	5.84291e-40
1	0x8003ee5d	-3.61015e-40
2	0x00037188	3.16234e-40
3	0x8002a827	-2.43993e-40
4	0x8006d7f4	-6.28482e-40
5	0x8006566f	-5.8202e-40
6	0x8001c86b	-1.63732e-40
7	0x00049bf3	4.23286e-40
8	0x00025a94	2.16164e-40
9	0x00015c0d	1.24857e-40
10	0x80086713	-7.7166e-40
11	0x8005442d	-4.83634e-40
12	0x8001948c	-1.45124e-40
13	0x80053b87	-4.80532e-40
14	0x8008eb46	-8.19084e-40
15	0x0006b98d	6.17576e-40
16	0x80068519	-5.9876e-40
17	0x0001cf23	1.66142e-40
18	0x800510cd	-4.65204e-40
19	0x0000a4a6	5.9065e-41
20	0x80010407	-9.328e-41
21	0x8002f4cf	-2.71492e-40
22	0x000322be	2.8797e-40
23	0x00029c01	2.39635e-40
24	0x000356be	3.06624e-40
25	0x800383d1	-3.22793e-40
26	0x00042a41	3.825e-40
27	0x80048afa	-4.17197e-40
28	0x8001f928	-1.81216e-40
29	0x80075bf2	-6.75832e-40
30	0x80041a44	-3.76764e-40
31	0x00003c1a	2.156e-41
32	0x8002d167	-2.5879e-40
33	0x8003bfca	-3.44307e-40
34	0x80043733	-3.87144e-40
35	0x0003b8bc	3.41777e-40
36	0x80005200	-2.9416e-41
37	0x8003134b	-2.82428e-40
38	0x80083c18	-7.56242e-40
39	0x80028702	-2.32103e-40
40	0x8001a0fc	-1.49586e-40
41	0x000af3d7	1.005828e-39
42	0x0006ca3f	6.23565e-40
43	0x0004ee3a	4.52802e-40
44	0x0006ac35	6.12789e-40
45	0x00001c40	1.0134e-41
46	0x0001483d	1.1775e-40
47	0x80017ff6	-1.37739e-40
48	0x00018e19	1.4281e-40
49	0x0002fa29	2.73412e-40
50	0x800374ff	-3.17477e-40
51	0x00018327	1.38884e-40
52	0x00026d12	2.22798e-40
53	0x800146d8	-1.1725e-40
54	0x8002cef9	-2.57919e-40
55	0x0000fba3	9.027e-41
56	0x0000c85a	7.1873e-41
57	0x80014807	-1.17674e-40
58	0x0000cc6d	7.3334e-41
59	0x8000cfc6	-7.4535e-41
60	0x000255f5	2.14507e-40
61	0x00033553	2.94636e-40
62	0x80026465	-2.19686e-40
63	0x0001b6a2	1.57352e-40
64	0x000277a0	2.26584e-40
65	0x8000e2a0	-8.1298e-41
66	0x80029271	-2.36204e-40
67	0x800160be	-1.2654e-40
68	0x800143ec	-1.16201e-40
69	0x80021827	-1.92335e-40
70	0x80027868	-2.26865e-40
71	0x80027162	-2.24345e-40
72	0x0000823b	4.6718e-41
73	0x8006d5e0	-6.27737e-40
74	0x000611d3	5.57407e-40
75	0x000e9e78	1.342545e-39
76	0x00038a62	3.25149e-40
77	0x800a5505	-9.48854e-40
78	0x8005ed29	-5.44255e-40
79	0x00181930	2.213087e-39
80	0x8005e418	-5.41002e-40
81	0xa951409a	-4.6463355e-14
82	0x1d196df4	2.0306226e-21
83	0xa709b9d1	-1.91133e-15
84	0xa0112481	-1.2294056e-19
85	0x1fd8ebdf	9.1869774e-20
86	0x9d9cf5e3	-4.1547097e-21
87	0xa4f0c637	-1.044192e-16
88	0x9f89b9b6	-5.832899e-20
89	0x273b80ec	2.6021352e-15
90	0x001ef533	2.843026e-39
91	0x882df73d	-5.235092e-34
92	0x8ae63638	-2.2168589e-32
93	0x01d2f4fc	7.749335e-38
94	0x003d5b62	5.634747e-39
95	0x005ebcb0	8.700225e-39
96	0x801e8e5e	-2.806137e-39
97	0x0aca2e44	1.9469296e-32
98	0x0bb22743	6.862218e-32
99	0x000bcd79	1.0839e-39
100	0x803cc2c2	-5.579996e-39
101	0x831d6214	-4.625074e-37
102	0x800f023e	-1.378337e-39
103	0x803d170d	-5.610234e-39
104	0x00206e7f	2.978374e-39
105	0x0001433f	1.15959e-40
106	0x8018c773	-2.275601e-39
107	0x11ec74df	3.7306262e-28
108	0x20588df8	1.8342885e-19
109	0x97aa3373	-1.099898e-24
110	0x9b8a6348	-2.2894344e-22
111	0x1a8c4977	5.802133e-23
112	0x25e2f080	3.936772e-16
113	0x94b3cb71	-1.8154625e-26
114	0x9934c848	-9.346228e-24
115	0x1d163318	1.987875e-21
116	0xa5da9dff	-3.7924034e-16
117	0x8002c9a7	-2.5601e-40
118	0x0009041d	8.27995e-40
119	0x0004984f	4.2198e-40
120	0x8004b699	-4.32846e-40
121	0x80035a77	-3.07959e-40
122	0x80029dce	-2.4028e-40
123	0x000789d4	6.92292e-40
124	0x80009788	-5.4359e-41
125	0x00029f79	2.40879e-40
126	0x00055fa9	4.93494e-40
127	0x0004b34b	4.3166e-40
128	0x8006e666	-6.33664e-40
129	0x000454aa	3.97714e-40
130	0x00013b31	1.1307e-40
131	0x00045cf3	4.00686e-40
132	0x80004d33	-2.7694e-41
133	0x80037280	-3.16581e-40
134	0x0002c37e	2.538e-40
135	0x80006829	-3.7366e-41
136	0x800332a6	-2.93676e-40
137	0x0004aa12	4.28352e-40
138	0x80050003	-4.59182e-40
139	0x80042702	-3.81335e-40
140	0x800184ea	-1.39516e-40
141	0x80046dfb	-4.06796e-40
142	0x8004b9f0	-4.34044e-40
143	0x8002f0d9	-2.70071e-40
144	0x8000c087	-6.9066e-41
145	0x800037dd	-2.004e-41
146	0x800057e1	-3.1525e-41
147	0x8000a0eb	-5.7726e-41
148	0x0000004f	1.11e-43
149	0x8000a6d6	-5.985e-41
150	0x00006fa6	4.0052e-41
151	0x8000a552	-5.9306e-41
152	0x80006e55	-3.958e-41
153	0x0000617a	3.4968e-41
154	0x800007e2	-2.828e-42
155	0x000020e2	1.1796e-41
156	0x00008496	4.7563e-41
157	0x000016a7	8.126e-42
158	0x8000a454	-5.895e-41
159	0x80001d0b	-1.0419e-41
160	0x80001c4c	-1.0151e-41
161	0x8000a2bd	-5.838e-41
162	0x000055c7	3.0771e-41
163	0x000002f8	1.065e-42
164	0x000052ff	2.9773e-41
165	0x80000aba	-3.848e-42
166	0x00005613	3.0878e-41
167	0x80001f92	-1.1325e-41
168	0x00002df9	1.6492e-41
169	0x8000bb75	-6.7247e-41
170	0x80009532	-5.3521e-41
171	0x80008828	-4.8844e-41
172	0x8000541a	-3.017e-41
173	0x8000806a	-4.6066e-41
174	0x0000bd5d	6.7931e-41
175	0x80006688	-3.6781e-41
176	0x00009150	5.2128e-41
177	0x00004f3b	2.8423e-41
178	0x80000d5a	-4.79e-42
179	0x0000a288	5.8305e-41
180	0x00002825	1.4401e-41
181	0x000089e1	4.9462e-41
182	0x0000e3ec	8.1763e-41
183	0x0000bfcd	6.8805e-41
184	0x8000ec2d	-8.4724e-41
185	0x00008d89	5.0773e-41
186	0x80000b9a	-4.162e-42
187	0x800094e5	-5.3413e-41
188	0x80004d20	-2.7667e-41
189	0x80006464	-3.6013e-41
190	0x0001111e	9.7976e-41
191	0x80009a36	-5.532e-41
192	0x80002c1e	-1.5826e-41
193	0x80000cc1	-4.575e-42
194	0x00006dfc	3.9455e-41
195	0x0000395d	2.0578e-41
196	0x8000cee1	-7.4214e-41
197	0x0000a197	5.7968e-41
198	0x1796ef82	9.753983e-25
199	0x17166445	4.859417e-25
200	0x968cb65a	-2.27333e-25
201	0x184631a2	2.5615958e-24
202	0x9800e3fb	-1.6658713e-24
203	0x98afd5d7	-4.5452363e-24
204	0x178d86c6	9.145933e-25
205	0x1802deea	1.691465e-24
206	0x98f4b45c	-6.325464e-24
207	0x14b5e76a	1.8367606e-26
208	0x9510fc56	-2.9279626e-26
209	0x9410d9c7	-7.313091e-27
210	0x14a59f07	1.6723468e-26
211	0x12eb01e7	1.4831054e-27
212	0x1529b93b	3.42754e-26
213	0x9431c3d2	-8.974835e-27
214	0x9540afe9	-3.891286e-26
215	0x96317148	-1.4333691e-25
216	0x0000cea3	7.4127e-41
217	0x0000d156	7.5096e-41
218	0x00004c2e	2.7328e-41
219	0x8000c663	-7.1168e-41
220	0x000069cb	3.7951e-41
221	0x00009a5f	5.5378e-41
222	0x80008a8d	-4.9703e-41
223	0x0000713a	4.0618e-41
224	0x000012bf	6.725e-42
225	0x8000600d	-3.4457e-41
226	0x8000dd0e	-7.93e-41
227	0x0000c96a	7.2254e-41
228	0x0000ba0e	6.6744e-41
229	0x8000e748	-8.2968e-41
230	0x00004708	2.5481e-41
231	0x00009b1a	5.564e-41
232	0x00004b2a	2.6964e-41
233	0x00006a87	3.8215e-41
234	0x80003241	-1.8028e-41
235	0x80000daf	-4.909e-42
236	0x0000d7f6	7.7472e-41
237	0x0000d83f	7.7574e-41
238	0x00009d28	5.6377e-41
239	0x0000c419	7.0347e-41
240	0x000064b7	3.613e-41
241	0x00007a5d	4.3896e-41
242	0x80005dc7	-3.3641e-41
243	0x00007209	4.0908e-41
244	0x0000ea0f	8.3964e-41
245	0x0000d6aa	7.7007e-41
246	0x800055f0	-3.0829e-41
247	0x00001c57	1.0166e-41
248	0x00000bdc	4.254e-42
249	0x00000f65	5.523e-42
250	0x80005f12	-3.4105e-41
251	0x8000e3c7	-8.1711e-41
252	0x00006d36	3.9178e-41
253	0x8000f3c1	-8.7442e-41
254	0x800008d3	-3.166e-42
255	0x80010c4a	-9.6244e-41

bias f4 [16]
0	0x80029486	-2.36951e-40
1	0x00017d57	1.36799e-40
2	0xae82be17	-5.945482e-11
3	0xa53db67a	-1.6454962e-16
4	0xaa436bc1	-1.7356864e-13
5	0xbcdbc12c	-0.02682551
6	0xbc9a97b1	-0.01887116
7	0xbe82188d	-0.25409356
8	0x800038ad	-2.0331e-41
9	0xb71f29a8	-9.486837e-06
10	0x8000c876	-7.1912e-41
11	0xbe823150	-0.25428247
12	0xabf4bebc	-1.7390182e-12
13	0x8000438e	-2.4234e-41
14	0x8000fd8f	-9.096e-41
15	0x800041de	-2.3629e-41

weight f4 [16, 16, 3, 3]
0	0x00071efc	6.53964e-40
1	0x80081ee2	-7.45763e-40
2	0x00023683	2.03226e-40
3	0x8003bb6f	-3.42745e-40
4	0x0002cf34	2.58001e-40
5	0x8004ff80	-4.58998e-40
6	0x8003db9c	-3.54287e-40
7	0x0002ae63	2.46229e-40
8	0x000025d4	1.357e-41
9	0x0002ed63	2.6883e-40
10	0x8001504f	-1.20645e-40
11	0x000238d3	2.04056e-40
12	0x8005632c	-4.94754e-40
13	0x80025d66	-2.17176e-40
14	0x000462b7	4.02754e-40
15	0x8001dfae	-1.72077e-40
16	0x8003721f	-3.16445e-40
17	0x80009ff6	-5.7383e-41
18	0x000106d3	9.4284e-41
19	0x80003600	-1.9372e-41
20	0x80009c44	-5.6058e-41
21	0x0000b052	6.3252e-41
22	0x8000138a	-7.009e-42
23	0x80000c6e	-4.459e-42
24	0x000119b8	1.01062e-40
25	0x00011221	9.8339e-41
26	0x00012392	1.04596e-40
27	0x000020f2	1.1819e-41
28	0x0001093e	9.5151e-41
29	0x80010ce2	-9.6457e-41
30	0x80016c2d	-1.30642e-40
31	0x0000cba7	7.3057e-41
32	0x800165d8	-1.2837e-40
33	0x8001074c	-9.4453e-41
34	0x000124ba	1.0501e-40
35	0x00013188	1.09604e-40
36	0x8000bfe5	-6.8839e-41
37	0x0000d7cb	7.7412e-41
38	0x80002c15	-1.5814e-41
39	0x8000654d	-3.634e-41
40	0x00009397	5.2945e-41
41	0x000018fc	8.963e-42
42	0x00009716	5.42e-41
43	0x0000ed37	8.5097e-41
44	0x00005584	3.0677e-41
45	0x3e926d77	0.2859914
46	0x3e926d67	0.28599092
47	0x3e926d5f	0.2859907
48	0x3e926d74	0.2859913
49	0x3e926d64	0.28599083
50	0x3e926d5f	0.2859907
51	0x3e926d6c	0.28599107
52	0x3e926d5c	0.2859906
53	0x3e926d54	0.28599036
54	0x3f154792	0.5831233
55	0x3f08513b	0.5324895
56	0x3e7820fe	0.24231336
57	0x3f18fde6	0.5976242
58	0x3f146395	0.5796445
59	0x3f04fb09	0.5194555
60	0x3f1aa690	0.60410404
61	0x3f18a20c	0.59622264
62	0x3f1363ee	0.57574356
63	0x3cb6e4e1	0.022325935
64	0x3cba2ba2	0.022725884
65	0x3cbe31f3	0.023217177
66	0x3cb7d49e	0.022440251
67	0x3cba9502	0.02277613
68	0x3cbcdbd3	0.02305404
69	0x3cb85378	0.022500739
70	0x3cbf1d53	0.023329413
71	0x3cc0207c	0.02345299
72	0x00030df9	2.80519e-40
73	0x80012627	-1.05522e-40
74	0x8002fd09	-2.74443e-40
75	0x0002dfb5	2.63922e-40
76	0x8003784c	-3.18661e-40
77	0x8003d47c	-3.51732e-40
78	0x0003f05b	3.6173e-40
79	0x800485b0	-4.153e-40
80	0x8001f6a2	-1.8031e-40
81	0x0001fc4e	1.82345e-40
82	0x8000a846	-6.0365e-41
83	0x0001ebf1	1.76475e-40
84	0x80014b61	-1.18876e-40
85	0x00012a8f	1.07103e-40
86	0x0000e005	8.0363e-41
87	0x80014fd2	-1.2047e-40
88	0x00020262	1.84526e-40
89	0x0000696c	3.7818e-41
90	0x80029c54	-2.39751e-40
91	0x0002b2c3	2.47799e-40
92	0x80039ad0	-3.31043e-40
93	0x80033de1	-2.97704e-40
94	0x000310cd	2.81533e-40
95	0x80037ddd	-3.20658e-40
96	0x80041675	-3.75398e-40
97	0x8003b130	-3.3907e-40
98	0x0003b21f	3.39404e-40
99	0xbe80fb8b	-0.25191912
100	0xbe811786	-0.2521326
101	0xbe819cf2	-0.25315052
102	0xbe81ceb3	-0.2535301
103	0xbe8219ec	-0.25410402
104	0xbe817a38	-0.25288558
105	0xbe815f8f	-0.25268218
106	0xbe80937f	-0.2511253
107	0xbe7f700c	-0.24945086
108	0x800037b5	-1.9984e-41
109	0x8000d96a	-7.7993e-41
110	0x80008bcd	-5.0151e-41
111	0x800060fa	-3.4789e-41
112	0x0000cb99	7.3037e-41
113	0x00003c9d	2.1744e-41
114	0x80010aba	-9.5683e-41
115	0x800021fd	-1.2193e-41
116	0x8000d512	-7.6435e-41
117	0x8003d7d7	-3.52935e-40
118	0x0004117e	3.73617e-40
119	0x00017e37	1.37113e-40
120	0x80034b96	-3.02622e-40
121	0x800366a0	-3.12321e-40
122	0x0003428d	2.9938e-40
123	0x80038287	-3.22331e-40
124	0x8004b979	-4.33877e-40
125	0x8000f239	-8.6893e-41
126	0x8001a60a	-1.51399e-40
127	0x80021d50	-1.94186e-40
128	0x0000678e	3.7148e-41
129	0x0001edde	1.77166e-40
130	0x8001cab9	-1.64559e-40
131	0x80018351	-1.38943e-40
132	0x00017708	1.34536e-40
133	0x80010f68	-9.7362e-41
134	0x0001b6a5	1.57356e-40
135	0x00004424	2.4444e-41
136	0x00032f7b	2.92539e-40
137	0x80014b14	-1.18768e-40
138	0x800460af	-4.02026e-40
139	0x8004218a	-3.79374e-40
140	0x80024807	-2.0951e-40
141	0x80028356	-2.30785e-40
142	0x0002b0bf	2.47076e-40
143	0x8001ba9f	-1.58783e-40
144	0x80063b92	-5.72383e-40
145	0x86425788	-3.6551652e-35
146	0x0016d605	2.097157e-39
147	0x80051550	-4.66823e-40
148	0x000509a0	4.6263e-40
149	0x0001bb52	1.59033e-40
150	0x00008ae9	4.9832e-41
151	0x0006a68f	6.10763e-40
152	0x00011367	9.8796e-41
153	0x8005896d	-5.08477e-40
154	0x8004c7d4	-4.39027e-40
155	0x0002f40e	2.71221e-40
156	0x800a2195	-9.30402e-40
157	0x80005da1	-3.3588e-41
158	0x80073929	-6.63354e-40
159	0x000831fc	7.52615e-40
160	0x0003138b	2.82517e-40
161	0x0009dbd7	9.05383e-40
162	0x00002b35	1.55e-41
163	0x80003081	-1.74e-41
164	0x00005cc4	3.3278e-41
165	0x000058f5	3.1912e-41
166	0x80001c0a	-1.0059e-41
167	0x800045cd	-2.504e-41
168	0x000060e6	3.476e-41
169	0x000062d7	3.5457e-41
170	0x80008189	-4.6468e-41
171	0x000035fe	1.9369e-41
172	0x000021d6	1.2138e-41
173	0x0000d01b	7.4654e-41
174	0x80005886	-3.1756e-41
175	0x8000d34b	-7.5798e-41
176	0x00001b23	9.735e-42
177	0x8000c6ba	-7.129e-41
178	0x80009487	-5.3282e-41
179	0x80008ecf	-5.123e-41
180	0x800083dc	-4.7302e-41
181	0x0000301d	1.726e-41
182	0x00001dbd	1.0668e-41
183	0x8000451e	-2.4795e-41
184	0x80007722	-4.2737e-41
185	0x00001a75	9.491e-42
186	0x800051c9	-2.9339e-41
187	0x00001bd5	9.984e-42
188	0x00004ae9	2.6873e-41
189	0x3eb2c818	0.34918284
190	0x3eb2c827	0.3491833
191	0x3eb2c824	0.3491832
192	0x3eb2c827	0.3491833
193	0x3eb2c833	0.34918365
194	0x3eb2c82d	0.34918347
195	0x3eb2c840	0.34918404
196	0x3eb2c844	0.34918416
197	0x3eb2c838	0.3491838
198	0xbc071a77	-0.008246056
199	0x3f11ec54	0.57001233
200	0x3f15e6ee	0.58555496
201	0xbc40006e	-0.011718852
202	0x399812f4	0.0002900582
203	0x3f130772	0.57433236
204	0xbc44ea2f	-0.012018724
205	0xbc3f503a	-0.011676842
206	0x3e8d318f	0.27576873
207	0x3e143740	0.14474201
208	0x3e233613	0.15938596
209	0x3e1e58be	0.1546354
210	0x3e0d986c	0.13827676
211	0x3e09c2fe	0.1345329
212	0x3e11907f	0.14215277
213	0x3e18fe16	0.14940676
214	0x3e07bc07	0.1325532
215	0x3e04db79	0.12974347
216	0x0002e68d	2.66377e-40
217	0x0000d88c	7.7682e-41
218	0x00037e43	3.208e-40
219	0x80027291	-2.2477e-40
220	0x8002bbc3	-2.51027e-40
221	0x80025ea3	-2.1762e-40
222	0x80017551	-1.3392e-40
223	0x800135a7	-1.11082e-40
224	0x8002e565	-2.65962e-40
225	0x0001a207	1.4996e-40
226	0x000051f2	2.9396e-41
227	0x8000838e	-4.7193e-41
228	0x8000a542	-5.9283e-41
229	0x8001dcca	-1.7104e-40
230	0x00018c2b	1.42118e-40
231	0x000056c3	3.1124e-41
232	0x80012c56	-1.0774e-40
233	0x8000ea5c	-8.4072e-41
234	0x800112e6	-9.8615e-41
235	0x800241c5	-2.07265e-40
236	0x00022876	1.98186e-40
237	0x0001f149	1.78392e-40
238	0x0000ba52	6.6839e-41
239	0x80018474	-1.39351e-40
240	0x00029f2d	2.40773e-40
241	0x800190ca	-1.43776e-40
242	0x00014fed	1.20507e-40
243	0xbea21e79	-0.31663874
244	0xbea31108	-0.3184893
245	0xbea38a57	-0.31941482
246	0xbea11969	-0.314647
247	0xbea24db9	-0.31699923
248	0xbea2d413	-0.31802425
249	0xbe9fe530	-0.31229544
250	0xbea13efa	-0.3149336
251	0xbea20508	-0.31644464
252	0x800036bb	-1.9634e-41
253	0x000085bb	4.7973e-41
254	0x000009be	3.495e-42
255	0x0000948e	5.3291e-41

bias f4 [16]
0	0x3ea0a919	0.3137901
1	0xbed8ef7b	-0.4237021
2	0x3e95d141	0.2926121
3	0xbebed5be	-0.37272447
4	0xbeb553ce	-0.354155
5	0xbe924401	-0.28567508
6	0x3ed54c10	0.41659594
7	0x3ec1db2a	0.3786252
8	0x3ea1a730	0.31572866
9	0x3ed8547d	0.4225196
10	0xbea91661	-0.33024886
11	0x3ea5d1a3	0.32386503
12	0x3ec1e5bf	0.37870595
13	0xbef36433	-0.47537383
14	0x3f1af465	0.60529166
15	0x3e9bba72	0.30415684

weight f4 [32, 16, 3, 3]
0	0x80019654	-1.45763e-40
1	0x8000f940	-8.9414e-41
2	0x8001b847	-1.57942e-40
3	0x800033f8	-1.8643e-41
4	0x00018d51	1.4253e-40
5	0x000165ff	1.28425e-40
6	0x0000cf3c	7.4342e-41
7	0x00013157	1.09535e-40
8	0x000171d8	1.32675e-40
9	0x8000d727	-7.7182e-41
10	0x0000d3a9	7.593e-41
11	0x80007e8b	-4.5395e-41
12	0x00000c6d	4.458e-42
13	0x00004517	2.4785e-41
14	0x800025a2	-1.35e-41
15	0x0000052d	1.857e-42
16	0x80003994	-2.0655e-41
17	0x8000bb68	-6.7229e-41
18	0x000243ff	2.08063e-40
19	0x80011ecc	-1.02883e-40
20	0x80002cca	-1.6067e-41
21	0x80003716	-1.9761e-41
22	0x00001130	6.166e-42
23	0x8000fe54	-9.1236e-41
24	0x00005cf3	3.3344e-41
25	0x8001187c	-1.00619e-40
26	0x80009bac	-5.5845e-41
27	0x80015ec8	-1.25837e-40
28	0x8001fcb8	-1.82494e-40
29	0x0001c2e6	1.61752e-40
30	0x8000aa87	-6.1174e-41
31	0x800135e8	-1.11173e-40
32	0x80004cfb	-2.7615e-41
33	0x00007a9a	4.3981e-41
34	0x000068a4	3.7538e-41
35	0x00021db5	1.94328e-40
36	0x80013f09	-1.14448e-40
37	0x80016e58	-1.3142e-40
38	0x00010813	9.4732e-41
39	0x8000430a	-2.4049e-41
40	0x800182de	-1.38782e-40
41	0x00011bdc	1.0183e-40
42	0x000150e0	1.20848e-40
43	0x0000ce56	7.402e-41
44	0x800087af	-4.8674e-41
45	0x8000c2ed	-6.9926e-41
46	0x80005f9a	-3.4295e-41
47	0x0000660f	3.6612e-41
48	0x80005d35	-3.3436e-41
49	0x0000325c	1.8066e-41
50	0x8000244e	-1.3024e-41
51	0x000089fe	4.9502e-41
52	0x0000c79a	7.1604e-41
53	0x0000265e	1.3764e-41
54	0x0000b63f	6.5378e-41
55	0x80005add	-3.2596e-41
56	0x00003145	1.7675e-41
57	0x800030fc	-1.7572e-41
58	0x80006ad8	-3.8328e-41
59	0x8000600f	-3.446e-41
60	0x800007b9	-2.77e-42
61	0x0000a950	6.0738e-41
62	0x0000576d	3.1362e-41
63	0x80016afa	-1.30211e-40
64	0x8000ea6b	-8.4093e-41
65	0x800022a8	-1.2432e-41
66	0x8001500c	-1.20551e-40
67	0x8001a8ab	-1.52342e-40
68	0x800119e7	-1.01128e-40
69	0x000143e0	1.16184e-40
70	0x000094c7	5.3371e-41
71	0x8001acfa	-1.53888e-40
72	0x00003571	1.9171e-41
73	0x0000d49f	7.6274e-41
74	0x00019821	1.46409e-40
75	0x0000f095	8.6305e-41
76	0x8000c50f	-7.0691e-41
77	0x80011693	-9.9934e-41
78	0x80006e8f	-3.9661e-41
79	0x8000d3ab	-7.5932e-41
80	0x0000abef	6.1678e-41
81	0x000023fd	1.291e-41
82	0x00012c49	1.07722e-40
83	0x0000f036	8.6171e-41
84	0x8001387c	-1.12098e-40
85	0x8001a4dc	-1.50976e-40
86	0x0000d6da	7.7074e-41
87	0x000132a0	1.09996e-40
88	0x80012dd2	-1.08273e-40
89	0x8001020c	-9.257e-41
90	0x80008d04	-5.0587e-41
91	0x80003a84	-2.0991e-41
92	0x00004b3c	2.6989e-41
93	0x000049cb	2.6472e-41
94	0x00013db4	1.1397e-40
95	0x000005b8	2.052e-42
96	0x0000c9d0	7.2397e-41
97	0x80002dcc	-1.6429e-41
98	0x80019a0f	-1.47101e-40
99	0x8000c16c	-6.9387e-41
100	0x8000824e	-4.6745e-41
101	0x80005990	-3.2129e-41
102	0x8000bec4	-6.8434e-41
103	0x8000b1d6	-6.3796e-41
104	0x8000c555	-7.079e-41
105	0x8000804a	-4.6021e-41
106	0x0000191d	9.009e-42
107	0x000007cd	2.798e-42
108	0x0000be58	6.8282e-41
109	0x800121e8	-1.03999e-40
110	0x800097d0	-5.446e-41
111	0x80006be7	-3.8708e-41
112	0x8000ff38	-9.1555e-41
113	0x000178a1	1.35109e-40
114	0x0000a9cc	6.0912e-41
115	0x0000bc18	6.7475e-41
116	0x80014e33	-1.19888e-40
117	0x000014fe	7.53e-42
118	0x000046eb	2.544e-41
119	0x800001f8	-7.06e-43
120	0x80008719	-4.8464e-41
121	0x80008508	-4.7723e-41
122	0x80002c00	-1.5784e-41
123	0x0000c0c2	6.9148e-41
124	0x000079e2	4.3723e-41
125	0x0000bf8a	6.8711e-41
126	0x00004185	2.3504e-41
127	0x0000cff9	7.4607e-41
128	0x8000df43	-8.0091e-41
129	0x000045bd	2.5017e-41
130	0x8000cd7c	-7.3714e-41
131	0x8000c427	-7.0366e-41
132	0x0000caed	7.2796e-41
133	0x80009b31	-5.5672e-41
134	0x80005954	-3.2045e-41
135	0x00018f9a	1.4335e-40
136	0x000145e3	1.16906e-40
137	0x8000cfa8	-7.4493e-41
138	0x0000d7ec	7.7458e-41
139	0x00017f35	1.37469e-40
140	0x8001c24f	-1.6154e-40
141	0x800132a2	-1.09999e-40
142	0x000153ae	1.21854e-40
143	0x0000aaa9	6.1221e-41
144	0x80062fc8	-5.68154e-40
145	0x80091052	-8.32374e-40
146	0x0002a200	2.41786e-40
147	0x80067933	-5.94491e-40
148	0x0004bba5	4.34656e-40
149	0x8003c9cb	-3.47896e-40
150	0x0008a37e	7.93334e-40
151	0x80022c74	-1.99618e-40
152	0x8000b148	-6.3597e-41
153	0x80007b7b	-4.4296e-41
154	0x00017e42	1.37128e-40
155	0x0000cc22	7.3229e-41
156	0x80023743	-2.03495e-40
157	0x00003e55	2.236e-41
158	0x80013bb4	-1.13253e-40
159	0x0001b6e9	1.57451e-40
160	0x800226c1	-1.97573e-40
161	0x00021ec0	1.94702e-40
162	0x00052598	4.72664e-40
163	0x0001c1ae	1.61315e-40
164	0x80076158	-6.77769e-40
165	0x800120b1	-1.03563e-40
166	0x800390d6	-3.27464e-40
167	0x000569c8	4.97125e-40
168	0x8002984c	-2.38305e-40
169	0x80030fe8	-2.81213e-40
170	0x80007ddb	-4.5148e-41
171	0x0004de67	4.47125e-40
172	0x800b8b56	-1.060175e-39
173	0x80070fed	-6.48562e-40
174	0x0008095d	7.38043e-40
175	0x80056d45	-4.98376e-40
176	0x80033ea4	-2.97978e-40
177	0x80028bb4	-2.33787e-40
178	0x00044c3a	3.94687e-40
179	0x0000c865	7.1888e-41
180	0x8001cd0b	-1.65391e-40
181	0x00048196	4.13829e-40
182	0x0002d45a	2.59848e-40
183	0x8007263f	-6.56569e-40
184	0x8002a1d0	-2.41718e-40
185	0x00025d42	2.17126e-40
186	0x00049bd7	4.23247e-40
187	0x8002a50a	-2.42876e-40
188	0x8001f1a6	-1.78523e-40
189	0x0002cbe3	2.56812e-40
190	0x0000b69d	6.551e-41
191	0x0000b1d3	6.3791e-41
192	0x00017b87	1.36149e-40
193	0x0000e4e5	8.2112e-41
194	0x800078d9	-4.3352e-41
195	0x00022ba1	1.99322e-40
196	0x00020fa4	1.89282e-40
197	0x00003f83	2.2784e-41
198	0x00001ea2	1.0989e-41
199	0x8001c1c5	-1.61347e-40
200	0x8000df06	-8.0006e-41
201	0x8001e31f	-1.73311e-40
202	0x0000ee3e	8.5465e-41
203	0x00014646	1.17045e-40
204	0x8001ca5b	-1.64427e-40
205	0x8000d570	-7.6567e-41
206	0x00017884	1.35068e-40
207	0x80052d6d	-4.75473e-40
208	0x000865f0	7.71252e-40
209	0x80003314	-1.8323e-41
210	0x80034076	-2.98631e-40
211	0x000332eb	2.93772e-40
212	0x00061d46	5.61514e-40
213	0x8003a8b9	-3.36033e-40
214	0x800401cf	-3.67991e-40
215	0x800565b3	-4.9566e-40
216	0x0002cddd	2.57521e-40
217	0x80051a6a	-4.68653e-40
218	0x80063ccb	-5.72821e-40
219	0x00034f23	3.03895e-40
220	0x00089505	7.88142e-40
221	0x000370c3	3.15958e-40
222	0x8003c026	-3.44436e-40
223	0x800981d9	-8.731e-40
224	0x80052ba4	-4.74833e-40
225	0x0002c4b7	2.54239e-40
226	0x00036370	3.11178e-40
227	0x80003bad	-2.1408e-41
228	0x000638c0	5.71371e-40
229	0x8003c2f2	-3.4544e-40
230	0x00019d31	1.48225e-40
231	0x8004a2bf	-4.25724e-40
232	0x80080012	-7.34709e-40
233	0x00078fad	6.9439e-40
234	0x80036f14	-3.15354e-40
235	0x80022cef	-1.9979e-40
236	0x8000fc4b	-9.0506e-41
237	0x8003294e	-2.90324e-40
238	0x8004b266	-4.31339e-40
239	0x0000bd9c	6.8019e-41
240	0x00051e15	4.69969e-40
241	0x8004c33f	-4.37383e-40
242	0x0003bb7c	3.42763e-40
243	0x80014d1f	-1.19501e-40
244	0x80022955	-1.98498e-40
245	0x0000965f	5.3943e-41
246	0x0000a4ad	5.9075e-41
247	0x8002341c	-2.02364e-40
248	0x00020b35	1.87691e-40
249	0x8002212b	-1.9557e-40
250	0x000227a7	1.97896e-40
251	0x80006f2a	-3.9878e-41
252	0x00024bf5	2.10919e-40
253	0x00010932	9.5134e-41
254	0x800151d4	-1.2119e-40
255	0x80018108	-1.38123e-40

bias f4 [32]
0	0x00009702	5.4171e-41
1	0x80013e34	-1.1415e-40
2	0x00000285	9.04e-43
3	0x3edc7efe	0.43065637
4	0xbf01e158	-0.5073447
5	0xbf732a40	-0.94986343
6	0xbe9b1488	-0.30289102
7	0x800035eb	-1.9342e-41
8	0x8dc9b9e6	-1.2432335e-30
9	0x992c11cc	-8.895786e-24
10	0x07160dbb	1.1288781e-34
11	0x8df4da7f	-1.5090262e-30
12	0x000021d3	1.2134e-41
13	0xbf31f8a6	-0.6952003
14	0xac02330e	-1.8502452e-12
15	0x80001080	-5.919e-42
16	0x8001c5a0	-1.6273e-40
17	0xb0e64c64	-1.6756414e-09
18	0x8000995d	-5.5016e-41
19	0x000086a0	4.8294e-41
20	0x800095cb	-5.3736e-41
21	0x00006ea9	3.9697e-41
22	0xbeb26d75	-0.34849134
23	0x00016984	1.29687e-40
24	0x953d2248	-3.819529e-26
25	0x80ef5ec8	-2.1982685e-38
26	0xbe432a4a	-0.19059101
27	0x000010c8	6.02e-42
28	0xbea01d66	-0.3127243
29	0x8000ba1e	-6.6766e-41
30	0xbef8b55c	-0.48575866
31	0xa03edb17	-1.6166117e-19

weight f4 [32, 32, 3, 3]
0	0x0001c538	1.62584e-40
1	0x0001563f	1.22775e-40
2	0x8000089b	-3.087e-42
3	0x0000c460	7.0446e-41
4	0x8000a3c4	-5.8748e-41
5	0x00003f34	2.2673e-41
6	0x80010c68	-9.6286e-41
7	0x000007e5	2.832e-42
8	0x00010457	9.3392e-41
9	0x8001155d	-9.9499e-41
10	0x0000da7e	7.838e-41
11	0x800124cd	-1.05037e-40
12	0x80013bed	-1.13333e-40
13	0x8004999e	-4.2245e-40
14	0x00056360	4.94827e-40
15	0x000014bb	7.437e-42
16	0x00021d0e	1.94094e-40
17	0x8002347e	-2.02502e-40
18	0x00006848	3.7409e-41
19	0x8000bbb9	-6.7342e-41
20	0x800186e9	-1.40232e-40
21	0x8000a01f	-5.744e-41
22	0x80015ab3	-1.24372e-40
23	0x80001768	-8.397e-42
24	0x80001d82	-1.0585e-41
25	0x00012e12	1.08362e-40
26	0x8001b68b	-1.5732e-40
27	0x3ec7ddcb	0.39036402
28	0x3ec74de8	0.38926625
29	0x3ec7bfe9	0.39013603
30	0x3ec726bd	0.38896742
31	0x3ec7c5de	0.39018148
32	0x3ec78179	0.38965967
33	0x3ec76da3	0.38950834
34	0x3ec7c214	0.39015257
35	0x3ec7b9e8	0.39009023
36	0x3d77be7b	0.06048439
37	0x3ba46b57	0.0050176787
38	0xbd2cb64c	-0.04216604
39	0x3dc56403	0.09638216
40	0x3d635694	0.05550249
41	0x3aa29c34	0.0012406171
42	0x3df00fc6	0.117217585
43	0x3dc4ee48	0.09615761
44	0x3d60822f	0.054811653
45	0xbe66e0ae	-0.22546646
46	0xbe73a2f3	-0.23792629
47	0xbe7d0203	-0.24707799
48	0xbe5bed71	-0.21477295
49	0xbe68284c	-0.22671622
50	0xbe748d4e	-0.23882028
51	0xbe542ae9	-0.20719494
52	0xbe5c9037	-0.21539389
53	0xbe6894ec	-0.22713059
54	0xbef45db3	-0.47727737
55	0xbef45664	-0.4772216
56	0xbef445ee	-0.47709602
57	0xbef45a0b	-0.47724947
58	0xbef45349	-0.47719792
59	0xbef44463	-0.47708425
60	0xbef44cd4	-0.47714865
61	0xbef44a26	-0.4771282
62	0xbef43cb4	-0.47702563
63	0x0001d6c0	1.68873e-40
64	0x00015187	1.21082e-40
65	0x00005dec	3.3693e-41
66	0x00011446	9.9108e-41
67	0x0000aa94	6.1192e-41
68	0x0001fcbe	1.82502e-40
69	0x80015eae	-1.258e-40
70	0x0001b330	1.56116e-40
71	0x0000e9dd	8.3894e-41
72	0x8001cf52	-1.66208e-40
73	0x0001f18e	1.78489e-40
74	0x000000d9	3.04e-43
75	0x00013b94	1.13208e-40
76	0x0000a491	5.9035e-41
77	0x8000e82c	-8.3288e-41
78	0x00017d7c	1.36851e-40
79	0x00015676	1.22852e-40
80	0x00013bfa	1.13351e-40
81	0x00012af7	1.07248e-40
82	0x8000eec7	-8.5657e-41
83	0x0000e94e	8.3694e-41
84	0x80011984	-1.00989e-40
85	0x800015ba	-7.794e-42
86	0x80016fd1	-1.31948e-40
87	0x800145b3	-1.16839e-40
88	0x00018e8f	1.42976e-40
89	0x0001a338	1.50387e-40
90	0x800062f0	-3.5492e-41
91	0x0002daaf	2.6212e-40
92	0x8002056c	-1.85616e-40
93	0x0001698a	1.29696e-40
94	0x80019ed4	-1.48812e-40
95	0x0001ea0e	1.75798e-40
96	0x0000e0c1	8.0627e-41
97	0x8001051a	-9.3666e-41
98	0x00009f04	5.7044e-41
99	0x000036fa	1.9722e-41
100	0x8000a526	-5.9244e-41
101	0x80003c80	-2.1703e-41
102	0x00012a7a	1.07073e-40
103	0x000057e4	3.1529e-41
104	0x800039e1	-2.0763e-41
105	0x00007625	4.2382e-41
106	0x000106f2	9.4327e-41
107	0x80017c82	-1.365e-40
108	0x80016cb5	-1.30832e-40
109	0x8000cb4f	-7.2933e-41
110	0x00006d7a	3.9273e-41
111	0x80016e57	-1.31418e-40
112	0x800144cc	-1.16515e-40
113	0x00011f20	1.03001e-40
114	0x800027c0	-1.426e-41
115	0x8000120b	-6.473e-42
116	0x80005f18	-3.4113e-41
117	0xbd8304c3	-0.063973926
118	0xbd849e32	-0.06475486
119	0xbd844045	-0.06457571
120	0xbd7389f7	-0.059457745
121	0xbd811902	-0.06303598
122	0xbd8334a4	-0.06406525
123	0xbd60a122	-0.05484117
124	0xbd749e5e	-0.059721343
125	0xbd817055	-0.06320254
126	0x000103d3	9.3207e-41
127	0x800057fc	-3.1563e-41
128	0x8000bfd0	-6.881e-41
129	0x80001fef	-1.1456e-41
130	0x8000f1fe	-8.681e-41
131	0x80008741	-4.852e-41
132	0x0000795c	4.3536e-41
133	0x00001ad8	9.63e-42
134	0x800029ad	-1.495e-41
135	0x80021bb0	-1.93603e-40
136	0x8000d06f	-7.4772e-41
137	0x80013cf4	-1.13701e-40
138	0x80008478	-4.7521e-41
139	0x8001edd8	-1.77158e-40
140	0x80011eae	-1.02841e-40
141	0x0001814c	1.38218e-40
142	0x00014e15	1.19846e-40
143	0x0000cd86	7.3728e-41
144	0x0000cadc	7.2772e-41
145	0x0000d466	7.6194e-41
146	0x80003e1b	-2.2279e-41
147	0x800103f2	-9.3251e-41
148	0x00004ee3	2.8299e-41
149	0x8000319a	-1.7794e-41
150	0x00005bc6	3.2922e-41
151	0x800083ec	-4.7325e-41
152	0x80005a3c	-3.237e-41
153	0x80005507	-3.0502e-41
154	0x8000afa1	-6.3004e-41
155	0x00001c34	1.0117e-41
156	0x8000d095	-7.4825e-41
157	0x000094d6	5.3392e-41
158	0x8000f868	-8.9111e-41
159	0x800113cd	-9.8939e-41
160	0x8000fbb5	-9.0295e-41
161	0x800054c8	-3.0414e-41
162	0x00016de4	1.31257e-40
163	0x80012645	-1.05564e-40
164	0x80000086	-1.88e-43
165	0x800123e4	-1.0471e-40
166	0x0000b9ee	6.6699e-41
167	0x80013ca2	-1.13586e-40
168	0x00012e4f	1.08448e-40
169	0x8001397a	-1.12454e-40
170	0x800173e8	-1.33415e-40
171	0x00017169	1.3252e-40
172	0x00014149	1.15255e-40
173	0x000186ad	1.40148e-40
174	0x000165f9	1.28416e-40
175	0x8000f362	-8.731e-41
176	0x80018a01	-1.41342e-40
177	0x800097e1	-5.4484e-41
178	0x000014ea	7.503e-42
179	0x00008bbf	5.0131e-41
180	0x80019523	-1.45336e-40
181	0x80013062	-1.09192e-40
182	0x000207f0	1.86518e-40
183	0x0002324f	2.01718e-40
184	0x80013c53	-1.13476e-40
185	0x00023533	2.02755e-40
186	0x00009fa6	5.7271e-41
187	0x00003383	1.8479e-41
188	0x80009fcb	-5.7323e-41
189	0x000185ad	1.3979e-40
190	0x00008bec	5.0195e-41
191	0x8001940e	-1.44948e-40
192	0x0001b52a	1.56825e-40
193	0x800051b3	-2.9308e-41
194	0x8001075a	-9.4473e-41
195	0x80028a75	-2.3334e-40
196	0x80024964	-2.09999e-40
197	0x000196a4	1.45875e-40
198	0xbd1c0e55	-0.038099606
199	0xbd46ca49	-0.048532758
200	0xbd6a3b13	-0.057185244
201	0xbcee852f	-0.029116241
202	0xbd21099d	-0.03931581
203	0xbd4fdde5	-0.050748724
204	0xbcbd138e	-0.023080613
205	0xbcf2bb7d	-0.029630417
206	0xbd245d7e	-0.040128224
207	0x80012174	-1.03836e-40
208	0x00020df8	1.88682e-40
209	0x00001ddf	1.0716e-41
210	0x80015610	-1.22709e-40
211	0x000125cf	1.05399e-40
212	0x80009efa	-5.703e-41
213	0x000210fe	1.89767e-40
214	0x8000f543	-8.7983e-41
215	0x0002243a	1.96667e-40
216	0x8001abe6	-1.53501e-40
217	0x80001fed	-1.1453e-41
218	0x0000c04b	6.8982e-41
219	0x80004a6b	-2.6696e-41
220	0x80010dec	-9.683e-41
221	0x8001063b	-9.407e-41
222	0x8000752d	-4.2035e-41
223	0x0000d321	7.5739e-41
224	0x8000646b	-3.6023e-41
225	0x0001177d	1.00262e-40
226	0x8002564b	-2.14627e-40
227	0x80007ec0	-4.547e-41
228	0x0001ce80	1.65914e-40
229	0x00001b5a	9.812e-42
230	0x800180cb	-1.38038e-40
231	0x800063fc	-3.5868e-41
232	0x00012509	1.05121e-40
233	0x000091c9	5.2298e-41
234	0xbca74cb1	-0.020422311
235	0xbca83265	-0.020531842
236	0xbca8f2b2	-0.020623539
237	0xbca58994	-0.020207204
238	0xbca62c85	-0.0202849
239	0xbca6d153	-0.020363485
240	0xbca47a35	-0.020077804
241	0xbca4ba2e	-0.020108309
242	0xbca50e9b	-0.020148566
243	0x0001dc58	1.7088e-40
244	0x0001882d	1.40686e-40
245	0x0001f37d	1.79183e-40
246	0x000058c1	3.1839e-41
247	0x0000ab36	6.1419e-41
248	0x00024786	2.09329e-40
249	0x80010149	-9.2297e-41
250	0x8000fbea	-9.037e-41
251	0x00003446	1.8752e-41
252	0x3e476c0d	0.19474812
253	0x3e476d42	0.19475272
254	0x3e47aac5	0.19498737
255	0x3e4a92ed	0.1978261

bias f4 [32]
0	0x3ea1741f	0.31533906
1	0x3e1958b3	0.14975242
2	0xbf33c14f	-0.7021684
3	0xbe1e7266	-0.15473327
4	0xbe002e4c	-0.12517661
5	0x3f004afa	0.50114405
6	0xbe098dcc	-0.13432997
7	0xbe42d852	-0.19027832
8	0xbe0a8922	-0.13528875
9	0xbbe85b20	-0.007090941
10	0xbdbcb9f2	-0.09215154
11	0x3eb46f90	0.35241365
12	0x3cb6c4a7	0.022310568
13	0x3e1f537b	0.15559189
14	0xbe16e213	-0.14734678
15	0xbec10509	-0.37699154
16	0x3f0b165a	0.5433098
17	0x3dc69547	0.09696441
18	0x3e91c49c	0.28470314
19	0x3d8c4f03	0.06851008
20	0xbe4abf4c	-0.19799536
21	0x3ef3d538	0.4762361
22	0xbf190d79	-0.5978618
23	0xbea00c96	-0.31259602
24	0x3de3fd97	0.11132353
25	0x3ac3d73f	0.0014941468
26	0xbdcd288b	-0.100174986
27	0xbf14d5cd	-0.58138734
28	0x3ea797a6	0.32732886
29	0xbe27a91a	-0.16373101
30	0x3f1ed49f	0.62043184
31	0x3dab0227	0.0835002

weight f4 [32, 16, 2, 2]
0	0xbe809da1	-0.2512026
1	0xbe809e9a	-0.25121003
2	0xbe823142	-0.25428206
3	0xbe81e3c6	-0.2536909
4	0x3e81005c	0.25195587
5	0x3e81088b	0.2520183
6	0x3e829e62	0.25511461
7	0x3e8255a8	0.25455976
8	0x3e8c05dc	0.2734822
9	0x3e8c34da	0.27384073
10	0x3e8e60c3	0.27808198
11	0x3e8e18b2	0.27753216
12	0xbe87df09	-0.2653735
13	0xbe87f654	-0.2655512
14	0xbe8a5a7f	-0.27022168
15	0xbe8a1f61	-0.26977065
16	0x3e84599e	0.25849622
17	0x3e8468ab	0.25861105
18	0x3e86282e	0.2620253
19	0x3e85e2ef	0.261497
20	0x3f0f5585	0.5598987
21	0x3f135005	0.57543975
22	0x3f08eda5	0.53487617
23	0x3f0e76b3	0.5564987
24	0x3eb6e6d8	0.35722995
25	0x3eb6ee37	0.35728619
26	0x3eb88a99	0.36043242
27	0x3eb84633	0.35991058
28	0xbe923f10	-0.28563738
29	0xbe922910	-0.28546953
30	0xbe93c50d	-0.28861275
31	0xbe9363ae	-0.28786987
32	0xbf1f9241	-0.6233254
33	0xbf238181	-0.6386948
34	0xbf15a243	-0.58450717
35	0xbf1bbb11	-0.60832316
36	0x3e9d18ee	0.30683082
37	0x3e9d14cd	0.30679932
38	0x3e9e89de	0.3096456
39	0x3e9e3a55	0.3090388
40	0xbe6b18af	-0.22958635
41	0xbe6b8133	-0.22998504
42	0xbe6fbace	-0.23411104
43	0xbe6f458f	-0.23366378
44	0xbe8ccacc	-0.27498472
45	0xbe8d0886	-0.27545565
46	0xbe8f81f9	-0.2802885
47	0xbe8f3f61	-0.27978042
48	0xbe91ecd5	-0.28501
49	0xbe92129e	-0.2852983
50	0xbe943a5a	-0.2895077
51	0xbe93f40c	-0.2889713
52	0x3e9bf647	0.30461332
53	0x3e9c01e8	0.30470204
54	0x3e9e00d9	0.30860022
55	0x3e9da3f0	0.30789137
56	0x3ec7d065	0.3902618
57	0x3ec7c295	0.39015642
58	0x3ec9512a	0.39319736
59	0x3ec90620	0.39262486
60	0x3f138fa5	0.5764106
61	0x3f16960d	0.5882271
62	0x3f0ba297	0.5454497
63	0x3f1058ec	0.56385684
64	0x3ece4a67	0.4029114
65	0x3ecd23b8	0.40066314
66	0x3ecf8800	0.40533447
67	0x3ece3744	0.4027654
68	0xbec7f390	-0.3905301
69	0xbec70d36	-0.38877267
70	0xbec88c55	-0.39169565
71	0xbec793e9	-0.38980034
72	0xbed94941	-0.424387
73	0xbed81427	-0.42202875
74	0xbeda8e8f	-0.4268689
75	0xbed91579	-0.42399195
76	0x3ef95c1a	0.4870308
77	0x3ef83dc0	0.48484612
78	0x3efa60ab	0.48901877
79	0x3ef90c01	0.4864197
80	0xbecdb653	-0.40178165
81	0xbecc825c	-0.39943206
82	0xbecee892	-0.40411812
83	0xbecd8cd5	-0.4014651
84	0x3d1f8f9e	0.038955323
85	0xbc8e5745	-0.017375598
86	0x3d48d4c2	0.049031027
87	0xbc465c19	-0.012106919
88	0xbecb04ad	-0.39652005
89	0xbeca004a	-0.39453346
90	0xbecbe063	-0.3981963
91	0xbecabc67	-0.39596865
92	0x3eeb10eb	0.45911345
93	0x3ee9b171	0.4564319
94	0x3eebce68	0.46055913
95	0x3eea4ec3	0.45763215
96	0xbc82df47	-0.015975608
97	0x3d347fc3	0.044067156
98	0xbcf442ea	-0.029817063
99	0x3d119017	0.035537805
100	0xbed8bb31	-0.42330316
101	0xbed7aa39	-0.42122057
102	0xbed9d9c4	-0.42548954
103	0xbed8a60e	-0.4231419
104	0x3ee4183d	0.44549742
105	0x3ee2f17e	0.4432487
106	0x3ee52018	0.44751048
107	0x3ee3cc86	0.44491976
108	0x3edf9444	0.43667805
109	0x3ede6440	0.4343586
110	0x3ee0c489	0.43899944
111	0x3edf5968	0.436229
112	0x3ed7d435	0.4215409
113	0x3ed68e8b	0.41905627
114	0x3ed8e290	0.42360353
115	0x3ed76eb4	0.42076647
116	0xbeea073d	-0.45708647
117	0xbee8d337	-0.45473644
118	0xbeeaeb27	-0.45882532
119	0xbee96e7b	-0.45592102
120	0xbed5e153	-0.4177347
121	0xbed4d767	-0.4157059
122	0xbed6a2df	-0.41921136
123	0xbed5820f	-0.4170079
124	0x3dd06fa1	0.101775415
125	0x3d453d8e	0.048154406
126	0x3de5e16e	0.11224638
127	0x3d5c8239	0.053835128
128	0x3f1faa85	0.6236957
129	0x3f1f63c4	0.62261605
130	0x3f1eeb65	0.62077934
131	0x3f1e95b6	0.6194719
132	0xbf2ad0e9	-0.6672502
133	0xbf2a53ae	-0.66533935
134	0xbf29ba2c	-0.662997
135	0xbf292e6f	-0.6608648
136	0xbf230c36	-0.6369051
137	0xbf22b0f5	-0.63551265
138	0xbf226565	-0.63435966
139	0xbf220387	-0.6328663
140	0x3f368293	0.7129299
141	0x3f363d15	0.71186954
142	0x3f363a2d	0.7118252
143	0x3f35e38d	0.7105034
144	0xbf242fb0	-0.64135265
145	0xbf23e6cd	-0.6402405
146	0xbf238fd2	-0.6389133
147	0xbf23262e	-0.6373013
148	0xbf4441e9	-0.7666307
149	0xbf496aee	-0.78678787
150	0xbf40ce9a	-0.7531525
151	0xbf46e44b	-0.776921
152	0xbf4a8a30	-0.7911711
153	0xbf4a4650	-0.7901354
154	0xbf4a1c29	-0.7894922
155	0xbf49cf39	-0.7883182
156	0x3f1cb92c	0.6122005
157	0x3f1c72e4	0.6111281
158	0x3f1c7eeb	0.6113116
159	0x3f1c378a	0.61022246
160	0x3f377a31	0.71670824
161	0x3f3dc5d3	0.7412998
162	0x3f332ef0	0.69993496
163	0x3f3ab7d5	0.72936755
164	0xbf2fd333	-0.6868164
165	0xbf2f7a8b	-0.6854636
166	0xbf2f167f	-0.683937
167	0xbf2ebcd8	-0.682569
168	0x3f28ec57	0.65985626
169	0x3f28966e	0.6585454
170	0x3f286cc5	0.6579097
171	0x3f2807ca	0.65636885
172	0x3f24b162	0.64333165
173	0x3f247156	0.64235437
174	0x3f245807	0.6419682
175	0x3f240de4	0.64083695
176	0x3f296293	0.6616604
177	0x3f29272d	0.660754
178	0x3f290a9f	0.6603183
179	0x3f28c204	0.65921044
180	0xbf26d0cf	-0.65162367
181	0xbf269416	-0.6506971
182	0xbf26a761	-0.6509915
183	0xbf265b74	-0.64983296
184	0xbf4c1c07	-0.79730266
185	0xbf4bdd91	-0.7963496
186	0xbf4bc32c	-0.79594684
187	0xbf4b8234	-0.7949555
188	0xbf1f4848	-0.6221967
189	0xbf246123	-0.6421072
190	0xbf1d2485	-0.6138385
191	0xbf22f4ec	-0.6365497
192	0xbe359712	-0.1773341
193	0xbe3a2bf3	-0.18180828
194	0xbe3a33a5	-0.18183763
195	0xbe3e784c	-0.18600577
196	0x3e514d61	0.20439674
197	0x3e555ee9	0.20836987
198	0x3e54f89c	0.20797962
199	0x3e58d2a5	0.21174105
200	0x3e01432c	0.1262328
201	0x3e05eade	0.13077876
202	0x3e066578	0.13124645
203	0x3e0abf9f	0.1354966
204	0xbddab54a	-0.106791094
205	0xbde30035	-0.11084024
206	0xbde2fe47	-0.11083656
207	0xbdea675c	-0.114454955
208	0x3e3816fa	0.17977515
209	0x3e3cc6a0	0.18435144
210	0x3e3ce5cc	0.18447036
211	0x3e4130bf	0.18866251
212	0xbd4a95da	-0.049459316
213	0xbde74fbf	-0.11294507
214	0xbe0a972e	-0.13534233
215	0xbe561083	-0.20904736
216	0x3e9d0ea0	0.3067522
217	0x3e9eb481	0.3099709
218	0x3e9e1629	0.30876282
219	0x3e9fb552	0.31193024
220	0xbdd88581	-0.10572339
221	0xbde1a88c	-0.11018476
222	0xbde02e92	-0.109463826
223	0xbde8b9be	-0.113635525
224	0x3d2b28ec	0.041787073
225	0x3dea856f	0.11451232
226	0x3e060033	0.13086013
227	0x3e57d759	0.21078242
228	0x3e2e4060	0.17016745
229	0x3e3217d0	0.17391896
230	0x3e31747b	0.1732959
231	0x3e353918	0.17697561
232	0xbe141f20	-0.14464998
233	0xbe187c0f	-0.14891075
234	0xbe18a3e2	-0.14906266
235	0xbe1c930d	-0.1529047
236	0xbdbcd17d	-0.09219644
237	0xbdc65414	-0.096840054
238	0xbdc88c83	-0.097924255
239	0xbdd09b6d	-0.10185895
240	0xbe10db2c	-0.14146107
241	0xbe15920a	-0.1460649
242	0xbe15b98d	-0.14621563
243	0xbe19ffcd	-0.15038987
244	0x3db12088	0.08648783
245	0x3db97f12	0.0905744
246	0x3db9a8cb	0.09065398
247	0x3dc1cf62	0.09463383
248	0x3e8d17ca	0.27557212
249	0x3e8eb0f8	0.2786939
250	0x3e8de2a1	0.27711967
251	0x3e8f691b	0.28009877
252	0xbe11127f	-0.14167212
253	0xbe55f9d8	-0.20896089
254	0xbe4e5463	-0.20149378
255	0xbe8a8299	-0.27052763

bias f4 [16]
0	0x3e1e949c	0.15486377
1	0xbe034e66	-0.12822875
2	0xbe0eac83	-0.13932995
3	0xbd9a6791	-0.07539285
4	0xbe1523bf	-0.14564417
5	0x3fb9e793	1.4523796
6	0x3e042125	0.12903269
7	0xbbbf57f4	-0.0058393423
8	0xbfbc8a44	-1.4729695
9	0x3c025394	0.007954497
10	0x3d0a89ac	0.0338227
11	0x3e070df1	0.13188912
12	0x3db082ad	0.086186744
13	0xbcb4ca9e	-0.022069272
14	0x3e3f96bf	0.18709849
15	0x3fb41003	1.4067386

weight f4 [16, 32, 3, 3]
0	0x3d88bb46	0.066763446
1	0x3d886966	0.06660728
2	0x3d88b96e	0.06675993
3	0x3d88c37f	0.06677913
4	0x3d889884	0.06669715
5	0x3d88ffa3	0.06689384
6	0x3d88cc80	0.0667963
7	0x3d88b6f3	0.0667552
8	0x3d893902	0.067003265
9	0xbdb85223	-0.09000041
10	0xbdb8391c	-0.08995268
11	0xbdb85173	-0.0899991
12	0xbdb843f4	-0.08997336
13	0xbdb84c6e	-0.08998953
14	0xbdb87b84	-0.09007934
15	0xbdb864b4	-0.090035826
16	0xbdb88e38	-0.09011501
17	0xbdb8cbb6	-0.0902323
18	0xbd9f8c89	-0.07790477
19	0xbda1f874	-0.07908717
20	0xbda44c67	-0.08022385
21	0xbda6634b	-0.081244074
22	0xbd9f9f8e	-0.077941045
23	0xbda33d09	-0.07970626
24	0xbda4ff04	-0.08056453
25	0xbda2c2d4	-0.07947317
26	0xbda16339	-0.07880253
27	0x3daa4db9	0.08315606
28	0x3d9a7a54	0.075428635
29	0x3d9ecd62	0.077540174
30	0x3dac2d52	0.08407082
31	0x3da7fb65	0.082022466
32	0x3d968b95	0.07350842
33	0x3d9a735c	0.07541534
34	0x3d983a63	0.074330114
35	0x3dac3cff	0.084100716
36	0xbda7daf4	-0.08196059
37	0xbda7a657	-0.08186024
38	0xbda7d144	-0.08194211
39	0xbda7b920	-0.08189607
40	0xbda7ab8f	-0.08187019
41	0xbda7ef78	-0.08199972
42	0xbda7ff7c	-0.08203027
43	0xbda80f32	-0.08206023
44	0xbda8624f	-0.08221876
45	0xbf88de50	-1.0692844
46	0xbf88d9d3	-1.0691475
47	0xbf88d2d9	-1.0689346
48	0xbf88db62	-1.069195
49	0xbf88dbba	-1.0692055
50	0xbf88cb56	-1.0687053
51	0xbf88d0b4	-1.0688691
52	0xbf88d28e	-1.0689256
53	0xbf88c966	-1.0686462
54	0xbe2ab336	-0.16669926
55	0xbe2a25f7	-0.16616045
56	0xbe2a441e	-0.16627547
57	0xbe2a6373	-0.166395
58	0xbe2a7cb5	-0.16649134
59	0xbe2a8ca6	-0.16655216
60	0xbe2a7062	-0.16644433
61	0xbe2a949b	-0.16658251
62	0xbe2a7bf1	-0.16648842
63	0x3d5832b6	0.052782737
64	0x3d586e72	0.052839704
65	0x3d56d763	0.052451503
66	0x3d58b007	0.052902248
67	0x3d592131	0.05301017
68	0x3d5a328b	0.053270858
69	0x3d59994d	0.053124715
70	0x3d59d34c	0.053180024
71	0x3d589f39	0.05288622
72	0x3f814e35	1.0101992
73	0x3f811a51	1.0086156
74	0x3f80ed8a	1.0072491
75	0x3f810b6f	1.0081614
76	0x3f80fa83	1.007645
77	0x3f80cd92	1.0062735
78	0x3f81376b	1.0095037
79	0x3f80dd26	1.0067489
80	0x3f8120d8	1.0088148
81	0xbdb83489	-0.08994395
82	0xbdb7ae51	-0.08968795
83	0xbdb8496c	-0.08998379
84	0xbdb7b411	-0.08969892
85	0xbdb83996	-0.08995359
86	0xbdb7e373	-0.08978929
87	0xbdb80612	-0.08985533
88	0xbdb80cd0	-0.08986819
89	0xbdb90a98	-0.09035224
90	0x3dc02a16	0.09383027
91	0x3dc00fc1	0.09378005
92	0x3dc0d001	0.094146736
93	0x3dc01342	0.09378673
94	0x3dc0e91b	0.09419461
95	0x3dc0654a	0.09394319
96	0x3dc12707	0.09431272
97	0x3dc0b1e5	0.09408931
98	0x3dc10c8a	0.0942622
99	0x3d72cc61	0.059276942
100	0x3d6a678c	0.057227656
101	0x3d76e1ff	0.06027412
102	0x3d589c8c	0.05288367
103	0x3d5931b9	0.053025935
104	0x3d749b30	0.05971831
105	0x3d6ca3b8	0.057773322
106	0x3d6459c6	0.055749677
107	0x3d5c54e0	0.05379188
108	0x3dbd19fc	0.09233472
109	0x3dbcf46c	0.09226307
110	0x3dbd56cf	0.09245073
111	0x3dbd2879	0.09236235
112	0x3dbd1b15	0.09233681
113	0x3dbcd051	0.09219421
114	0x3dbd134f	0.092321984
115	0x3dbd8a55	0.092549
116	0x3dbd3162	0.09237935
117	0xbd7ee654	-0.062231377
118	0xbd67078b	-0.056403678
119	0xbd80a244	-0.0628095
120	0xbd62d27a	-0.055376507
121	0xbd7245bf	-0.059148546
122	0xbd80152c	-0.06254038
123	0xbd6748ae	-0.056465797
124	0xbd715250	-0.05891639
125	0xbd700dc8	-0.058606893
126	0xbe27fcff	-0.16405104
127	0xbe26c9ed	-0.16287966
128	0xbe281a0b	-0.16416185
129	0xbe274d19	-0.16338004
130	0xbe26f7a8	-0.16305411
131	0xbe27a87b	-0.16372864
132	0xbe27ca86	-0.1638585
133	0xbe276d26	-0.1635023
134	0xbe27889f	-0.1636071
135	0xbf542d7d	-0.8288191
136	0xbf54769b	-0.8299348
137	0xbf546651	-0.8296862
138	0xbf548220	-0.83011055
139	0xbf542b34	-0.8287842
140	0xbf546225	-0.82962257
141	0xbf543036	-0.82886064
142	0xbf543079	-0.82886463
143	0xbf5487af	-0.83019537
144	0x3b7f5138	0.0038958322
145	0x3b7e9e75	0.0038851772
146	0x3b7bae3b	0.003840341
147	0x3b7e43c0	0.0038797706
148	0x3b7c6946	0.0038514896
149	0x3b793180	0.003802389
150	0x3b7cb795	0.0038561572
151	0x3b7a821b	0.0038224522
152	0x3b77ac1c	0.0037791794
153	0x3e918140	0.28418922
154	0x3e918530	0.28421926
155	0x3e918a6b	0.28425917
156	0x3e91913e	0.28431123
157	0x3e91a22c	0.2844404
158	0x3e919511	0.2843404
159	0x3e9193e1	0.28433135
160	0x3e9197b7	0.28436062
161	0x3e919442	0.28433424
162	0x3b8a419b	0.0042192466
163	0x3b89ef96	0.004209469
164	0x3b88985f	0.0041685547
165	0x3b89c314	0.0042041633
166	0x3b88ea38	0.0041783117
167	0x3b8771ca	0.0041334378
168	0x3b890fae	0.0041827774
169	0x3b880cea	0.00415193
170	0x3b86bfe1	0.004112229
171	0xbb3d97cf	-0.0028929596
172	0xbb3d789a	-0.0028910995
173	0xbb3cd84e	-0.002881545
174	0xbb3d56d1	-0.0028890858
175	0xbb3cf49e	-0.0028832327
176	0xbb3c41ef	-0.0028725823
177	0xbb3cfce4	-0.0028837258
178	0xbb3c855f	-0.0028766019
179	0xbb3be655	-0.0028671224
180	0x3e2eb272	0.17060259
181	0x3e2ea781	0.17056085
182	0x3e2e7db6	0.17040142
183	0x3e2eae27	0.17058621
184	0x3e2e9552	0.17049149
185	0x3e2e66ea	0.17031446
186	0x3e2ea01b	0.17053263
187	0x3e2e82e8	0.17042124
188	0x3e2e5a83	0.17026715
189	0x3e3fd64c	0.18734092
190	0x3e3fdc30	0.18736339
191	0x3e3f743e	0.18696687
192	0x3e3fccee	0.18730518
193	0x3e400ed2	0.18755654
194	0x3e3f5f1f	0.1868863
195	0x3e3fde20	0.18737078
196	0x3e3fc5b1	0.18727757
197	0x3e3fdb58	0.18736017
198	0xbc347ba5	-0.011015807
199	0xbc34595f	-0.011007636
200	0xbc346eae	-0.011012716
201	0xbc3482f1	-0.011017547
202	0xbc346aef	-0.011011823
203	0xbc34a05f	-0.011024564
204	0xbc34739f	-0.011013894
205	0xbc349e69	-0.011024096
206	0xbc34b5d4	-0.011029679
207	0x3b248abe	0.002510711
208	0x3b247b18	0.0025097784
209	0x3b2412ca	0.0025035613
210	0x3b2452f9	0.002507387
211	0x3b24163f	0.0025037674
212	0x3b23a34c	0.0024969159
213	0x3b240f99	0.002503371
214	0x3b23c325	0.0024988141
215	0x3b235af5	0.002492604
216	0xbe642faa	-0.22283807
217	0xbe642866	-0.22281036
218	0xbe6405a8	-0.22267783
219	0xbe6426d6	-0.2228044
220	0xbe6411d4	-0.22272426
221	0xbe63eb27	-0.22257672
222	0xbe64173f	-0.22274493
223	0xbe63fd89	-0.22264685
224	0xbe63dc37	-0.22251974
225	0xbccda477	-0.025102837
226	0xbccd9ff5	-0.025100688
227	0xbccd916f	-0.025093762
228	0xbccda856	-0.025104683
229	0xbccda25a	-0.02510183
230	0xbccd9383	-0.025094753
231	0xbccda90f	-0.025105027
232	0xbccda27c	-0.025101893
233	0xbccd9591	-0.025095733
234	0x3e73c94e	0.2380726
235	0x3e73c22a	0.23804536
236	0x3e739c80	0.23790169
237	0x3e73c2e2	0.2380481
238	0x3e73af3e	0.23797318
239	0x3e7385f4	0.23781568
240	0x3e73b415	0.23799165
241	0x3e739d54	0.23790485
242	0x3e7379ac	0.23776883
243	0x3ac6d3c3	0.0015169311
244	0x3ac669e6	0.0015137761
245	0x3ac4caae	0.0015014017
246	0x3ac63d42	0.0015124457
247	0x3ac5310a	0.0015044522
248	0x3ac36a87	0.0014909067
249	0x3ac562a7	0.0015059308
250	0x3ac4259a	0.001496482
251	0x3ac2927e	0.0014844683
252	0xbe513310	-0.20429635
253	0xbe5129c8	-0.20426095
254	0xbe50fe56	-0.20409521
255	0xbe512abb	-0.20426457

bias f4 [16]
0	0xbefc3b00	-0.49263763
1	0xbe9eedc0	-0.31040764
2	0xbf62906e	-0.8850163
3	0xbe8b036b	-0.27151045
4	0xbbcf4d13	-0.0063263266
5	0xbee618c7	-0.4494078
6	0xbef41f3f	-0.4768009
7	0xbe4f259e	-0.20229194
8	0xbef81d2c	-0.48459756
9	0xbd35163b	-0.044210654
10	0xbf893789	-1.0720073
11	0xbcb71f51	-0.0223538
12	0xbe15d770	-0.14632964
13	0xbe59c4b9	-0.2126645
14	0xbebc9296	-0.36830586
15	0xad9da622	-1.7922611e-11
