data/ForestSegmentationOutput/experiemnts/FIXED_BLOCK_run_02_28-12-2023_16h54min/unet_id=AWagm_width=32_num_layers=2_lr=0.003_epochs=140.pth (torch, 115765 bytes, 16 tensors)

weight f4 [16, 8, 3, 3]
0	0x938c20a7	-3.5373166e-27
1	0x9366a180	-2.9109707e-27
2	0x933d182c	-2.3867071e-27
3	0x9391f8ab	-3.684835e-27
4	0x93734797	-3.0706209e-27
5	0x93449954	-2.4814275e-27
6	0x939ab1b7	-3.9050306e-27
7	0x938327f4	-3.3108446e-27
8	0x93551589	-2.6894997e-27
9	0x00001de6	1.0726e-41
10	0x8000014d	-4.67e-43
11	0x80005036	-2.8774e-41
12	0x00004a18	2.658e-41
13	0x80000d3d	-4.749e-42
14	0x800057ff	-3.1567e-41
15	0x000058f7	3.1915e-41
16	0x000021c4	1.2113e-41
17	0x80002d98	-1.6356e-41
18	0x801aaf5c	-2.45063e-39
19	0x800ae635	-1.000938e-39
20	0x80033163	-2.93223e-40
21	0x8021bf39	-3.099169e-39
22	0x800dfa7c	-1.283718e-39
23	0x8003911e	-3.27565e-40
24	0x80312965	-4.514789e-39
25	0x80169fdb	-2.077726e-39
26	0x80069fdb	-6.08358e-40
27	0x8000009e	-2.21e-43
28	0x000064e0	3.6187e-41
29	0x000093d5	5.3032e-41
30	0x80002545	-1.337e-41
31	0x0000508e	2.8898e-41
32	0x0000b0ca	6.342e-41
33	0x80005b2a	-3.2704e-41
34	0x000017e8	8.576e-42
35	0x00009add	5.5554e-41
36	0x8000c464	-7.0452e-41
37	0x00007934	4.348e-41
38	0x80001c2e	-1.0109e-41
39	0x80006694	-3.6798e-41
40	0x80000bb2	-4.195e-42
41	0x0000195a	9.094e-42
42	0x00003374	1.8458e-41
43	0x800079a5	-4.3638e-41
44	0x0000a250	5.8227e-41
45	0xac89be59	-3.914907e-12
46	0xac761069	-3.4967812e-12
47	0xac52a0ad	-2.9931988e-12
48	0xac8fe5a0	-4.089798e-12
49	0xac779317	-3.5182462e-12
50	0xac4b31d6	-2.88757e-12
51	0xac9e6313	-4.5016295e-12
52	0xac862384	-3.812452e-12
53	0xac5754f2	-3.0600492e-12
54	0xb23593d4	-1.0569199e-08
55	0xb22aa599	-9.932955e-09
56	0xb219321d	-8.917167e-09
57	0xb239b951	-1.0810553e-08
58	0xb229cf7a	-9.884269e-09
59	0xb214502d	-8.632964e-09
60	0xb242412a	-1.1307103e-08
61	0xb22f012f	-1.018661e-08
62	0xb216125b	-8.735323e-09
63	0xb17def8d	-3.6952514e-09
64	0xb16d053d	-3.4491017e-09
65	0xb1527706	-3.062668e-09
66	0xb1835f0a	-3.8234065e-09
67	0xb16dcc18	-3.4604053e-09
68	0xb14ca5d6	-2.9780174e-09
69	0xb18b4492	-4.053228e-09
70	0xb1782052	-3.6107122e-09
71	0xb1514cb6	-3.0457108e-09
72	0xb46f8ed8	-2.2310576e-07
73	0xb46f8174	-2.2305704e-07
74	0xb4700dd6	-2.2356775e-07
75	0xb46e8ab3	-2.2215936e-07
76	0xb46e1249	-2.217213e-07
77	0xb46eb6c6	-2.223197e-07
78	0xb46e861d	-2.2214267e-07
79	0xb46df776	-2.2162371e-07
80	0xb46e9349	-2.221906e-07
81	0xac2056ec	-2.2785619e-12
82	0xac1fb4ef	-2.2695697e-12
83	0xac20fa35	-2.287626e-12
84	0xac1d06e1	-2.231486e-12
85	0xac1bfc6b	-2.2166945e-12
86	0xac1ce079	-2.229354e-12
87	0xac1bf01a	-2.2160108e-12
88	0xac1afc98	-2.2024934e-12
89	0xac1c1c5d	-2.2184678e-12
90	0xb11d7376	-2.2912139e-09
91	0xb11b9236	-2.263858e-09
92	0xb1137db9	-2.146278e-09
93	0xb11f6438	-2.3194513e-09
94	0xb11ba348	-2.2648283e-09
95	0xb11404e6	-2.153962e-09
96	0xb11efcb7	-2.3135678e-09
97	0xb11b1962	-2.2569897e-09
98	0xb114bcff	-2.1644266e-09
99	0xafbb3dd7	-3.4059042e-10
100	0xafb75894	-3.3350445e-10
101	0xafaccb00	-3.1430858e-10
102	0xafb9a62a	-3.376937e-10
103	0xafb573e3	-3.300605e-10
104	0xafac0c48	-3.1295344e-10
105	0xafb9dbc3	-3.3807454e-10
106	0xafb74e1f	-3.3343014e-10
107	0xafb071f1	-3.2095174e-10
108	0x9ffca966	-1.070064e-19
109	0x9fe43670	-9.6651815e-20
110	0x9fd44bef	-8.9911114e-20
111	0x9fdc367b	-9.3263755e-20
112	0x9fc926d8	-8.519107e-20
113	0x9fbeb854	-8.0773075e-20
114	0x9fd5497c	-9.033058e-20
115	0x9fcbde0a	-8.634118e-20
116	0x9fc85c71	-8.4856226e-20
117	0xb982e135	-0.00024963325
118	0xb984c920	-0.00025326852
119	0xb98311b4	-0.00024999457
120	0xb986b3c7	-0.00025692416
121	0xb9871132	-0.00025762018
122	0xb98497b4	-0.0002529003
123	0xb9882881	-0.0002597012
124	0xb9871610	-0.00025765644
125	0xb9844a6e	-0.00025232456
126	0xbac89450	-0.001530299
127	0xbacc5f76	-0.0015592414
128	0xbacccdf8	-0.0015625348
129	0xbacd7aee	-0.0015676895
130	0xbacf5060	-0.00158168
131	0xbaceab59	-0.0015767618
132	0xbacf4166	-0.0015812337
133	0xbacf1970	-0.0015800428
134	0xbacda008	-0.0015687952
135	0xba94d92c	-0.0011356226
136	0xba9816ab	-0.0011603435
137	0xba98b7b3	-0.0011651426
138	0xba983591	-0.0011612644
139	0xba99f30e	-0.001174541
140	0xba99d960	-0.0011737756
141	0xba9935ab	-0.0011688968
142	0xba9962aa	-0.0011702378
143	0xba98b57c	-0.0011650766
144	0xad35828e	-1.0317648e-11
145	0xaf28ce3b	-1.5352779e-10
146	0xad505e68	-1.18443935e-11
147	0xaf8fc8ab	-2.6154132e-10
148	0xaf913f2f	-2.642024e-10
149	0x2e06f8da	3.0689097e-11
150	0xaf39e04b	-1.6905337e-10
151	0xaec146bc	-8.789189e-11
152	0x2c7c530f	3.585746e-12
153	0x220dd16e	1.9219934e-18
154	0xa2b25413	-4.8336014e-18
155	0x21bb001a	1.267164e-18
156	0xa2b308a2	-4.8527188e-18
157	0x21680c70	7.862112e-19
158	0x21f004ba	1.6264284e-18
159	0xa0959b02	-2.5344157e-19
160	0xa291ef59	-3.955575e-18
161	0xa2d6095c	-5.8014726e-18
162	0xab1adb29	-5.5015936e-13
163	0x2a55a5a4	1.8975668e-13
164	0xaac7bd24	-3.5480744e-13
165	0x2a5b07b6	1.9453783e-13
166	0x2982f83e	5.816223e-14
167	0xaa309129	-1.5682303e-13
168	0xa9811792	-5.7328396e-14
169	0xaab0fc42	-3.143892e-13
170	0x2a2e9279	1.5505122e-13
171	0xa969f75c	-5.1950943e-14
172	0xa7a0eaf8	-4.4663675e-15
173	0x28c2acdc	2.1613292e-14
174	0xa9b72644	-8.1334706e-14
175	0x2753bb3b	2.938363e-15
176	0xa92a1a39	-3.7770327e-14
177	0xa880b7fc	-1.4290645e-14
178	0xa963dcd4	-5.0595663e-14
179	0x284b169e	1.1273668e-14
180	0x944a3149	-1.02081136e-26
181	0x94082c22	-6.874949e-27
182	0x94339284	-9.066086e-27
183	0x94044bfb	-6.6792814e-27
184	0x93cf76ad	-5.237117e-27
185	0x11da13b1	3.4406471e-28
186	0x93e08f1a	-5.668666e-27
187	0x12632f2b	7.168671e-28
188	0x109c62a0	6.1683106e-29
189	0x374b1e42	1.2106788e-05
190	0x363a1b0f	2.773191e-06
191	0xb7c02aa3	-2.2908038e-05
192	0x37524166	1.2532202e-05
193	0xb7ac07bc	-2.05076e-05
194	0xb6eda344	-7.082157e-06
195	0xb79e12c6	-1.884381e-05
196	0x3506714a	5.008375e-07
197	0x365e2052	3.309939e-06
198	0xb9900552	-0.00027469784
199	0x38e98a37	0.0001113605
200	0xb9bea438	-0.00036361977
201	0x383c0a3e	4.483223e-05
202	0x38fdce31	0.00012102386
203	0xb8b12a3a	-8.447883e-05
204	0xb99d4f2e	-0.00030004367
205	0x3807d180	3.238162e-05
206	0xb9126555	-0.00013961394
207	0x389a5587	7.359223e-05
208	0xb682cd83	-3.8982266e-06
209	0xb938c940	-0.00017622579
210	0xb8e09d90	-0.00010710501
211	0xb9530dba	-0.00020127642
212	0xb95bab71	-0.00020949334
213	0xb968ffe9	-0.00022220578
214	0x3884febf	6.341701e-05
215	0xb79cf574	-1.8710947e-05
216	0xa80565ed	-7.405085e-15
217	0xa7f519e2	-6.8029222e-15
218	0xa7e8235a	-6.4431264e-15
219	0xa7fbaf52	-6.9856577e-15
220	0xa7df58e5	-6.1991313e-15
221	0xa7cd0f53	-5.6915545e-15
222	0xa800501c	-7.122798e-15
223	0xa7d61711	-5.942194e-15
224	0xa7bd4e37	-5.254284e-15
225	0x92f8dc6a	-1.5705337e-27
226	0x92a7e299	-1.0595042e-27
227	0x92866d5a	-8.483546e-28
228	0x92bbf71e	-1.1862278e-27
229	0x924e8837	-6.5170036e-28
230	0x920ba933	-4.406922e-28
231	0x92db693f	-1.3846788e-27
232	0x922816e3	-5.3039663e-28
233	0x91b41ceb	-2.8416815e-28
234	0xa09d0b75	-2.6604416e-19
235	0xa03c33a5	-1.5941307e-19
236	0xa001b25c	-1.0985739e-19
237	0xa0798f2c	-2.1138492e-19
238	0x9fe5c0c8	-9.73042e-20
239	0x9f7a35ba	-5.2984e-20
240	0xa092a86e	-2.484482e-19
241	0x9fcd7d16	-8.7027814e-20
242	0x9f372238	-3.8780062e-20
243	0x9dacd153	-4.5744457e-21
244	0x9ce712af	-1.5291127e-21
245	0x9c5410cd	-7.016663e-22
246	0x9d5ed0cb	-2.9489399e-21
247	0x9c4f347a	-6.855838e-22
248	0x9b844682	-2.1883133e-22
249	0x9d8f6248	-3.7953405e-21
250	0x9c1c9dd8	-5.182008e-22
251	0x9b048afe	-1.0963695e-22
252	0x80001140	-6.188e-42
253	0x800071e4	-4.0856e-41
254	0x000047b0	2.5717e-41
255	0x800091c4	-5.2291e-41

bias f4 [16]
0	0xb883a476	-6.2772e-05
1	0xbc8f02f6	-0.017457467
2	0xb847ebea	-4.766501e-05
3	0xbac6d067	-0.001516831
4	0xa2c7b9b8	-5.4135695e-18
5	0xbd379c61	-0.04482687
6	0x3eb9bd09	0.36277035
7	0xbd639fbd	-0.05557226
8	0xbf195de0	-0.59908867
9	0xb638c5b2	-2.753321e-06
10	0xb781f6ee	-1.5492984e-05
11	0xbc370668	-0.011170961
12	0x3e0f8489	0.14015402
13	0x8b89727b	-5.294273e-32
14	0xbdba7193	-0.09103694
15	0x3f1a8dbe	0.6037253

weight f4 [16, 16, 3, 3]
0	0x000004b5	1.689e-42
1	0x80072671	-6.56639e-40
2	0x000467e2	4.04608e-40
3	0x800528f9	-4.73876e-40
4	0x0007edb1	7.28116e-40
5	0x8008f4df	-8.22527e-40
6	0x800151c0	-1.21162e-40
7	0x00030fe1	2.81203e-40
8	0x00054f00	4.87517e-40
9	0x800248a9	-2.09737e-40
10	0x00016447	1.27808e-40
11	0x80038389	-3.22692e-40
12	0x80010150	-9.2306e-41
13	0x00076f86	6.82856e-40
14	0x800185b7	-1.39803e-40
15	0x8002c0a8	-2.52783e-40
16	0x0004c823	4.39138e-40
17	0x0003f5da	3.63701e-40
18	0x8000ccab	-7.3421e-41
19	0x80004544	-2.4848e-41
20	0x80000d63	-4.802e-42
21	0x8000c0dd	-6.9186e-41
22	0x8000b1d4	-6.3793e-41
23	0x800065fc	-3.6585e-41
24	0x0000568b	3.1046e-41
25	0x8000cc7f	-7.336e-41
26	0x800047b2	-2.572e-41
27	0x8003d9da	-3.53657e-40
28	0x00022aee	1.99071e-40
29	0x80016b9d	-1.3044e-40
30	0x00033e87	2.97937e-40
31	0x80047826	-4.10443e-40
32	0x0001ff69	1.8346e-40
33	0x80004b74	-2.7067e-41
34	0x8002950a	-2.37136e-40
35	0x80036466	-3.11523e-40
36	0x0005254c	4.72557e-40
37	0x00007717	4.2721e-41
38	0x8004eb2c	-4.51706e-40
39	0x800a8c69	-9.68725e-40
40	0x800026ad	-1.3874e-41
41	0x00008d74	5.0744e-41
42	0x80056bef	-4.97897e-40
43	0x800473af	-4.08841e-40
44	0x000a75a7	9.6056e-40
45	0x8007369c	-6.62439e-40
46	0x000990f2	8.78516e-40
47	0x80032dd2	-2.91944e-40
48	0x8001a200	-1.4995e-40
49	0x80022f37	-2.00608e-40
50	0x8005b0a7	-5.22548e-40
51	0x800896e3	-7.88812e-40
52	0x8007c1e7	-7.12408e-40
53	0x0005a9ab	5.20043e-40
54	0x8df16038	-1.4875936e-30
55	0x8e1c662f	-1.9277684e-30
56	0x8e4fb8e9	-2.560375e-30
57	0x8dd8e2b2	-1.3366603e-30
58	0x8e0ce86a	-1.7368236e-30
59	0x8e375550	-2.2597568e-30
60	0x8dda26f0	-1.3444661e-30
61	0x8e0a5f01	-1.7055556e-30
62	0x8e2f4c35	-2.1607108e-30
63	0x000913b0	8.33582e-40
64	0x00098eb0	8.77706e-40
65	0x0002f645	2.72016e-40
66	0x80012a08	-1.06913e-40
67	0x800c99a8	-1.157147e-39
68	0x80021251	-1.90242e-40
69	0x000662c4	5.86443e-40
70	0x00024618	2.08816e-40
71	0x000096be	5.4076e-41
72	0x8000c25e	-6.9726e-41
73	0x80009286	-5.2563e-41
74	0x80003a46	-2.0905e-41
75	0x8000acab	-6.1942e-41
76	0x80009b33	-5.5675e-41
77	0x8000736e	-4.1408e-41
78	0x8000c32b	-7.0013e-41
79	0x8000a924	-6.0676e-41
80	0x800053e8	-3.01e-41
81	0x8000198f	-9.169e-42
82	0x0000606e	3.4592e-41
83	0x00008ba7	5.0098e-41
84	0x80000bb4	-4.198e-42
85	0x00006d12	3.9127e-41
86	0x00006f3f	3.9908e-41
87	0x00005070	2.8856e-41
88	0x0000cd6e	7.3694e-41
89	0x0000d724	7.7178e-41
90	0x8006ff75	-6.42654e-40
91	0x0007713e	6.83472e-40
92	0x800278ef	-2.27054e-40
93	0x0003d9ca	3.53634e-40
94	0x00033fdb	2.98414e-40
95	0x0000f241	8.6904e-41
96	0x0008a978	7.95478e-40
97	0x800b066c	-1.012494e-39
98	0x00095fe3	8.60917e-40
99	0x0002b85e	2.4981e-40
100	0x80098789	-8.7514e-40
101	0x8003daf4	-3.54052e-40
102	0x00035a1a	3.07829e-40
103	0x00081b7e	7.44546e-40
104	0x00070552	6.44757e-40
105	0x8000815e	-4.6408e-41
106	0x0000ab68	6.1489e-41
107	0x0003d794	3.52841e-40
108	0x80005687	-3.104e-41
109	0x8002151f	-1.91248e-40
110	0x8003e933	-3.59163e-40
111	0x800088b2	-4.9037e-41
112	0x8003b27c	-3.39535e-40
113	0x8008614a	-7.69585e-40
114	0x8002fff5	-2.75491e-40
115	0x80002d64	-1.6283e-41
116	0x80021e52	-1.94548e-40
117	0x0003e0ef	3.56197e-40
118	0x000240a3	2.06858e-40
119	0x0002ee06	2.69058e-40
120	0x8006917e	-6.03206e-40
121	0x80072193	-6.54893e-40
122	0x0004d3c9	4.43316e-40
123	0x80088b63	-7.84687e-40
124	0x80070672	-6.4516e-40
125	0x80033e18	-2.97782e-40
126	0x00069732	6.05252e-40
127	0x0006b818	6.17053e-40
128	0x000087bf	4.8697e-41
129	0x0006273f	5.65092e-40
130	0x000628f1	5.657e-40
131	0x00055f18	4.9329e-40
132	0x0005a83c	5.19529e-40
133	0x00019656	1.45766e-40
134	0x000147a8	1.17541e-40
135	0x8000b289	-6.4046e-41
136	0x800027d7	-1.4292e-41
137	0x80006723	-3.6998e-41
138	0x8000d998	-7.8058e-41
139	0x00011473	9.9171e-41
140	0x8001154d	-9.9477e-41
141	0x8000a4ea	-5.916e-41
142	0x80006c44	-3.8838e-41
143	0x8000b83d	-6.6092e-41
144	0xaf4c094f	-1.8556999e-10
145	0xaf3f0e26	-1.7376375e-10
146	0xaf2bd615	-1.5628417e-10
147	0xaf5b8941	-1.9966696e-10
148	0xaf489cd9	-1.8245618e-10
149	0xaf2e83f9	-1.5872094e-10
150	0xaf6d1b48	-2.1564717e-10
151	0xaf5646c3	-1.9488326e-10
152	0xaf363f2e	-1.657525e-10
153	0x36329b1c	2.6614352e-06
154	0x362e8383	2.600457e-06
155	0x3628729b	2.510066e-06
156	0x36286089	2.5090142e-06
157	0x36220a72	2.414596e-06
158	0x361b7845	2.3166806e-06
159	0x361cfedb	2.3394157e-06
160	0x361681f1	2.2427378e-06
161	0x361104d0	2.1609485e-06
162	0x2bd1a38a	1.4895734e-12
163	0x2a0644e7	1.1925496e-13
164	0x2ceda835	6.75462e-12
165	0x2bdfa696	1.589134e-12
166	0x2ce11919	6.397671e-12
167	0xac65b0a5	-3.2640915e-12
168	0xac1c863a	-2.2243444e-12
169	0x2c1bb99d	2.212986e-12
170	0x2cd4ec9c	6.0516713e-12
171	0x80017054	-1.32131e-40
172	0x80009164	-5.2156e-41
173	0x00003443	1.8748e-41
174	0x0000ffee	9.181e-41
175	0x000155d7	1.22629e-40
176	0x80012d4d	-1.08086e-40
177	0x80007e97	-4.5412e-41
178	0x0000ef5d	8.5867e-41
179	0x8000959a	-5.3667e-41
180	0x20558fe3	1.808941e-19
181	0x23d8fa69	2.352482e-17
182	0x24df8927	9.694318e-17
183	0x22283270	2.2794947e-18
184	0x250b785c	1.2097108e-16
185	0x25a9b3c9	2.9438654e-16
186	0x23866060	1.4569126e-17
187	0x24df7724	9.6912666e-17
188	0x24e8fe12	1.01044373e-16
189	0xbbaa6c5b	-0.0052009053
190	0xbba4deb8	-0.005031433
191	0xbb9a315e	-0.004705592
192	0xbbb6f438	-0.0055833124
193	0xbbb1f106	-0.0054303436
194	0xbba2081c	-0.0049448144
195	0xbbb90a8e	-0.00564701
196	0xbbb86b1e	-0.0056280037
197	0xbba7aeb3	-0.0051172613
198	0x3ee10a45	0.43953148
199	0x3e893137	0.2679536
200	0x3e265291	0.16242434
201	0x3eaf5bf4	0.34249842
202	0x3d9cf675	0.076641954
203	0x3d905e34	0.07049218
204	0x3ecccec5	0.40001503
205	0x3e268c0e	0.16264364
206	0x3e0a6a7c	0.13517183
207	0x3d865e73	0.065609835
208	0x3d86d2b3	0.065831564
209	0x3d830ed9	0.06399316
210	0x3d85ad52	0.06527199
211	0x3d87924f	0.06619703
212	0x3d848ceb	0.064721905
213	0x3d849641	0.06473971
214	0x3d867db5	0.065669455
215	0x3d844630	0.064587
216	0xbdb6ad01	-0.089197166
217	0xbdd96a7c	-0.106160134
218	0xbe5aff5b	-0.21386473
219	0xbcdc52ef	-0.026895015
220	0xbe2faca6	-0.17155704
221	0xbd8a8a99	-0.06764717
222	0x3ddfbedd	0.10925076
223	0xbc5f134d	-0.0136154415
224	0xbd2281c2	-0.039674528
225	0xa0a89ccc	-2.8564066e-19
226	0xa3bd254d	-2.0507219e-17
227	0xa3b40a5f	-1.9520031e-17
228	0x23e29a71	2.4568378e-17
229	0xa42b76dd	-3.7180395e-17
230	0x248381d0	5.7032105e-17
231	0x2428b3ef	3.6581603e-17
232	0x2484d20d	5.7601715e-17
233	0x245cf8e4	4.7915714e-17
234	0xb03c1ceb	-6.8435096e-10
235	0xb045c0e6	-7.194231e-10
236	0xb04bddf2	-7.4166373e-10
237	0xb04ba17b	-7.408045e-10
238	0xb0534427	-7.6858203e-10
239	0xb057498b	-7.8321055e-10
240	0xb053c840	-7.7045925e-10
241	0xb059fe70	-7.930572e-10
242	0xb05ce625	-8.036259e-10
243	0x3d2f5c52	0.042812653
244	0x3d2f6517	0.042821016
245	0x3d2f6a25	0.042825837
246	0x3d2e4ae8	0.042551905
247	0x3d2ea2c5	0.042635698
248	0x3d2e58da	0.042565204
249	0x3d2cd30a	0.04219345
250	0x3d2ce13c	0.042206988
251	0x3d2cdd21	0.042203072
252	0xbdc5b11e	-0.09652923
253	0xbd02853b	-0.03186534
254	0xbc63096f	-0.01385723
255	0xbe14f1e7	-0.14545403

bias f4 [16]
0	0xa2080d9d	-1.8438644e-18
1	0xbe8b565c	-0.27214324
2	0xb8ca33a6	-9.641731e-05
3	0xa9b62b3c	-8.0899236e-14
4	0xbd1fea40	-0.039041758
5	0xbbbf1bbe	-0.0058321645
6	0xbc901178	-0.017586455
7	0xa54b31ba	-1.7624291e-16
8	0xbdda5a8d	-0.106618024
9	0xbf0866c4	-0.5328181
10	0x3eafba2d	0.34321728
11	0xbd16b81e	-0.03679668
12	0xbd34ec9f	-0.044170972
13	0xbdf0c4df	-0.117563
14	0x3eb17176	0.34656876
15	0xbe5684ea	-0.2094914

weight f4 [32, 16, 3, 3]
0	0x0001fc82	1.82418e-40
1	0x0002a792	2.43784e-40
2	0x0006649c	5.87105e-40
3	0x000707c3	6.45633e-40
4	0x00032c1c	2.9133e-40
5	0x80086d9a	-7.74002e-40
6	0x0000663e	3.6678e-41
7	0x8007e22c	-7.23984e-40
8	0x8003d0df	-3.50435e-40
9	0x8000c592	-7.0875e-41
10	0x8000803e	-4.6005e-41
11	0x80008a58	-4.9628e-41
12	0x00004ad1	2.6839e-41
13	0x0000370e	1.975e-41
14	0x8000c2c0	-6.9863e-41
15	0x0000551f	3.0536e-41
16	0x80005ba8	-3.288e-41
17	0x0000888e	4.8987e-41
18	0x8000e09b	-8.0573e-41
19	0x00000de0	4.977e-42
20	0x0000e980	8.3764e-41
21	0x80000b25	-3.998e-42
22	0x00000f35	5.455e-42
23	0x80000585	-1.98e-42
24	0x8000a7e4	-6.0228e-41
25	0x80006a78	-3.8194e-41
26	0x00006c7d	3.8918e-41
27	0x0000b239	6.3934e-41
28	0x00003745	1.9827e-41
29	0x00009f17	5.707e-41
30	0x80000e08	-5.033e-42
31	0x00004e13	2.8008e-41
32	0x80009f0e	-5.7058e-41
33	0x0000d2bd	7.5599e-41
34	0x0000e2c3	8.1347e-41
35	0x00004326	2.4088e-41
36	0x0006081d	5.53923e-40
37	0x80021e90	-1.94635e-40
38	0x80055c38	-4.9226e-40
39	0x00025e36	2.17468e-40
40	0x800301d8	-2.76168e-40
41	0x8002daf1	-2.62212e-40
42	0x00056f86	4.99185e-40
43	0x0003dc42	3.5452e-40
44	0x8003d17c	-3.50655e-40
45	0x8007d23d	-7.18268e-40
46	0x80027e0f	-2.28892e-40
47	0x000721f9	6.55036e-40
48	0x00009acb	5.5529e-41
49	0x0002f841	2.72728e-40
50	0x00070c4b	6.47258e-40
51	0x00027cb0	2.284e-40
52	0x0002fea3	2.75017e-40
53	0x80042ef5	-3.84187e-40
54	0x800804f6	-7.36464e-40
55	0x00032f90	2.92569e-40
56	0x00061c04	5.61063e-40
57	0x80068a54	-6.00636e-40
58	0x800528d7	-4.73828e-40
59	0x800712c5	-6.49582e-40
60	0x000523b5	4.71987e-40
61	0x80033ae6	-2.96635e-40
62	0x0002a388	2.42335e-40
63	0x00012408	1.04761e-40
64	0x0009067c	8.28846e-40
65	0x000a6f71	9.58333e-40
66	0x8006394f	-5.71571e-40
67	0x80037b0e	-3.1965e-40
68	0x80048b2e	-4.1727e-40
69	0x0007c7ba	7.14497e-40
70	0x80043a9c	-3.88367e-40
71	0x000bf615	1.098468e-39
72	0x0000112a	6.157e-42
73	0x8002bd3f	-2.5156e-40
74	0x8003be55	-3.43785e-40
75	0x8001615f	-1.26766e-40
76	0x000344c9	3.00182e-40
77	0x800359df	-3.07746e-40
78	0x00014ce5	1.1942e-40
79	0x80010a5b	-9.555e-41
80	0x8003448c	-3.00096e-40
81	0x00006b82	3.8567e-41
82	0x8000a41d	-5.8873e-41
83	0x8000212d	-1.1901e-41
84	0x80007a86	-4.3953e-41
85	0x00005fd3	3.4375e-41
86	0x800096fd	-5.4164e-41
87	0x0000467d	2.5286e-41
88	0x800071c1	-4.0807e-41
89	0x00000e2b	5.083e-42
90	0x80005f77	-3.4246e-41
91	0x0000c784	7.1573e-41
92	0x8000bf3b	-6.86e-41
93	0x0000b733	6.572e-41
94	0x800025ec	-1.3604e-41
95	0x00009461	5.3228e-41
96	0x80000a1c	-3.627e-42
97	0x8000b75f	-6.5781e-41
98	0x800058a5	-3.18e-41
99	0x80002ec1	-1.6772e-41
100	0x8000bc9e	-6.7663e-41
101	0x80002c24	-1.5835e-41
102	0x8000c16a	-6.9384e-41
103	0x80006a15	-3.8055e-41
104	0x00000a94	3.795e-42
105	0x800033b3	-1.8546e-41
106	0x00003177	1.7745e-41
107	0x80002c45	-1.5881e-41
108	0x0002fcf0	2.74408e-40
109	0x0000e4bc	8.2054e-41
110	0x80066bf1	-5.89735e-40
111	0x00021757	1.92044e-40
112	0x0003c2f1	3.45438e-40
113	0x0007e1ca	7.23846e-40
114	0x8002fd94	-2.74638e-40
115	0x0004df01	4.47341e-40
116	0x00049427	4.20489e-40
117	0x800b739c	-1.051663e-39
118	0x0007e359	7.24405e-40
119	0x0001a6fa	1.51735e-40
120	0x8001aa79	-1.5299e-40
121	0x00049c30	4.23372e-40
122	0x0002f55a	2.71687e-40
123	0x80041041	-3.73173e-40
124	0x8005ea77	-5.43288e-40
125	0x800354c4	-3.05915e-40
126	0x8000459b	-2.497e-41
127	0x000010c4	6.014e-42
128	0x8000b7df	-6.596e-41
129	0x0000842c	4.7414e-41
130	0x8000f86a	-8.9114e-41
131	0x000055c6	3.077e-41
132	0x80002566	-1.3416e-41
133	0x000078d2	4.3342e-41
134	0x80007fdf	-4.5872e-41
135	0x80003708	-1.9741e-41
136	0x8000b611	-6.5313e-41
137	0x00000646	2.25e-42
138	0x0000ceb3	7.415e-41
139	0x0000c653	7.1145e-41
140	0x0000265d	1.3762e-41
141	0x8000c8fe	-7.2102e-41
142	0x80006131	-3.4866e-41
143	0x00004cd6	2.7564e-41
144	0x0009c66d	8.97701e-40
145	0x00029a57	2.39038e-40
146	0x8008ff84	-8.26346e-40
147	0x00089543	7.88229e-40
148	0x8005370d	-4.78926e-40
149	0x000410e1	3.73397e-40
150	0x8003eebf	-3.61152e-40
151	0x0007f0cd	7.29232e-40
152	0x8005e3a3	-5.40838e-40
153	0x800026f8	-1.398e-41
154	0x00007bc9	4.4406e-41
155	0x8000d729	-7.7185e-41
156	0x00008d70	5.0738e-41
157	0x00005921	3.1973e-41
158	0x80005255	-2.9535e-41
159	0x0000e27b	8.1246e-41
160	0x0000e704	8.2873e-41
161	0x000094f0	5.3429e-41
162	0x8000b8a7	-6.6241e-41
163	0x000006f9	2.501e-42
164	0x000082bf	4.6903e-41
165	0x0000218b	1.2033e-41
166	0x8000cbfe	-7.3179e-41
167	0x80009feb	-5.7368e-41
168	0x8000c909	-7.2118e-41
169	0x00006f06	3.9828e-41
170	0x0000cdfc	7.3893e-41
171	0x80009e9a	-5.6896e-41
172	0x000105b8	9.3887e-41
173	0x80004725	-2.5522e-41
174	0x000030ec	1.755e-41
175	0x8000e337	-8.151e-41
176	0x0000f16b	8.6604e-41
177	0x00004bbf	2.7173e-41
178	0x00010c95	9.6349e-41
179	0x0000b37d	6.4388e-41
180	0x0005e389	5.40802e-40
181	0x00038b57	3.25492e-40
182	0x0000bd43	6.7894e-41
183	0x0006f518	6.38936e-40
184	0x0001bad4	1.58857e-40
185	0x00035640	3.06447e-40
186	0x0006de76	6.30817e-40
187	0x00057da9	5.04256e-40
188	0x800b1b43	-1.01997e-39
189	0x8002b571	-2.4876e-40
190	0x000128f2	1.06524e-40
191	0x000714cf	6.50313e-40
192	0x000dcc57	1.267165e-39
193	0x00038716	3.23966e-40
194	0x8005328d	-4.77312e-40
195	0x80034363	-2.9968e-40
196	0x000403ba	3.68679e-40
197	0x00076403	6.78726e-40
198	0x80084577	-7.59603e-40
199	0x00068e83	6.02137e-40
200	0x0008b787	8.00521e-40
201	0x0008a85c	7.9508e-40
202	0x0002907e	2.35505e-40
203	0x00076a34	6.80947e-40
204	0x800b22c5	-1.022663e-39
205	0x00001279	6.627e-42
206	0x8000469b	-2.5328e-41
207	0x8005956b	-5.12779e-40
208	0x0002b1c5	2.47443e-40
209	0x00077c11	6.87355e-40
210	0x8006be24	-6.19223e-40
211	0x80038ca7	-3.25963e-40
212	0x80062d56	-5.67276e-40
213	0x8005b516	-5.24139e-40
214	0x8005facc	-5.49146e-40
215	0x00027ef9	2.2922e-40
216	0x00072d1e	6.59033e-40
217	0x0007c1cc	7.1237e-40
218	0x0005f485	5.46895e-40
219	0x0003790f	3.18934e-40
220	0x80051d2d	-4.69644e-40
221	0x00028946	2.32915e-40
222	0x80000e0a	-5.036e-42
223	0x000301a4	2.76095e-40
224	0x800bdf5a	-1.090314e-39
225	0x800005ec	-2.124e-42
226	0x8000cf3d	-7.4343e-41
227	0x8000101a	-5.776e-42
228	0x80008895	-4.8996e-41
229	0x8000878f	-4.8629e-41
230	0x000040d5	2.3257e-41
231	0x8000502a	-2.8757e-41
232	0x8000dc3e	-7.9008e-41
233	0x0000c918	7.2139e-41
234	0x8000e98e	-8.3784e-41
235	0x0000f127	8.6509e-41
236	0x8000bfe3	-6.8836e-41
237	0x8000bbb9	-6.7342e-41
238	0x00003755	1.985e-41
239	0x80007887	-4.3237e-41
240	0x0000468a	2.5305e-41
241	0x8000814d	-4.6384e-41
242	0x0000671b	3.6987e-41
243	0x000006cd	2.44e-42
244	0x80003282	-1.8119e-41
245	0x0000917d	5.2191e-41
246	0x0000ad61	6.2197e-41
247	0x0000ed4b	8.5125e-41
248	0x0000120a	6.471e-42
249	0x000062e2	3.5472e-41
250	0x8000dc4f	-7.9032e-41
251	0x8000c85a	-7.1873e-41
252	0x0003157e	2.83216e-40
253	0x800b28f1	-1.024877e-39
254	0x80039ff1	-3.32883e-40
255	0x00038b62	3.25508e-40

bias f4 [32]
0	0x9e28e154	-8.940443e-21
1	0x80008ba4	-5.0094e-41
2	0x000060f2	3.4777e-41
3	0xa6b4373f	-1.2504984e-15
4	0x80000feb	-5.71e-42
5	0x800169b7	-1.29759e-40
6	0xa90cbac2	-3.124823e-14
7	0x80006199	-3.5011e-41
8	0x0000d61c	7.6808e-41
9	0x0000583d	3.1654e-41
10	0x8000c288	-6.9785e-41
11	0x8002aae6	-2.44978e-40
12	0xa5894023	-2.3809172e-16
13	0x0000bd39	6.788e-41
14	0x8001ebff	-1.76495e-40
15	0xb98f2dca	-0.000273092
16	0xb98d1194	-0.00026906712
17	0xa478f2b6	-5.3982012e-17
18	0x00003a6a	2.0955e-41
19	0x985db17a	-2.8653183e-24
20	0xaee1ea25	-1.0273408e-10
21	0x2c46af94	2.8234958e-12
22	0xa7a6c857	-4.6291464e-15
23	0x8001112a	-9.7993e-41
24	0xabe5e746	-1.633562e-12
25	0x000037d9	2.0034e-41
26	0x0001c197	1.61282e-40
27	0xabb9f9c2	-1.3214362e-12
28	0x800069a7	-3.7901e-41
29	0x000157a0	1.2327e-40
30	0x80005a15	-3.2315e-41
31	0xb4424473	-1.809256e-07

weight f4 [32, 32, 3, 3]
0	0x00007113	4.0563e-41
1	0x0000cb20	7.2868e-41
2	0x80006cb9	-3.9002e-41
3	0x00009023	5.1707e-41
4	0x0000df0f	8.0018e-41
5	0x0000f3a5	8.7403e-41
6	0x00008ebb	5.1202e-41
7	0x8000555f	-3.0625e-41
8	0x00004e9f	2.8204e-41
9	0x80002d75	-1.6307e-41
10	0x00019481	1.45109e-40
11	0x0000f596	8.81e-41
12	0x80002847	-1.4449e-41
13	0x80006942	-3.776e-41
14	0x800059e1	-3.2242e-41
15	0x80016ee7	-1.3162e-40
16	0x80013af6	-1.12987e-40
17	0x80005329	-2.9832e-41
18	0x0000407c	2.3133e-41
19	0x00000a91	3.79e-42
20	0x800152b5	-1.21505e-40
21	0x8000b555	-6.505e-41
22	0x0000e913	8.3611e-41
23	0x800120a2	-1.03542e-40
24	0x8000b75a	-6.5774e-41
25	0x000009d4	3.526e-42
26	0x8000aac9	-6.1266e-41
27	0x0000c253	6.971e-41
28	0x0000479f	2.5693e-41
29	0x8000a3bd	-5.8738e-41
30	0x800117a5	-1.00318e-40
31	0x8000cc55	-7.33e-41
32	0x00012635	1.05542e-40
33	0x8001143e	-9.9097e-41
34	0x80013789	-1.11758e-40
35	0x8000b307	-6.4223e-41
36	0x000373d0	3.17052e-40
37	0x800539c1	-4.79896e-40
38	0x00094594	8.5148e-40
39	0x00008589	4.7903e-41
40	0x800091ac	-5.2257e-41
41	0x0004775c	4.1016e-40
42	0x0003b0db	3.3895e-40
43	0x00076f8a	6.82861e-40
44	0x800c0136	-1.10246e-39
45	0x8001273c	-1.0591e-40
46	0x8000a472	-5.8992e-41
47	0x8000ec0a	-8.4675e-41
48	0x00024570	2.0858e-40
49	0x80020548	-1.85566e-40
50	0x80040801	-3.70213e-40
51	0x800616c0	-5.59174e-40
52	0x0003c12d	3.44805e-40
53	0x800051a2	-2.9284e-41
54	0x00003e45	2.2338e-41
55	0x0000a761	6.0044e-41
56	0x0000fe41	9.1209e-41
57	0x00009647	5.391e-41
58	0x00016ff0	1.31991e-40
59	0x00010f18	9.725e-41
60	0x80004c91	-2.7467e-41
61	0x800140e7	-1.15118e-40
62	0x0000ff9f	9.17e-41
63	0x0000e3f0	8.1769e-41
64	0x80014204	-1.15517e-40
65	0x8000f966	-8.9467e-41
66	0x80000e70	-5.179e-42
67	0x00014e57	1.19939e-40
68	0x8001b5e8	-1.57091e-40
69	0x80018e16	-1.42806e-40
70	0x000046f3	2.5452e-41
71	0x00013eca	1.1436e-40
72	0x0002885b	2.32586e-40
73	0x8003cf0a	-3.49778e-40
74	0x80084641	-7.59886e-40
75	0x80029454	-2.36881e-40
76	0x8002e9ca	-2.67539e-40
77	0x8001a307	-1.50319e-40
78	0x800134bf	-1.10757e-40
79	0x8000033f	-1.164e-42
80	0x8001d6f6	-1.68949e-40
81	0x0002764e	2.26111e-40
82	0x00020332	1.84817e-40
83	0x00001744	8.346e-42
84	0x80015494	-1.22176e-40
85	0x8002264d	-1.97411e-40
86	0x80026aee	-2.2203e-40
87	0x8002d823	-2.61206e-40
88	0x8004626a	-4.02646e-40
89	0x00028a28	2.33232e-40
90	0x00009a0e	5.5264e-41
91	0x0001591f	1.23806e-40
92	0x80014272	-1.15672e-40
93	0x000077a5	4.292e-41
94	0x00007b5f	4.4257e-41
95	0x00013080	1.09234e-40
96	0x8001d2c8	-1.6745e-40
97	0x80007ce5	-4.4804e-41
98	0x80008d3a	-5.0663e-41
99	0x800729d5	-6.57855e-40
100	0x80042e36	-3.8392e-40
101	0x0001e82d	1.75124e-40
102	0x800400c2	-3.67614e-40
103	0x800b35a4	-1.029433e-39
104	0x8003a044	-3.32999e-40
105	0x0007e1a1	7.23789e-40
106	0x80052de4	-4.7564e-40
107	0x800222dd	-1.96178e-40
108	0x13f45ffa	6.16889e-27
109	0x1437a583	9.27178e-27
110	0x140f1b38	7.225023e-27
111	0x14ef32ec	2.4152918e-26
112	0x14f14d95	2.4365382e-26
113	0x15840a16	5.333029e-26
114	0x1570f596	4.8661347e-26
115	0x159bb088	6.288252e-26
116	0x16e0b189	3.6301192e-25
117	0x00016664	1.28566e-40
118	0x00081f59	7.4593e-40
119	0x00061af4	5.60682e-40
120	0x000294f6	2.37108e-40
121	0x8003d2e5	-3.51161e-40
122	0x80028a88	-2.33367e-40
123	0x8008b297	-7.9875e-40
124	0x00081a15	7.4404e-40
125	0x00077d48	6.87791e-40
126	0x8003c842	-3.47345e-40
127	0x0000f0f7	8.6442e-41
128	0x80079c5b	-6.98938e-40
129	0x000cbcc2	1.16974e-39
130	0x0001c56b	1.62656e-40
131	0x8000b2cf	-6.4144e-41
132	0x80097511	-8.68515e-40
133	0x80090db5	-8.31437e-40
134	0x0004be16	4.35532e-40
135	0x80015e56	-1.25677e-40
136	0x80015866	-1.23547e-40
137	0x00005e42	3.3813e-41
138	0x0000b73b	6.5731e-41
139	0x8000c3e6	-7.0275e-41
140	0x0000f338	8.725e-41
141	0x0001609f	1.26497e-40
142	0x8001e749	-1.74805e-40
143	0x80017fe4	-1.37714e-40
144	0x000bca3e	1.082741e-39
145	0x8007f19f	-7.29526e-40
146	0x80037942	-3.19006e-40
147	0x000ab74f	9.84114e-40
148	0x00032dbf	2.91917e-40
149	0x0008f93f	8.24097e-40
150	0x8002313a	-2.0133e-40
151	0x000866ba	7.71535e-40
152	0x0001107f	9.7753e-41
153	0x8001256b	-1.05259e-40
154	0x00021930	1.92707e-40
155	0x000009e0	3.542e-42
156	0x0000207c	1.1653e-41
157	0x80000aaa	-3.826e-42
158	0x8001ec78	-1.76664e-40
159	0x8002aa82	-2.44838e-40
160	0x00010bb0	9.6028e-41
161	0x000170c4	1.32288e-40
162	0x0001aa5e	1.52952e-40
163	0x0001e09c	1.7241e-40
164	0x00003e9e	2.2463e-41
165	0x00012fb8	1.08954e-40
166	0x00018dc4	1.42691e-40
167	0x800108ac	-9.4946e-41
168	0x0001b125	1.55383e-40
169	0x80019cfa	-1.48148e-40
170	0x80013ec0	-1.14346e-40
171	0x80004d36	-2.7698e-41
172	0x80013d9d	-1.13938e-40
173	0x80012bb3	-1.07512e-40
174	0x00004153	2.3434e-41
175	0x0000e351	8.1546e-41
176	0x0000250b	1.3289e-41
177	0x0000df68	8.0143e-41
178	0x80015d4f	-1.25308e-40
179	0x80003e0c	-2.2258e-41
180	0x0000fd78	9.0927e-41
181	0x0000660e	3.661e-41
182	0x00013b04	1.13006e-40
183	0x0000635a	3.564e-41
184	0x00005598	3.0705e-41
185	0x00004786	2.5658e-41
186	0x00004727	2.5525e-41
187	0x800043c3	-2.4308e-41
188	0x800073cf	-4.1544e-41
189	0x000045c1	2.5023e-41
190	0x0000aae0	6.1298e-41
191	0x8000fa2c	-8.9745e-41
192	0x0000396a	2.0596e-41
193	0x0000f7fd	8.8961e-41
194	0x00003d2f	2.1949e-41
195	0x0000ce59	7.4024e-41
196	0x80004346	-2.4133e-41
197	0x800005d5	-2.092e-42
198	0x000dad73	1.256083e-39
199	0x80059534	-5.12701e-40
200	0x800501e7	-4.5986e-40
201	0x800b5595	-1.040892e-39
202	0x8007589e	-6.74638e-40
203	0x800522cb	-4.71659e-40
204	0x8004c861	-4.39224e-40
205	0x80081d58	-7.4521e-40
206	0x000857d1	7.66187e-40
207	0x0002a3f6	2.42489e-40
208	0x80073186	-6.60614e-40
209	0x0002adb9	2.45991e-40
210	0x80040848	-3.70313e-40
211	0x80046115	-4.02168e-40
212	0x0005dea6	5.39049e-40
213	0x000ca183	1.159965e-39
214	0x000756dc	6.74008e-40
215	0x0009945f	8.79745e-40
216	0x00012d12	1.08004e-40
217	0x80009537	-5.3528e-41
218	0x00017ad9	1.35905e-40
219	0x000105a7	9.3863e-41
220	0x000111b2	9.8183e-41
221	0x0000bfb1	6.8766e-41
222	0x00015848	1.23505e-40
223	0x80011641	-9.9819e-41
224	0x80017dd8	-1.3698e-40
225	0x800163a2	-1.27577e-40
226	0x0000cbd4	7.312e-41
227	0x8000deca	-7.9922e-41
228	0x00005893	3.1774e-41
229	0x800121d4	-1.03971e-40
230	0x000078bf	4.3316e-41
231	0x000114c3	9.9283e-41
232	0x8000f437	-8.7608e-41
233	0x80002446	-1.3012e-41
234	0x8004ddf1	-4.4696e-40
235	0x000addc5	9.97911e-40
236	0x000b74af	1.052049e-39
237	0x8004a53a	-4.26614e-40
238	0x0003fbb1	3.65796e-40
239	0x0001fe4e	1.83063e-40
240	0x8003b9b4	-3.42124e-40
241	0x8008b4c4	-7.9953e-40
242	0x80007ff0	-4.5895e-41
243	0x00013210	1.09795e-40
244	0x80014875	-1.17828e-40
245	0x800053ea	-3.0103e-41
246	0x0000a574	5.9353e-41
247	0x00008a40	4.9595e-41
248	0x00009e94	5.6887e-41
249	0x000152a7	1.21486e-40
250	0x0000eaa8	8.4179e-41
251	0x8000cdae	-7.3784e-41
252	0x8003683c	-3.12899e-40
253	0x0006c516	6.21714e-40
254	0x8008def2	-8.14662e-40
255	0x00060480	5.52627e-40

bias f4 [32]
0	0xbbc29520	-0.0059381872
1	0x809865b5	-1.3995481e-38
2	0xbd01943b	-0.031635504
3	0xa35b9423	-1.1903383e-17
4	0xac61d620	-3.2093286e-12
5	0xbcf1b62b	-0.02950581
6	0xbd8dd8f3	-0.069261454
7	0xba3707eb	-0.0006982076
8	0x0057e0ee	8.070378e-39
9	0xbc50b85a	-0.012739265
10	0x012fd494	3.229494e-38
11	0x300e0d30	5.167804e-10
12	0xb867bd10	-5.525077e-05
13	0xb8895062	-6.5476415e-05
14	0xb3b01442	-8.1993235e-08
15	0xab1838ea	-5.408023e-13
16	0xbdba22af	-0.090886466
17	0xbccd5de5	-0.025069186
18	0x8d8a1a9f	-8.511315e-31
19	0x80082223	-7.4693e-40
20	0xa772e36b	-3.370753e-15
21	0xb2255545	-9.623652e-09
22	0x8c9c91fe	-2.4123472e-31
23	0xbd024c55	-0.031811077
24	0xb5ee3967	-1.7749088e-06
25	0xbbf509e5	-0.007477986
26	0xab14d537	-5.287606e-13
27	0xb98f3395	-0.00027313517
28	0xac2d4013	-2.4620347e-12
29	0xbb703585	-0.0036652994
30	0xa18b52dc	-9.440939e-19
31	0x8ecad2d6	-4.9999872e-30

weight f4 [32, 16, 2, 2]
0	0x9b825b5a	-2.156573e-22
1	0x9b982cc2	-2.5175215e-22
2	0x9bee7b56	-3.94535e-22
3	0x9c2b8e8d	-5.6763396e-22
4	0x1dfaaeda	6.635524e-21
5	0x1db313ec	4.7401504e-21
6	0x9c8239e0	-8.617639e-22
7	0x9d81137f	-3.4166174e-21
8	0x1edf5e24	2.3649979e-20
9	0x1ecf5fab	2.1956545e-20
10	0x1f28848b	3.568502e-20
11	0x1f23c465	3.4679046e-20
12	0x312bb820	2.4988438e-09
13	0x3120c11b	2.3392832e-09
14	0x30e32d39	1.6529277e-09
15	0x30dc90ab	1.6048224e-09
16	0x800029fc	-1.5061e-41
17	0x8000171f	-8.294e-42
18	0x000003e6	1.398e-42
19	0x00005309	2.9787e-41
20	0xba69e824	-0.0008922836
21	0xba6adc1d	-0.0008959191
22	0xba634577	-0.0008669714
23	0xba66ffdb	-0.0008811929
24	0xa62a8c08	-5.9170376e-16
25	0xa62711e0	-5.796399e-16
26	0xa654a9d0	-7.3782414e-16
27	0xa655af53	-7.413683e-16
28	0x11dd3692	3.4901284e-28
29	0x1245a0c3	6.2360393e-28
30	0x12310593	5.5858223e-28
31	0x1296421d	9.482629e-28
32	0x9997a2d9	-1.5678808e-23
33	0x99b9b8f6	-1.9203257e-23
34	0x9a4a705b	-4.186338e-23
35	0x9a6f54ec	-4.949264e-23
36	0x1bf9b37f	4.130959e-22
37	0x1ba7c603	2.7755795e-22
38	0x1c07676f	4.480144e-22
39	0x1bc8a08c	3.3190975e-22
40	0x3890ed77	6.910686e-05
41	0x3885d085	6.380774e-05
42	0x3878b468	5.9295824e-05
43	0x3868157a	5.5333112e-05
44	0x091ef919	1.9135683e-33
45	0x091e1b79	1.9031476e-33
46	0x09149de8	1.78891e-33
47	0x09153e8c	1.7964632e-33
48	0x386a0bc1	5.5800894e-05
49	0x38691bcd	5.557742e-05
50	0x3866b490	5.5004435e-05
51	0x38696fbc	5.565559e-05
52	0x8e6ac580	-2.893782e-30
53	0x8e5610c4	-2.6385609e-30
54	0x8e61beeb	-2.7825315e-30
55	0x8e675ba4	-2.8517072e-30
56	0xb99a8931	-0.00029475385
57	0xb99d179b	-0.0002996296
58	0xb99a9bb4	-0.00029489177
59	0xb99ea1c1	-0.00030256624
60	0xa3bf2a4c	-2.0726175e-17
61	0xa3c9d32a	-2.1881895e-17
62	0xa405a6a5	-2.898093e-17
63	0xa4132a8a	-3.1911576e-17
64	0x800088fd	-4.9142e-41
65	0x80001bfd	-1.004e-41
66	0x0000926c	5.2526e-41
67	0x00006f95	4.0028e-41
68	0x8001bf1c	-1.60393e-40
69	0x00022541	1.97035e-40
70	0x00017192	1.32577e-40
71	0x00009f4e	5.7148e-41
72	0x8001667f	-1.28604e-40
73	0x8003963d	-3.29402e-40
74	0x0002858c	2.31579e-40
75	0x80009a40	-5.5334e-41
76	0x80002e58	-1.6625e-41
77	0x8001d151	-1.66924e-40
78	0x0001f493	1.79572e-40
79	0x8001711b	-1.3241e-40
80	0x0000103f	5.828e-42
81	0x00019197	1.44063e-40
82	0x0001477a	1.17476e-40
83	0x00006485	3.606e-41
84	0x000144c4	1.16504e-40
85	0x00015aa3	1.2435e-40
86	0x00004840	2.5918e-41
87	0x80002594	-1.348e-41
88	0x8000d425	-7.6103e-41
89	0x00016b42	1.30312e-40
90	0x80003a93	-2.1012e-41
91	0x80010cb0	-9.6387e-41
92	0x8000b6a5	-6.552e-41
93	0x80015365	-1.21752e-40
94	0x00001f1d	1.1161e-41
95	0x000123f6	1.04736e-40
96	0x0000695a	3.7793e-41
97	0x0001b461	1.56543e-40
98	0x00015471	1.22127e-40
99	0x00008fbe	5.1565e-41
100	0x0001ff65	1.83454e-40
101	0x8002251f	-1.96988e-40
102	0x8001e816	-1.75092e-40
103	0x0001fca9	1.82473e-40
104	0x00017b02	1.35962e-40
105	0x8000d0d4	-7.4913e-41
106	0x000020ea	1.1807e-41
107	0x00010f34	9.729e-41
108	0x80002f69	-1.7008e-41
109	0x0000174b	8.356e-42
110	0x00012298	1.04245e-40
111	0x0001553a	1.22409e-40
112	0x0001671d	1.28826e-40
113	0x80003da3	-2.2111e-41
114	0x00003914	2.0476e-41
115	0x0000a2f1	5.8452e-41
116	0x0001ce10	1.65757e-40
117	0x80015bad	-1.24723e-40
118	0x00019a08	1.47091e-40
119	0x8001680e	-1.29163e-40
120	0x8000a414	-5.886e-41
121	0x80001198	-6.311e-42
122	0x0000c7d1	7.168e-41
123	0x8001aea4	-1.54485e-40
124	0x00012fdb	1.09003e-40
125	0x8001ede4	-1.77175e-40
126	0x800094f3	-5.3433e-41
127	0x0001a110	1.49614e-40
128	0x891b4951	-1.869192e-33
129	0x887af969	-7.552482e-34
130	0x881270f8	-4.406807e-34
131	0x07da436c	3.2840621e-34
132	0x08b84241	1.1089673e-33
133	0x88d01e13	-1.2525615e-33
134	0x87dbf01f	-3.3092588e-34
135	0x88bbd6c1	-1.13051415e-33
136	0x094da40f	2.4753117e-33
137	0x89b15dc4	-4.2699377e-33
138	0x09632dd6	2.7345683e-33
139	0x8980f76f	-3.1047565e-33
140	0x0905013f	1.6009879e-33
141	0x09f51a9d	5.900663e-33
142	0x086bcb24	7.095653e-34
143	0x09d6fe17	5.175757e-33
144	0x880ec901	-4.296785e-34
145	0x087aa3c0	7.5424126e-34
146	0x08a20008	9.750028e-34
147	0x878b99a5	-2.10047e-34
148	0x3a9886ae	0.0011636817
149	0x3a9fb5d6	0.0012184929
150	0x3a9d78dd	0.001201417
151	0x3aa21c57	0.0012368065
152	0x09b43ab1	4.3388617e-33
153	0x08ce34f6	1.2410625e-33
154	0x09ad6bd6	4.1749643e-33
155	0x092dd620	2.0924799e-33
156	0x885ca832	-6.6401554e-34
157	0x09bde13a	4.5711897e-33
158	0x891903de	-1.8418523e-33
159	0x0938617c	2.2194031e-33
160	0x09960484	3.6115433e-33
161	0x867cbf2c	-4.7536383e-35
162	0x099d86ff	3.7923325e-33
163	0x08b41832	1.0839044e-33
164	0x0a04c61e	6.3928305e-33
165	0x0880fac4	7.7626745e-34
166	0x0a0629ba	6.459713e-33
167	0x09c02159	4.625368e-33
168	0x0a5ce5a2	1.0635804e-32
169	0x0b056d58	2.569713e-32
170	0x0a2f8fce	8.45299e-33
171	0x89f493b2	-5.8879755e-33
172	0x0a0020a8	6.169118e-33
173	0x0a27a297	8.071337e-33
174	0x0a0e74a4	6.858989e-33
175	0x0a28d3ee	8.128765e-33
176	0x0a56ff66	1.035176e-32
177	0x0a46267d	9.540592e-33
178	0x09d824f6	5.2034866e-33
179	0x8a86294f	-1.2919269e-32
180	0x8911d172	-1.755222e-33
181	0x0915f5e8	1.8050847e-33
182	0x09451e67	2.3727308e-33
183	0x09058323	1.6070953e-33
184	0x34557877	1.9880996e-07
185	0x34a505f0	3.0737965e-07
186	0x346cd3ce	2.2056267e-07
187	0x34a60901	3.092646e-07
188	0x07eaa67e	3.5306262e-34
189	0x0a38c938	8.897123e-33
190	0x08a5daf3	9.982051e-34
191	0x0a2431fb	7.905713e-33
192	0x2134585e	6.1103325e-19
193	0x21414524	6.548245e-19
194	0x21501a59	7.050801e-19
195	0x21502cc6	7.05324e-19
196	0xa04c65b7	-1.7313127e-19
197	0xa0136d0a	-1.2487462e-19
198	0xa0679575	-1.9615912e-19
199	0xa034bf34	-1.5309857e-19
200	0xa0b23999	-3.0192488e-19
201	0xa0b164cf	-3.0051676e-19
202	0xa0ad30e5	-2.9339696e-19
203	0xa0abe93f	-2.9122876e-19
204	0x20ac9def	2.9242445e-19
205	0x20cc0edc	3.4568777e-19
206	0x20c62ca5	3.3572048e-19
207	0x20d6fcd6	3.6420323e-19
208	0x21713abd	8.1731716e-19
209	0x217a3c55	8.4783144e-19
210	0x2188a9d0	9.260667e-19
211	0x218761f5	9.173885e-19
212	0xa2014eeb	-1.7524539e-18
213	0xa1a01cb8	-1.0849624e-18
214	0xa1f13c84	-1.6346814e-18
215	0xa19d3891	-1.0653707e-18
216	0x2229c13e	2.3006072e-18
217	0x22287a3a	2.2832952e-18
218	0x224795f6	2.7048918e-18
219	0x22415d75	2.6205853e-18
220	0x1f756726	5.196609e-20
221	0x203db0f8	1.6067477e-19
222	0x1f95bc92	6.341592e-20
223	0x20336b73	1.5197442e-19
224	0x9f22fdd1	-3.4514786e-20
225	0x9f25cbef	-3.51088e-20
226	0x9f2a6dd4	-3.6089748e-20
227	0x9f2eccc4	-3.701531e-20
228	0x1fe9fe72	9.910028e-20
229	0x1fa278bc	6.880941e-20
230	0x204162ae	1.6380386e-19
231	0x20047858	1.1220653e-19
232	0x9fc76ac1	-8.445639e-20
233	0xa02f5881	-1.485236e-19
234	0x9ec2b284	-2.0614381e-20
235	0x9f3e6315	-4.0316024e-20
236	0x9fcbb821	-8.627846e-20
237	0xa00d2512	-1.195543e-19
238	0x9fe88174	-9.8469984e-20
239	0xa00de379	-1.2018429e-19
240	0x9f861b5a	-5.679646e-20
241	0x9ec8ff9b	-2.128154e-20
242	0xa041cd64	-1.6415694e-19
243	0xa000a7c6	-1.0897533e-19
244	0x2104f06c	4.5041535e-19
245	0x21120044	4.9467076e-19
246	0x210cbeae	4.768621e-19
247	0x211397a0	5.000621e-19
248	0xa1d94238	-1.472202e-18
249	0xa1b6bff9	-1.2383614e-18
250	0xa1e525bd	-1.5527633e-18
251	0xa1bb98bd	-1.2712042e-18
252	0x2081a3fe	2.196197e-19
253	0x20948f37	2.5166947e-19
254	0x2099ef27	2.6077466e-19
255	0x20a2e683	2.7596407e-19

bias f4 [16]
0	0xbc00c189	-0.007858642
1	0xba8d850c	-0.0010797097
2	0xbbd73c6d	-0.0065684826
3	0xbbac0fb5	-0.005250896
4	0xbc0cf863	-0.008604142
5	0x3daed5fd	0.08536909
6	0x3c4e026b	0.012573819
7	0xbb82e747	-0.0039948556
8	0xbb5cb8e7	-0.0033679546
9	0x3c325725	0.010885035
10	0x3b087bcc	0.0020825742
11	0x3b983a87	0.004645649
12	0x3b8c0f58	0.00427429
13	0xba1febc2	-0.00061004993
14	0xbb0edddb	-0.0021799717
15	0x3bcc1026	0.006227511

weight f4 [16, 32, 3, 3]
0	0x266036ce	7.7789886e-16
1	0x2666d627	8.008751e-16
2	0x265be4b7	7.6290855e-16
3	0x26a954ad	1.1749682e-15
4	0x2689fce3	9.57483e-16
5	0x26abaa52	1.1911674e-15
6	0x265c2357	7.637573e-16
7	0x2664a840	7.933141e-16
8	0x265c2fdb	7.639269e-16
9	0xa73b0d47	-2.595866e-15
10	0xa7250e6b	-2.2906166e-15
11	0xa74410b7	-2.7209525e-15
12	0xa7a177e6	-4.481647e-15
13	0xa6749607	-8.485783e-16
14	0xa7a071e0	-4.4532385e-15
15	0xa73a8828	-2.5886496e-15
16	0xa724b568	-2.2857913e-15
17	0xa73cbe1c	-2.61933e-15
18	0xa829f2c1	-9.434023e-15
19	0xa8276e30	-9.294255e-15
20	0xa8296cb4	-9.404956e-15
21	0xa3b55ad5	-1.9662528e-17
22	0xa8205361	-8.899864e-15
23	0xa453d656	-4.593488e-17
24	0xa82946d4	-9.396743e-15
25	0xa822b21b	-9.031427e-15
26	0xa82934c1	-9.392824e-15
27	0x26fb5066	1.7438416e-15
28	0x27044969	1.8358476e-15
29	0x26fbb0c0	1.7464532e-15
30	0x26b66176	1.2655204e-15
31	0x26df1d6f	1.5481711e-15
32	0x26b72913	1.2709309e-15
33	0x26fb0e03	1.7420422e-15
34	0x27042682	1.8339555e-15
35	0x26fb0826	1.7418832e-15
36	0xa706c7ce	-1.870455e-15
37	0x27363fc7	2.5292148e-15
38	0xa70653e5	-1.8641715e-15
39	0x27257987	2.296423e-15
40	0xa6d0ec17	-1.4496892e-15
41	0x272223aa	2.250135e-15
42	0xa7059b82	-1.8541759e-15
43	0x27394091	2.570891e-15
44	0xa7125dc7	-2.0312407e-15
45	0xa8410eb6	-1.0716842e-14
46	0xa83ff01e	-1.0654697e-14
47	0xa840ee51	-1.0709818e-14
48	0xa840212a	-1.0665332e-14
49	0xa83f9b26	-1.0636272e-14
50	0xa8401e00	-1.0664646e-14
51	0xa840ecb8	-1.0709471e-14
52	0xa83ffab9	-1.0656997e-14
53	0xa840eed4	-1.0709929e-14
54	0x27a25bd4	4.5063593e-15
55	0x27a3feca	4.551783e-15
56	0x27a26b37	4.5080275e-15
57	0x279552af	4.1445453e-15
58	0x27a42d58	4.5568306e-15
59	0x27953711	4.141551e-15
60	0x27a23121	4.50173e-15
61	0x27a42b75	4.556626e-15
62	0x27a26a49	4.5079267e-15
63	0x258c4708	2.433426e-16
64	0x25bfee7e	3.3294827e-16
65	0x258c789d	2.436786e-16
66	0x25873eee	2.346141e-16
67	0x25c20618	3.3657765e-16
68	0x2586bf2e	2.3374843e-16
69	0x258c1609	2.430106e-16
70	0x25c00e61	3.3316434e-16
71	0x258c5432	2.4343182e-16
72	0x26815b92	8.975993e-16
73	0xa3f9f008	-2.7098291e-17
74	0x2679a2e0	8.6609966e-16
75	0x23a566f8	1.7932945e-17
76	0xa36de94f	-1.2897201e-17
77	0xa64d4c3d	-7.1226985e-16
78	0x251e1c24	1.371385e-16
79	0xa48cc822	-6.105436e-17
80	0x257f5737	2.2147274e-16
81	0x27869cc7	3.736245e-15
82	0xa6ab4d94	-1.1886536e-15
83	0x27869e19	3.736388e-15
84	0x2783bded	3.656572e-15
85	0x276215c9	3.137561e-15
86	0x27838361	3.6502245e-15
87	0x278a2406	3.834175e-15
88	0xa743cbcc	-2.7172165e-15
89	0x27869ab9	3.736022e-15
90	0xa5fcadc9	-4.3832793e-16
91	0xa5fff96d	-4.4404466e-16
92	0xa5fcae8e	-4.3833314e-16
93	0xa602f937	-4.544056e-16
94	0xa6012a6e	-4.481337e-16
95	0xa60316c7	-4.5480624e-16
96	0xa5fcae8e	-4.3833314e-16
97	0xa5ffb31a	-4.4356813e-16
98	0xa5fcae8e	-4.3833314e-16
99	0x2731a68b	2.4653968e-15
100	0x273829df	2.5557828e-15
101	0x27322b6f	2.4726008e-15
102	0x2737ed18	2.552488e-15
103	0x270c5260	1.9473559e-15
104	0x2737e50e	2.5520522e-15
105	0x273242f9	2.4738768e-15
106	0x2738298e	2.5557656e-15
107	0x27321a2a	2.4716646e-15
108	0x26172436	5.2437724e-16
109	0x26159af4	5.190476e-16
110	0x261726bc	5.2441144e-16
111	0x26161585	5.207087e-16
112	0x26155666	5.181185e-16
113	0x2616157f	5.2070837e-16
114	0x26172568	5.2439344e-16
115	0x26159ae9	5.19047e-16
116	0x261722f6	5.243603e-16
117	0x27c0a66c	5.347114e-15
118	0x27fb576a	6.976127e-15
119	0x27c7760b	5.536158e-15
120	0xa7e1364b	-6.250891e-15
121	0x27af43db	4.8645826e-15
122	0xa7dd18b8	-6.1366622e-15
123	0x27d73409	5.9730904e-15
124	0x2801f6a9	7.214424e-15
125	0x27c11e0b	5.3600834e-15
126	0x268c4a8f	9.734661e-16
127	0x269949ff	1.0636564e-15
128	0x268b4acc	9.665336e-16
129	0x26c96420	1.3974316e-15
130	0x26ac3dec	1.1951681e-15
131	0x26c96420	1.3974316e-15
132	0x268ca5c3	9.759381e-16
133	0x26986bf6	1.0576382e-15
134	0x268ca31d	9.758663e-16
135	0xa65e34b5	-7.7093154e-16
136	0xa63844c3	-6.3931013e-16
137	0xa65eaea9	-7.725843e-16
138	0xa65c9e3e	-7.654229e-16
139	0xa659e13a	-7.559224e-16
140	0xa65fbf69	-7.7628076e-16
141	0xa65bf0dc	-7.6307314e-16
142	0xa6367028	-6.3295935e-16
143	0xa65cd071	-7.6610324e-16
144	0x0009247e	8.3961e-40
145	0x00064ef1	5.79332e-40
146	0x8005c0fe	-5.2841e-40
147	0x000e14b2	1.293121e-39
148	0x000331c4	2.93359e-40
149	0x0006e3d4	6.32742e-40
150	0x000717e0	6.51413e-40
151	0x0001f4a1	1.79592e-40
152	0x0006488d	5.77039e-40
153	0xa91f6f98	-3.5401884e-14
154	0xa90f8118	-3.186435e-14
155	0xa91614f0	-3.332485e-14
156	0xa9483f47	-4.4463805e-14
157	0xa9111a9b	-3.2219544e-14
158	0xa9005595	-2.849594e-14
159	0xa8bcd909	-2.0966317e-14
160	0xa8e47763	-2.536486e-14
161	0xa8e568f5	-2.5469625e-14
162	0x00023bd9	2.0514e-40
163	0x80007fab	-4.5799e-41
164	0x80055737	-4.90464e-40
165	0x00008725	4.8481e-41
166	0x8003c48e	-3.46017e-40
167	0x80039516	-3.28988e-40
168	0x80003a95	-2.1015e-41
169	0x8001e1b0	-1.72797e-40
170	0x0000c293	6.98e-41
171	0x8000f8b7	-8.9222e-41
172	0x80064d0c	-5.78652e-40
173	0x8005038c	-4.6045e-40
174	0x000942c5	8.50472e-40
175	0x00029f9a	2.40925e-40
176	0x80005465	-3.0275e-41
177	0x80008d3b	-5.0664e-41
178	0x0006db8e	6.29774e-40
179	0x800444f6	-3.9208e-40
180	0x80032a40	-2.90663e-40
181	0x8005335c	-4.77602e-40
182	0x800336f9	-2.95227e-40
183	0x800300e9	-2.75833e-40
184	0x8008de8b	-8.14517e-40
185	0x80083ec9	-7.57207e-40
186	0x000682d0	5.9794e-40
187	0x800616a3	-5.59134e-40
188	0x0006f764	6.3976e-40
189	0x00018961	1.41118e-40
190	0x000bc086	1.079255e-39
191	0x80035eb7	-3.09484e-40
192	0x8000c310	-6.9975e-41
193	0x80048177	-4.13785e-40
194	0x800323ee	-2.88396e-40
195	0x000699b5	6.06153e-40
196	0x0000c715	7.1417e-41
197	0x0002c535	2.54416e-40
198	0x00072e34	6.59423e-40
199	0x000172b7	1.32987e-40
200	0x000124da	1.05055e-40
201	0x000053c9	3.0056e-41
202	0x0001c6c7	1.63143e-40
203	0x80086595	-7.71125e-40
204	0x80008238	-4.6714e-41
205	0x0002740f	2.25305e-40
206	0x0000b1a7	6.373e-41
207	0x000a84eb	9.66037e-40
208	0x800135a2	-1.11075e-40
209	0x00052b61	4.74739e-40
210	0x80042348	-3.79999e-40
211	0x80074b22	-6.69801e-40
212	0x00000a7f	3.765e-42
213	0x000191c9	1.44133e-40
214	0x0009cb38	8.9942e-40
215	0x0007e133	7.23635e-40
216	0x28c42b10	2.1779047e-14
217	0x28c8c4a6	2.2289743e-14
218	0x28c8e951	2.2305645e-14
219	0x291f5483	3.5378394e-14
220	0x28b76b9c	2.036375e-14
221	0x28c380ae	2.1705155e-14
222	0x28dfa0f8	2.4827783e-14
223	0x28ea79f1	2.6032102e-14
224	0x287c7649	1.4014459e-14
225	0x2953e89f	4.7053178e-14
226	0x29683e2c	5.1568274e-14
227	0x2959f565	4.8396525e-14
228	0xa973479e	-5.4018957e-14
229	0x298273b7	5.793233e-14
230	0x2986d1e4	5.9872056e-14
231	0x29a72881	7.423316e-14
232	0xa89f62d0	-1.76954e-14
233	0x2994d932	6.610198e-14
234	0xb8c076d5	-9.1774076e-05
235	0xb8c6b2c9	-9.474677e-05
236	0xb8c63c04	-9.4525545e-05
237	0xb88641ed	-6.4018976e-05
238	0xb8c29e6f	-9.2801514e-05
239	0xb8c6ae54	-9.473847e-05
240	0xb7a39816	-1.9501935e-05
241	0xb890cb74	-6.904351e-05
242	0xb8c3ef48	-9.342894e-05
243	0xa7d72e62	-5.9724776e-15
244	0xa808b442	-7.588604e-15
245	0xa803e173	-7.320847e-15
246	0xa80b55e6	-7.734676e-15
247	0xa8157067	-8.295535e-15
248	0xa80e87a8	-7.911999e-15
249	0x28bb4def	2.0794969e-14
250	0xa81c6bdc	-8.683128e-15
251	0xa817d9ff	-8.429454e-15
252	0x000cb760	1.167809e-39
253	0x000759d9	6.7508e-40
254	0x0001144a	9.9114e-41
255	0x00037860	3.18689e-40

bias f4 [16]
0	0xb5af27c1	-1.3050086e-06
1	0xb7605d17	-1.3373115e-05
2	0x3f100d49	0.5627027
3	0xbd002e6d	-0.031294275
4	0xbeafa7d4	-0.3430773
5	0xbb926e0d	-0.0044686855
6	0xbdf37154	-0.1188685
7	0x3ec1bcd4	0.37839377
8	0xaf557d66	-1.9416788e-10
9	0xbebc96d6	-0.3683383
10	0xbcedc57b	-0.02902483
11	0x3e8f53cd	0.27993622
12	0xbb4c1375	-0.0031139527
13	0xb89ef7df	-7.580197e-05
14	0xa4c60897	-8.5883364e-17
15	0x3eaa3a65	0.33247676
