data/ForestSegmentationOutput/experiemnts/FIXED_BLOCK_run_03_28-12-2023_17h35min/unet_id=EbiYy_width=32_num_layers=2_lr=0.00085_epochs=140.pth (torch, 115765 bytes, 16 tensors)

weight f4 [16, 8, 3, 3]
00000000: ba04 223e 3a19 1b3d f016 663d d977 133d
00000010: 4a46 013e 2e7f 3e3e 3002 583d 9800 e23c
00000020: 5ad8 093e babb 503d a710 513b 170f 843d
00000030: 634b 6f3c 8d06 833b c7f9 673d 3eb6 f93d
00000040: 985f 9d3d 5baf 203c a231 67bb dda6 97bc
00000050: ac38 d6bd 8ef5 40ba 399f 41bd 9b6a 97bc
00000060: 5576 87bd 5440 033d da41 593c 42cc 68bd
00000070: 4a13 ffbd 0b91 10be 1862 0fbe 68f6 8c3c
00000080: d721 16be 0e0f a4bd e688 2dbd cbd4 38bc
00000090: 603b adbe b748 21be ef0d bebe 34e4 54be
000000a0: a878 8abe 95a5 a8be d3f3 87be 569a 9dbe
000000b0: 4314 c4be ad77 0dbe 3eb1 60be 6bda 4dbe
000000c0: 5565 9dbd ce6e cfbd 2617 19be e791 61bd
000000d0: daf0 79bd d676 16be 4504 b4bc 8ef7 9c3d
000000e0: 0315 35bd 3d46 86bb 1d1e fb3d 546c b5bc
000000f0: bde4 99bd 7938 6cbd c215 7e3d 1050 7eba
00000100: 6ae1 ee3d fabb 883c 0e1a d13d 07f5 ac3d
00000110: 5611 0b3d b40d 443d 3953 b63d 7190 183e
00000120: f5cb 0000 d8d4 0000 bd9b 0000 edac 0080
00000130: b7d7 0080 a70b 0000 e704 0000 9d04 0000
00000140: c275 0080 0a73 0000 dd4f 0000 7bec 0080
00000150: 670a 0100 93dd 0000 a5f9 0000 c66b 0000
00000160: f2da 0000 1784 0080 98fe 0080 e809 0000
00000170: 3a45 0080 fae7 0000 59c0 0080 6e63 0000
00000180: a5b0 0000 5ba5 0080 006f 0000 c961 0080
00000190: 0be2 0080 864c 0000 29a2 0080 1608 0100
000001a0: 3065 0000 007d 0000 8cdd 0080 250f 0000
000001b0: 342b 0180 6f56 0000 3149 0180 c022 0000
000001c0: 8d3f 0100 5fbe 0000 0041 0000 d2f6 0000
000001d0: f91b 0000 7d96 0000 26ba 0080 2c23 0000
000001e0: 312f 0000 1f37 0080 7939 0000 a9bb 0000
000001f0: 150f 0080 2d2d 0080 7fa5 0000 1547 0000
00000200: ee23 0080 39b0 0000 b9ba 0000 5162 0000
00000210: fe2f 0000 b123 0000 9798 0000 0ab9 0000
00000220: 4763 0000 4a23 0000 29ab 0000 5ca5 0000
00000230: 067e 0000 2d25 0000 391f 0000 5080 0000
00000240: 93ef 8dbc 34c6 8dbc 75ac 8dbc 329d 8dbc
00000250: 9f79 8dbc b068 8dbc e760 8dbc a348 8dbc
00000260: e33e 8dbc 56bf 7dbc 5a2b 7dbc 35ce 7cbc
00000270: 009a 7cbc e618 7cbc 1ddf 7bbc 6ed2 7bbc
00000280: 147b 7bbc da59 7bbc a690 84bc 49fe 83bc
00000290: 03cc 83bc 54c2 83bc 3c44 83bc 3f39 83bc
000002a0: a547 83bc e7f8 82bc 980f 83bc 4169 80bc
000002b0: 760d 7fbc 1b50 7ebc 35ee 7dbc 4052 7cbc
000002c0: b0f1 7bbc d21a 7cbc 82f9 7abc 0bdf 7abc
000002d0: f12a 57bc 1e14 55bc 2cce 53bc ef67 53bc
000002e0: cd79 51bc 0fac 50bc 3ce5 50bc 597b 4fbc
000002f0: cd21 4fbc fdca 92bc 8173 92bc 248c 92bc
00000300: 86be 92bc b085 92bc 18ce 92bc d9f4 92bc
00000310: 37fb 92bc 9a6b 93bc 8320 95bc bbf7 94bc
00000320: 991a 95bc 9891 95bc 238c 95bc b5d0 95bc
00000330: 862e 96bc d15f 96bc 77c3 96bc 5d69 94bc
00000340: c040 94bc ab5c 94bc 46d3 94bc eace 94bc
00000350: 0c0a 95bc 546e 95bc 969f 95bc 5afa 95bc
00000360: 3309 0b3e b124 8dbd 429a e43c 18a6 a73d
00000370: 3598 2b3d 089e a4bd 6a2d 81bc bb6c 023e
00000380: 8a90 ac3d 2311 b9bc 46f0 fabd 0db7 393d
00000390: 4690 9cbd 0790 b83d a820 27bd 1522 d1bd
000003a0: 990d b53b f5cb e0bd 23e6 f93c 598c 64bd
000003b0: 676c 8ebd b7c5 ccbd fe86 f2bb 1cb9 5d3c
000003c0: 0dee ffbd 7ec9 183d 4639 2ebe 489c 1bbe
000003d0: 9664 75be 7144 8fbd 2536 49be d0f3 27be
000003e0: b32f 6bbe 684a 29bd e7a5 61be 90c0 14be
000003f0: da46 cabd 930f 2cbe a40a 45be 9e46 4fbe
0.15822116 0.037865855 0.05617422 0.036002968 0.1262447 0.18603203 0.05273646 0.027588174
0.13461438 0.05096028 0.0031900795 0.06448191 0.014605376 0.0039985836 0.05663469 0.12192963
0.07684249 0.009807433 -0.0035277386 -0.018512184 -0.10460028 -0.0007360809 -0.047270987 -0.01848345
-0.06614367 0.03204377 0.013260329 -0.05683542 -0.12454851 -0.1411783 -0.14002264 0.01720734
-0.14661346 -0.08010684 -0.042366885 -0.011281203 -0.33834362 -0.15750395 -0.37120005 -0.20790178
-0.27045178 -0.3293883 -0.2655321 -0.3078181 -0.38296708 -0.13815184 -0.21942613 -0.20102851
-0.07685343 -0.10128556 -0.14950237 -0.055070784 -0.06102071 -0.1469377 -0.021974692 0.07664405
-0.04420949 -0.0040977285 0.12261603 -0.022146381 -0.075143315 -0.057671044 0.06203247 -0.00097012613
0.11664088 0.016691197 0.10210048 0.08445173 0.03395208 0.04786463 0.08902592 0.1489885
7.3166e-41 7.6354e-41 5.5868e-41 -6.2034e-41 -7.7384e-41 4.18e-42 1.759e-42 1.655e-42
-4.2244e-41 4.1268e-41 2.865e-41 -8.4833e-41 9.5567e-41 7.9486e-41 8.9556e-41 3.8662e-41
7.8543e-41 -4.7385e-41 -9.1331e-41 3.554e-42 -2.4834e-41 8.3218e-41 -6.9001e-41 3.5669e-41
6.3368e-41 -5.9318e-41 3.9819e-41 -3.5079e-41 -8.1089e-41 2.7451e-41 -5.8172e-41 9.4736e-41
3.6299e-41 4.4842e-41 -7.9476e-41 5.433e-42 -1.07334e-40 3.1007e-41 -1.18092e-40 1.2466e-41
1.14633e-40 6.8292e-41 2.3318e-41 8.8542e-41 1.0035e-41 5.3985e-41 -6.6777e-41 1.2617e-41
1.6929e-41 -1.9774e-41 2.0617e-41 6.732e-41 -5.41e-42 -1.6206e-41 5.9369e-41 2.55e-41
-1.2889e-41 6.3217e-41 6.6983e-41 3.5269e-41 1.7216e-41 1.2804e-41 5.4739e-41 6.638e-41
3.5614e-41 1.266e-41 6.14e-41 5.932e-41 4.5209e-41 1.3336e-41 1.12e-41 4.603e-41
-0.017326152 -0.017306425 -0.017294148 -0.01728687 -0.017269908 -0.017261833 -0.01725812 -0.01724655
-0.0172419 -0.015487513 -0.01545223 -0.015430023 -0.015417576 -0.015386796 -0.015373019 -0.015369995
-0.015349168 -0.0153412465 -0.016182255 -0.016112464 -0.016088491 -0.016083874 -0.016023748 -0.016018508
-0.016025374 -0.015987827 -0.015998647 -0.015675189 -0.015567174 -0.015522028 -0.0154986875 -0.015400469
-0.015377447 -0.015387254 -0.015318276 -0.015311967 -0.013132797 -0.013005285 -0.012927573 -0.012903198
-0.012785387 -0.012736334 -0.012749966 -0.012663686 -0.012642336 -0.017919058 -0.017877342 -0.01788909
-0.017913114 -0.017886013 -0.017920539 -0.017939018 -0.017942054 -0.017995644 -0.01820398 -0.018184533
-0.01820116 -0.018257901 -0.018255299 -0.018287996 -0.018332731 -0.018356236 -0.018403752 -0.018116647
-0.018097281 -0.018110594 -0.01816715 -0.01816507 -0.018193267 -0.018241085 -0.018264573 -0.018307853
0.13577728 -0.06891764 0.027905587 0.08185977 0.041893203 -0.080379546 -0.015768725 0.1273679
0.08426006 -0.02259118 -0.1225286 0.045340586 -0.076447055 0.09011846 -0.040802628 -0.10211579
0.0055253026 -0.10976402 0.030505246 -0.05579791 -0.0695427 -0.099986486 -0.007401346 0.013532903
-0.124965765 0.037301533 -0.17014036 -0.15196335 -0.23964152 -0.06995476 -0.19649561 -0.16401601
-0.22967415 -0.041330725 -0.22035943 -0.14526582 -0.09876795 -0.16802816 -0.1924234 -0.20241782

bias f4 [16]
00000000: 2497 653e 089d d69c 351f a0bc 19cf 043d
00000010: b7ba e2bd 1226 6b3e 6858 1dbe 238c b3ac
00000020: 25c1 b1bc 78ed 0dbc 6df0 f03b 3d81 18bd
00000030: 0e36 3b3e db46 a6a6 05f1 47bc 12dc a1bc
0.22420937 -1.4201924e-21 -0.01954613 0.032424066 -0.11070769 0.22963741 -0.15365756 -5.1030443e-12
-0.021698544 -0.008662574 0.0073528797 -0.037232626 0.18282339 -1.1537769e-15 -0.01220346 -0.019758258

weight f4 [16, 16, 3, 3]
00000000: a6ce 9cbe 9eaf 9cbe 6adc 8cbe 7002 a8be
00000010: 940f d5be 7ea0 c2be 1f2f 30be 1ea0 61be
00000020: 4429 50be 85b8 0180 5448 0200 c11e 0180
00000030: aa2e 0080 f448 0180 72e4 0100 df43 0180
00000040: 2d50 0180 e1a5 0080 79b1 4e3b 947a 573b
00000050: 8641 723b c128 5b3b c979 543b 589a 503b
00000060: e203 6c3b f309 543b 2b18 473b 3126 65bb
00000070: 43fd 84bc 7a64 94bc f88e 763b aed5 29bd
00000080: 625e 3dbd 3787 a7bc 9149 56bd f592 38bd
00000090: f279 b53d 51cf 713d 7543 903d 23fa 22bc
000000a0: 094a 5abd f9c0 75bc a235 55bd af30 99bd
000000b0: ab2f b03b 6286 463e f670 373e 53c8 1e3e
000000c0: bbf0 013e b469 fa3d ae9c f43d 3684 b33d
000000d0: 1d72 e73d fb91 e03d e2bf e23c 9323 0f3d
000000e0: f6c8 1d3e 9394 d7bd a434 21be 1bd3 123c
000000f0: 3197 12be 95ed 13be 788e 933c 0c1b 0600
00000100: a5eb 0200 6a68 0300 80c6 0480 ed9b 0100
00000110: ff0d 0500 8bc5 0080 d62d 0100 1960 0280
00000120: caf3 df3b 9464 df3b 3863 df3b 4cb6 e03b
00000130: 221c e03b 9331 df3b 308c e03b 7e49 df3b
00000140: a0f7 dd3b b3fc 0200 f829 0080 c421 0180
00000150: e661 0200 740e 0200 8e14 0280 3112 0100
00000160: 2a2a 0480 71c3 0400 d844 533d 293c c43c
00000170: eaab 923d f840 73bd 2dc1 b7bd 128b 8d3d
00000180: b50a f3bd 0fec dfbc 0820 f13d 48e0 0080
00000190: 65de 0000 7562 0080 d362 0000 3c3a 0080
000001a0: 3bc6 0000 e775 0080 153d 0080 b727 0000
000001b0: d5cb b1bd 0773 08be 9b59 45be 3f7b 60be
000001c0: 4199 41be 00db 67be bc67 51be 3700 10be
000001d0: 1f4e bbbd 405c 0100 7d57 0380 5118 0280
000001e0: 480c 0080 2c35 0080 2fe2 0000 0daf 0580
000001f0: aaf6 0080 adf8 0000 33e4 ad3c 4bb6 b23c
00000200: 4524 b53c d046 ab3c 023f af3c 1d9a b53c
00000210: 23ea ad3c 84bf ad3c 6a06 b03c a588 15bb
00000220: 1f96 25bb a677 34bb 78dc 28bb 0945 32bb
00000230: a5d3 42bb 36f5 39bb a9be 40bb 0fcb 53bb
00000240: 537b 73bd fa12 5c3d ce49 ee3d cb7d b7bd
00000250: be56 40bb b634 093e e0a3 cdbd 43a5 57bd
00000260: 1844 093e 419e 0000 8d46 0000 927c 0080
00000270: 585a 0000 267d 0000 7142 0080 7e19 0000
00000280: e0bf 0000 2145 0000 24c1 8bbc 3447 8cbc
00000290: 20d4 8cbc b5aa 8bbc 8d45 8cbc 9ad2 8cbc
000002a0: dcbd 8bbc 0d36 8cbc 969a 8cbc 935b 32bb
000002b0: 06c7 af3c 3d06 403d 2ed4 51bd a8d6 8abc
000002c0: 27a4 ccbc 2a7e 45bc 1824 35bd 5def 6b3c
000002d0: 371a dabd 7615 d43c ff07 b83d 0767 e1bd
000002e0: 3b84 35bd 2949 db3d e136 00be aee9 8bbd
000002f0: 4dd6 703d 8d83 58bd 834e 93bd 2feb 89bd
00000300: 10d7 4abc 1cc4 fdbc d881 2fbd a4e7 8a3b
00000310: 8e8b 01bd 7b57 bcbd 006e bdbd e699 c03a
00000320: 6b2e 813e 3085 d3bd a7ff a9bd 0d7c 0a3e
00000330: 98a4 65bd 908d 24bc 9dd9 083e d00d 0080
00000340: 278a 0080 6819 0080 ceb9 0000 f666 0080
00000350: fd00 0000 f646 0000 7364 0000 fc65 0080
00000360: d671 563a 527f 603a 3de7 5f3a 5577 543a
00000370: 5e69 643a b09f 653a 76b0 533a 4241 643a
00000380: 3d2a 673a 9228 24b5 86ea 2fb5 7e4c 36b5
00000390: 5ed9 21b5 4e42 28b5 c6ed 26b5 f8a8 20b5
000003a0: cf4d 1bb5 da63 1cb5 a62c 573c 9ffb 333e
000003b0: 918c b13e 9c93 e8bd 085b aa3d db7b a93e
000003c0: b587 0dbe 2b76 c83c 0798 8b3e 4ba0 5928
000003d0: 117f 9226 fa6e 8fa7 7482 74a8 a04e c1a7
000003e0: fb79 12a8 ce1d d8a7 a867 b5a8 b4a1 96a8
000003f0: 3206 173c 4fc1 a13d 5b64 293e f0fd 8ebd
-0.3062641 -0.30602735 -0.27511913 -0.3281436 -0.41613448 -0.3801307 -0.17205475 -0.22033736
-0.20328242 -1.58029e-40 2.09617e-40 -1.02868e-40 -1.674e-41 -1.18006e-40 1.73786e-40 -1.16183e-40
-1.20597e-40 -5.9506e-41 0.0031538887 0.0032879459 0.0036965325 0.003344104 0.0032421222 0.0031830277
0.0036013057 0.0032354563 0.0030379395 -0.003496539 -0.016234046 -0.018114317 0.0037621837 -0.041463546
-0.04623259 -0.020450218 -0.052316252 -0.045062024 0.0886115 0.059035603 0.070441164 -0.009947333
-0.05329326 -0.014999622 -0.0520531 -0.07479989 0.005376776 0.193872 0.17914185 0.15506105
0.12689488 0.122271925 0.11943947 0.087654516 0.11301062 0.109653436 0.027679387 0.034946036
0.15408692 -0.10526385 -0.15742737 0.008961464 -0.14315487 -0.14446099 0.01801227 5.60716e-40
2.68204e-40 3.12963e-40 -4.3855e-40 1.47771e-40 4.64198e-40 -7.0865e-41 1.08278e-40 -2.18144e-40
0.006834482 0.00681741 0.0068172477 0.006857669 0.006839291 0.0068113296 0.006852649 0.006814181
0.006773904 2.74322e-40 -1.5056e-41 -1.03948e-40 2.1879e-40 1.88856e-40 -1.91045e-40 9.8361e-41
-3.82468e-40 4.37453e-40 0.051579326 0.023954468 0.07161696 -0.05938813 -0.08972392 0.06911291
-0.118672766 -0.027334241 0.117736876 -8.0457e-41 7.978e-41 -3.532e-41 3.5451e-41 -2.089e-41
7.1112e-41 -4.2295e-41 -2.1912e-41 1.4247e-41 -0.08681456 -0.1332513 -0.19272463 -0.21922015
-0.18906118 -0.22642136 -0.20449728 -0.14062582 -0.0914576 1.24929e-40 -3.06891e-40 -1.92394e-40
-4.406e-42 -1.9074e-41 8.114e-41 -5.21974e-40 -8.8486e-41 8.9208e-41 0.021226978 0.02181544
0.022112021 0.02090779 0.02139235 0.022168214 0.02122981 0.021209486 0.021487433 -0.0022817042
-0.002526648 -0.0027537136 -0.0025766175 -0.0027201793 -0.00297282 -0.0028374917 -0.0029410517 -0.0032317077
-0.059443783 0.053729035 0.11635171 -0.0895954 -0.0029348577 0.13399014 -0.10041022 -0.05264784
0.13404882 5.6771e-41 2.5309e-41 -4.4687e-41 3.2409e-41 4.4895e-41 -2.3835e-41 9.145e-42
6.8832e-41 2.4799e-41 -0.01705987 -0.017123796 -0.017190993 -0.017049173 -0.017123008 -0.017190266
-0.017058305 -0.017115617 -0.017163556 -0.0027215227 0.021457206 0.04688095 -0.05122774 -0.01694806
-0.024980618 -0.012054006 -0.044223875 0.01440033 -0.10649531 0.02588914 0.089859 -0.11005979
-0.044315558 0.107073136 -0.12520935 -0.0683168 0.058798123 -0.05285983 -0.07192709 -0.06734311
-0.012380376 -0.030977301 -0.042848438 0.0042390395 -0.03162723 -0.09196373 -0.092494965 0.0014694303
0.25230727 -0.10328138 -0.08300715 0.13523884 -0.056065172 -0.010043517 0.13364263 -4.955e-42
-4.956e-41 -9.114e-42 6.6654e-41 -3.6935e-41 3.55e-43 2.5456e-41 3.6034e-41 -3.6585e-41
0.0008180415 0.0008563894 0.0008541232 0.000810494 0.00087132107 0.0008759452 0.0008075306 0.0008707234
0.00088182447 -6.11538e-07 -6.5533857e-07 -6.7911594e-07 -6.0293485e-07 -6.2681363e-07 -6.2185825e-07 -5.9850527e-07
-5.7855226e-07 -5.825983e-07 0.013133204 0.17576455 0.34677556 -0.11356279 0.08318144 0.33102307
-0.138213 0.02447041 0.27264425 1.2080678e-14 1.0165227e-15 -3.9810794e-15 -1.3573008e-14 -5.3653506e-15
-8.131078e-15 -5.9984358e-15 -2.013999e-14 -1.6723473e-14 0.009217786 0.07898199 0.16542189 -0.069820285

bias f4 [16]
00000000: f28d 2d3e c299 33bc 3ca9 923b c1a1 a2bc
00000010: 1b85 95bc a5a7 9ab5 1b21 1b3e be0d 0e3e
00000020: f0e5 1b3e f541 bd3c 7e52 42bd 9824 6abd
00000030: a17a a2bb 0300 623e 78de 16bd 5d3a 99bd
0.16948679 -0.010961952 0.0044757407 -0.01985252 -0.018251946 -1.1522685e-06 0.15149347 0.1387243
0.15224433 0.02310274 -0.047441952 -0.057163805 -0.004958466 0.22070317 -0.036833256 -0.07481835

weight f4 [32, 16, 3, 3]
00000000: 6bc8 0200 8c5f 0180 9af8 0100 0818 0080
00000010: 8a24 0200 9426 0000 3fe2 0080 02c9 0100
00000020: 04d1 0280 90b9 0000 ca55 0080 2824 0080
00000030: 4d45 0000 776e 0000 a572 0080 4516 0080
00000040: ec9f 0000 1281 0000 782e 3f88 6eee a485
00000050: 349f 0805 595d f388 161c 2d87 411c dd83
00000060: a651 3789 7118 4588 b199 5287 3256 1c01
00000070: 3a75 0880 aee1 0380 81d8 ee01 dc6f 1e00
00000080: 6101 0980 0e18 2002 bf11 4901 94b3 3d00
00000090: 7fbd 8d01 7a8c 0c80 6ec3 0980 37db 7602
000000a0: 82a8 5a00 45c8 0f80 cfe8 c202 60a0 a501
000000b0: 4eec 9800 56a4 0180 a09f 0000 086e 0100
000000c0: 7920 0200 0ceb 0080 3556 0180 e8c3 0100
000000d0: 109b 0080 fbe6 0000 e30b 0080 ebbe 0080
000000e0: 839d 0080 9601 0180 bf75 0080 f551 0080
000000f0: 6925 0080 1322 0000 b497 0000 b9c2 0080
00000100: 3b9e 0000 9906 0080 09a4 0000 1ef6 0080
00000110: 521a 0100 d7e2 0080 333e 0100 879b 0080
00000120: 579c 0080 6e54 0080 5015 0000 c94e 0000
00000130: 4e6e 0000 9747 0080 3514 0080 b9d4 0080
00000140: 9d7b 0000 8935 0080 229a 0080 b434 0000
00000150: 5b10 0000 5c8b 0080 2262 0080 0047 0000
00000160: 9832 0080 8aa9 0080 4c01 0000 21c1 0000
00000170: 5198 0080 3ecc 0000 ad7d 0080 687e 0000
00000180: 7a79 0000 d119 0080 0082 0080 3a46 0000
00000190: fe96 0000 ac6b 0080 1505 0000 d38d 0000
000001a0: 6d5d 0000 5058 0000 1c6e 0000 fa7b 0000
000001b0: 7b3e 0000 e1c8 0180 83b5 0080 9c41 0200
000001c0: f05b 0280 06aa 0000 80a8 0400 0424 0300
000001d0: aee2 0200 bca5 0000 2ec2 0000 59b9 0080
000001e0: f210 0000 45b9 0080 e5ba 0000 049f 0080
000001f0: 9dad 0000 7c6f 0080 60ba 0080 cabb 0080
00000200: 6945 0080 8294 0080 e92d 0080 0273 0000
00000210: 0215 0080 e29e 0080 0d85 0080 07a3 0000
00000220: dc6f 0000 232a 0080 eb67 0000 6c4f 0000
00000230: 43a5 0000 3e24 0000 f19b 0000 5107 0000
00000240: 7556 e23e cda7 663e f070 a73e 3c8b 0a3e
00000250: eabb e1bd 0ae3 07bb 67c2 7d3e e0b4 083c
00000260: 765c 9e3d cfc6 5e3d 68bd 523d ea2b 69bd
00000270: 510d c53d cc49 ac3d 7ce8 15bc 0e27 d53d
00000280: 1caa d03d 9677 2f3d 6a1b d3bd 8a37 85bd
00000290: 9e91 acbd 2a99 e5bc fcdc 623c c412 e2bb
000002a0: 0210 1abd b4ba 913c 80f2 d53b e471 70bd
000002b0: fcf5 0cbd 781d 8cbd 1fc3 23bb 36c9 f43c
000002c0: e591 85bb 12f8 5dbc 1905 dd3c f9c9 193c
000002d0: 6d2f 6fbd 3c82 12bd 2bce 93bd 1668 bebb
000002e0: 3fc3 eb3c f4e7 1dbc 73fb edbb 6cfc ee3c
000002f0: c4e2 eb3b 638a 8a12 5153 5393 6a3f 0f15
00000300: 9bef 8510 5491 9891 fd4f 8693 a625 0a90
00000310: 68c5 658f 37dd dc0f 7637 393d f233 d93d
00000320: aa6a 3a3e 6d04 dbbb 4745 1a3d db0a eb3d
00000330: 38e1 bebb 0048 fd3c a57d ba3d 7255 b53e
00000340: 0718 463e de22 a53e 9a5d d63d a71d 8abd
00000350: 3618 463d 3364 433e 575b 373c 2bb0 c53d
00000360: f0af 973d 33eb e53d e4fd 0f3e c2d7 983d
00000370: 0e6c d23d cdb3 073e 12d5 8b3d 4d08 b73d
00000380: 61f4 df3d a5b8 02be 9334 a7bd c26b cebd
00000390: 8951 1abd da72 113d 3b4d 843c a802 c8bc
000003a0: 1995 893c 22f7 df3c 1164 2abe b904 87bd
000003b0: 6a87 94bd 4d93 e5bc 2c10 863d ee00 243d
000003c0: 397f 92bc a7c1 7c3d 44de e93c cc14 9ebd
000003d0: bd33 41bd 8b28 8ebd 9e16 b6bc e4fc c53c
000003e0: 395c c6b9 df98 dbbc 4b66 b23c a40b fd3b
000003f0: 7e39 9939 f1a3 b339 607c 9839 74b4 ca39
2.55567e-40 -1.26111e-40 1.81017e-40 -8.621e-42 1.96779e-40 1.3839e-41 -8.1162e-41 1.63944e-40
-2.58652e-40 6.6567e-41 -3.0775e-41 -1.297e-41 2.486e-41 3.9627e-41 -4.1127e-41 -7.989e-42
5.7369e-41 4.6302e-41 -5.7531596e-34 -1.5510071e-35 6.42393e-36 -1.4646976e-33 -1.3023327e-34 -1.2995699e-36
-2.2066215e-33 -5.931126e-34 -1.584381e-34 2.8714517e-38 -7.76737e-40 -3.56465e-40 8.773806e-38 2.795192e-39
-8.27014e-40 1.1761847e-37 3.6930602e-38 5.666386e-39 5.2067133e-38 -1.15242e-39 -8.96626e-40 1.8136137e-37
8.325644e-39 -1.449376e-39 2.8639364e-37 6.0841554e-38 1.4043766e-38 -1.50788e-40 5.7263e-41 1.31307e-40
1.9532e-40 -8.4319e-41 -1.22761e-40 1.62113e-40 -5.5626e-41 8.286e-41 -4.264e-42 -6.8488e-41
-5.6505e-41 -9.2404e-41 -4.224e-41 -2.94e-41 -1.342e-41 1.2224e-41 5.4421e-41 -6.9853e-41
5.6762e-41 -2.367e-42 5.8845e-41 -8.829e-41 1.01277e-40 -8.1375e-41 1.14148e-40 -5.5793e-41
-5.6084e-41 -3.0288e-41 7.645e-42 2.8263e-41 3.957e-41 -2.5682e-41 -7.249e-42 -7.631e-41
4.4344e-41 -1.9205e-41 -5.5292e-41 1.8906e-41 5.867e-42 -4.9993e-41 -3.5203e-41 2.547e-41
-1.815e-41 -6.0819e-41 4.65e-43 6.9282e-41 -5.4641e-41 7.3268e-41 -4.5084e-41 4.5346e-41
4.3578e-41 -9.261e-42 -4.6635e-41 2.5193e-41 5.4166e-41 -3.8625e-41 1.823e-42 5.0877e-41
3.3515e-41 3.168e-41 3.95e-41 4.4474e-41 2.2414e-41 -1.63897e-40 -6.5114e-41 2.07207e-40
-2.16652e-40 6.0993e-41 4.27788e-40 2.88426e-40 2.64988e-40 5.9454e-41 6.9659e-41 -6.649e-41
6.079e-42 -6.6462e-41 6.7045e-41 -5.7044e-41 6.2281e-41 -3.9993e-41 -6.6859e-41 -6.7366e-41
-2.49e-41 -5.3275e-41 -1.647e-41 4.1257e-41 -7.536e-42 -5.6996e-41 -4.773e-41 5.8483e-41
4.0128e-41 -1.5116e-41 3.7279e-41 2.8491e-41 5.9285e-41 1.3001e-41 5.5941e-41 2.625e-42
0.44206586 0.22524948 0.32703352 0.13529676 -0.1102217 -0.002073469 0.2478119 0.008343905
0.07732479 0.054388817 0.051450163 -0.056926645 0.096216805 0.08412513 -0.009149667 0.1040784
0.10188696 0.042838655 -0.10307963 -0.06504734 -0.08426212 -0.028027136 0.013846632 -0.0068992097
-0.037612922 0.017789222 0.0065291524 -0.058702365 -0.034414276 -0.06841558 -0.0024988127 0.029881101
-0.00407623 -0.013547914 0.02697997 0.009386533 -0.058394838 -0.035768732 -0.07217058 -0.005810748
0.028779624 -0.0096378215 -0.007262641 0.029173099 0.0071986634 8.743139e-28 -2.6673022e-27 2.8928645e-26
5.282842e-29 -2.4070937e-28 -3.390523e-27 -2.7244705e-29 -1.1328591e-29 2.1778884e-29 0.045218907 0.10605611
0.18204752 -0.006683877 0.037663724 0.1147668 -0.005825188 0.030918121 0.09105996 0.35416752
0.19345103 0.32253164 0.10467072 -0.06743937 0.048362933 0.19081192 0.011191211 0.09652742
0.07406604 0.11226501 0.14061695 0.074630275 0.10274516 0.13252182 0.06827749 0.0893713
0.109352835 -0.12765749 -0.081643246 -0.10079147 -0.037675414 0.03550992 0.016150108 -0.02441533
0.016794728 0.027339522 -0.16639735 -0.06592698 -0.07252391 -0.02802434 0.06546053 0.04003995
-0.01788293 0.06170812 0.028548367 -0.077188104 -0.047168482 -0.06941327 -0.022227582 0.02416844
-0.00037834214 -0.026806293 0.021777293 0.007722335 0.0002922527 0.00034263686 0.00029084366 0.0003866289

bias f4 [32]
00000000: d0b0 3da3 d6c5 d03d a983 d5bd 8760 42ab
00000010: 448f f8bc 0fab f9bb eb70 45a5 e3f6 d09c
00000020: 122e cf9e 8565 9abc 9516 03be d728 18be
00000030: 0967 b1bd e63d 93ba 5922 45bb 81b5 66bc
00000040: facc 113e fb3e bfb2 8c2d 533d 6845 57b4
00000050: 0e58 cb9a 8265 793d b1f4 08bd 18df d1ad
00000060: 6030 f0a8 5a4b e2bc 5253 39bc c490 c8bd
00000070: 1a06 0bb9 5a06 12bd 9d4c b7b8 b096 853d
-1.0283152e-17 0.10193984 -0.10425503 -6.9056604e-13 -0.030341752 -0.0076192687 -1.7125284e-16 -1.3828104e-21
-2.1936032e-20 -0.018847236 -0.12801583 -0.14859329 -0.086622305 -0.0011233657 -0.0030080287 -0.01408136
0.14238349 -2.2263967e-08 0.05155711 -2.0048685e-07 -8.410109e-23 0.06088782 -0.03343648 -2.3859623e-11
-2.6666332e-14 -0.027623821 -0.011311369 -0.09793237 -0.00013258346 -0.03565059 -8.74039e-05 0.06522882

weight f4 [32, 32, 3, 3]
00000000: 39c7 0100 7b2d 0680 83f5 0200 4e34 0180
00000010: f68e 0300 a75e 0380 577c 0200 e751 0380
00000020: 8caa 0200 033d bbb3 fcf9 79b2 71ca 66b1
00000030: d7f0 9eb4 ac55 a6b3 4e09 bbb2 46ba 34b5
00000040: 584b 80b4 99ad abb3 774e 0180 0882 0000
00000050: fd42 0080 c63a 0100 27f5 0000 96d2 0000
00000060: 11dc 0000 0a45 0180 e122 0080 343a 0080
00000070: b347 0000 6f5d 0180 e602 0180 f302 0000
00000080: bcf1 0100 fb5a 0180 ed75 0100 53c0 0180
00000090: 393d 0380 52f3 0480 91bd 0000 a9f7 0000
000000a0: 9982 0300 63a7 0280 04ee 0300 a464 0080
000000b0: dcb7 0080 f80b 0300 0d01 0000 c928 0200
000000c0: 4979 0100 fd8e 0280 2485 0180 0b7e 0280
000000d0: 55c9 0480 2fed 0180 1ab0 0480 c568 0280
000000e0: 8924 0280 9c04 0580 d3a3 0380 848c 0100
000000f0: 6e02 0180 59b2 0200 726f 0180 ecec 0100
00000100: b479 0000 9a91 0100 42d3 0080 0e00 0080
00000110: 3b55 0580 0872 0400 734d 0200 1daf 0100
00000120: 471c 0280 722c 0580 e12a 0300 0d81 0000
00000130: 380a 0080 8a2c 0280 590f 0280 3ee3 0280
00000140: be64 0200 56d0 0180 700f 0300 3d7f 0280
00000150: f6e3 0400 2c64 0180 229c 0200 a8a2 0200
00000160: 8aa9 0200 246a 0280 3cb8 0080 4007 0100
00000170: 6da0 0000 0969 0080 36fc 0000 3e3e 0000
00000180: 95dc 0080 a716 0000 1141 0080 de55 0180
00000190: c190 0000 f40b 0180 e72e 0000 6bba 0000
000001a0: a077 0080 2458 0180 3d1a 0080 9d26 0100
000001b0: e4a2 0000 d42b 0080 71bc 0000 3180 0080
000001c0: c9c6 0080 6a12 0080 1aee 0000 198b 0080
000001d0: 5651 0080 13ee 0200 440c 0300 3539 0380
000001e0: 3c23 0500 4335 0480 a5a2 0000 3b18 0380
000001f0: b9fb 0200 e5ef 0100 be7a 0100 b036 0380
00000200: f7ca 0180 8454 0280 b66e 0100 fae3 0500
00000210: d68d 0380 5ab3 0100 2261 0200 f04a 0580
00000220: 4525 0300 a4cf 0100 c522 0000 2baf 0180
00000230: 79db 0380 9b27 0500 91de 0180 dc6d 0500
00000240: b168 5ab4 39cb feb2 174b ebb1 ebe8 19b5
00000250: cf2b 1cb4 1264 3bb3 0c82 8cb5 4908 d5b4
00000260: 4fcf 18b4 c709 0000 3c74 0180 c07d 0200
00000270: 466c 0000 ef9c 0280 d2d5 0280 d38f 0280
00000280: abe2 0180 e127 0180 fc03 0080 8064 0000
00000290: 3588 0000 69a5 0080 2650 0000 829b 0080
000002a0: 5b7e 0000 d116 0000 e18b 0000 6360 0180
000002b0: ce9e 0100 90a1 0180 2c31 0500 959c 0100
000002c0: a20d 0180 284a 0480 e632 0080 962f 0180
000002d0: 83a5 0380 92cf 0000 b30d 0180 de7d 0080
000002e0: 0e46 0100 8026 0080 2210 0500 ad81 0580
000002f0: 753f 0500 a2b7 0000 d623 0080 1a07 0100
00000300: d68c 0000 41e7 0080 bea1 0080 8a1e 0180
00000310: 7430 0180 4d2b 0080 bf73 0180 5207 0080
00000320: 6916 0380 7a3a 0100 5f48 0480 760c 0580
00000330: b3ce 0480 ec81 0280 fb4f 0100 cc97 0100
00000340: fbc9 0000 0377 0080 6757 0180 5148 0280
00000350: 4db8 0100 ca8d 0000 431c 0000 67cf 0100
00000360: 7771 0080 2119 0000 c72e 0180 ab9b 0100
00000370: 6d49 0180 92bb 0180 7a71 0080 cc8c 0100
00000380: 28b8 0100 b65c 0500 c989 0100 e841 0400
00000390: a40d 0380 43b7 0300 91a8 0080 0d78 0180
000003a0: dbc9 0100 740d 0100 7fc0 0000 2c84 0200
000003b0: b6de 0100 6f9a 0000 6e94 0100 e084 0300
000003c0: d8a8 0100 704c 0200 8f07 0200 0d22 0000
000003d0: 8237 0000 020b 0080 1350 0000 8ecc 0000
000003e0: 4ec2 0000 8157 0080 8875 0080 7001 0080
000003f0: 4394 0280 d688 0500 2165 0100 d8f5 0280
1.63303e-40 -5.67328e-40 2.71744e-40 -1.10599e-40 3.26791e-40 -3.09461e-40 2.28276e-40 -3.04888e-40
2.44852e-40 -8.718964e-08 -1.4550547e-08 -3.358448e-09 -2.9605027e-07 -7.745561e-08 -2.1773896e-08 -6.732629e-07
-2.3896678e-07 -7.994385e-08 -1.19983e-40 4.6646e-41 -2.4031e-41 1.1292e-40 8.7944e-41 7.5544e-41
7.8945e-41 -1.16602e-40 -1.2512e-41 -2.088e-41 2.5721e-41 -1.25353e-40 -9.2875e-41 1.058e-42
1.78553e-40 -1.24473e-40 1.34139e-40 -1.60828e-40 -2.97469e-40 -4.54629e-40 6.8004e-41 8.8844e-41
3.22356e-40 -2.43718e-40 3.6089e-40 -3.6103e-41 -6.5956e-41 2.798e-40 3.77e-43 1.98302e-40
1.35344e-40 -2.34966e-40 -1.39597e-40 -2.28887e-40 -4.39566e-40 -1.76921e-40 -4.30515e-40 -2.21255e-40
-1.96777e-40 -4.60831e-40 -3.34276e-40 1.42243e-40 -9.2707e-41 2.4765e-40 -1.31815e-40 1.76827e-40
4.3659e-41 1.44067e-40 -7.5785e-41 -2e-44 -4.89752e-40 4.08249e-40 2.11455e-40 1.54654e-40
-1.93815e-40 -4.75121e-40 2.90889e-40 4.6295e-41 -3.666e-42 -1.99649e-40 -1.89177e-40 -2.6519e-40
2.1981e-40 -1.66572e-40 2.81044e-40 -2.29315e-40 4.49119e-40 -1.2777e-40 2.39681e-40 2.42021e-40
2.4449e-40 -2.21747e-40 -6.6091e-41 9.4436e-41 5.755e-41 -3.768e-41 9.0476e-41 2.2328e-41
-7.913e-41 8.126e-42 -2.3341e-41 -1.22639e-40 5.1928e-41 -9.6123e-41 1.6825e-41 6.6874e-41
-4.2913e-41 -1.23454e-40 -9.413e-42 1.05687e-40 5.8434e-41 -1.5723e-41 6.76e-41 -4.5986e-41
-7.131e-41 -6.606e-42 8.5415e-41 -4.9899e-41 -2.9178e-41 2.69076e-40 2.79907e-40 -2.96029e-40
4.71817e-40 -3.86449e-40 5.8346e-41 -2.84199e-40 2.73972e-40 1.77893e-40 1.35867e-40 -2.95125e-40
-1.64646e-40 -2.1399e-40 1.31551e-40 5.4096e-40 -3.26388e-40 1.56175e-40 2.18516e-40 -4.8606e-40
2.88876e-40 1.66323e-40 1.2473e-41 -1.54674e-40 -3.54238e-40 4.73385e-40 -1.71677e-40 4.98588e-40
-2.0340919e-07 -2.9661907e-08 -6.847937e-09 -5.733588e-07 -1.454457e-07 -4.3630344e-08 -1.0468661e-06 -3.968037e-07
-1.4231522e-07 3.507e-42 -1.33533e-40 2.28782e-40 3.8841e-41 -2.39968e-40 -2.60375e-40 -2.35265e-40
-1.73149e-40 -1.06141e-40 -1.43e-42 3.6053e-41 4.8862e-41 -5.9338e-41 2.8752e-41 -5.5786e-41
4.5328e-41 8.185e-42 5.0179e-41 -1.26413e-40 1.48804e-40 -1.49793e-40 4.76817e-40 1.48007e-40
-9.6726e-41 -3.93944e-40 -1.8259e-41 -1.08906e-40 -3.34881e-40 7.4462e-41 -9.675e-41 -4.5153e-41
1.16966e-40 -1.3811e-41 4.64965e-40 -5.05696e-40 4.81942e-40 6.5875e-41 -1.2856e-41 9.4383e-41
5.0522e-41 -8.2958e-41 -5.8022e-41 -1.02791e-40 -1.09217e-40 -1.5533e-41 -1.33357e-40 -2.626e-42
-2.83546e-40 1.12813e-40 -3.93304e-40 -4.63648e-40 -4.41492e-40 -2.30278e-40 1.20527e-40 1.4629e-40
7.2457e-41 -4.2693e-41 -1.2319e-40 -2.09613e-40 1.5795e-40 5.0864e-41 1.0138e-41 1.66237e-40
-4.0704e-41 9.015e-42 -1.08616e-40 1.47679e-40 -1.18176e-40 -1.59123e-40 -4.0708e-41 1.42344e-40
1.57898e-40 4.92436e-40 1.41263e-40 3.90985e-40 -2.804e-40 3.41248e-40 -6.047e-41 -1.34902e-40
1.64248e-40 9.6662e-41 6.9055e-41 2.31085e-40 1.71729e-40 5.54e-41 1.45082e-40 3.23173e-40
1.52405e-40 2.11092e-40 1.86383e-40 1.2215e-41 1.9912e-41 -3.949e-42 2.8725e-41 7.338e-41
6.9703e-41 -3.139e-41 -4.2162e-41 -5.16e-43 -2.36857e-40 5.08265e-40 1.28114e-40 -2.71863e-40

bias f4 [32]
00000000: e862 08af 2d7b bebc f4ac df3d 6079 d38c
00000010: b216 a03d 52c8 a3a1 da54 209c e643 9fbc
00000020: 2183 c1bc f42c 08bb eb0b ccbc 75ce f4bb
00000030: 9aac d1aa cbe7 bf3d 7265 25bd 45d6 afbd
00000040: 83cf 75bc 1146 f2bb a2a0 e7b6 7a9e 05bd
00000050: 9a40 b0a4 f52e e7b0 9bd6 1fba b5ce fab6
00000060: 91d4 46a2 aaaa 333c 59d7 01bb b27a d0bc
00000070: 92b2 37bd f2f8 52b1 a2fa e0bd 0c60 03b3
-1.2404267e-10 -0.023252094 0.1092166 -3.2582747e-31 0.07816829 -1.1098334e-18 -5.3049227e-22 -0.019441556
-0.023622097 -0.0020778747 -0.024908027 -0.0074709007 -3.7245624e-13 0.09370383 -0.04037995 -0.085857905
-0.015003088 -0.0073936065 -6.9030366e-06 -0.03262184 -7.643727e-17 -1.6820808e-09 -0.00060973474 -7.4746445e-06
-2.6946535e-18 0.010965982 -0.0019812195 -0.02544913 -0.044848032 -3.070053e-09 -0.109853044 -3.058817e-08

weight f4 [32, 16, 2, 2]
00000000: 258f 0000 62a5 0000 d2b0 0080 b91f 0000
00000010: c020 8e87 b2a2 470b c177 a705 1160 610a
00000020: 24f5 ef8a e513 bf08 6cc3 8f8c 1122 118b
00000030: 302a 0080 f597 0080 e144 0000 28a0 0000
00000040: 712f 8d8f ad74 be0c cdda 8091 c8dc 668f
00000050: 908f 1380 4e74 4880 52a9 0100 13f1 0380
00000060: 0d63 4e91 6b60 8d8e 1250 c813 f5cf a78f
00000070: da68 471b ad79 c81b 4a15 5c1a 346a 881a
00000080: 22f5 5d8c e70d 9f8c 2b6d 828a 499b a48a
00000090: 1b8e 940e c45a 2b8b ac1e 0611 f6ba b98c
000000a0: 3274 0000 92c6 0080 f336 0080 fc67 0080
000000b0: 0098 b21b 1d11 821d 83f7 401b f8ec 2f1d
000000c0: b18a 0080 287d 0000 5a45 0180 6d69 0000
000000d0: 4c5d 0080 d334 0000 2663 0000 6638 0100
000000e0: cd67 4997 b7e5 2295 69e7 8199 6798 5b97
000000f0: c08e 0000 6230 0000 e471 0000 1538 0000
00000100: 008c c43a 17c5 aa3a 68ab e33a b9f0 aa3a
00000110: 87ea 893c c4c9 883c 15d7 843c 659c 833c
00000120: dc00 f83b 0fd5 f93b 67c6 e93b c2f9 e93b
00000130: fed1 95bc 6128 96bc 81ae 90bc f6f5 90bc
00000140: 7bfc 5abb 627a 9fbb 6fa7 50bb f693 96bb
00000150: 1490 60bc 7af4 56bc 5704 56bc 27da 4abc
00000160: 76a6 69bb 479d 9dbb 5967 4bbb 2040 90bb
00000170: a03a e93b 2dc5 d63b 36f8 e33b 2a60 d23b
00000180: 1ff6 84bb 07f6 66bb 6f44 74bb dad0 5ebb
00000190: d5d1 8e3b ad19 ad3b ec1a 8a3b 746e ac3b
000001a0: ab57 75bc 3b94 71bc 14af 68bc 4228 65bc
000001b0: 1266 f83b aed5 ef3b ea61 e93b 7f66 e53b
000001c0: 50e3 06bc 2df6 02bc 5a7d 06bc d7ea fdbb
000001d0: 2396 35b9 9893 c8b8 774b 47b9 add1 06b9
000001e0: e04f c33b 8ceb c73b f5a9 be3b 1efb c13b
000001f0: 9c0f 733c 9d7b 733c 7624 663c e046 643c
00000200: 9a07 e53d d3cd 903d f7fb 3a3d c8c8 343e
00000210: e524 c33d d7fa af3c 5604 91bc ef80 84be
00000220: b7b7 b9bc 96ea a3bc 6ab1 4d3b 1c38 50bd
00000230: 6884 82bc 3c3f 583e 073a 6f3e 5698 983e
00000240: b3b1 833e 3cfc 6d3e 0608 1c3e 20d6 3e3e
00000250: fd1e ddbd 6cec 3e3c d505 bd3d e632 813b
00000260: 59b5 813e 3b2f 9b3e e706 353e 8d81 8c3e
00000270: d9b6 733e d3f4 643e 3396 303e e97f 693e
00000280: 10eb 2cbe a129 49be 4169 b0be 1813 a8be
00000290: 53a1 35be f0c3 a4bd 003f 4bbe 7c6a 83be
000002a0: e6bb 153c 02c8 473d d6bb d83d ca3e 783e
000002b0: ea8f 5c3d 50ca 8bbc da67 bebd 76de adbd
000002c0: 022e e8bc e665 5abd 8ddc 9cbd cb99 0ebe
000002d0: 9f1c 81bd a593 dcbd 980e e6bd 3efd abbd
000002e0: 2c7f acbd 2fc7 c4bd 3084 11be d878 183d
000002f0: 9e5c b0bd 788f 8ebe c89f 8cbe 0b89 b4be
00000300: 5cb7 698b 1eff 5c8b 7497 758b c6d9 6b8b
00000310: 035c f08a 9c1d b28a 85b3 fb8a 9cf9 b78a
00000320: 7148 3a8b f37e 358b ca19 438b 04a4 408b
00000330: d933 600a dc31 3909 60b7 110a 46ac e788
00000340: edd7 bb0b 44ce ae0b e789 d70b 2a8b c50b
00000350: 4ebe 760a 6fb4 4d0a d515 8b0a 0e09 660a
00000360: 6f30 b40b 247c 970b 3483 c80b 36a8 a80b
00000370: 6316 958a 4ec9 948a d665 9a8a d77c 9e8a
00000380: 9d0b 4809 dffa 4709 5369 c009 df80 c209
00000390: 6981 af8b 80a0 a98b d769 c68b 7f2f be8b
000003a0: e780 990a 1e89 510a e295 920a ff94 440a
000003b0: ba87 240a 8fa6 570a bcaa 4d0a 3088 800a
000003c0: 5ce1 c30a 842e b10a 80e6 cb0a 4965 bc0a
000003d0: ad8c 8f08 b249 1c09 44be 4309 0271 3609
000003e0: 700c 928a 23f8 888a d3c3 938a 1638 878a
000003f0: e9db 268a d6bd 6889 e60c b889 d92a 1008
5.135e-41 5.9328e-41 -6.3431e-41 1.138e-41 -2.1385034e-34 3.8448404e-32 1.5748595e-35 1.0851424e-32
-2.3107074e-32 1.15000715e-33 -2.2150254e-31 -2.7951613e-32 -1.5134e-41 -5.4512e-41 2.4709e-41 5.7453e-41
-1.3921947e-29 2.9344357e-31 -2.0329686e-28 -1.13823964e-29 -1.796375e-39 -6.653878e-39 1.52576e-40 -3.61988e-40
-1.6281057e-28 -3.485203e-30 5.0566053e-27 -1.6547574e-29 1.6494774e-22 3.3165856e-22 4.551213e-23 5.641986e-23
-1.7098988e-31 -2.4506196e-31 -1.2559609e-32 -1.5851037e-32 3.662166e-30 -3.3001687e-32 1.0580188e-28 -2.8616286e-31
4.1683e-41 -7.1234e-41 -1.9712e-41 -3.7303e-41 2.9545858e-22 3.442841e-21 1.5961843e-22 2.3283567e-21
-4.9753e-41 4.4898e-41 -1.16714e-40 3.782e-41 -3.3469e-41 1.895e-41 3.5568e-41 1.12067e-40
-6.507762e-25 -3.2896853e-26 -1.3431753e-23 -7.0955075e-25 5.1209e-41 1.7356e-41 4.0856e-41 2.0118e-41
0.0014995337 0.0013028708 0.0017369809 0.0013041712 0.016835464 0.016697772 0.01621584 0.016065786
0.007568462 0.0076242755 0.007134247 0.007140369 -0.018288609 -0.018329801 -0.017661335 -0.017695408
-0.003341465 -0.004866884 -0.003183808 -0.004595275 -0.013706226 -0.013119811 -0.013062558 -0.012381113
-0.0035652197 -0.0048100087 -0.0031036942 -0.0044021755 0.0071175843 0.006554267 0.0069570793 0.006420155
-0.0040576602 -0.0035241859 -0.0037272235 -0.0033998997 0.00435851 0.005282602 0.004214635 0.0052621905
-0.014974515 -0.014744814 -0.014201898 -0.013986649 0.007580527 0.007319174 0.007122268 0.007000744
-0.008232906 -0.007993263 -0.008208597 -0.0077489424 -0.00017317435 -9.564235e-05 -0.00019006232 -0.00012857346
0.0059604496 0.0061010774 0.0058186003 0.005919828 0.0148352645 0.014861015 0.014046779 0.013932914
0.111830905 0.07070508 0.04565045 0.17654717 0.095285214 0.021481914 -0.017702263 -0.2587962
-0.02267061 -0.02000932 0.0031386265 -0.05083476 -0.015932277 0.21117872 0.2336198 0.29803723
0.2572151 0.23240751 0.15237436 0.1863637 -0.10796926 0.011653047 0.09229628 0.003942835
0.2533367 0.3030947 0.17678414 0.2744259 0.2380022 0.22359018 0.17244796 0.228027
-0.16886544 -0.19644786 -0.34455302 -0.32827067 -0.17737322 -0.080451846 -0.19848251 -0.2566718
0.009139037 0.048774727 0.10582702 0.24242702 0.053848185 -0.017064244 -0.09297152 -0.08489697
-0.02834225 -0.053319834 -0.07659254 -0.13925855 -0.06304287 -0.107703485 -0.11233252 -0.083979115
-0.084226936 -0.09608304 -0.14210582 0.03722462 -0.08611415 -0.27843833 -0.27465653 -0.35260805
-4.5012112e-32 -4.2562388e-32 -4.7299224e-32 -4.5423188e-32 -2.314577e-32 -1.7151914e-32 -2.4237949e-32 -1.7716152e-32
-3.5876796e-32 -3.4954838e-32 -3.7575035e-32 -3.7101247e-32 1.0794959e-32 2.2292009e-33 7.015985e-33 -1.3943308e-33
7.235467e-32 6.7332716e-32 8.302248e-32 7.609103e-32 1.18802615e-32 9.904327e-33 1.3393425e-32 1.10758e-32
6.940635e-32 5.834987e-32 7.723461e-32 6.496434e-32 -1.4356599e-32 -1.4327604e-32 -1.4867967e-32 -1.5261806e-32
2.4079585e-33 2.4071713e-33 4.6321365e-33 4.682499e-33 -6.760226e-32 -6.5337926e-32 -7.6426076e-32 -7.32568e-32
1.4781852e-32 1.0088773e-32 1.4115668e-32 9.46508e-33 7.92184e-33 1.03832e-32 9.9025025e-33 1.237718e-32
1.8862588e-32 1.7061977e-32 1.9634893e-32 1.814184e-32 8.639572e-34 1.8812468e-33 2.3561734e-33 2.196059e-33
-1.4063967e-32 -1.3189662e-32 -1.4229246e-32 -1.3021124e-32 -8.03397e-33 -2.8015245e-33 -4.430852e-33 4.338379e-34

bias f4 [16]
00000000: 5a73 60be f88d 8f3e 5b4a 33be 2d96 2cbe
00000010: 97ee 573e f166 61be eed8 333e 0880 873e
00000020: 6538 37be 76ee 64be 05a6 6bbe e1a5 7d3e
00000030: 2cf4 553e d732 0e3d d5fc 85be 27a4 ff3d
-0.21919003 0.28038 -0.17508833 -0.16854163 0.21087109 -0.22011925 0.17563221 0.26464868
-0.17892607 -0.2235659 -0.2301255 0.24770309 0.20893925 0.034716453 -0.26169458 0.124824814

weight f4 [16, 32, 3, 3]
00000000: bd7c 223e 4999 e13d 6df1 993d 60f8 b03d
00000010: ba49 5d3d db0c 423c 0c44 233d 1136 85bb
00000020: a4bd d8bc d0f4 31be da44 45be d767 3cbe
00000030: 8f06 10be c0e3 26be 8d27 04be 58f7 febd
00000040: ca94 00be 9f84 d2bd d04d b1bc 5e3f 3cbd
00000050: 5d3a 1dbd 0845 9cbc 0f65 19bd b6db dcbc
00000060: 5e10 56bd 9cbe 84bd 1c08 5cbd 85ab 5e3e
00000070: c2ee 653e b40e 4d3e 8ff7 273e 8d1c 2b3e
00000080: 8005 143e e1e7 083e 51b3 093e 0ad4 d83d
00000090: 5144 af3d bedf 843d feac 783d 85f5 883c
000000a0: 8c59 563c 3a4a 523c a882 313d 36e5 cc3c
000000b0: ae69 de3c 18a5 973d bc94 023e 2b87 043e
000000c0: 3b92 963d 8555 e23d 2c96 e23d 8a79 a63d
000000d0: 82c0 e13d 8b1b d23d 726e 163e b27a 043e
000000e0: c21d a03d af6d f43c 08be 8c3c f64c 18bd
000000f0: 4532 7e3d a161 813d 5181 003c 51ee 733d
00000100: e2e0 143d 3103 ab3c 0104 fe3c 730a 2ebc
00000110: 31f9 97bc 488b 30bc 3a11 cfbc e7ab 1abd
00000120: cb89 13be 5218 c1bd cf3b 79bd 35ee 99bd
00000130: 3d43 25bd 59fc 19bc 78e0 353c 7408 643d
00000140: f3f1 6f3d b8cb 66bd f8ac 81bd 3625 7cbd
00000150: 86df 3dbd 5223 4abd 3b50 36bd fbc0 d2bc
00000160: e810 1fbd 6474 03bd 8f46 183e dc17 253e
00000170: 68b5 1e3e 6265 e93d 5420 063e d1eb 0e3e
00000180: ff08 e73d 777f e53d 395b f93d 301b 6abe
00000190: 07a1 81be 838f 18be db9c 13be 2a47 17be
000001a0: 4ba7 2cbd e9d3 b0bd f68b b1bd 617f f53c
000001b0: 3fca 48bd c382 77bb 3567 b93c 5d4c 6ebc
000001c0: 34d2 9d3c 8f3c 2a3d d177 503c 6378 2d3d
000001d0: 14aa 7a3d da78 bdbd 0d7a 91bd 890e 4c3c
000001e0: d911 97bc a4e1 83ba ca03 7d3d 72d5 923c
000001f0: 2551 1b3d 900a ca3d 048d 99bc dcdc 82bc
00000200: 331b 36bd 1d38 d1bc 7984 86bc 2867 52bd
00000210: 8afa 2cbd a7c6 c5bc 65a8 76bd 3ea9 3cbe
00000220: d6b8 3cbe dbec 2fbe fd06 0ebe 63c8 0bbe
00000230: 0315 febd c948 fbbd 6ff0 f5bd 8730 d5bd
00000240: 345d e0bd e415 d5bd 0563 a9bd 0ccb 14be
00000250: 832f edbd d907 76bd afe4 c6bd 5038 74bd
00000260: 1950 7e3c 2e0b 063d 1765 fc3c 5317 0e3d
00000270: e4f6 003c 0b93 d236 8d91 b33b bc32 34bd
00000280: 6002 3bbd 98a3 34bd 2dd8 42bd 91f0 eabc
00000290: 9e73 3fbd b464 18bd 02d0 bfbc 7755 9fbc
000002a0: e2f0 2abd 92d4 3cbd 63bf 6abd 9c48 61bd
000002b0: 372b 15bd b749 28bd 06fb 3ebd c56c 6fbd
000002c0: 7352 83bd 8d0c 77bd e5c8 adbd 6736 d6bd
000002d0: 0250 82bd f673 51bd 21d1 40bd 4e90 6dbd
000002e0: 459c 60bd 17c5 92bd e9e5 abbd fd1e cbbd
000002f0: 9fdc e6bd c2bf f98b 5b56 960c 07b9 0d0e
00000300: 8398 d08d 9903 050e a762 198e f972 e40d
00000310: 65ad dc8d b37d 088e 5aba 1bbe 2c72 00be
00000320: c7ea f7bd 3614 04be c688 c3bd 1eeb aebd
00000330: e54d f3bd 7db3 8cbd c781 53bd 40b5 9339
00000340: 55f8 e8bb dc69 ed3c f39f a9bb b69f b4bc
00000350: 412f 123c 0a40 493d 0e56 483c 0adc 033d
00000360: 7e50 8ebd 6e69 7cbd 3198 7dbd 38bf 90bd
00000370: 1225 4cbd bdb3 35bd 6ad0 a1bd 6271 3bbd
00000380: 4c12 13bd 8032 9bbd b5da b7bd f25d 83bd
00000390: d5e6 3bbd 2476 1dbc 4121 f7bb f1d4 c1bc
000003a0: 9951 463c a5ef 07bd 0295 d5bd 8eb4 47bd
000003b0: 453a 91bc 2e60 e2bc 17dc 783c ad2e fb3c
000003c0: 9cb0 b0bc dcf8 9e3b e05f c83b 5be7 fcbc
000003d0: ea6f 6abc a711 3cbb 8056 76bc 527d 85bc
000003e0: bf55 c6bc 4d2b d7bc 3aee 44bd 7529 91bd
000003f0: 8f0c db38 06ef e438 ad9b e138 e2b9 ea38
0.15867896 0.11015565 0.075167514 0.08641124 0.05402539 0.011843885 0.039859816 -0.004065283
-0.026457615 -0.17378545 -0.19264546 -0.18398987 -0.14065002 -0.16297817 -0.12905712 -0.12449521
-0.12556759 -0.10279202 -0.02164355 -0.04595887 -0.038385738 -0.019075885 -0.037449893 -0.026960235
-0.052261703 -0.06481668 -0.05371867 0.21745117 0.2245436 0.2002514 0.1640303 0.1671011
0.14455223 0.13369705 0.1344731 0.10587318 0.08557952 0.06487988 0.060711853 0.016718635
0.013082873 0.01283508 0.043337494 0.02501164 0.027150001 0.07404536 0.1275205 0.12942187
0.0735211 0.11051468 0.11063799 0.081286505 0.11023046 0.1025916 0.14690569 0.1293743
0.07818176 0.029837457 0.017180458 -0.03718277 0.06205966 0.06317449 0.007843331 0.059553448
0.036347277 0.020875545 0.031007769 -0.0106226085 -0.01855144 -0.010775395 -0.025276769 -0.037761595
-0.14408033 -0.09428467 -0.060848054 -0.075161375 -0.040347327 -0.009398543 0.011100881 0.055672124
0.05858035 -0.056346625 -0.06331819 -0.061558925 -0.046355747 -0.04935009 -0.044510107 -0.025726786
-0.038834482 -0.03209342 0.14870666 0.16122383 0.15498888 0.1139629 0.1309827 0.13957144
0.11281013 0.112059526 0.121756025 -0.22861934 -0.25318167 -0.14898495 -0.14415304 -0.1477324
-0.04215173 -0.08634169 -0.086692736 0.029967966 -0.049021002 -0.003776715 0.02263222 -0.014544574
0.019265272 0.04156166 0.012723879 0.042351138 0.061197355 -0.09251566 -0.071033575 0.012454637
-0.018441128 -0.0010061753 0.06177119 0.017924044 0.037919182 0.09865296 -0.018744 -0.015974455
-0.044459533 -0.025539452 -0.01642059 -0.05136791 -0.04223112 -0.024142576 -0.060219187 -0.18423936
-0.18429884 -0.17180197 -0.13869853 -0.1365066 -0.124063514 -0.12269742 -0.1200875 -0.104096465
-0.10955277 -0.10404566 -0.082708396 -0.14530581 -0.11581328 -0.060066078 -0.09711587 -0.059624016
0.015522026 0.032725506 0.030809922 0.034690212 0.007871363 6.2756058e-06 0.0054799975 -0.043993697
-0.04565656 -0.044101328 -0.047569443 -0.028679164 -0.04674112 -0.037205413 -0.023414616 -0.019449933
-0.04173363 -0.04610116 -0.057311427 -0.055000886 -0.036418166 -0.041085925 -0.046626113 -0.05845334
-0.0641221 -0.060314704 -0.08485583 -0.10459595 -0.063629165 -0.05113598 -0.04707444 -0.057998948
-0.05483653 -0.07166498 -0.08393461 -0.0991802 -0.11272549 -9.6199836e-32 2.3163133e-31 1.746868e-30
-1.2855706e-30 1.6395248e-30 -1.8906205e-30 1.4079264e-30 -1.360029e-30 -1.6823816e-30 -0.15207806 -0.12543553
-0.12105327 -0.12898335 -0.09547572 -0.08540939 -0.118800916 -0.06870172 -0.051637437 0.00028173067
-0.0071096816 0.028981142 -0.005176538 -0.022048812 0.008922399 0.049133338 0.012227548 0.032192267
-0.069489464 -0.061623983 -0.06191272 -0.07067722 -0.04984004 -0.044360865 -0.0790108 -0.045762427
-0.03590612 -0.075779915 -0.08977262 -0.06414403 -0.045874435 -0.009610686 -0.007541806 -0.023661109
0.012104415 -0.033187527 -0.104288116 -0.048756175 -0.01772798 -0.027633753 0.015189192 0.030661905
-0.021568589 0.0048514437 0.006114945 -0.030872038 -0.014308909 -0.0028697045 -0.015035272 -0.016295109
-0.024210809 -0.026265765 -0.048078753 -0.070879854 0.00010445073 0.00010916409 0.00010757833 0.00011192613

bias f4 [16]
00000000: a049 063c 5a08 13ab b08b 143e c9a1 f8b7
00000010: 5324 2c3c 5903 c8bc 7275 c7bc 70f2 0a9f
00000020: 44af 2ebd e901 72b8 82bb 663e 5036 0cb7
00000030: 93c6 d63d e819 07bd 9e7e 37bd 4bd4 ec3d
0.0081962645 -5.223648e-13 0.14506412 -2.963924e-05 0.010506707 -0.024415659 -0.024347994 -2.9423176e-20
-0.042647615 -5.7699075e-05 0.22532466 -8.357296e-06 0.10487094 -0.03298369 -0.044798486 0.11563929

weight f4 [16, 16, 3, 3]
00000000: 566b 07bd 2489 393c 37b5 92bb 1c26 bd3c
00000010: 0265 623d 4f6f 8d3d edde 223d 2186 d23d
00000020: cf4d fe3d be1b 0c99 3a71 8a1a e8f8 3c1c
00000030: f0fb 3a1b e618 f21c 469b 091d bc42 dc99
00000040: 76e7 561d 80fd e61d 13ad 213d f5b8 533d
00000050: 8f31 fe3c cd63 fcbc 1332 d9bb d22c 853d
00000060: 75db 15bd 8725 2fbc 74dc 493d 3086 c8ab
00000070: 6b00 d2ab 0ff5 e4ab 8e1d 7cab 7083 80ab
00000080: 7376 91ab 1194 0bab a20f 12ab a355 2fab
00000090: 7de1 eabc 8695 f93c b5f0 2a3d f846 a2bc
000000a0: 78e7 573d 94df 923d 083b ebbc 603a 793d
000000b0: 51e7 cb3d 8bdc 303c d26f 363c 62bd 443c
000000c0: 8475 253c 003e 2a3c 195f 393c 887b 1b3c
000000d0: 4bc0 223c 47ae 333c dc63 91bc 8208 91bc
000000e0: c438 8abc 0b1b 83bc a4ba 81bc 712a 73bc
000000f0: ad32 6dbc a0df 68bc 5e57 57bc 4ed2 e420
00000100: 874e f920 b9c8 0021 6520 a720 73e6 b720
00000110: 8b89 bf20 4e12 7a20 79d8 8820 8e3e 9120
00000120: ea87 1dbd 2641 83bd a73e babd ddcf 19bd
00000130: b69d 83bd cd9f babd 0174 5dbc ebc2 26bd
00000140: e55a 8abd 08b9 25b6 52be efb5 93ca 35b4
00000150: b938 f5b5 d9ba e8b5 18ca 04b5 870c 79b5
00000160: f31f 9cb5 0692 9ab4 0bde b23d 9c45 b13d
00000170: 4675 3e3d a118 e73d 487b d53d fa82 fb3d
00000180: a48e 223e 98a0 f23d ac01 2a3e b629 b235
00000190: 5f48 b1b5 4d4e 76b6 da20 39b6 f058 a734
000001a0: 3c7f e7b5 b78b 9836 e6c0 2436 24b5 5936
000001b0: f57e 4d3e 5a96 c13d 89b8 b63d cec7 5e3d
000001c0: fea4 153e e386 313e 6f7e 0d3e 3673 413d
000001d0: f594 133e 1f1e 38bc 1975 36bc 1021 3abc
000001e0: 61b8 2cbc 8350 30bc 1358 32bc ed6a 1fbc
000001f0: 0703 20bc f3bb 26bc e3c1 46bb 4cc3 41bc
00000200: a8b1 a3bc 1585 a83b bc9f 97bb e3b4 60bc
00000210: 41a7 213c f8d8 39ba 12e2 29bc f1c0 c0bd
00000220: 7b92 78bd ba26 863d 89db 753d d72f 91bd
00000230: 3280 0cbc 510f 803d 31f0 32bd 6905 b73c
00000240: 0006 bdba 4d42 2abb 7240 87bb 3695 ec3a
00000250: bbf9 8b39 b049 d8ba a4f1 ad3b 2ac1 703b
00000260: 2e7b 993a a6be 0000 28a7 0080 cea2 0080
00000270: feeb 0000 1ba0 0080 021d 0080 370b 0100
00000280: 27b4 0080 2af7 0000 e4a8 19bd 55e9 15bd
00000290: df5b 15bd 0379 17bd 5f01 14bd 1092 13bd
000002a0: a4dd 13bd 884f 10bd 4005 10bd aa29 0100
000002b0: 5884 0380 3d27 0580 236a 0400 89cf 0080
000002c0: 4959 0380 9010 0080 93a2 0300 49a4 0100
000002d0: 1eb1 41bc 2c5c 46bc df36 4dbc 550c 30bc
000002e0: 45af 31bc e198 30bc ba12 2abc 2ba0 25bc
000002f0: 71fd 1bbc 208e 0000 b232 0000 fd32 0080
00000300: b697 0080 ed18 0080 0ec1 0000 a6a5 0000
00000310: 36be 0080 5b58 0080 07a5 0000 3aaa 0080
00000320: f2e9 0000 c9fa 0080 02de 0000 40c8 0000
00000330: 93ea 0000 ee49 0080 5e00 0080 e6d3 0200
00000340: 6a51 0500 92bc 0180 30d6 0480 aba6 0180
00000350: 8b3e 0580 26ff 0000 63d1 0100 7787 0300
00000360: 8087 89bb f748 babb 6fb3 d8bb e306 8ebb
00000370: a7e2 bbbb f63f d7bb 8172 8bbb c8d7 b2bb
00000380: 58f3 cbbb 0a46 0180 3b8b 0080 87e1 0000
00000390: 7c42 0180 e6c7 0080 20db 0000 04df 0080
000003a0: c21c 0000 232c 0080 1fd0 a3bc 8eac a2bc
000003b0: a3d2 a1bc 2024 a4bc 6e06 a2bc de01 a2bc
000003c0: c8a6 a3bc 10d4 a3bc 0130 a5bc 39de 0100
000003d0: 044c 0380 0551 0000 9bb4 0580 b3c5 0080
000003e0: da9c 0300 8b1c 0100 b0a5 0100 e193 0400
000003f0: ecca 20bd b924 23bd ba6f 21bd a4f8 1fbd
-0.033061348 0.011324201 -0.004477169 0.023089461 0.05527211 0.06905996 0.03976338 0.10279489
0.124171846 -7.243433e-24 5.725839e-23 6.2525686e-22 1.5466965e-22 1.6020653e-21 1.8212074e-21 -2.277442e-23
2.8442327e-21 6.1142606e-21 0.039471697 0.05169006 0.03102949 -0.030809307 -0.0066282838 0.065026894
-0.036586244 -0.0106901 0.049282506 -1.4248099e-12 -1.4921513e-12 -1.6268392e-12 -8.95694e-13 -9.131428e-13
-1.0335746e-12 -4.9588204e-13 -5.1891315e-13 -6.2291334e-13 -0.028671974 0.030466806 0.041733462 -0.019809231
0.05271098 0.071715504 -0.028714672 0.060846686 0.099562295 0.010794769 0.0111350585 0.012008043
0.010098819 0.0103907585 0.011314177 0.009489901 0.0099335415 0.010966844 -0.017747812 -0.017704252
-0.016872771 -0.016004106 -0.015836067 -0.014841662 -0.014477414 -0.014213473 -0.013143389 3.876387e-19
4.2234206e-19 4.363374e-19 2.8312337e-19 3.1153904e-19 3.2447677e-19 2.118188e-19 2.3182546e-19 2.460535e-19
-0.038459696 -0.064089105 -0.09093981 -0.03755175 -0.06426565 -0.09112511 -0.013516427 -0.040713232
-0.06755618 -2.4694618e-06 -1.7862278e-06 -1.6930635e-07 -1.8270431e-06 -1.7339727e-06 -4.9467917e-07 -9.277796e-07
-1.1632204e-06 -2.879098e-07 0.087337576 0.08655855 0.04649856 0.112839945 0.10423905 0.12280841
0.15874726 0.11847037 0.166022 1.3274173e-06 -1.320859e-06 -3.6702434e-06 -2.758627e-06 3.1170885e-07
-1.7247871e-06 4.546218e-06 2.4550186e-06 3.2440958e-06 0.20067962 0.094525054 0.08921916 0.054389767
0.14613721 0.17336611 0.13817762 0.047229014 0.14412291 -0.01123765 -0.011136317 -0.011360422
-0.010542006 -0.010761383 -0.010885256 -0.009730083 -0.009766347 -0.0101766465 -0.0030327968 -0.011826348
-0.019982174 0.0051428177 -0.004627196 -0.013715002 0.009866537 -0.0007089521 -0.010368841 -0.09411801
-0.06068657 0.06550355 0.06002382 -0.07089203 -0.008575486 0.062529214 -0.043686096 0.022341447
-0.0014421344 -0.002597946 -0.0041275555 0.001804984 0.0002669821 -0.0016501453 0.005308347 0.0036736229
0.0011709684 6.8392e-41 -5.9964e-41 -5.8403e-41 8.4658e-41 -5.7435e-41 -1.0406e-41 9.5859e-41
-6.4626e-41 8.8666e-41 -0.037514582 -0.036599476 -0.03646457 -0.03698064 -0.03613412 -0.036027968
-0.036100045 -0.035232097 -0.035161257 1.06782e-40 -3.22982e-40 -4.73254e-40 4.05417e-40 -7.445e-41
-3.07536e-40 -5.942e-42 3.33827e-40 1.5077e-40 -0.011822013 -0.012106936 -0.012525289 -0.010745128
-0.01084501 -0.010778637 -0.010380441 -0.010108988 -0.009520874 5.0985e-41 1.8186e-41 -1.8291e-41
-5.4424e-41 -8.942e-42 6.9255e-41 5.9423e-41 -6.8235e-41 -3.1696e-41 5.92e-41 -6.1066e-41
8.3924e-41 -8.9965e-41 7.9641e-41 7.1836e-41 8.415e-41 -2.6521e-41 -1.32e-43 2.59686e-40
4.88383e-40 -1.59482e-40 -4.44178e-40 -1.51625e-40 -4.81614e-40 9.153e-41 1.66949e-40 3.24102e-40
-0.004197061 -0.0056849676 -0.006613187 -0.004334317 -0.005733806 -0.006568904 -0.0042555933 -0.005457852
-0.006224077 -1.16961e-40 -4.9946e-41 8.0904e-41 -1.15686e-40 -7.171e-41 7.8607e-41 -8.0003e-41
1.0316e-41 -1.5833e-41 -0.0199967 -0.019857671 -0.01975376 -0.020036757 -0.019778457 -0.019776281
-0.019976988 -0.01999858 -0.020164492 1.71554e-40 -3.02776e-40 2.9064e-41 -5.23967e-40 -7.0921e-41
3.31774e-40 1.02075e-40 1.51273e-40 4.20391e-40 -0.03925602 -0.039829943 -0.03941319 -0.03905548

bias f4 [16]
00000000: 082a 663e aeff bebc 6acd 743c ad0f 793d
00000010: ba09 d33d 8ac4 4b3e f232 0eb7 5834 1b3e
00000020: 8df5 09b6 c964 27be 7192 bb3d e1e8 9e8e
00000030: 72ae d3b8 4e7f 52bc 3276 bd3a f7fe 533e
0.22476971 -0.023315277 0.014941553 0.060805965 0.103045896 0.19899192 -8.475721e-06 0.15156686
-2.055752e-06 -0.1634704 0.09158791 -3.917426e-30 -0.00010093757 -0.012847735 0.0014454781 0.2070273
