data/ForestSegmentationOutput/experiemnts/MORE_EPOCHS_FIXED_BLOCK_run_FINAL_05-01-2024_14h53min/unet_id=W3ja4_width=32_num_layers=2_lr=0.00085_epochs=1400.pth (torch, 115765 bytes, 16 tensors)

weight f4 [16, 8, 3, 3]
0	0x800025d6	-1.3573e-41
1	0x8000352f	-1.9079e-41
2	0x8000172c	-8.313e-42
3	0x800023d7	-1.2857e-41
4	0x80003818	-2.0123e-41
5	0x8000205b	-1.1607e-41
6	0x00004554	2.487e-41
7	0x00003056	1.734e-41
8	0x000005ff	2.151e-42
9	0x800000bc	-2.63e-43
10	0x80003e77	-2.2408e-41
11	0x8000553f	-3.058e-41
12	0x00001360	6.95e-42
13	0x800018b5	-8.863e-42
14	0x800007ac	-2.752e-42
15	0x00000c92	4.51e-42
16	0x00000ccf	4.595e-42
17	0x8000548c	-3.033e-41
18	0x00004a14	2.6574e-41
19	0x000040dd	2.3269e-41
20	0x0000106e	5.894e-42
21	0x80000e98	-5.235e-42
22	0x8000052a	-1.853e-42
23	0x00002bc1	1.5696e-41
24	0x000024db	1.3221e-41
25	0x00001be5	1.0007e-41
26	0x80000bb7	-4.202e-42
27	0x80004d89	-2.7814e-41
28	0x800045ff	-2.511e-41
29	0x80000598	-2.007e-42
30	0x80004931	-2.6256e-41
31	0x80003969	-2.0595e-41
32	0x80004991	-2.639e-41
33	0x00000288	9.08e-43
34	0x8000233a	-1.2637e-41
35	0x000001d5	6.57e-43
36	0x000039f3	2.0788e-41
37	0x800014c9	-7.456e-42
38	0x80004190	-2.352e-41
39	0x0000535f	2.9908e-41
40	0x00004ece	2.827e-41
41	0x800034c0	-1.8923e-41
42	0x0000595e	3.2059e-41
43	0x00002407	1.2924e-41
44	0x00002461	1.305e-41
45	0x80003ba2	-2.1392e-41
46	0x80003136	-1.7654e-41
47	0x000011b8	6.356e-42
48	0x80003d4e	-2.1992e-41
49	0x80004066	-2.3102e-41
50	0x80003d18	-2.1916e-41
51	0x80002904	-1.4714e-41
52	0x80002700	-1.399e-41
53	0x00001dd7	1.0705e-41
54	0x80000cc6	-4.582e-42
55	0x80000c1f	-4.348e-42
56	0x80001cd3	-1.034e-41
57	0x000028e1	1.4665e-41
58	0x00003261	1.8073e-41
59	0x00003e37	2.2318e-41
60	0x00002916	1.4739e-41
61	0x000008ba	3.13e-42
62	0x80002e01	-1.6503e-41
63	0x80001285	-6.644e-42
64	0x80000f82	-5.563e-42
65	0x80000fc5	-5.657e-42
66	0x000021ff	1.2196e-41
67	0x00002b40	1.5515e-41
68	0x000032bf	1.8204e-41
69	0x000038e4	2.0409e-41
70	0x00002164	1.1978e-41
71	0x800000a2	-2.27e-43
72	0xb2ab11f6	-1.9915188e-08
73	0xb2a7dcba	-1.9541734e-08
74	0xb2a3499f	-1.9009176e-08
75	0xb2aa8d5e	-1.9854891e-08
76	0xb2a9e701	-1.9779238e-08
77	0xb2a75118	-1.9478236e-08
78	0xb2a27e1b	-1.8916628e-08
79	0xb2a5e4ef	-1.9312635e-08
80	0xb2a67c65	-1.9381512e-08
81	0xa97fb843	-5.6781196e-14
82	0xa9786bf6	-5.5160703e-14
83	0xa9691470	-5.175412e-14
84	0xa974a849	-5.4324848e-14
85	0xa9735fbc	-5.4039875e-14
86	0xa96b6636	-5.2269136e-14
87	0xa95aa32f	-4.8547263e-14
88	0xa962aed1	-5.033371e-14
89	0xa963e95f	-5.0606542e-14
90	0xaf8d28ec	-2.5676827e-10
91	0xaf7bd90b	-2.2905426e-10
92	0xaf58e147	-1.972512e-10
93	0xaf76946d	-2.2426301e-10
94	0xaf5ce672	-2.0090754e-10
95	0xaf476e7d	-1.8138198e-10
96	0xaf557895	-1.9415076e-10
97	0xaf446cec	-1.7864793e-10
98	0xaf3725db	-1.6657202e-10
99	0xadbdefe3	-2.1593343e-11
100	0xada2197b	-1.8428583e-11
101	0xad851a83	-1.5132123e-11
102	0xad9fdd54	-1.8174497e-11
103	0xad87bd4c	-1.5431788e-11
104	0xad6e5da4	-1.3549526e-11
105	0xad8ab307	-1.5768288e-11
106	0xad740633	-1.3871171e-11
107	0xad5ece19	-1.2665002e-11
108	0x9c4fbb72	-6.873282e-22
109	0x9c29fabf	-5.624149e-22
110	0x9bed55d4	-3.9263826e-22
111	0x9c0c77d8	-4.647701e-22
112	0x9be02e6b	-3.7087688e-22
113	0x9bb31791	-2.9628295e-22
114	0x9bc09679	-3.1860976e-22
115	0x9b9f8802	-2.6392236e-22
116	0x9b8977fd	-2.274229e-22
117	0xb8eef68b	-0.000113946466
118	0xb8e5e7c1	-0.000109627385
119	0xb8d726d7	-0.000102592334
120	0xb8e51995	-0.00010924336
121	0xb8dcd977	-0.000105309235
122	0xb8d0e842	-9.961474e-05
123	0xb8d365a0	-0.00010080193
124	0xb8cb9fe5	-9.709577e-05
125	0xb8c2ea62	-9.294298e-05
126	0xba5e36e8	-0.00084768096
127	0xba59633c	-0.000829268
128	0xba513a02	-0.0007981361
129	0xba5a19f9	-0.000831991
130	0xba5627d5	-0.00081693876
131	0xba4ed311	-0.0007889728
132	0xba4db156	-0.00078465545
133	0xba49655f	-0.0007682647
134	0xba437898	-0.00074566295
135	0xba2a7917	-0.0006503029
136	0xba266bcc	-0.00063484604
137	0xba1fb5ff	-0.0006092488
138	0xba276412	-0.0006385456
139	0xba241a15	-0.000625999
140	0xba1e2fc3	-0.0006034339
141	0xba1da11d	-0.00060130825
142	0xba1a191e	-0.00058783765
143	0xba1550a7	-0.0005695917
144	0x00002736	1.4066e-41
145	0x00002709	1.4003e-41
146	0x00002372	1.2715e-41
147	0x00002278	1.2365e-41
148	0x000022eb	1.2526e-41
149	0x00002712	1.4016e-41
150	0x00001c47	1.0144e-41
151	0x00001de0	1.0717e-41
152	0x0000255d	1.3403e-41
153	0x0000303d	1.7305e-41
154	0x80003e6f	-2.2397e-41
155	0x0000389b	2.0306e-41
156	0x00002d33	1.6214e-41
157	0x00003d89	2.2075e-41
158	0x00003fe7	2.2924e-41
159	0x00002161	1.1974e-41
160	0x00003a6c	2.0958e-41
161	0x80002cb4	-1.6036e-41
162	0x00001446	7.273e-42
163	0x00000f9c	5.6e-42
164	0x000021cb	1.2123e-41
165	0x0000377f	1.9908e-41
166	0x000033df	1.8608e-41
167	0x00003e01	2.2243e-41
168	0x00001453	7.291e-42
169	0x000025b1	1.3521e-41
170	0x00003bc8	2.1445e-41
171	0x800038b2	-2.0338e-41
172	0x8000430a	-2.4049e-41
173	0x80003701	-1.9732e-41
174	0x80004239	-2.3756e-41
175	0x80004317	-2.4067e-41
176	0x8000323a	-1.8018e-41
177	0x80004200	-2.3676e-41
178	0x8000405b	-2.3086e-41
179	0x80001be9	-1.0012e-41
180	0x80004666	-2.5254e-41
181	0x80001a43	-9.421e-42
182	0x000003bc	1.34e-42
183	0x80001c73	-1.0206e-41
184	0x000013a5	7.047e-42
185	0x00004642	2.5204e-41
186	0x000020bf	1.1747e-41
187	0x800012bd	-6.722e-42
188	0x000045c0	2.5022e-41
189	0x9673da7a	-1.9698323e-25
190	0x966502e7	-1.8499389e-25
191	0x962ffbac	-1.4215801e-25
192	0x95e7bb2c	-9.359546e-26
193	0x95eb1367	-9.4946356e-26
194	0x957e90fb	-5.140926e-26
195	0x95c66159	-8.012515e-26
196	0x95a68d53	-6.7269836e-26
197	0x94fe42e4	-2.567383e-26
198	0xa350ed87	-1.1326001e-17
199	0xa32dc6f1	-9.420476e-18
200	0xa2e37620	-6.1653543e-18
201	0xa306602b	-7.284519e-18
202	0xa2db5410	-5.9449074e-18
203	0xa25f2dba	-3.0246343e-18
204	0xa2e9bc85	-6.335438e-18
205	0xa2a79c66	-4.5431034e-18
206	0xa2061724	-1.8172637e-18
207	0xa19fc11f	-1.0825378e-18
208	0xa188357c	-9.229876e-19
209	0xa1341ae1	-6.1021946e-19
210	0xa1503595	-7.0544056e-19
211	0xa12bc7f3	-5.8201684e-19
212	0xa0acd693	-2.9279927e-19
213	0xa13c8681	-6.387489e-19
214	0xa1058392	-4.5236285e-19
215	0xa04c6651	-1.7313326e-19
216	0x80003b78	-2.1333e-41
217	0x80003ae1	-2.1122e-41
218	0x800031c6	-1.7855e-41
219	0x800031f4	-1.792e-41
220	0x8000412a	-2.3376e-41
221	0x800039e4	-2.0767e-41
222	0x8000275a	-1.4117e-41
223	0x80003916	-2.0479e-41
224	0x8000245d	-1.3045e-41
225	0x00003bf7	2.1511e-41
226	0x800038f6	-2.0434e-41
227	0x80000576	-1.959e-42
228	0x80001945	-9.065e-42
229	0x00001812	8.635e-42
230	0x00000c71	4.463e-42
231	0x800016f6	-8.237e-42
232	0x00002a5e	1.5198e-41
233	0x000028cc	1.4635e-41
234	0x800007ff	-2.868e-42
235	0x80002333	-1.2627e-41
236	0x80002e66	-1.6645e-41
237	0x00000884	3.055e-42
238	0x80004418	-2.4427e-41
239	0x80003536	-1.9088e-41
240	0x80003d61	-2.2019e-41
241	0x80001f5b	-1.1248e-41
242	0x80000ee2	-5.339e-42
243	0x00000cb3	4.556e-42
244	0x00002ca7	1.6018e-41
245	0x00003a71	2.0965e-41
246	0x00003e23	2.229e-41
247	0x00002ce4	1.6104e-41
248	0x8000243b	-1.2997e-41
249	0x80000893	-3.076e-42
250	0x80004434	-2.4467e-41
251	0x8000011c	-3.98e-43
252	0x80001b4d	-9.794e-42
253	0x80001b4e	-9.795e-42
254	0x0000434b	2.414e-41
255	0x80002453	-1.303e-41

bias f4 [16]
0	0xa2e7b52a	-6.280449e-18
1	0xbba64153	-0.005073705
2	0xb2df12a0	-2.5969086e-08
3	0xafdf70fe	-4.064375e-10
4	0x9f2dc3b0	-3.6796044e-20
5	0x9b8e6c40	-2.3561884e-22
6	0x3ee54e65	0.44786373
7	0x3ec61e2e	0.386949
8	0x3ed4a161	0.41529372
9	0xbe323ee4	-0.17406803
10	0xaac57f1c	-3.508243e-13
11	0x3f00cd57	0.50313324
12	0xbc7a1642	-0.015264096
13	0x3ece405a	0.4028347
14	0xa68f588b	-9.946618e-16
15	0xbc3aac22	-0.011393579

weight f4 [16, 16, 3, 3]
0	0x00030f15	2.80917e-40
1	0x8002b6ad	-2.49203e-40
2	0x80021a04	-1.93004e-40
3	0x800159c5	-1.24039e-40
4	0x800092ec	-5.2706e-41
5	0x800004ae	-1.679e-42
6	0x0000ec62	8.4798e-41
7	0x80026e05	-2.23139e-40
8	0x0000bd02	6.7803e-41
9	0x000059a7	3.2161e-41
10	0x80031497	-2.82893e-40
11	0x80006dcc	-3.9388e-41
12	0x0002b602	2.48963e-40
13	0x800362c2	-3.10934e-40
14	0x000044e3	2.4712e-41
15	0x0001e92c	1.75482e-40
16	0x0000c1be	6.9502e-41
17	0x0003c174	3.44904e-40
18	0x00019675	1.4581e-40
19	0x00015d91	1.25401e-40
20	0x0002fc8c	2.74268e-40
21	0x80006897	-3.752e-41
22	0x0001d37a	1.67699e-40
23	0x80028fce	-2.35258e-40
24	0x000177c2	1.34797e-40
25	0x00026d29	2.2283e-40
26	0x80012833	-1.06256e-40
27	0x800139d1	-1.12576e-40
28	0x00037f80	3.21245e-40
29	0x00020f1b	1.8909e-40
30	0x8000d1d3	-7.5271e-41
31	0x800013ef	-7.151e-42
32	0x80002449	-1.3017e-41
33	0x0001d24c	1.67276e-40
34	0x80018cc4	-1.42333e-40
35	0x0000db25	7.8614e-41
36	0x800250c1	-2.1264e-40
37	0x00040ae8	3.71254e-40
38	0x00009c59	5.6087e-41
39	0x00015b34	1.24553e-40
40	0x00007d70	4.4998e-41
41	0x000082c2	4.6907e-41
42	0x00016091	1.26477e-40
43	0x0002897a	2.32988e-40
44	0x80004189	-2.351e-41
45	0x000302b5	2.76478e-40
46	0x00012a9e	1.07124e-40
47	0x0003cc8f	3.48888e-40
48	0x0001cd1d	1.65416e-40
49	0x00036f3f	3.15414e-40
50	0x800284aa	-2.31262e-40
51	0x00027742	2.26453e-40
52	0x80031131	-2.81674e-40
53	0x8001a156	-1.49712e-40
54	0xb619bd69	-2.2909028e-06
55	0x35c192e6	1.4422374e-06
56	0xb51c59e8	-5.824536e-07
57	0xb8759430	-5.8550562e-05
58	0xb8b431e9	-8.592365e-05
59	0x36e1aca2	6.7256196e-06
60	0x360fd168	2.143055e-06
61	0xb5eb1b49	-1.7516805e-06
62	0xb45df0dd	-2.0669854e-07
63	0xbb2de388	-0.0026533324
64	0xbb45338a	-0.0030090534
65	0xbb3d6e40	-0.0028904825
66	0xbb470b17	-0.00303716
67	0xbb407500	-0.0029366612
68	0xbb391fbd	-0.0028247677
69	0xbb0c8145	-0.0021439355
70	0xbb0edf36	-0.0021800525
71	0xbb33ea9d	-0.0027453073
72	0xb4ff937b	-4.7604757e-07
73	0xb41cb499	-1.4594333e-07
74	0xb5ab8aec	-1.2780924e-06
75	0x35a1d4c1	1.2057354e-06
76	0xb5d9500c	-1.6191057e-06
77	0xb5acfacf	-1.2887994e-06
78	0xb496a66a	-2.806076e-07
79	0xb5fa3dd7	-1.8644449e-06
80	0xb5c3b381	-1.4580875e-06
81	0xbbeec451	-0.0072865863
82	0xbbff761b	-0.0077960617
83	0xbc06f8e0	-0.008238047
84	0xbc1a045c	-0.009400453
85	0xbc04d373	-0.008107054
86	0xbbe19ef3	-0.0068854033
87	0xbc1e50c3	-0.00966281
88	0xbbeb4e64	-0.0071809758
89	0xbbb6d997	-0.005580138
90	0x80026431	-2.19613e-40
91	0x0001866e	1.4006e-40
92	0x8001055f	-9.3762e-41
93	0x800330c5	-2.93002e-40
94	0x8000242b	-1.2975e-41
95	0x800067f3	-3.729e-41
96	0x80028377	-2.30832e-40
97	0x80031731	-2.83826e-40
98	0x80008e9a	-5.1156e-41
99	0xbbd6291f	-0.0065356637
100	0xbbe5e63a	-0.0070159705
101	0xbbfd4b69	-0.007729937
102	0xbbe9b764	-0.0071324576
103	0xbc02c176	-0.007980695
104	0xbc0a549c	-0.008443024
105	0xbbe43635	-0.00696447
106	0xbc017984	-0.007902507
107	0xbc0d2440	-0.0086146
108	0x0000f743	8.8701e-41
109	0x80011929	-1.00861e-40
110	0x8002bdf1	-2.51809e-40
111	0x0000103f	5.828e-42
112	0x8000428f	-2.3877e-41
113	0x8000663f	-3.6679e-41
114	0x80012b47	-1.0736e-40
115	0x8002cb73	-2.56655e-40
116	0x0003b8ce	3.41802e-40
117	0xb9e20e99	-0.00043116955
118	0xbab8788b	-0.001407401
119	0xba95f188	-0.001143978
120	0xbb09066a	-0.0020908364
121	0xbb01656f	-0.0019744297
122	0xba34dedf	-0.00068996655
123	0xbae1edda	-0.0017237023
124	0xb9e6a511	-0.00043992003
125	0x36a6e673	4.9740133e-06
126	0x80014b7b	-1.18913e-40
127	0x00017b83	1.36143e-40
128	0x80021f08	-1.94803e-40
129	0x8000d926	-7.7898e-41
130	0x00006d1c	3.9141e-41
131	0x8000e66e	-8.2663e-41
132	0x00006159	3.4922e-41
133	0x80005c20	-3.3048e-41
134	0x80013f5f	-1.14569e-40
135	0x8002c53f	-2.5443e-40
136	0x0001fe41	1.83045e-40
137	0x80013791	-1.11769e-40
138	0x000303dd	2.76892e-40
139	0x80026d16	-2.22804e-40
140	0x80006393	-3.572e-41
141	0x80022c51	-1.99569e-40
142	0x80008211	-4.6659e-41
143	0x000266c7	2.2054e-40
144	0x8001583f	-1.23492e-40
145	0x80011328	-9.8707e-41
146	0x800150e2	-1.20851e-40
147	0x00002326	1.2609e-41
148	0x80013202	-1.09775e-40
149	0x00026515	2.19932e-40
150	0x00027274	2.24729e-40
151	0x000029f0	1.5044e-41
152	0x80025073	-2.12531e-40
153	0x0003bebc	3.43929e-40
154	0x000168db	1.2945e-40
155	0x8001c5db	-1.62813e-40
156	0x80002e07	-1.6511e-41
157	0x0001e07b	1.72364e-40
158	0x800166a7	-1.2866e-40
159	0x00000439	1.515e-42
160	0x0000b83b	6.609e-41
161	0x8000bfab	-6.8758e-41
162	0x0002882f	2.32524e-40
163	0x8002a313	-2.42171e-40
164	0x0000377f	1.9908e-41
165	0x80009897	-5.4739e-41
166	0x00008e4f	5.1051e-41
167	0x000168a2	1.2937e-40
168	0x00017907	1.35252e-40
169	0x00028092	2.29793e-40
170	0x800255b9	-2.14422e-40
171	0x80004a1d	-2.6587e-41
172	0x8002c2d8	-2.53568e-40
173	0x0001713f	1.3246e-40
174	0x8001bb16	-1.58949e-40
175	0x8000c9e6	-7.2428e-41
176	0x00038059	3.21549e-40
177	0x00001140	6.188e-42
178	0x80011be1	-1.01837e-40
179	0x8000253e	-1.336e-41
180	0x8001540c	-1.21986e-40
181	0x00009a2c	5.5306e-41
182	0x000297ec	2.3817e-40
183	0x00023d63	2.05692e-40
184	0x0000687c	3.7482e-41
185	0x80038dc4	-3.26362e-40
186	0x00026598	2.20116e-40
187	0x00013688	1.11398e-40
188	0x80016efd	-1.3165e-40
189	0x800231b6	-2.01504e-40
190	0x80027087	-2.24038e-40
191	0x80012876	-1.0635e-40
192	0x8001b773	-1.57645e-40
193	0x0000f9ef	8.9659e-41
194	0x8000ebdc	-8.461e-41
195	0x800030f9	-1.7568e-41
196	0x80024b47	-2.10675e-40
197	0x80021397	-1.90699e-40
198	0xaf2b5193	-1.558134e-10
199	0xaf16418c	-1.3665707e-10
200	0xaff7100e	-4.4940446e-10
201	0xb098f148	-1.1128032e-09
202	0xb0e5a28b	-1.670814e-09
203	0xb01c6ef8	-5.6910165e-10
204	0xb0dc1715	-1.6013667e-09
205	0xb0624e53	-8.2329626e-10
206	0xb0529dd2	-7.662183e-10
207	0xb8b66794	-8.697729e-05
208	0xb905259c	-0.00012697879
209	0xb936b83d	-0.00017425507
210	0xb8c07c07	-9.178375e-05
211	0xb8d57e01	-0.000101801015
212	0xb8e6549b	-0.000109830136
213	0xb89ce002	-7.4803844e-05
214	0xb894b071	-7.090055e-05
215	0xb897d3b6	-7.239675e-05
216	0x94481bc0	-1.0102892e-26
217	0x92576147	-6.796194e-28
218	0x95eea4e3	-9.638758e-26
219	0x9e01c8b3	-6.870707e-21
220	0x9c9f3a5d	-1.0536824e-21
221	0x98267a99	-2.1516893e-24
222	0xa5ac8240	-2.9925505e-16
223	0x9f4f36d9	-4.3879324e-20
224	0x979c49a5	-1.0099854e-24
225	0xbb861743	-0.0040921285
226	0xbb79d1f4	-0.0038119527
227	0xbb594ab2	-0.0033156094
228	0xbb9305d0	-0.004486777
229	0xbb8fa10e	-0.004383213
230	0xbb827b96	-0.0039820177
231	0xbb9ffd20	-0.00488247
232	0xbb9fe7ab	-0.004879912
233	0xbb942c85	-0.0045219087
234	0x0000eace	8.4232e-41
235	0x80002f91	-1.7064e-41
236	0x00017340	1.3318e-40
237	0x0000a537	5.9268e-41
238	0x000075af	4.2217e-41
239	0x000031fd	1.7932e-41
240	0x80012f4e	-1.08805e-40
241	0x8001be74	-1.60157e-40
242	0x00038f8a	3.26999e-40
243	0xbaa8a3b8	-0.0012866175
244	0xbac5338c	-0.0015045269
245	0xbacbe1cf	-0.0015554967
246	0xbad4afa9	-0.0016226667
247	0xbadc99b9	-0.0016830481
248	0xbacb264c	-0.0015499084
249	0xbae661a8	-0.0017576711
250	0xbad98ba8	-0.0016597407
251	0xbab64cc6	-0.0013908378
252	0x8000ebc3	-8.4575e-41
253	0x800143fb	-1.16222e-40
254	0x8001027b	-9.2725e-41
255	0x80037ab1	-3.1952e-40

bias f4 [16]
0	0xbcdda59f	-0.027056513
1	0xbccb9a19	-0.024853753
2	0x3dcb5c7e	0.09929751
3	0x3e8875a4	0.26652253
4	0xb059f366	-7.929003e-10
5	0xbc453794	-0.012037177
6	0xbc9df9c9	-0.019284146
7	0x3ea48494	0.321324
8	0xbea0e9a3	-0.3142825
9	0x3e801906	0.2501909
10	0xbaba0f2d	-0.0014195197
11	0xac42f874	-2.7706977e-12
12	0x3eb345c7	0.35014173
13	0xbc18025f	-0.009277909
14	0x3e5ea9d2	0.21744469
15	0xbcab343e	-0.020898934

weight f4 [32, 16, 3, 3]
0	0x00012983	1.06727e-40
1	0x0002c855	2.55537e-40
2	0x00014e2a	1.19875e-40
3	0x80010708	-9.4358e-41
4	0x0002604a	2.18213e-40
5	0x8001f61f	-1.80127e-40
6	0x00017694	1.34373e-40
7	0x00037b57	3.19752e-40
8	0x80016480	-1.27888e-40
9	0x800159b3	-1.24014e-40
10	0x00001697	8.104e-42
11	0x000181a0	1.38336e-40
12	0x0002a4a6	2.42736e-40
13	0x80018f1b	-1.43172e-40
14	0x0001abf9	1.53528e-40
15	0x800172a9	-1.32968e-40
16	0x80018239	-1.3855e-40
17	0x80017312	-1.33115e-40
18	0xb86ca274	-5.641808e-05
19	0xb9f82678	-0.00047330908
20	0xbb2374d7	-0.0024941468
21	0xba1e4edf	-0.00060389744
22	0xba93e7bf	-0.0011284276
23	0xbb34093f	-0.0027471331
24	0xbb2ec7a2	-0.0026669283
25	0xbb5d92a7	-0.0033809335
26	0xbb8633a2	-0.0040955106
27	0xbc533e4b	-0.01289327
28	0xbc6269ba	-0.0138191525
29	0xbc739ce8	-0.014868952
30	0xbc71db4a	-0.014761755
31	0xbc78331d	-0.015148905
32	0xbc7d0d3e	-0.015445052
33	0xbc90b69f	-0.017665206
34	0xbc8ce1bf	-0.017197488
35	0xbc88d766	-0.016704272
36	0x000139fe	1.12639e-40
37	0x8000ae15	-6.2449e-41
38	0x8000c2fa	-6.9944e-41
39	0x8003a8c5	-3.3605e-40
40	0x00002772	1.415e-41
41	0x8001def8	-1.71822e-40
42	0x8002660a	-2.20276e-40
43	0x80021adc	-1.93306e-40
44	0x00004ccf	2.7554e-41
45	0x8001a54c	-1.51133e-40
46	0x000167df	1.29097e-40
47	0x80017d5f	-1.3681e-40
48	0x00034f51	3.0396e-40
49	0x800041dc	-2.3626e-41
50	0x00001810	8.632e-42
51	0x0001183c	1.00529e-40
52	0x00016901	1.29504e-40
53	0x0000d222	7.5381e-41
54	0x00012495	1.04959e-40
55	0x000296f6	2.37826e-40
56	0x8003dce1	-3.54743e-40
57	0x000171f3	1.32713e-40
58	0x8001f53b	-1.79808e-40
59	0x8002a8ef	-2.44273e-40
60	0x00033f14	2.98135e-40
61	0x00016ba5	1.30451e-40
62	0x80026822	-2.21027e-40
63	0xbc72a1b5	-0.014809062
64	0xbc6cc9d1	-0.014452414
65	0xbc593a62	-0.013258548
66	0xbc5d4137	-0.013504318
67	0xbc5ff496	-0.013669154
68	0xbc4e5d14	-0.012595434
69	0xbc58d4d6	-0.013234338
70	0xbc56b69e	-0.013105063
71	0xbc5a98f2	-0.013342129
72	0xbc370123	-0.011169705
73	0xbc556507	-0.013024575
74	0xbc8c74b5	-0.017145494
75	0xbc0de504	-0.008660559
76	0xbc758766	-0.014985895
77	0xbc7a8a5d	-0.015291777
78	0x3c26e25c	0.010185804
79	0xbadf75aa	-0.0017048616
80	0xbc333a26	-0.010939157
81	0xbc76e875	-0.0150700705
82	0xbc81b71f	-0.01583439
83	0xbc89e8f0	-0.016834706
84	0xbc6ffd3e	-0.01464778
85	0xbc813aa8	-0.01577504
86	0xbc8d4d06	-0.017248642
87	0xbc94efe9	-0.018180804
88	0xbc94d080	-0.018165827
89	0xbc97e3a0	-0.018541157
90	0x00034247	2.99282e-40
91	0x800060d2	-3.4733e-41
92	0x80002c09	-1.5797e-41
93	0x000148ff	1.18022e-40
94	0x00008332	4.7064e-41
95	0x0001466c	1.17098e-40
96	0x800344ed	-3.00232e-40
97	0x0001e445	1.73723e-40
98	0x00026a5f	2.2183e-40
99	0x80010d7c	-9.6673e-41
100	0x80031b41	-2.85283e-40
101	0x8000d53f	-7.6498e-41
102	0x00002dbd	1.6408e-41
103	0x8000caaa	-7.2702e-41
104	0x80004451	-2.4507e-41
105	0x000197dd	1.46314e-40
106	0x00003fa2	2.2827e-41
107	0x000262de	2.19138e-40
108	0xbc854213	-0.016266858
109	0xbc7ceb9b	-0.015437032
110	0xbc7e8ed5	-0.0155369835
111	0xbc59e70d	-0.013299716
112	0xbc6b4d3c	-0.014361676
113	0xbc698af4	-0.01425432
114	0xbc0fad6c	-0.008769374
115	0xbc2a3627	-0.0103888875
116	0xbc3de35a	-0.011589849
117	0xbbe0760c	-0.00685001
118	0xbc379b4f	-0.011206462
119	0xbc5ab84c	-0.013349604
120	0x3b93bcbe	0.004508584
121	0xbb31e18a	-0.0027142488
122	0xbb9a967f	-0.0047176476
123	0x3c840a55	0.016118208
124	0x3c3ae491	0.011407034
125	0x3adc7c41	0.0016821699
126	0xbb4e2993	-0.0031457886
127	0xbb94737b	-0.004530368
128	0xbbe0fea4	-0.006866293
129	0xbbad3a96	-0.005286525
130	0xbbcdb3f3	-0.006277555
131	0xbbfd7855	-0.007735292
132	0xbbffd04c	-0.0078068133
133	0xbc0b84ed	-0.008515579
134	0xbc1f4ad2	-0.009722428
135	0x80007302	-4.1257e-41
136	0x8002c1d8	-2.53209e-40
137	0x00001ed1	1.1055e-41
138	0x8002c5a4	-2.54571e-40
139	0x00007b0f	4.4145e-41
140	0x80018950	-1.41094e-40
141	0x00027cb9	2.28413e-40
142	0x80023c6c	-2.05346e-40
143	0x80005147	-2.9157e-41
144	0x00014030	1.14862e-40
145	0x0001fb8b	1.82072e-40
146	0x800030ae	-1.7463e-41
147	0x80015854	-1.23522e-40
148	0x0002f385	2.7103e-40
149	0x800245e7	-2.08747e-40
150	0x80003559	-1.9138e-41
151	0x80025e14	-2.1742e-40
152	0x00003b84	2.135e-41
153	0x8001b998	-1.58414e-40
154	0x00000655	2.272e-42
155	0x8001d84c	-1.69428e-40
156	0x8000deb7	-7.9895e-41
157	0x8002d0bf	-2.58555e-40
158	0x80007d61	-4.4977e-41
159	0x00022508	1.96955e-40
160	0x80024346	-2.07804e-40
161	0x0002aeac	2.46331e-40
162	0x80004644	-2.5207e-41
163	0x80002141	-1.1929e-41
164	0x800026e8	-1.3957e-41
165	0x0000077e	2.688e-42
166	0x00004344	2.413e-41
167	0x80000785	-2.697e-42
168	0x00000a9b	3.805e-42
169	0x00001450	7.287e-42
170	0x80000ef3	-5.363e-42
171	0xa98d2f4b	-6.269862e-14
172	0xa94f4346	-4.6021584e-14
173	0xaa42b5a2	-1.7293678e-13
174	0xa87aa93b	-1.3914484e-14
175	0xa8310ac0	-9.827805e-15
176	0xa95b3c19	-4.8679895e-14
177	0xa7b16c2f	-4.924466e-15
178	0xa7fd87e8	-7.0368956e-15
179	0xa9490fcd	-4.464467e-14
180	0x8001773e	-1.34612e-40
181	0x8000e2f2	-8.1413e-41
182	0x0002eb6f	2.68129e-40
183	0x80026d2c	-2.22834e-40
184	0x00019e85	1.48702e-40
185	0x00001da1	1.0629e-41
186	0x80025e2a	-2.1745e-40
187	0x80008c72	-5.0382e-41
188	0x80039255	-3.28e-40
189	0x80015d67	-1.25342e-40
190	0x00006fed	4.0151e-41
191	0x000258ca	2.15523e-40
192	0x80026086	-2.18297e-40
193	0x8002adba	-2.45992e-40
194	0x800126d2	-1.05762e-40
195	0x8002c0f2	-2.52887e-40
196	0x0002b1c9	2.47448e-40
197	0x8001764d	-1.34274e-40
198	0x800218dc	-1.92589e-40
199	0x000076ec	4.2661e-41
200	0x800204a6	-1.85339e-40
201	0x00000e07	5.032e-42
202	0x0000c872	7.1906e-41
203	0x00026bd3	2.22351e-40
204	0x0001539c	1.21829e-40
205	0x80011692	-9.9932e-41
206	0x0002feea	2.75117e-40
207	0xac3b8797	-2.6649566e-12
208	0xaad357bc	-3.7542007e-13
209	0xaa7a3666	-2.2223334e-13
210	0xab167983	-5.3459337e-13
211	0xa9d1ee1e	-9.322771e-14
212	0xa9d15b20	-9.297272e-14
213	0xaa968596	-2.6738046e-13
214	0xa9a53ca8	-7.337994e-14
215	0xa9bd3bb2	-8.4036416e-14
216	0xb447fe44	-1.862582e-07
217	0xb3965cf7	-7.0018295e-08
218	0xb345b633	-4.6033346e-08
219	0xb48dcd43	-2.6412644e-07
220	0xb4020513	-1.210904e-07
221	0xb39f5b29	-7.4205964e-08
222	0xb487753c	-2.523101e-07
223	0xb43c275b	-1.7523182e-07
224	0xb42003dc	-1.4902565e-07
225	0xb60d51d0	-2.1058258e-06
226	0xb6380a21	-2.7424032e-06
227	0xb65f5319	-3.3277959e-06
228	0xb60bfc36	-2.085942e-06
229	0xb63450dd	-2.6869159e-06
230	0xb6579ab9	-3.2127557e-06
231	0xb5d16309	-1.5600536e-06
232	0xb6012e5a	-1.9249478e-06
233	0xb616e4d8	-2.2484946e-06
234	0x8001084f	-9.4816e-41
235	0x00017d11	1.36701e-40
236	0x8002fad3	-2.7365e-40
237	0x0002f095	2.69976e-40
238	0x00002ccf	1.6074e-41
239	0x0000324f	1.8047e-41
240	0x000035a7	1.9247e-41
241	0x00002187	1.2027e-41
242	0x0003c0c3	3.44656e-40
243	0x00001b05	9.693e-42
244	0x00011f33	1.03028e-40
245	0x000329fb	2.90566e-40
246	0x00025f3e	2.17837e-40
247	0x80030867	-2.7852e-40
248	0x80030cbc	-2.80075e-40
249	0x00026490	2.19746e-40
250	0x80030017	-2.75539e-40
251	0x0002db32	2.62303e-40
252	0xb4a2e75e	-3.0343193e-07
253	0xb4174a0c	-1.4089909e-07
254	0x327692ab	1.4352433e-08
255	0xb382c7df	-6.089953e-08

bias f4 [32]
0	0xbce9babf	-0.02853143
1	0xbb8b77ad	-0.00425621
2	0xbbf4dabe	-0.007472365
3	0xbd363b62	-0.044490226
4	0xbe13a53b	-0.14418499
5	0x95962c7a	-6.065469e-26
6	0xbd034f2f	-0.032057937
7	0xbbb373ce	-0.0054764515
8	0xbc3225c2	-0.01087326
9	0xbcf6edb6	-0.030142646
10	0xbd21dd7c	-0.039517865
11	0xbc5a8dac	-0.013339441
12	0xbd747e96	-0.059691034
13	0xbcbd631f	-0.023118554
14	0xbc102a03	-0.008799079
15	0xbd1bae51	-0.038008038
16	0xbca74927	-0.020420624
17	0x9838b2cd	-2.3871714e-24
18	0xbd3c3fb9	-0.04595921
19	0xb25888dd	-1.2603974e-08
20	0xbcef1fb0	-0.029189914
21	0x3e670bac	0.22563046
22	0xb6ae363b	-5.1919174e-06
23	0xbb67c60b	-0.0035365846
24	0xb4bf770b	-3.5663138e-07
25	0xbcd0323c	-0.025414579
26	0x3da38fc4	0.079864055
27	0xbcf3555a	-0.029703785
28	0xbc938220	-0.018006384
29	0x93c8a465	-5.0649203e-27
30	0xa52a523e	-1.4773014e-16
31	0x3ef1144a	0.47085792

weight f4 [32, 32, 3, 3]
0	0x176062b1	7.250287e-25
1	0x17931369	9.504552e-25
2	0x179dd28e	1.0199039e-24
3	0x16430b2d	1.5755501e-25
4	0x1664c2ed	1.8479201e-25
5	0x16186c19	1.2312572e-25
6	0x16c48927	3.1752063e-25
7	0x16c7ea25	3.229795e-25
8	0x16673ee9	1.8679882e-25
9	0x0000c90d	7.2123e-41
10	0x800127ed	-1.06158e-40
11	0x800068e9	-3.7635e-41
12	0x8003c1d2	-3.45036e-40
13	0x8003c144	-3.44837e-40
14	0x80004029	-2.3016e-41
15	0x80017840	-1.34973e-40
16	0x80020815	-1.8657e-40
17	0x8002241e	-1.96627e-40
18	0xbb21aaf6	-0.002466855
19	0xbbc9e4a8	-0.006161291
20	0xbc097b83	-0.008391264
21	0xbb443b90	-0.0029942729
22	0xbbde16ef	-0.0067776362
23	0xbc35f3fe	-0.011105536
24	0xbbbf7dc3	-0.0058438494
25	0xbbfc8fe5	-0.0077075833
26	0xbc3248bc	-0.010881599
27	0x17eee19e	1.5437343e-24
28	0x17ef4922	1.5463474e-24
29	0x17f2e429	1.5696479e-24
30	0x17ec336c	1.5264123e-24
31	0x17edd595	1.5369682e-24
32	0x17f35dd0	1.5727189e-24
33	0x1aa1f228	6.6979264e-23
34	0x9739d1d9	-6.004159e-25
35	0x17f05cc3	1.5533053e-24
36	0xbc454abc	-0.012041744
37	0xbc109a6c	-0.00882588
38	0xbbec87bd	-0.0072183297
39	0xbc441e0b	-0.011970053
40	0xbc262daa	-0.010142723
41	0xbc1e44fc	-0.009660002
42	0xbc5565c6	-0.013024753
43	0xbc532685	-0.012887602
44	0xbc5d83dc	-0.013520207
45	0x8002c8ad	-2.5566e-40
46	0x00021723	1.91971e-40
47	0x00033fce	2.98395e-40
48	0x00038682	3.23759e-40
49	0x0002fc85	2.74258e-40
50	0x000180fd	1.38108e-40
51	0x8000fe9b	-9.1335e-41
52	0x8003138f	-2.82523e-40
53	0x800187d5	-1.40563e-40
54	0x80007624	-4.2381e-41
55	0x80008bfb	-5.0216e-41
56	0x2931a345	3.944351e-14
57	0x00010076	9.2001e-41
58	0x80006698	-3.6804e-41
59	0x2904ada6	2.9460504e-14
60	0x80009225	-5.2427e-41
61	0x2a26b4f8	1.4806548e-13
62	0x2a1f57dd	1.415252e-13
63	0x800262f8	-2.19174e-40
64	0x00025fd5	2.18049e-40
65	0x80017c19	-1.36353e-40
66	0x00037366	3.16904e-40
67	0x000070c8	4.0458e-41
68	0x0001d1e8	1.67136e-40
69	0x8000dfcb	-8.0282e-41
70	0x80017fd2	-1.37689e-40
71	0x800168d5	-1.29442e-40
72	0x0003deef	3.5548e-40
73	0x00021686	1.91751e-40
74	0x00016b6f	1.30375e-40
75	0x8000e7bb	-8.3129e-41
76	0x000132ce	1.10061e-40
77	0x0002c8b4	2.5567e-40
78	0x000326ac	2.8938e-40
79	0x80008865	-4.8929e-41
80	0x8001f2ff	-1.79006e-40
81	0x00023602	2.03045e-40
82	0x0000d74a	7.7231e-41
83	0x80019cbe	-1.48064e-40
84	0x8000cc28	-7.3237e-41
85	0x80011085	-9.7762e-41
86	0x8001190d	-1.00822e-40
87	0x00024d8e	2.11492e-40
88	0x80038eb8	-3.26704e-40
89	0x000292c3	2.36319e-40
90	0x8002de1e	-2.63352e-40
91	0x00015080	1.20713e-40
92	0x80026859	-2.21104e-40
93	0x00031edd	2.86578e-40
94	0x00027ff3	2.2957e-40
95	0x0003bfe5	3.44345e-40
96	0x0002016c	1.84181e-40
97	0x80018ecc	-1.43061e-40
98	0x80026225	-2.18879e-40
99	0x8003e42e	-3.57362e-40
100	0x80014470	-1.16386e-40
101	0x00026eb6	2.23387e-40
102	0x00009799	5.4383e-41
103	0x80037078	-3.15853e-40
104	0x80001884	-8.795e-42
105	0x80005fb1	-3.4328e-41
106	0x800009a6	-3.461e-42
107	0x80005535	-3.0567e-41
108	0xbc3bfdb6	-0.011474064
109	0xbc3f95d9	-0.011693441
110	0xbc3431dd	-0.010998216
111	0xbc3f44d4	-0.011674125
112	0xbc420312	-0.011841552
113	0xbc378b00	-0.011202574
114	0xbc490f5b	-0.012271727
115	0xbc451c09	-0.01203061
116	0xbc446043	-0.011985841
117	0x2e363e40	4.1437298e-11
118	0x2d93a44e	1.6784931e-11
119	0x2d906d5e	1.6419473e-11
120	0x2e3da0b2	4.311635e-11
121	0x2cb1a476	5.0489014e-12
122	0x2cbfc88a	5.450811e-12
123	0x2de9c182	2.6574968e-11
124	0xadc25b80	-2.209588e-11
125	0xac7edb90	-3.6217453e-12
126	0x00032ed9	2.92312e-40
127	0x0000feb5	9.1372e-41
128	0x80040258	-3.68183e-40
129	0x00005c11	3.3027e-41
130	0x8003a727	-3.3547e-40
131	0x80003e0d	-2.226e-41
132	0x0003622b	3.10723e-40
133	0x8002ae49	-2.46193e-40
134	0x000091fb	5.2368e-41
135	0x80004129	-2.3375e-41
136	0x000260ca	2.18392e-40
137	0x8000b460	-6.4706e-41
138	0x000112c7	9.8572e-41
139	0x80026df0	-2.23109e-40
140	0x0003bbb5	3.42843e-40
141	0x800131a0	-1.09638e-40
142	0x0003022c	2.76286e-40
143	0x00005ba9	3.2881e-41
144	0x08ade558	1.0465977e-33
145	0x08b0125f	1.0596934e-33
146	0x08ab62f0	1.0314948e-33
147	0x0891a886	8.76649e-34
148	0x089fca8e	9.617085e-34
149	0x08a93736	1.0184298e-33
150	0x088ace90	8.3541355e-34
151	0x089a48a7	9.285618e-34
152	0x08a8e7eb	1.0165656e-33
153	0x000145e7	1.16912e-40
154	0x0002346a	2.02474e-40
155	0x0001cd4e	1.65485e-40
156	0x00037153	3.1616e-40
157	0x00032c08	2.91302e-40
158	0x000178fe	1.3524e-40
159	0x000013cb	7.1e-42
160	0x000301aa	2.76103e-40
161	0x0000382a	2.0148e-41
162	0x800163fd	-1.27705e-40
163	0x000113a2	9.8878e-41
164	0x00005224	2.9467e-41
165	0x00040d75	3.7217e-40
166	0x800191e7	-1.44175e-40
167	0x80006b81	-3.8565e-41
168	0x000119d1	1.01097e-40
169	0x0001195c	1.00933e-40
170	0x000264c0	2.19813e-40
171	0x00028249	2.30408e-40
172	0x80001882	-8.792e-42
173	0x0003b745	3.41251e-40
174	0x00011172	9.8094e-41
175	0x80001a10	-9.35e-42
176	0x0002b83f	2.49766e-40
177	0x0000788c	4.3244e-41
178	0x0001582c	1.23466e-40
179	0x00016879	1.29313e-40
180	0x80016d59	-1.31062e-40
181	0x80002656	-1.3752e-41
182	0x8002e97f	-2.67434e-40
183	0x00026dd2	2.23067e-40
184	0x800032bc	-1.82e-41
185	0x8001b3bc	-1.56312e-40
186	0x8002091d	-1.8694e-40
187	0x00002c7f	1.5962e-41
188	0x8001772a	-1.34584e-40
189	0xbc1b9061	-0.009494872
190	0xbc08b773	-0.008344519
191	0xbbedc018	-0.0072555654
192	0xbbd036c0	-0.006354183
193	0xbbd4f940	-0.0064994395
194	0xbbea72ce	-0.007154799
195	0xbbd8ddd6	-0.006618242
196	0xbbf8f5f2	-0.0075976783
197	0xbc1a9b1e	-0.009436397
198	0x8001848b	-1.39383e-40
199	0x00024550	2.08536e-40
200	0x000041ae	2.3561e-41
201	0x00016dd4	1.31234e-40
202	0x0000a70c	5.9925e-41
203	0x00021d4b	1.9418e-40
204	0x8002ff02	-2.7515e-40
205	0x8000aec7	-6.2698e-41
206	0x0001d648	1.68705e-40
207	0x0001e4c3	1.739e-40
208	0x00008549	4.7814e-41
209	0x80006bfc	-3.8737e-41
210	0x000320e2	2.87303e-40
211	0x0002a23f	2.41874e-40
212	0x000192fa	1.44561e-40
213	0x8003cc92	-3.48892e-40
214	0x0001afaa	1.54852e-40
215	0x0001affe	1.5497e-40
216	0x800325d5	-2.89078e-40
217	0x80012abb	-1.07164e-40
218	0x0003016b	2.76015e-40
219	0x8001bb44	-1.59014e-40
220	0x800063dd	-3.5824e-41
221	0x000267e1	2.20936e-40
222	0x00015e38	1.25635e-40
223	0x0002dd25	2.63003e-40
224	0x00015d3c	1.25282e-40
225	0x0001e27a	1.7308e-40
226	0x80008f2a	-5.1358e-41
227	0x8000fd48	-9.086e-41
228	0x0000f1ff	8.6812e-41
229	0x00026441	2.19635e-40
230	0x8000244c	-1.3021e-41
231	0x000122b7	1.04289e-40
232	0x80017c69	-1.36465e-40
233	0x0002f173	2.70287e-40
234	0xbb9a04f4	-0.0047002975
235	0xbbb2f506	-0.005461338
236	0xbbbe86dc	-0.0058144163
237	0xba14a030	-0.0005669622
238	0xbb130e16	-0.0022438816
239	0xbb7648e7	-0.0037580074
240	0x3a26d624	0.0006364307
241	0xba485312	-0.0007641773
242	0xbb359f58	-0.0027713384
243	0x800286f6	-2.32086e-40
244	0x0002a253	2.41902e-40
245	0x0001294b	1.06649e-40
246	0x0000ca6d	7.2617e-41
247	0x0003042a	2.77e-40
248	0x8000ee2f	-8.5444e-41
249	0x0000acb9	6.1961e-41
250	0x8002f666	-2.72062e-40
251	0x80002592	-1.3478e-41
252	0x80005785	-3.1396e-41
253	0x800170bd	-1.32278e-40
254	0x80002415	-1.2944e-41
255	0x80007185	-4.0723e-41

bias f4 [32]
0	0xbd22dc40	-0.039760828
1	0x3db4022e	0.08789478
2	0x95fbc6b6	-1.01691603e-25
3	0x3e37dd60	0.17955542
4	0x3bea0f85	0.0071429634
5	0x3e51cf60	0.20489264
6	0xbca4570f	-0.020061044
7	0xbc82576a	-0.015910823
8	0xa880f3b6	-1.4316547e-14
9	0xbc2bf219	-0.010494732
10	0xbcb08cc3	-0.021551495
11	0xad442744	-1.1150029e-11
12	0xbc7a75ec	-0.015286904
13	0xa0af84a5	-2.973393e-19
14	0xbcc95a89	-0.024579303
15	0x3d8d1230	0.068882346
16	0x8fbd0e26	-1.8642289e-29
17	0xbb60c928	-0.0034299586
18	0xbcb0992b	-0.021557411
19	0xb290204b	-1.6778491e-08
20	0xb8d96f56	-0.00010368104
21	0xbd49c304	-0.049258247
22	0xbcd7c739	-0.026340114
23	0xbc2be8fb	-0.010492559
24	0xb6936f32	-4.3938862e-06
25	0xb2d68e52	-2.4977599e-08
26	0xbd1aa28d	-0.037752677
27	0xbc171512	-0.009221332
28	0xafd71465	-3.9122763e-10
29	0xbd1c4df3	-0.038160276
30	0xbbde188f	-0.00677783
31	0xaad83767	-3.840775e-13

weight f4 [32, 16, 2, 2]
0	0xbceca2a7	-0.028886152
1	0xbce2e297	-0.027695937
2	0xbcf5b5c6	-0.029993903
3	0xbcea92f8	-0.028634533
4	0x37f8c1eb	2.9654204e-05
5	0x3856b348	5.1188545e-05
6	0x37fef1a5	3.0391684e-05
7	0x38450002	4.6968467e-05
8	0x3cafe802	0.021472935
9	0x3cab6078	0.020920023
10	0x3cb544e7	0.022127582
11	0x3cafe51c	0.021471553
12	0x3c386314	0.011254091
13	0x3c2cfd6a	0.0105584655
14	0x3c46f9dd	0.012144533
15	0x3c3b77f9	0.011442178
16	0xbca0703e	-0.019584771
17	0xbc993b92	-0.018705163
18	0xbca69418	-0.020334288
19	0xbc9deaf4	-0.019277073
20	0x382e91c9	4.1620606e-05
21	0x37867881	1.6030159e-05
22	0x382230f8	3.8669416e-05
23	0x375446d6	1.26526775e-05
24	0xba97c842	-0.0011580067
25	0xbaa4b90c	-0.0012567355
26	0xb9942521	-0.00028256423
27	0xb91f4370	-0.00015188544
28	0xbb948b9b	-0.004533244
29	0xbbcd7309	-0.006269817
30	0xbc0d5703	-0.008626702
31	0xbbf90675	-0.0075996467
32	0xb84dd023	-4.906965e-05
33	0xb8ac5e2c	-8.21914e-05
34	0xb8009999	-3.0660627e-05
35	0xb88a1a0e	-6.585206e-05
36	0x393b7afc	0.00017879525
37	0x38ddaa1d	0.00010569787
38	0x39359e55	0.00017320488
39	0x38bda291	9.042503e-05
40	0x3a2ce6fc	0.00065956987
41	0x3a18e1d0	0.00058319885
42	0x3ab12c48	0.0013517225
43	0x3ab9b1e0	0.0014167391
44	0xb1b05d5f	-5.1328892e-09
45	0x34e75562	4.3089227e-07
46	0x33463b38	4.6154327e-08
47	0x3699a4fb	4.5789616e-06
48	0xbc8c9ed6	-0.017165583
49	0xbc888808	-0.016666427
50	0xbc93d701	-0.018046858
51	0xbc905b78	-0.01762174
52	0x3a18cd07	0.00058288913
53	0x3a45875b	0.0007535123
54	0x398f303d	0.00027311026
55	0x3a18347b	0.000580616
56	0xbc905704	-0.017619617
57	0xbc86a6aa	-0.016436893
58	0xbc933b1e	-0.017972525
59	0xbc87453f	-0.016512511
60	0xbae95f26	-0.0017804846
61	0xba8c29b3	-0.001069358
62	0xbb380dfa	-0.0028084503
63	0xbb09194b	-0.0020919617
64	0xbe1c62c3	-0.1527205
65	0xbe1f7530	-0.15572047
66	0xbe00746d	-0.12544413
67	0xbe041a14	-0.12900573
68	0x3d7cbec6	0.061705373
69	0x3c792784	0.015207175
70	0x3b1dc22d	0.0024072037
71	0xbd26abdb	-0.040691238
72	0xbe6ccfc0	-0.23126125
73	0xbe766577	-0.24062143
74	0xbe8ad4e8	-0.2711556
75	0xbe770477	-0.24122797
76	0xbd9d4d33	-0.0768074
77	0xbdae7d23	-0.08519962
78	0xbde2c1d5	-0.11072127
79	0xbdb321ef	-0.08746707
80	0xbe83038d	-0.25588647
81	0xbe83d184	-0.25745785
82	0xbe5d17c2	-0.21591094
83	0xbe58e5bc	-0.21181387
84	0xbd45bb4e	-0.04827433
85	0xbc8597fd	-0.016307825
86	0xbab8096e	-0.0014040896
87	0x3cf4220b	0.02980139
88	0xbdca2d21	-0.09871889
89	0xbde0c15b	-0.1097438
90	0xbd9e01a3	-0.07715156
91	0xbd9444a4	-0.07239655
92	0x3e689c6e	0.22715923
93	0x3e547dbb	0.20751087
94	0x3e2ab628	0.1667105
95	0x3e19c4cc	0.15016478
96	0xbccdb5f9	-0.025111185
97	0x3d448cf2	0.04798598
98	0xbd3f9aad	-0.04677837
99	0x3ca9409f	0.020660697
100	0xbd11e966	-0.035622977
101	0x3ca3e704	0.020007618
102	0xbd187409	-0.037220035
103	0x3c7a1ec3	0.015266123
104	0xbd03c180	-0.032166958
105	0xbd4eee94	-0.050520495
106	0xbd05d74e	-0.032676034
107	0xbd07169c	-0.032980546
108	0xbd12c1cf	-0.03582936
109	0xbd74e532	-0.05978889
110	0x3d8b42fe	0.06799887
111	0x3d25bf0e	0.040465407
112	0x3dff3e56	0.124630615
113	0x3e08f524	0.13374764
114	0x3e260294	0.16211921
115	0x3e0edc20	0.13951159
116	0xbde22a0e	-0.110431775
117	0xbda683f8	-0.0813064
118	0xbd84f5b4	-0.06492177
119	0xbd20033d	-0.03906559
120	0xbeba15c5	-0.36344734
121	0xbeaeb147	-0.34119627
122	0xbe92b810	-0.28656054
123	0xbe84909a	-0.25891572
124	0x3b8eca22	0.004357592
125	0x3cb0e6d9	0.021594452
126	0x3b8b0d21	0.0042435084
127	0xbb747366	-0.0037300228
128	0x80004b64	-2.7045e-41
129	0x000049e6	2.651e-41
130	0x800006df	-2.465e-42
131	0x00004090	2.316e-41
132	0x8000cfd3	-7.4553e-41
133	0x8000c2d6	-6.9894e-41
134	0x000075ec	4.2302e-41
135	0x00008c85	5.0409e-41
136	0x000007a8	2.747e-42
137	0x80004185	-2.3504e-41
138	0x00000a75	3.751e-42
139	0x00004570	2.491e-41
140	0x000013ed	7.148e-42
141	0x00003d4c	2.1989e-41
142	0x800008d4	-3.167e-42
143	0x80002286	-1.2385e-41
144	0x80002e58	-1.6625e-41
145	0x00002387	1.2745e-41
146	0x0000230a	1.257e-41
147	0x8000031c	-1.115e-42
148	0x800107da	-9.4652e-41
149	0x80013000	-1.09055e-40
150	0x80003e73	-2.2403e-41
151	0x80001c80	-1.0224e-41
152	0x80004a25	-2.6598e-41
153	0x000054d4	3.043e-41
154	0x00005136	2.9133e-41
155	0x000046f4	2.5453e-41
156	0x00004d22	2.767e-41
157	0x80000bbb	-4.208e-42
158	0x00003234	1.801e-41
159	0x800046ad	-2.5354e-41
160	0x80011da2	-1.02466e-40
161	0x80015a4f	-1.24232e-40
162	0x0000e917	8.3617e-41
163	0x00011265	9.8434e-41
164	0x000080e2	4.6234e-41
165	0x80008daf	-5.0826e-41
166	0x00002289	1.2389e-41
167	0x8000c2a1	-6.982e-41
168	0x000052fa	2.9766e-41
169	0x800042a9	-2.3913e-41
170	0x80001810	-8.632e-42
171	0x00004dc5	2.7898e-41
172	0x80007075	-4.0342e-41
173	0x0000a32d	5.8536e-41
174	0x0001346d	1.10642e-40
175	0x0000fa2f	8.9749e-41
176	0x000020dc	1.1788e-41
177	0x0000063c	2.236e-42
178	0x8000338b	-1.849e-41
179	0x00003bf3	2.1506e-41
180	0x00005531	3.0561e-41
181	0x00004431	2.4462e-41
182	0x800019d8	-9.271e-42
183	0x80005a5b	-3.2413e-41
184	0x00002954	1.4826e-41
185	0x80001c3c	-1.0129e-41
186	0x80009c66	-5.6105e-41
187	0x00001e2c	1.0824e-41
188	0x80004609	-2.5124e-41
189	0x00003663	1.951e-41
190	0x00004f96	2.855e-41
191	0x00004040	2.3049e-41
192	0x3e9fc06f	0.31201503
193	0x3ebbbdfe	0.3666839
194	0x3ea15357	0.31508896
195	0x3eae4d20	0.34043217
196	0xbc8b2738	-0.016986474
197	0x3d5a1096	0.053238474
198	0xbce6eddb	-0.02818959
199	0x3d02f3f3	0.03197093
200	0xbe00de7c	-0.12584871
201	0xbde80614	-0.11329284
202	0xbe14b1b4	-0.14520913
203	0xbe050c6d	-0.12993021
204	0xbdf29b9f	-0.118460886
205	0xbdda5806	-0.106613204
206	0xbe11a4b4	-0.14222986
207	0xbe0c2dd2	-0.13689354
208	0x3e67618f	0.2259581
209	0x3e8775bd	0.26457015
210	0x3e6db73c	0.2321443
211	0x3e7d9829	0.24765076
212	0x3bf4e10d	0.007473117
213	0xbc3687db	-0.011140789
214	0x3c81b308	0.015832439
215	0x3bdc8558	0.006729763
216	0xbdd55fa2	-0.10418631
217	0xbdb871cf	-0.09006082
218	0xbe094088	-0.13403523
219	0xbdeb1bdb	-0.114799224
220	0x3e02d3ed	0.12776156
221	0x3e127eb4	0.14306146
222	0x3e1c8449	0.15284838
223	0x3e1642b6	0.14673886
224	0x3be8710f	0.0070935558
225	0xbd103144	-0.035203233
226	0x3c85fb14	0.016355075
227	0xbcfb4fbe	-0.030677672
228	0x3ce92767	0.028461171
229	0xbd07db7a	-0.033168294
230	0x3d1897dd	0.037254203
231	0xbc928316	-0.017884772
232	0xbdb3c367	-0.087775044
233	0xbd9bd0d8	-0.07608193
234	0xbdd521e9	-0.104068585
235	0xbdc4dff1	-0.09613026
236	0xbd8a57bd	-0.06755016
237	0xbdfdada1	-0.12386633
238	0x3dc79ef2	0.09747113
239	0x3d5db70e	0.054129653
240	0x3e01fb60	0.12693548
241	0x3de7eada	0.11324091
242	0x3e1144b5	0.14186366
243	0x3e071682	0.1319218
244	0xbc167ad0	-0.009184554
245	0xbc78c954	-0.015184719
246	0x3c023456	0.007947048
247	0x3c1f774d	0.009733033
248	0xbe0d82cf	-0.13819431
249	0xbe1daac2	-0.1539717
250	0xbe4fe179	-0.20300855
251	0xbe55913a	-0.20856181
252	0x3e0d9f05	0.13830192
253	0x3e09e991	0.13468005
254	0x3e297e98	0.16552198
255	0x3e2937aa	0.1652514

bias f4 [16]
0	0xbdf3b775	-0.11900226
1	0xbc2b97f8	-0.010473244
2	0xbdf3af76	-0.11898701
3	0xbd8b0ac3	-0.06789162
4	0xbdfcd6b4	-0.12345639
5	0xbaedd839	-0.0018146104
6	0x3c9a9ed7	0.018874569
7	0xbdbe5211	-0.09292997
8	0x3b9288ee	0.0044718897
9	0xbbcdb64f	-0.0062778364
10	0xbc955784	-0.018230207
11	0x3beea77c	0.0072831493
12	0x3d9eeca8	0.07759982
13	0x3c01a8b1	0.007913754
14	0x3d43f5ff	0.047842022
15	0x3cf0b478	0.02938293

weight f4 [16, 32, 3, 3]
0	0x3e215316	0.15754351
1	0x3db226df	0.0869882
2	0x3d29da1d	0.041467775
3	0x3ce8b64d	0.02840724
4	0xbd3f01d4	-0.046632603
5	0xbd4c8fcb	-0.04994182
6	0xbc863439	-0.016382324
7	0xbdd4cd1d	-0.10390685
8	0xbd92d169	-0.07168848
9	0xbc5e2db2	-0.013560699
10	0xbcd3ac49	-0.025838988
11	0xbb82bf92	-0.003990122
12	0xbcb08cb2	-0.021551464
13	0xbd2beb45	-0.041972417
14	0xbcf04984	-0.02933193
15	0xbc8d78d4	-0.01726953
16	0xbd2c8e97	-0.04212817
17	0xbd05cd95	-0.03266676
18	0xbd3f555f	-0.046712276
19	0xbd9c379a	-0.07627793
20	0xbe1af132	-0.15131071
21	0xbcb6842d	-0.022279823
22	0xbd8258fe	-0.0636463
23	0xbe043f57	-0.12914787
24	0x3c431221	0.011906178
25	0xbd5cd398	-0.05391273
26	0xbdf50f2a	-0.11965783
27	0x3d8e953d	0.06962059
28	0x3cc72bfb	0.024312964
29	0xbd14812b	-0.036255997
30	0x3dab9bf4	0.08379355
31	0x3c467557	0.012112937
32	0xbd0e78dc	-0.03478323
33	0x3e0da941	0.13834096
34	0x3d128c9e	0.035778634
35	0xbcef0813	-0.029178655
36	0x3db7c1dd	0.08972523
37	0x3ce961ee	0.02848908
38	0xbcebde73	-0.028792595
39	0xbcfe86f8	-0.031070217
40	0xbdb80acf	-0.089864366
41	0xbdc457d9	-0.09587068
42	0xbda98176	-0.08276646
43	0xbe0ee2c4	-0.13953692
44	0xbdd2fc2d	-0.10302005
45	0xbbded585	-0.006800356
46	0x3b98d6f1	0.004664295
47	0xbc2f8ded	-0.01071499
48	0xbc4035cc	-0.011731576
49	0xba36ecaa	-0.0006978015
50	0xbbeaf83e	-0.007170706
51	0xbce2385e	-0.027614769
52	0xbc92f7f0	-0.017940491
53	0xbcd3359d	-0.0257824
54	0xbe55bf1a	-0.2087368
55	0xbe2a6056	-0.16638312
56	0xbe4685fb	-0.19387047
57	0xbdefbca2	-0.11705901
58	0xbd9f2751	-0.07771171
59	0xbded489e	-0.11586116
60	0xbdf2739a	-0.118384555
61	0xbd9351a2	-0.071933046
62	0xbdf254cf	-0.11832582
63	0x3ea73ceb	0.32663664
64	0x3e79d5fa	0.24398032
65	0x3e677c5c	0.22606033
66	0x3e7939f6	0.24338517
67	0x3de91b0c	0.11382112
68	0x3dda7df3	0.10668554
69	0x3e8f9f89	0.28051403
70	0x3dc71cbb	0.09722277
71	0x3d75bf38	0.059996814
72	0x3cd9f207	0.026604665
73	0xbb9ce765	-0.0047883266
74	0x3c265697	0.010152481
75	0x3cd765d4	0.026293673
76	0xbbd58dde	-0.006517156
77	0x39a7b204	0.00031985354
78	0x3d00784f	0.031364735
79	0x3c838353	0.016053831
80	0x3c0238b7	0.007948092
81	0xbc6b2eb4	-0.014354397
82	0xbc0092d6	-0.007847508
83	0xbc8f8fea	-0.017524678
84	0xbcd3c4f1	-0.025850745
85	0xbc9f2122	-0.019424979
86	0xbce86589	-0.028368728
87	0xbcb56d11	-0.022146733
88	0xbc2dce03	-0.010608199
89	0xbca186d1	-0.019717606
90	0xbd4c318c	-0.04985194
91	0xbd4beec6	-0.04978826
92	0xbda0dd83	-0.0785475
93	0xbb64a067	-0.0034885646
94	0xbbe67a72	-0.0070336396
95	0xbd39cf7f	-0.0453639
96	0x3d0c7255	0.034288723
97	0x3c44a8bb	0.012003119
98	0xbcc93320	-0.024560511
99	0x3c4f59ff	0.012655734
100	0x3c402292	0.011726992
101	0x3cc4f9e3	0.024044937
102	0x3d19a217	0.037508097
103	0x3d1f28a0	0.038857102
104	0x3d369300	0.044573784
105	0x3c4c0472	0.012452232
106	0x3c87ca4c	0.016575955
107	0x3cf8dab4	0.030377723
108	0x3cd7bb15	0.026334325
109	0x3d4b2e33	0.049604606
110	0x3de8b020	0.11361718
111	0xbbf1e103	-0.00738156
112	0x3d1d2300	0.038363457
113	0x3dbfe6e3	0.0937021
114	0xbd4462b5	-0.047945697
115	0x3cbc3a28	0.02297695
116	0x3dc040b4	0.09387341
117	0x3d92b411	0.07163251
118	0x3d34b510	0.044117987
119	0x3d0443f5	0.03229137
120	0x3d114ae3	0.03547181
121	0x3c57aaac	0.01316325
122	0x3ca3de3f	0.020003436
123	0x3d6af87d	0.057365883
124	0x3d06c625	0.03290381
125	0x3d400447	0.04687908
126	0x3d76e7af	0.060279544
127	0x3cae9e15	0.021315614
128	0xbcdff444	-0.027338155
129	0x3dd2532c	0.1026977
130	0x3db3bcab	0.0877622
131	0x3d942619	0.07233829
132	0x3e171206	0.14752969
133	0x3e242ed9	0.16033496
134	0x3e27d5f1	0.16390206
135	0xbdc3116c	-0.09524807
136	0xbd546274	-0.051851705
137	0xbc89df18	-0.016830012
138	0xbdd95303	-0.10611536
139	0xbd27baf0	-0.040949762
140	0xbbf89ece	-0.0075872904
141	0xbe2d103b	-0.16900723
142	0xbd83ffac	-0.0644525
143	0xbc958f75	-0.018256882
144	0x362a38c7	2.5365023e-06
145	0x35eeaee9	1.7783287e-06
146	0x363152df	2.6423293e-06
147	0x360a8c3a	2.0645225e-06
148	0xb5c788bf	-1.4866454e-06
149	0xb3c16c9f	-9.007021e-08
150	0xb40b73f0	-1.2987562e-07
151	0xb668d256	-3.4693126e-06
152	0xb6493e1b	-2.9987484e-06
153	0xa7eba9b0	-6.540958e-15
154	0xa7991a6d	-4.249468e-15
155	0xa760f14b	-3.121705e-15
156	0xa7fa008f	-6.9389545e-15
157	0xa799191e	-4.2493263e-15
158	0xa746d255	-2.7592041e-15
159	0xa7c8f573	-5.5777268e-15
160	0xa76da456	-3.2979444e-15
161	0xa70a4c4e	-1.9192712e-15
162	0x3d284084	0.041077152
163	0xbcf12d03	-0.029440409
164	0xbd8ef916	-0.06981103
165	0x3cbdee50	0.023184925
166	0xbbe10937	-0.0068675536
167	0xbcd214f9	-0.025644766
168	0x3ba93fa4	0.0051650573
169	0x3c7a89b6	0.015291622
170	0x3cc3e7e3	0.023914283
171	0x3d251681	0.040304665
172	0x3d6b76b5	0.057486255
173	0x3dd04466	0.10169296
174	0x3de2a5d6	0.11066787
175	0x3dc2bfd9	0.09509248
176	0x3dfb02e3	0.1225641
177	0x3e3880e9	0.18017925
178	0x3e09ddef	0.13463567
179	0x3e03df5d	0.12878175
180	0x80003724	-1.9781e-41
181	0x80002b54	-1.5543e-41
182	0x00003290	1.8138e-41
183	0x800010d2	-6.034e-42
184	0x00009716	5.42e-41
185	0x80007473	-4.1774e-41
186	0x800078af	-4.3293e-41
187	0x80002adb	-1.5374e-41
188	0x00007c32	4.4553e-41
189	0x966eadf7	-1.928038e-25
190	0x15b0c7e5	7.140121e-26
191	0x13d16c78	5.2865976e-27
192	0x11256eb2	1.3050316e-28
193	0x118bc0b1	2.2049088e-28
194	0x90b73dca	-7.2275974e-29
195	0x111096bc	1.1406046e-28
196	0x932af30c	-2.1576848e-27
197	0x16361c10	1.4710698e-25
198	0x800032e5	-1.8258e-41
199	0x800023f5	-1.2899e-41
200	0x00001fc9	1.1402e-41
201	0x800029d8	-1.5011e-41
202	0x800004b5	-1.689e-42
203	0x00002784	1.4176e-41
204	0x800039ff	-2.0805e-41
205	0x0000219f	1.2061e-41
206	0x80001eb7	-1.1018e-41
207	0x3c86278b	0.016376277
208	0x3d1982a1	0.037478093
209	0x3dbcb345	0.092138804
210	0x3bff6ad7	0.0077947187
211	0x3c0a7469	0.008450606
212	0x3d8f5626	0.069988534
213	0x3cf0bd02	0.029387001
214	0x3c05d681	0.0081688175
215	0x3d6bd5f5	0.057577092
216	0xbdb57bc8	-0.088615
217	0xbdb7a45e	-0.089668974
218	0xbd44f611	-0.04808623
219	0xbe24c03e	-0.1608896
220	0xbe26a364	-0.16273266
221	0xbddc824b	-0.10767039
222	0xbe2e5f24	-0.17028481
223	0xbe4b40cc	-0.19848937
224	0xbe1e2587	-0.15444003
225	0x3c75f65a	0.015012348
226	0x3c65ca72	0.0140253175
227	0xbc1346ee	-0.008989079
228	0x3d563aea	0.05230228
229	0x3d0fac1f	0.035076257
230	0x3bba377d	0.0056828842
231	0x3e093fbe	0.13403222
232	0x3dc721c5	0.09723238
233	0x3d5bb75d	0.053641666
234	0x00002959	1.4833e-41
235	0x00002d1b	1.6181e-41
236	0x00004979	2.6357e-41
237	0x80002bda	-1.5731e-41
238	0x00002af6	1.5411e-41
239	0x00003943	2.0542e-41
240	0x80004606	-2.512e-41
241	0x0000393c	2.0532e-41
242	0x00001007	5.75e-42
243	0x80003bdd	-2.1475e-41
244	0x000057c0	3.1479e-41
245	0x800098b0	-5.4774e-41
246	0x80006688	-3.6781e-41
247	0x8000532a	-2.9834e-41
248	0x8000470a	-2.5484e-41
249	0x00000c0a	4.319e-42
250	0x00003277	1.8103e-41
251	0x80005ce2	-3.332e-41
252	0x3dc5d272	0.0965928
253	0x3d8a99e2	0.06767632
254	0x3d30f38e	0.04320102
255	0x3d88b75b	0.06675597

bias f4 [16]
0	0xbd7bd5fc	-0.06148337
1	0x8e616475	-2.778176e-30
2	0x3e7f5842	0.24936011
3	0xbcfb5170	-0.03067848
4	0x3dd02d25	0.10164861
5	0xbc3315a6	-0.010930454
6	0x3e01f4d3	0.1269105
7	0x3e63ad06	0.22233972
8	0xbcfa146f	-0.030527322
9	0xbda8c34d	-0.08240376
10	0x3e966b6f	0.2937884
11	0xba7712c7	-0.00094251
12	0x3c0b7195	0.008510967
13	0x3e780f7d	0.24224658
14	0x3e185a18	0.14878118
15	0xbedf25ba	-0.4358347
