data/ForestSegmentationOutput/experiemnts/REAL_RERUN_03_run_17-12-2023_13h47min/unet_id=CTURF_width=32_num_layers=2_lr=0.00085_epochs=140.pth (torch, 115317 bytes, 16 tensors)

weight f4 [16, 8, 3, 3]
-0.03512348 -0.03514571 -0.035159584 -0.035111524 -0.035130937 -0.035148825 -0.035081364 -0.035095736
-0.03511373 -0.034909382 -0.034919895 -0.034914043 -0.03491232 -0.03492469 -0.034925338 -0.034874897
-0.034884658 -0.034891754 -0.035165146 -0.035175074 -0.035178207 -0.03516132 -0.035175644 -0.035182912
-0.03509145 -0.0351075 -0.0351309 -0.035197075 -0.035183255 -0.035140973 -0.0352282 -0.035232157
-0.035200458 -0.035150733 -0.035164755 -0.03516268 -0.034985162 -0.034943074 -0.034838013 -0.035067394
-0.035053216 -0.034969304 -0.0349883 -0.034994964 -0.034959067 -0.03531458 -0.035358846 -0.035435114
-0.03525783 -0.035292413 -0.03536305 -0.035164494 -0.035195358 -0.035273608 -0.035211302 -0.035260145
-0.035343118 -0.035142727 -0.035176646 -0.035252083 -0.03505568 -0.03508394 -0.035162557 -0.035208017
-0.035258077 -0.035339274 -0.035137706 -0.035173073 -0.035246804 -0.035049215 -0.03507918 -0.035155606
-0.1271426 -0.020498017 -0.10869964 -0.006236871 -0.089558214 -0.13492647 -0.021676581 -0.04143499
-0.11268712 -0.05108945 -0.08539096 0.026301455 0.025382062 0.06717693 -0.0034387654 0.02097637
0.03638897 0.014830984 0.13974538 -0.0181123 0.12855904 -0.012397434 -0.010101218 0.10514881
0.021129007 0.07260275 0.007815612 0.12757175 0.057394344 0.1934377 0.16466682 0.14183627
0.14256279 0.113869466 0.076727904 0.19095601 0.27465296 0.2639472 0.27667895 0.22941175
0.3528468 0.29605532 0.25459886 0.21636513 0.21060063 0.19149072 0.07526918 0.13424379
0.010700652 0.030083429 0.16925348 -0.009601143 0.18946312 0.18221484 -0.026455224 0.034197584
-0.112510316 -0.012708944 -0.045674365 -0.11480494 -0.038046073 -0.06106202 0.0057488414 -0.03353602
-0.11333958 -0.12162919 0.023612756 0.016909085 -0.15034105 0.04573938 -0.09456401 -0.116511405
-0.2457029 -0.2543554 -0.10817149 -0.069052584 -0.034683794 -0.17869037 -0.10275824 -0.084488966
-0.18833824 -0.20605113 -0.20377183 -0.05756834 -0.11919117 -0.13661477 -0.033598617 -0.025588514
-0.20385213 -0.11653274 -0.02858966 -0.06204719 -0.15481307 -0.014706436 -0.035820927 -0.06244948
-0.02103846 -0.12034685 0.061862502 -0.016193109 0.0014307629 -0.16430551 0.015226934 -0.17823245
-0.13789771 -0.03131199 -0.035434537 -0.14448729 0.03805482 0.012749061 -0.021468561 -0.085881196
-0.068325385 0.06506266 0.114596955 -0.08745743 0.09440004 0.1158024 0.11958865 0.103260465
0.0017610368 0.15681587 0.17136535 0.14785956 0.022290394 0.07754396 0.07167377 -0.022361385
0.010538867 0.12374512 0.054758023 0.060358286 -0.05566535 0.14103134 0.15298237 -0.059027884
0.07703116 0.033978485 0.0661649 0.13720232 -0.056041397 0.020900423 0.14749004 -0.06815148
0.017850991 0.068712614 0.11798047 -0.032097246 -0.026772743 0.16669974 -0.020017963 0.1339088
0.11200591 0.04062173 0.12314458 -0.0761196 0.082731776 -0.09038508 -0.045784935 -0.06674147
-0.0021227952 -0.040453635 -0.073306985 -0.05930616 0.06942183 -0.088901594 -0.039312825 -0.04049397
0.0048913625 0.04421126 -0.07313053 -0.04992449 -0.07948071 -0.07203061 -0.059211466 -0.06965877
-0.037239756 -0.12402143 0.0063909595 -0.06530413 -0.107283734 -0.20430392 -0.14676405 -0.3039988
00000000: a3dd 0fbd f3f4 0fbd 7f03 10bd 1ad1 0fbd
00000010: 75e5 0fbd 37f8 0fbd 7ab1 0fbd 8cc0 0fbd
00000020: 6ad3 0fbd 24fd 0ebd 2a08 0fbd 0702 0fbd
00000030: 3900 0fbd 310d 0fbd df0d 0fbd fbd8 0ebd
00000040: 37e3 0ebd a8ea 0ebd 5409 10bd bd13 10bd
00000050: 0617 10bd 5105 10bd 5614 10bd f51b 10bd
00000060: 0dbc 0fbd e2cc 0fbd 6be5 0fbd cf2a 10bd
00000070: 511c 10bd fbef 0fbd 724b 10bd 984f 10bd
00000080: 5b2e 10bd 37fa 0fbd eb08 10bd be06 10bd
00000090: 9a4c 0fbd 7820 0fbd 4eb2 0ebd d4a2 0fbd
000000a0: f693 0fbd f93b 0fbd e44f 0fbd e156 0fbd
000000b0: 3d31 0fbd 05a6 10bd 70d4 10bd 6924 11bd
000000c0: 846a 10bd c78e 10bd d8d8 10bd a508 10bd
000000d0: 0229 10bd 0f7b 10bd ba39 10bd f16c 10bd
000000e0: f2c3 10bd d2f1 0fbd 6315 10bd 7d64 10bd
000000f0: 8b96 0fbd 2db4 0fbd 9d06 10bd 4836 10bd
00000100: c66a 10bd eabf 10bd 8eec 0fbd a411 10bd
00000110: f45e 10bd c48f 0fbd 30af 0fbd 53ff 0fbd
00000120: ab31 02be 75eb a7bc eb9d debd aa5e ccbb
00000130: 4c6a b7bd 2a2a 0abe 1693 b1bc bcb7 29bd
00000140: 81c8 e6bd 2c43 51bd 75e1 aebd 2676 d73c
00000150: 0bee cf3c 0f94 893d e95c 61bb a3d6 ab3c
00000160: 9a0c 153d a8fd 723c 6a19 0f3e 3f60 94bc
00000170: fba4 033e 9b1e 4bbc 947f 25bc 4258 d73d
00000180: bd16 ad3c c0b0 943d 0d0d 003c 2ba2 023e
00000190: 5516 6b3d 8814 463e 6b9e 283e 873d 113e
000001a0: fbfb 113e 6534 e93d 8523 9d3d f989 433e
000001b0: 509f 8c3e 1624 873e dda8 8d3e eaea 6a3e
000001c0: 56a8 b43e 9094 973e c85a 823e d28e 5d3e
000001d0: b1a7 573e 2516 443e ba26 9a3d 3477 093e
000001e0: ca51 2f3c 8671 f63c c950 2d3e 1d4e 1dbc
000001f0: 9f02 423e 8796 3a3e a0b8 d8bc c412 0c3d
00000200: cf6b e6bd 2d39 50bc 0b15 3bbd da1e ebbd
00000210: 33d6 1bbd 2b1c 7abd c760 bc3b 115d 09bd
00000220: 951e e8bd ba18 f9bd 8a6f c13c ec84 8a3c
00000230: 01f3 19be 3759 3b3d c7aa c1bd 889d eebd
00000240: 8b99 7bbe df3a 82be 0489 ddbd 716b 8dbd
00000250: 9810 0ebd 9cfa 36be ea72 d2bd 8d08 adbd
00000260: bddb 40be 11ff 52be 90a9 50be c8cc 6bbd
00000270: 801a f4bd bee4 0bbe b49e 09bd 019f d1bc
00000280: 9dbe 50be b8a8 eebd dd34 eabc 3225 7ebd
00000290: 5187 1ebe 43f3 70bc f7b8 12bd 07cb 7fbd
000002a0: d958 acbc 6978 f6bd 8963 7d3d 69a7 84bc
000002b0: 7088 bb3a b43f 28be 647a 793c 9182 36be
000002c0: 0f35 0dbe 0041 00bd ce23 11bd 7af4 13be
000002d0: 5fdf 1b3d 70e1 503c d6de afbc 7be2 afbd
000002e0: 2eee 8bbd 923f 853d cfb1 ea3d e21c b3bd
000002f0: cf54 c13d cf29 ed3d e5ea f43d 397a d33d
00000300: 97d2 e63a 5794 203e 667a 2f3e 7f68 173e
00000310: 589a b63c 5ecf 9e3d b3c9 923d 392f b7bc
00000320: 36ab 2c3c 156e fd3d f349 603d 403a 773d
00000330: 5a01 64bd 856a 103e 69a7 1c3e 39c7 71bd
00000340: 83c2 9d3d 062d 0b3d 7781 873d c47e 0c3e
00000350: aa8b 65bd 5d37 ab3c a107 173e 0193 8bbd
00000360: 3e3c 923c 33b9 8c3d bf9f f13d 6778 03bd
00000370: 8352 dbbc 56b3 2a3e b6fc a3bc 631f 093e
00000380: 5b63 e53d f962 263d 3a33 fc3d 98e4 9bbd
00000390: 476f a93d d01b b9bd fc88 3bbd c0af 88bd
000003a0: 981e 0bbb b6b2 25bd f921 96bd 04eb 72bd
000003b0: 082d 8e3d 0a12 b6bd 7c06 21bd 01dd 25bd
000003c0: b947 a03b de16 353d 76c5 95bd 9f7d 4cbd
000003d0: c8c6 a2bd c984 93bd b987 72bd 42a9 8ebd
000003e0: b788 18bd f3fe fdbd 416b d13b 2cbe 85bd
000003f0: 93b7 dbbd 0c35 51be 5149 16be bba5 9bbe

bias f4 [16]
-0.03535918 0.0027586662 -0.119879805 0.18006964 0.050500832 0.055854857 -0.0090560075 0.00049115455
-3.854417e-05 -2.847544e-05 -0.0020886648 0.11084072 -6.995352e-18 -0.01265189 -0.027957542 0.14638239
00000000: cad4 10bd bdca 343b 8b83 f5bd 2d64 383e
00000010: f6d9 4e3d 10c8 643d a65f 14bc d3c0 003a
00000020: 7daa 21b8 8bde eeb7 fbe1 08bb 7600 e33d
00000030: 9e0a 01a3 df49 4fbc 3707 e5bc 44e5 153e

weight f4 [16, 16, 3, 3]
0.024915611 0.024960145 0.024967127 0.024757143 0.024746267 0.024766669 0.0245812 0.02452649
0.024547415 0.22616434 0.20972869 0.16338974 0.24433206 0.20800449 0.21350545 0.18496954
0.2180734 0.19934465 -0.07083039 -0.04990921 -0.05793557 -0.02035319 -0.004764081 0.009403352
0.08284551 0.006652912 0.10890571 -0.01916914 -0.21193099 -0.15663265 -0.041455407 -0.20623538
-0.28954983 -0.14514509 -0.11659456 -0.17845249 -0.0905052 -0.071072765 0.02767952 -0.13336016
-0.17812775 -0.1450804 -0.07778913 -0.20463894 -0.17307141 -0.014296853 -0.056212593 0.11112267
0.08354927 -0.00889433 0.048629157 0.13088201 0.11612958 0.022478398 -0.01817995 -0.09455539
-0.08001433 0.035973873 -0.05021339 -0.07546215 0.06446095 -0.093346685 -0.040464696 -0.0030811648
-0.18216476 -0.019724473 0.06463923 -0.11827694 -0.19155887 -0.038064033 -0.18148999 -0.1609585
5.421485e-31 -1.3404391e-35 -2.151257e-39 5.071856e-31 -9.1654046e-35 -1.3827384e-38 -4.1126597e-27 6.0481465e-31
-3.1280114e-34 -6.1415e-41 -6.5205e-41 -5.9632e-41 -6.602e-41 -6.4953e-41 -6.2368e-41 4.064e-41
3.0973e-41 4.8163e-41 3.3324e-41 1.0249e-41 -2.1956e-41 9.197e-42 6.6281e-41 9.609e-42
7.9974e-41 1.04676e-40 -9.1819e-41 -0.097639 -0.053095285 -0.04066904 -0.004739633 -0.04488058
-0.018481439 -0.008159726 0.003962061 -0.021993907 9.7511e-41 -4.0206e-41 3.6644e-41 -1.22787e-40
-1.08952e-40 9.3161e-41 1.25659e-40 5.6722e-41 -3.1438e-41 -4.945246e-10 -8.9810337e-10 -8.9530383e-10
-7.1858336e-10 -1.1726305e-09 -1.0693602e-09 -3.2814712e-10 -6.8683453e-10 -4.0138937e-10 -0.0152266715 0.008972331
-0.026478961 -0.008220284 -0.039960887 -0.0242672 -0.04547622 -0.01456232 -0.022224225 -0.01568972
0.0054029115 0.05698838 0.013254049 -0.039006498 -0.039635856 -0.012391029 -0.023616122 0.051300798
-0.02303577 -0.02284381 -0.022728859 -0.023038562 -0.022836545 -0.022719847 -0.022892289 -0.02268996
-0.022585997 -0.07184438 -0.046662107 -0.0652116 -0.086462125 -0.089665085 -0.12602699 -0.065216206
-0.07828737 -0.122302115 -0.09734432 0.011083797 0.0831261 0.037808813 0.057343584 0.11282517
-0.06475484 0.14031675 0.20056744 -0.22558938 -0.19213311 -0.2571125 -0.23303188 -0.17428893
-0.22015716 -0.12324494 -0.10304445 -0.10543141 -0.08576194 -0.11848343 -0.108329326 -0.027544037
-0.11079974 -0.09465832 -0.11590293 -0.077433 -0.12099704 0.06544916 0.059009835 0.004807862
0.08972834 0.08148856 0.090487964 0.10292556 0.114649765 0.12092344 -0.026012095 0.010794644
0.023739297 -0.11382738 -0.06834095 0.11954454 -0.090864964 -0.032104272 0.068736546 -0.030056236
-0.07600111 -0.14488238 -0.11852743 -0.0056817303 -0.09082508 -0.23316985 -0.026980577 -0.2461569
7.8541e-41 -6.432e-42 -5.7191e-41 5.9236e-41 -2.2304e-41 4.4878e-41 -7.5774e-41 -4.5608e-41
7.8798e-41 -1.947e-40 -3.5647e-40 -7.1386e-41 -1.78425e-40 -2.62532e-40 -1.5005e-41 2.8263e-41
-8.2476e-41 -1.2532e-41 -7.0198e-41 9.7948e-41 -4.3897e-41 2.2677e-40 -1.9832e-40 1.19665e-40
1.74443e-40 -1.66834e-40 1.6836e-40 -0.05629448 -0.015847152 0.08077244 -0.070691034 -0.07878108
-0.027556889 -0.034243733 0.0049205897 -0.044293698 -8.429e-42 -6.8776e-41 -4.2032e-41 1.7885e-41
00000000: d31b cc3c 3879 cc3c dc87 cc3c 7ecf ca3c
00000010: afb8 ca3c 78e3 ca3c 835e c93c c7eb c83c
00000020: a917 c93c a097 673e 1ec3 563e a44f 273e
00000030: 2f32 7a3e 21ff 543e 2ca1 5a3e a868 3d3e
00000040: a24e 5f3e 0121 4c3e 860f 91bd 9a6d 4cbd
00000050: d94d 6dbd bcbb a6bc 021c 9cbb 8410 1a3c
00000060: e8aa a93d ac00 da3b f509 df3d 9a08 9dbc
00000070: 7004 59be 4f64 20be 25cd 29bd 5e2f 53be
00000080: e03f 94be eaa0 14be 21c9 eebd 40bc 36be
00000090: ca5a b9bd 998e 91bd 29c0 e23c 918f 08be
000000a0: 1f67 36be f58f 14be e84f 9fbd df8c 51be
000000b0: a239 31be 593d 6abc 2d3f 66bd 4894 e33d
000000c0: e11b ab3d 86b9 11bc 5e2f 473d ef05 063e
000000d0: 58d5 ed3d 9e24 b83c 1eee 94bc 42a6 c1bd
000000e0: 8ede a3bd 5759 133d 8eac 4dbd e68b 9abd
000000f0: 1a04 843d 8c2c bfbd 4fbe 25bd 5eed 49bb
00000100: 6689 3abe 3895 a1bc 9361 843d 2e3b f2bd
00000110: 0228 44be 08e9 1bbd 83d8 39be 4ed2 24be
00000120: efef 2f0d 398a 8e85 d46c 1780 5597 240d
00000130: 83a8 f386 1f91 9680 53eb a293 0946 440d
00000140: 5be4 cf87 33ab 0080 c4b5 0080 3ba6 0080
00000150: 09b8 0080 10b5 0080 dbad 0080 4a71 0000
00000160: 5756 0000 4286 0000 e55c 0000 921c 0000
00000170: 343d 0080 a319 0000 c4b8 0000 c91a 0000
00000180: efde 0000 cb23 0100 f4ff 0080 f5f6 c7bd
00000190: 717a 59bd 9494 26bd ec4e 9bbb b3d4 37bd
000001a0: 6366 97bc 5fb0 05bc 2dd4 813b 912c b4bc
000001b0: d20f 0100 1470 0080 2666 0000 4856 0180
000001c0: b72f 0180 b203 0100 495e 0100 1e9e 0000
000001d0: a357 0080 13ef 07b0 68de 76b0 6819 76b0
000001e0: cf85 45b0 452a a1b0 c4f8 92b0 9a66 b4af
000001f0: afcb 3cb0 88aa dcaf 4a79 79bc af00 133c
00000200: 68ea d8bc 5fae 06bc 07ae 23bd 02cc c6bc
00000210: 4645 3abd cc96 6ebc 940f b6bc ba87 80bc
00000220: e80a b13b a66c 693d 8327 593c 47c5 1fbd
00000230: 3559 22bd be03 4bbc 9976 c1bc c920 523d
00000240: 83b5 bcbc f122 bbbc df31 babc 5ebb bcbc
00000250: b513 bbbc f91e babc 9c88 bbbc 4ce0 b9bc
00000260: 4506 b9bc 2523 93bd c420 3fbd a98d 85bd
00000270: 0e13 b1bd 54a2 b7bd 380d 01be 1390 85bd
00000280: 2155 a0bd 8879 fabd 755c c7bd d098 353c
00000290: 043e aa3d 6add 1a3d 1be1 6a3d e210 e73d
000002a0: 309e 84bd 32af 0f3e 8d61 4d3e e700 67be
000002b0: 8bbe 44be 40a4 83be e99f 6ebe cc78 32be
000002c0: e170 61be d867 fcbd f808 d3bd 6cec d7bd
000002d0: f5a3 afbd 71a7 f2bd c4db ddbd 08a4 e1bc
000002e0: f9ea e2bd 39dc c1bd 845e edbd 3195 9ebd
000002f0: 4ccd f7bd 360a 863d 4cb4 713d 458b 9d3b
00000300: 7ec3 b73d 79e3 a63d c151 b93d a3ca d23d
00000310: 7fcd ea3d b5a6 f73d 5117 d5bc 05dc 303c
00000320: ea78 c23c 541e e9bd 57f6 8bbd c5d3 f43d
00000330: 6917 babd c57f 03bd bfc5 8c3d 7f38 f6bc
00000340: 78a6 9bbd 0c5c 14be 82be f2bd cf2d babb
00000350: 8002 babd 14c4 6ebe 5f06 ddbc 8e10 7cbe
00000360: f1da 0000 ee11 0080 6d9f 0080 20a5 0000
00000370: 2d3e 0080 1a7d 0000 3ad3 0080 237f 0080
00000380: a8db 0000 bf1e 0280 b1e1 0380 ffc6 0080
00000390: 60f1 0180 d5db 0280 d429 0080 c94e 0000
000003a0: e9e5 0080 ef22 0080 afc3 0080 0a11 0100
000003b0: 5e7a 0080 2478 0200 d628 0280 944d 0100
000003c0: 47e6 0100 11d1 0180 52d5 0100 0a95 66bd
000003d0: e3d1 81bc 056c a53d 76c6 90bd fa57 a1bd
000003e0: fcbe e1bc 2843 0cbd e63c a13b 4f6d 35bd
000003f0: 7f17 0080 b8bf 0080 2b75 0080 db31 0000

bias f4 [16]
0.0027996092 0.07609035 0.0888677 -0.048076283 0.09234862 0.026571589 -0.12086302 0.035814535
-0.12590899 -0.09521379 0.022054587 -0.11930201 0.0026300137 -0.13694187 -0.0383375 -0.09823249
00000000: a679 373b 42d5 9b3d 4500 b63d a3eb 44bd
00000010: 4621 bd3d a9ac d93c 0887 f7bd 43b2 123d
00000020: 49ee 00be 73ff c2bd d2ab b43c 9d54 f4bd
00000030: 4f5c 2c3b 7d3a 0cbe c807 1dbd 1e2e c9bd

weight f4 [32, 16, 3, 3]
-0.00025122636 -0.0002209765 -0.00020643971 -0.0002647511 -0.0002405893 -0.00022407397 -0.00029500137 -0.00027244698
-0.00025368054 1.5607556e-08 2.1154406e-08 1.6520117e-08 1.1268332e-08 3.0137798e-08 4.0126892e-08 6.0431153e-09
1.5340516e-08 3.1719612e-08 -3.2886518e-07 -3.053579e-07 -1.7671783e-07 -1.8347778e-07 -3.5680222e-07 -3.229345e-07
1.02368185e-08 -2.4805212e-07 -3.44245e-07 -5.677967e-07 -5.568073e-07 -4.9065943e-07 -5.4856093e-07 -6.997294e-07
-7.517464e-07 -2.389311e-07 -4.862551e-07 -6.089618e-07 -1.11241576e-07 -9.814376e-08 -5.241624e-08 -7.019086e-08
-7.98716e-08 -4.238984e-08 -7.125226e-08 -1.0828602e-07 -1.0486823e-07 -7.953329e-06 -7.002841e-06 -4.6066757e-06
-6.70742e-06 -5.2417017e-06 -2.9106316e-06 -7.875009e-06 -6.805328e-06 -5.087111e-06 2.0878429e-07 4.314373e-07
3.4951796e-07 -4.4031886e-08 4.0677998e-07 5.041848e-07 -2.6475564e-07 2.7864345e-07 5.4359964e-07 -4.769309e-07
-4.221089e-07 -2.8878804e-07 -2.6342528e-07 -5.7027354e-08 1.4839381e-07 -4.768808e-07 -3.034374e-07 -7.011157e-08
4.9850263e-07 1.0030167e-06 7.648684e-07 -1.6047254e-08 1.0606041e-06 1.2612511e-06 -6.688868e-07 5.505661e-07
1.2747983e-06 -3.5818444e-05 -2.2237162e-05 1.2798793e-05 -1.8655302e-05 -4.1137137e-06 3.555863e-05 -2.9825584e-05
-1.2311374e-05 7.9816655e-06 -6.3811476e-06 -5.263465e-06 -3.2882144e-06 -5.227344e-06 -4.5157603e-06 -2.939064e-06
-5.3438325e-06 -5.4803154e-06 -4.8539e-06 1.4310146e-07 3.712191e-07 3.293908e-07 -1.0139211e-07 4.0141472e-07
5.4435367e-07 -3.3392567e-07 1.5212126e-07 4.44605e-07 -5.64334e-05 -5.0819737e-05 -3.179118e-05 -5.477197e-05
-5.3815795e-05 -3.7959893e-05 -5.410639e-05 -6.1433115e-05 -5.8117148e-05 -4.338529e-09 2.1419503e-08 1.9471074e-08
-3.2587085e-08 2.6090298e-08 4.1731663e-08 -6.118617e-08 7.390543e-10 3.0951693e-08 1.1026957e-05 1.4150914e-05
1.2753704e-05 7.948434e-06 1.590898e-05 1.7604498e-05 5.4832026e-06 1.607521e-05 2.1092397e-05 -0.0001212007
-0.000104037346 -7.4743584e-05 -0.00013566054 -0.00011087905 -7.076671e-05 -0.00017152136 -0.00015492998 -0.00012306188
0.18862526 0.05848185 -0.14583313 0.01114612 -0.018482026 -0.07841583 -0.17304346 -0.13505651
-0.0152463885 -0.18751815 -0.10117903 -0.09687718 -0.12227547 -0.021462984 0.023508368 -0.0068903714
0.012010573 0.11676005 -0.17485014 -0.043428585 -0.042347897 -0.16001348 -0.11315503 -0.09640637
0.040549602 0.018454354 -0.025514985 0.33489957 0.2788746 0.23366961 0.12466227 0.1288697
0.07322391 0.0497164 0.059732538 0.0058483314 -0.26115924 -0.14841492 -0.047583602 -0.22909169
-0.117028795 -0.026826918 -0.07760462 -0.0072833295 0.020836992 -0.10101581 -0.03933317 -0.04976393
-0.011147992 0.043977536 0.034931183 0.080389366 0.06874731 0.099983975 0.34139138 0.19562
0.06254314 0.17824112 0.10021256 0.12020826 -0.03540965 0.036075898 0.075672254 -0.14165957
-0.04039708 -0.11310519 -0.070441365 -0.005998962 0.015062064 0.005146786 0.0610679 0.016500313
0.30166718 0.11476627 0.01762024 0.21816061 0.08420748 0.036361944 -0.085944176 -0.012324124
0.068238065 -0.046015564 0.07240524 0.08835619 0.08325994 0.11488884 0.09062134 0.16890553
0.086241156 0.0042954907 -0.11567648 -0.05245992 -0.06118948 -0.07775238 -0.027404306 -0.14326125
0.06966886 0.07677794 -0.019849425 0.19333676 0.024628364 -0.064489126 0.12228945 0.06024098
-0.051694762 -0.08516186 -0.08806098 -0.0712158 -0.1164456 -0.023665924 -0.04733842 -0.013780549
00000000: 08b7 83b9 edb5 67b9 bd77 58b9 4bce 8ab9
00000010: b346 7cb9 66f5 6ab9 6aaa 9ab9 37d7 8eb9
00000020: 6d00 85b9 6111 8632 08b7 b532 1fe8 8d32
00000030: a696 4132 dc70 0133 fc57 2c33 cea3 cf31
00000040: 27c6 8332 153c 0833 e38e b0b4 12f0 a3b4
00000050: d4bf 3db4 fd01 45b4 868e bfb4 c85f adb4
00000060: 01de 2f32 062c 85b4 acd0 b8b4 b16a 18b5
00000070: 8277 15b5 dcb5 03b5 d240 13b5 0ad5 3bb5
00000080: 9fcb 49b5 7146 80b4 3287 02b5 8977 23b5
00000090: b4e3 eeb3 1ac3 d2b3 4420 61b3 d5bb 96b3
000000a0: e085 abb3 1f10 36b3 5803 99b3 de8a e8b3
000000b0: eb33 e1b3 4a6f 05b7 f2f9 eab6 0b93 9ab6
000000c0: 4d10 e1b6 e0e1 afb6 4554 43b6 e81e 04b7
000000d0: 5359 e4b6 f3b1 aab6 302e 6034 4aa0 e734
000000e0: 62a5 bb34 921d 3db3 6a63 da34 5157 0735
000000f0: bd23 8eb4 7798 9534 e2eb 1135 7106 00b5
00000100: 359e e2b4 ba0a 9bb4 e56c 8db4 3dee 74b3
00000110: 2e56 1f34 0003 00b5 1ee8 a2b4 3e90 96b3
00000120: d7d0 0535 649f 8635 5b51 4d35 49d8 89b2
00000130: 145a 8e35 4248 a935 8d8d 33b5 9dca 1335
00000140: bc19 ab35 c33b 16b8 f189 bab7 66ba 5637
00000150: f57d 9cb7 8808 8ab6 ca24 1538 f431 fab7
00000160: f38c 4eb7 fee8 0537 a41d d6b6 d29c b0b6
00000170: 18ab 5cb6 8b66 afb6 1686 97b6 bc3c 45b6
00000180: 2c4f b3b6 8de3 b7b6 afde a2b6 6ea7 1934
00000190: f74b c734 20d7 b034 e7bc d9b3 0582 d734
000001a0: b31f 1235 6546 b3b4 c656 2334 0cb2 ee34
000001b0: e7b2 6cb8 4727 55b8 8557 05b8 f4ba 65b8
000001c0: 45b8 61b8 2037 1fb8 4bf0 62b8 a7d5 80b8
000001d0: d0c2 73b8 1b12 95b1 fcfd b732 5841 a732
000001e0: e1f5 0bb3 2c1d e032 733c 3333 7465 83b3
000001f0: 5326 4b30 bfef 0433 6b00 3937 b669 6d37
00000200: bef8 5537 445a 0537 4674 8537 5fad 9337
00000210: 5afc b736 40d9 8637 94ef b037 212d feb8
00000220: a02e dab8 a8bf 9cb8 1940 0eb9 bd87 e8b8
00000230: 9768 94b8 6ada 33b9 b374 22b9 2c0a 01b9
00000240: fb26 413e aa8a 6f3d 4855 15be 379e 363c
00000250: 9e67 97bc 7b98 a0bd 4e32 31be 414c 0abe
00000260: fdcb 79bc c204 40be f436 cfbd 8b67 c6bd
00000270: 906b fabd 24d3 afbc 9f94 c03c a0c8 e1bb
00000280: ffc7 443c e51f ef3d ea0b 33be 2ce2 31bd
00000290: fd74 2dbd 93da 23be d3bd e7bd b470 c5bd
000002a0: 5717 263d 962d 973c cd04 d1bc f577 ab3e
000002b0: a7c8 8e3e 1647 6f3e ef4e ff3d 6bf6 033e
000002c0: 6bf6 953d 6da3 4b3d 1baa 743d 5ca3 bf3b
000002d0: aab6 85be 15fa 17be 06e7 42bd 0397 6abe
000002e0: cbac efbd 20c4 dbbc 2cef 9ebd ffa8 eebb
000002f0: 57b2 aa3c 61e1 cebd d11b 21bd 43d5 4bbd
00000300: 11a6 36bc ca21 343d 0014 0f3d 2ea3 a43d
00000310: 64cb 8c3d 66c4 cc3d daca ae3e 9c50 483e
00000320: 9e16 803d d784 363e 3e3c cd3d c02f f63d
00000330: b609 11bd 52c4 133d 0efa 9a3d 350f 11be
00000340: 6977 25bd b2a3 e7bd 9043 90bd f192 c4bb
00000350: e0c6 763c 5fa6 a83b 5622 7a3d aa2b 873c
00000360: 1f74 9a3e 940a eb3d 5258 903c 7f65 5f3e
00000370: f974 ac3d 43f0 143d 8003 b0bd 1feb 49bc
00000380: 66c0 8b3d d17a 3cbd 3349 943d 17f4 b43d
00000390: 3084 aa3d d74a eb3d ae97 b93d 92f5 2c3e
000003a0: 349f b03d 30c1 8c3b cae7 ecbd 37e0 56bd
000003b0: d2a1 7abd a43c 9fbd ff7e e0bc 14b3 12be
000003c0: 8cae 8e3d c13d 9d3d 439b a2bc 12fa 453e
000003d0: 6cc1 c93c e012 84bd e472 fa3d 3fbf 763d
000003e0: e3bd 53bd 5769 aebd 5159 b4bd 97d9 91bd
000003f0: 087b eebd 0adf c1bc eee5 41bd d0c7 61bc

bias f4 [32]
-0.036493145 -0.20883378 -0.040255778 -0.04991803 -0.046349563 -0.06362261 0.0077232476 -0.12781437
-1.7489738e-07 -0.047648765 -0.13738976 -2.5948942e-05 -3.9857042e-20 0.01626821 -0.10443803 -0.04288352
-0.15707928 0.033838004 -0.029352533 -0.04462669 -0.014091568 -1.3685959e-18 -0.018012574 -0.1491761
-0.105056316 -0.058866072 -0.06740991 -0.1011059 0.10942043 -0.0012344349 0.060666524 -0.06528062
00000000: d679 15bd 86d8 55be 3ee3 24bd d976 4cbd
00000010: 0ad9 3dbd 924c 82bd 4c13 fd3b c5e1 02be
00000020: 6dcb 3bb4 5a2b 43bd e7af 0cbe eeac d9b7
00000030: 3538 3c9f e944 853c 9be3 d5bd a1a6 2fbd
00000040: 64d9 20be b899 0a3d b974 f0bc 7aca 36bd
00000050: 52e0 66bc 17f8 c9a1 1b8f 93bc 9fc1 18be
00000060: c427 d7bd 8d1d 71bd 350e 8abd 9c10 cfbd
00000070: d217 e03d c3cc a1ba 767d 783d d8b1 85bd

weight f4 [32, 32, 3, 3]
-1.0007432e-07 -1.21548105e-08 6.367242e-08 -2.7521196e-07 -1.2787974e-07 9.791538e-09 -3.8113055e-07 -2.3711307e-07
-4.364275e-09 0.02487226 0.085577354 0.106224775 -0.00633367 0.0249683 0.019192854 -0.00092479185
-0.023500387 -0.08985495 -3.5292416e-07 -1.5312759e-08 7.81418e-08 -1.679295e-06 -6.841714e-07 -2.1941231e-07
-2.5096024e-06 -1.5011279e-06 -7.5628395e-07 0.12128372 -0.04310432 0.06694609 -0.021794073 -0.1417149
-0.029819619 0.08803332 -0.062144037 0.06779281 0.00014077713 0.0001147786 7.612547e-05 0.00013570153
0.00023066984 0.00021976058 1.0168524e-05 0.00017350694 0.00030073538 -0.0061926395 -0.0037597516 -0.00015355764
-0.011013227 -0.009278343 -0.0066677853 -0.009802868 -0.0110993665 -0.009072613 0.007113839 0.09247435
0.058304008 -0.04987899 -0.07251911 -0.03672333 -0.005784975 -0.07485379 0.008312151 -0.024770109
-0.07961405 0.052447233 -0.005769665 -0.0066754203 0.043540668 0.042095948 -0.065418184 0.017678777
3.8009e-41 5.2428e-41 -3.0589e-41 6.2358e-41 6.5948e-41 5.2399e-41 4.1e-42 -2.9024e-41
-6.6368e-41 0.00089031376 -0.12215554 -0.04273062 -0.0045866054 -0.16583385 -0.084423915 0.24324599
0.018764097 0.105805755 -0.047638837 -0.018388506 0.041342262 -0.08450826 -0.07647497 -0.031204367
-0.040608086 -0.0771581 -0.039168097 -6.4918e-41 -5.4164e-41 -4.0195e-41 -1.4858e-41 -8.485e-42
-6.7863e-41 -2.833e-41 -3.0222e-41 -5.73e-43 4.8018e-41 3.5152e-41 4.4814e-41 8.276e-41
-6.2739e-41 -1.5434e-41 -8.1854e-41 5.5033e-41 -6.5228e-41 0.060684785 0.038983684 0.13814594
-0.020419637 -0.0303943 0.062209018 -0.028980348 -0.018054811 0.053729765 -0.006745445 -0.00091739465
0.0046275887 -0.020326683 -0.013535612 -0.006518328 -0.024674071 -0.021276282 -0.014469999 -0.039405555
-0.09051305 -0.080532275 0.059160452 -0.07887066 -0.0071991477 0.15311907 0.043174565 0.09578208
0.072876215 0.11875803 0.19961503 0.030472273 0.051167365 0.09343952 0.03591371 0.021514986
0.02712846 -0.019646425 0.06027549 0.11947259 -0.059049472 -0.0043405327 0.09740931 -0.072082765
-0.0589768 0.01812246 0.15652835 -0.009766098 0.004191138 -0.0087745115 -0.12492348 -0.072555326
0.007062944 -0.0051318845 0.022976194 0.00050233013 0.008981283 0.010499854 -0.022927659 -0.021622209
-0.00967405 -0.031849805 -0.009031247 0.006208307 -0.044920005 0.02151829 0.005258022 -0.07295524
-0.03502564 0.012075501 -0.072512016 0.011592777 -0.03135163 3.342e-42 -2.7321e-41 -2.2354e-41
7.1494e-41 -2.26e-42 -6.3292e-41 1.5623e-41 4.605e-41 -1.385e-41 0.0030057116 -0.000224315
0.0138645405 -0.0010525148 0.0066472827 0.018599674 -0.002932403 -0.0018415216 -0.006355171 0.011926411
0.03836827 0.074169405 -0.033851773 -0.013215649 0.014498586 -0.04350057 -0.034695916 -0.01540006
-0.036711995 -0.0090152165 0.051491972 -0.05843018 -0.030065035 -0.011120508 -0.016139356 -0.018741423
-0.0016198138 0.009110843 0.020251634 0.020467676 0.018708093 0.02437356 0.032333475 0.018636826
0.010337402 0.02738087 0.16408956 -0.019584702 -0.049509533 0.096937664 -0.09487676 -0.060494423
0.27054664 0.033169076 0.036531217 -0.0053607826 -0.003562123 0.0058220425 -0.0040121805 0.0005075574
0.012751849 0.004793051 0.009436626 0.023981165 -0.040052764 0.067283355 0.062040538 -0.019749423
00000000: 70e8 d6b3 6cd1 50b2 48bc 8833 d8c0 93b4
00000010: 514f 09b4 a437 2832 2f9e ccb4 2599 7eb4
00000020: 92f4 95b1 e9c0 cb3c 2e43 af3d 608c d93d
00000030: ad8a cfbb 528a cc3c 553a 9d3c bb6d 72ba
00000040: e283 c0bc df05 b8bd 8779 bdb4 1d89 83b2
00000050: e9ce a733 2364 e1b5 e7a7 37b5 9997 6bb4
00000060: a46a 28b6 5d7a c9b5 7003 4bb5 9963 f83d
00000070: 288e 30bd 081b 893d 7c89 b2bc b61d 11be
00000080: 4648 f4bc d04a b43d bf8a 7ebd f5d6 8a3d
00000090: 939d 1339 4bb5 f038 8da5 9f38 1a4b 0e39
000000a0: f7df 7139 886f 6639 7a99 2a37 6aef 3539
000000b0: 05ac 9d39 a0eb cabb 2a66 76bb 5104 21b9
000000c0: d270 34bc 3104 18bc 707d dabb 359c 20bc
000000d0: 1eda 35bc 4ca5 14bc 351b e93b 3163 bd3d
000000e0: 2fd0 6e3d e94d 4cbd e684 94bd 346b 16bd
000000f0: e38f bdbb f24c 99bd b02f 083c afea cabc
00000100: b10c a3bd e9d2 563d 750f bdbb 7cbd dabb
00000110: b357 323d cd6c 2c3d f8f9 85bd 15d3 903c
00000120: f469 0000 2692 0000 4555 0080 d4ad 0000
00000130: d6b7 0000 1192 0000 6e0b 0000 e850 0080
00000140: 02b9 0080 f263 693a af2c fabd 4d06 2fbd
00000150: 3c4b 96bb 59d0 29be 72e6 acbd 7a15 793e
00000160: 2ab7 993c b0b0 d83d f120 43bd 7ea3 96bc
00000170: 8156 293d ab12 adbd e99e 9cbd 4da0 ffbc
00000180: aa54 26bd 1105 9ebd ba6e 20bd f7b4 0080
00000190: fd96 0080 0c70 0080 6b29 0080 a717 0080
000001a0: 2dbd 0080 f94e 0080 3f54 0080 9901 0080
000001b0: db85 0000 fd61 0000 ec7c 0000 b4e6 0000
000001c0: e4ae 0080 062b 0080 2de4 0080 6999 0000
000001d0: d4b5 0080 9c90 783d 5bad 1f3d 2176 0d3e
000001e0: 1547 a7bc 78fd f8bc e2ce 7e3d 3268 edbc
000001f0: afe7 93bc be13 5c3d e508 ddbb 507d 70ba
00000200: 07a3 973b 2584 a6bc 79c4 5dbc b397 d5bb
00000210: 4721 cabc 994b aebc 9313 6dbc b867 21bd
00000220: e85e b9bd 1bee a4bd 3b52 723d f186 a1bd
00000230: d4e6 ebbb 3fcb 1c3e d0d7 303d 6529 c43d
00000240: 2040 953d 6937 f33d e267 4c3e fda0 f93c
00000250: df94 513d 385d bf3d 411a 133d 3240 b03c
00000260: 813c de3c 8af1 a0bc 6fe3 763d 0cae f43d
00000270: dcdd 71bd 073b 8ebb 887e c73d 21a0 93bd
00000280: a891 71bd 8e75 943c f848 203e fc01 20bc
00000290: d055 893b f8c2 0fbc e2d7 ffbd e397 94bd
000002a0: 4570 e73b 5e29 a8bb 9238 bc3c ceae 033a
000002b0: 3b26 133c 9407 2c3c c9d2 bbbc 0f21 b1bc
000002c0: e87f 1ebc f174 02bd ccf7 13bc 0e6f cb3b
000002d0: 0afe 37bd 2047 b03c 7c4b ac3b 8f69 95bd
000002e0: 0c77 0fbd 52d8 453c 2e81 94bd a2ef 3d3c
000002f0: 916a 00bd 5109 0000 294c 0080 503e 0080
00000300: 4cc7 0000 4d06 0080 6fb0 0080 8d2b 0000
00000310: 5e80 0000 9c26 0080 79fb 443b 1936 6bb9
00000320: 1928 633c 89f4 89ba 73d1 d93b 585e 983c
00000330: 8f2d 40bb 365f f1ba 0a3f d0bb fe66 433c
00000340: 0c28 1d3d 21e6 973d 28a8 0abd 7386 58bc
00000350: 7a8b 6d3c a72d 32bd 4e1d 0ebd 8950 7cbc
00000360: 515f 16bd 8fb4 13bc 3fe9 523d 7c54 6fbd
00000370: f34a f6bc cb32 36bc af36 84bc 9d87 99bc
00000380: ef4f d4ba a545 153c c1e6 a53c d4ab a73c
00000390: b741 993c 0fab c73c 1b70 043d 42ac 983c
000003a0: 355e 293c d94d e03c 1807 283e 1970 a0bc
000003b0: 82ca 4abd 4187 c63d bf4e c2bd 00c9 77bd
000003c0: 1785 8a3e 4cdc 073d c2a1 153d 81a9 afbb
000003d0: 8272 69bb d5c6 be3b 9c78 83bb 9a0d 053a
000003e0: 22ed 503c 070f 9d3b 149c 1a3c 2674 c43c
000003f0: 5e0e 24bd dbcb 893d 381e 7e3d 8bc9 a1bc

bias f4 [32]
-0.079327315 0.019191612 -0.090820394 0.02453645 0.09187543 0.02488854 0.10193667 -0.044445593
-0.09997565 -0.042734966 0.13556337 -0.10206898 0.13004948 0.0029345984 0.08097389 0.082612604
0.019803634 0.0071661766 -0.12947617 -0.11404598 -0.0052400352 -0.14577083 -0.04027102 0.06060529
-0.02954083 -0.09430987 0.004589995 0.012479874 0.027821649 -0.119019724 0.08209392 0.09267759
00000000: 5c76 a2bd ba37 9d3c 0b00 babd aa00 c93c
00000010: 2f29 bc3d 0de3 cb3c 2cc4 d03d 950c 36bd
00000020: 09c0 ccbd dc0a 2fbd 20d1 0a3e 8b09 d1bd
00000030: b12b 053e 6452 403b a4d5 a53d cc30 a93d
00000040: 3b3b a23c 3fd2 ea3b 6795 04be f090 e9bd
00000050: 9ab4 abbb f344 15be 3af3 24bd 413d 783d
00000060: 9cff f1bc 8825 c1bd ab67 963b 6378 4c3c
00000070: 3aea e33c 9dc0 f3bd db20 a83d c0cd bd3d

weight f4 [32, 16, 2, 2]
-0.016716091 0.051841334 -0.02884296 0.085652515 -0.019912431 -0.053461876 -0.008880563 0.031039245
-0.07061478 0.06970707 -0.03653279 0.004962791 0.009951176 -0.13517107 0.1595967 0.0046752472
-0.015110888 -0.015102433 -0.07630743 -0.08212324 0.083837084 0.092057675 -0.08180457 -0.011786709
0.070574425 0.03817218 0.086768895 -0.030385142 0.07428582 -0.17961216 0.086872496 -0.13198365
0.009580766 -0.024453292 -0.06380738 0.14932182 -0.009359706 -0.02034281 0.034812063 0.056562454
0.068098046 0.13797091 -0.091500126 0.09158662 0.13287598 0.13045996 0.051426336 -0.050677456
-0.06834001 -0.09930789 0.077512264 -0.044632915 0.07175483 0.13221298 0.019581506 -0.057045143
-0.08070414 0.033776402 -0.014437574 0.09298694 -0.04361488 -0.0123366555 -0.10793986 0.028807595
-0.0938743 -0.058170833 0.084104985 0.120647855 0.005159772 0.01570633 -0.24798474 -0.089091904
-0.068775035 -0.0751296 0.0043633473 0.02102794 -0.107378595 -0.018157188 -0.3170951 -0.16196552
-0.12303017 -0.27288845 0.1297743 -0.0047241957 -0.07513891 -0.13247402 0.12768744 -0.07169721
-0.004808747 0.2902445 -0.039628483 0.13885659 0.19331345 0.33635163 0.029866068 0.07647726
-0.16217543 -0.13593158 -0.10185642 -0.07493832 -0.17954047 -0.12795658 -0.08946281 -0.16572084
0.067784995 -0.15255386 0.25419098 0.1355612 -0.101601824 -0.2259618 0.23999691 0.21863145
0.20283452 0.304681 -0.013308886 0.061323147 -0.11138168 -0.13245583 0.008909418 0.0027876967
0.094355345 -0.1328086 0.03318642 -0.1046669 -0.09723458 -0.2601458 -0.027488071 -0.12110998
0.13082907 0.03922216 0.051041584 0.12591831 -0.088658825 0.06992256 -0.0839183 -0.048084922
-0.06402219 0.102655634 -0.009029539 -0.11754532 -0.035359565 -0.085896246 -0.06146903 -0.09058622
-0.079317495 -0.09761056 -0.1501046 0.0071285362 0.062145162 -0.088201225 0.049510147 0.052949466
0.14130752 -0.0219262 -0.058457807 0.094289646 0.14908573 -0.04349984 0.11168468 0.02382052
-0.16845222 -0.084522575 -0.0061780573 -0.014670726 -0.06193192 -0.027017983 -0.02593415 -0.0052368636
-0.033244047 -0.045166295 0.033785153 -0.022797283 0.03003322 -0.025543135 0.08240903 0.08163746
0.07756468 0.03204078 -0.011198677 0.06892141 -0.040303055 0.06889073 0.037924767 0.062332734
-0.10595969 0.06302384 0.11697825 0.027648687 -0.0376598 0.08304348 -0.04824555 0.04550547
0.09364741 0.0387439 0.10628013 0.21339135 0.079513974 -0.046166185 -0.07474191 -0.16945389
0.0037098795 -0.05296346 0.10745577 0.10472282 0.14739242 0.14123118 0.09242063 -0.020655103
0.04118744 -0.06634584 -0.07515972 -0.013735519 -0.13695686 -0.20484398 -0.24282405 -0.22343625
-0.043183193 -0.097337775 0.04320381 0.03238764 -0.08490226 -0.12968135 -0.17764065 -0.20135596
-0.20590867 -0.18595654 -0.15925038 -0.17432655 0.102418244 0.011475899 0.036198404 0.10553356
-0.1609549 -0.057821956 -0.06264297 0.027186148 -0.010644775 0.099589325 0.14511733 0.15002875
0.05960303 -0.029681476 0.042457014 -0.012926135 -0.10263682 -0.042786747 0.00033659977 -0.11714549
0.09642339 0.19108087 0.18421999 0.18633218 0.015089035 -0.0033889904 0.08670193 -0.046976205
00000000: 2ff0 88bc 9457 543d 1248 ecbc 966a af3d
00000010: 651f a3bc d7fa 5abd c87f 11bc 0446 fe3c
00000020: 7b9e 90bd 95c2 8e3d 68a3 15bd e99e a23b
00000030: 420a 233c 496a 0abe 516d 233e d132 993b
00000040: a893 77bc 3270 77bc 1247 9cbd 3b30 a8bd
00000050: c7b2 ab3d bc88 bc3d 2889 a7bd 0a1d 41bc
00000060: 5389 903d 6f5a 1c3d e4b3 b13d 43ea f8bc
00000070: 2a23 983d 40ec 37be 35ea b13d b926 07be
00000080: a5f8 1c3c 4552 c8bc 72ad 82bd d2e7 183e
00000090: 7459 19bc f7a5 a6bc 1897 0e3d 08ae 673d
000000a0: fd76 8b3d 3f48 0d3e 6b64 bbbd c491 bb3d
000000b0: a410 083e 4c97 053e 6ca4 523d 2a93 4fbd
000000c0: d9f5 8bbd ef61 cbbd c0be 9e3d 01d1 36bd
000000d0: 32f4 923d d762 073e 6569 a03c 2ba8 69bd
000000e0: 3648 a5bd 2059 0a3d 938b 6cbc f06f be3d
000000f0: 84a5 32bd af1f 4abc 930f ddbd e8fd eb3c
00000100: 2b41 c0bd 8a44 6ebd 3c3f ac3d 3916 f73d
00000110: 4e13 a93b 90aa 803c b6ef 7dbe d175 b6bd
00000120: edd9 8cbd 8cdd 99bd 69fa 8e3b c942 ac3c
00000130: 4fe9 dbbd 62be 94bc 4a5a a2be 4ada 25be
00000140: 3ef7 fbbd 09b8 8bbe 8ee3 043e 6dcd 9abb
00000150: 6ee2 99bd 45a7 07be 7fc0 023e fdd5 92bd
00000160: b292 9dbb ed9a 943e 7a51 22bd 6c30 0e3e
00000170: f6f3 453e 4836 ac3e afa9 f43c 1ca0 9c3d
00000180: 5111 26be a631 0bbe 199a d0bd 4379 99bd
00000190: 75d9 37be 0d07 03be 4738 b7bd b9b2 29be
000001a0: dcd2 8a3d 1437 1cbe 5225 823e 8ed0 0a3e
000001b0: 9e14 d0bd 8862 67be c0c1 753e ece0 5f3e
000001c0: dab3 4f3e 26ff 9b3e 840d 5abc fb2d 7b3d
000001d0: 141c e4bd 80a2 07be cff8 113c cab1 363b
000001e0: 603d c13d fafe 07be 7cee 073d 9a5b d6bd
000001f0: ec22 c7bd d531 85be aa2e e1bc 8208 f8bd
00000200: 0ef8 053e 6aa7 203d fb10 513d bbf0 003e
00000210: c292 b5bd 8f33 8f3d 5cdd abbd b2f4 44bd
00000220: 111e 83bd 1e3d d23d a2f0 13bc 9abb f0bd
00000230: 31d5 10bd 5fea afbd f3c6 7bbd 4585 b9bd
00000240: 3671 a2bd 0ce8 c7bd 05b5 19be 7f96 e93b
00000250: ed8b 7e3d d8a2 b4bd 27cb 4a3d 8ae1 583d
00000260: ebb2 103e 939e b3bc 7471 6fbd ee1a c13d
00000270: eea9 183e e32c 32bd f0ba e43d 4023 c33c
00000280: bd7e 2cbe 2c1a adbd 4d71 cabb 7c5d 70bc
00000290: 53ac 7dbd d154 ddbc db73 d4bc ff99 abbb
000002a0: e92a 08bd 4b00 39bd 4d62 0a3d 5ec1 babc
000002b0: 3a08 f63c d63f d1bc 11c6 a83d 8a31 a73d
000002c0: 3bda 9e3d 313d 033d a87a 37bc ab26 8d3d
000002d0: d114 25bd 9516 8d3d 0057 1b3d 9c50 7f3d
000002e0: 6501 d9bd a512 813d 4b92 ef3d 807f e23c
000002f0: 2a41 1abd b312 aa3d 209d 45bd f263 3a3d
00000300: 37ca bf3d ecb1 1e3d 66a9 d93d 4383 5a3e
00000310: 39d8 a23d c118 3dbd 4912 99bd 5285 2dbe
00000320: 7321 733b 37f0 58bd c511 dc3d eb78 d63d
00000330: 0aee 163e e89e 103e 0747 bd3d e434 a9bc
00000340: 29b4 283d 54e0 87bd 57ed 99bd f10a 61bc
00000350: 6b3e 0cbe 9fc2 51be dea6 78be 79cc 64be
00000360: dce0 30bd 0759 c7bd 7af6 303d e7a8 043d
00000370: 3ce1 adbd 30cb 04be 6ee7 35be 4230 4ebe
00000380: b9d9 52be 646b 3ebe 8812 23be a982 32be
00000390: a8c0 d13d 6905 3c3c c744 143d fb21 d83d
000003a0: 5cd1 24be b7d6 6cbd f54a 80bd 7cb5 de3c
000003b0: 6c67 2ebc 7df5 cb3d a399 143e 23a1 193e
000003c0: 4f22 743d 9126 f3bc 68e7 2d3d 24c8 53bc
000003d0: 4133 d2bd 2841 2fbd a879 b039 fae9 efbd
000003e0: a079 c53d b4aa 433e 2aa4 3c3e ddcd 3e3e
000003f0: 0038 773c d319 5ebb c890 b13d 1f6a 40bd

bias f4 [16]
-0.10686156 0.13676552 -0.19430953 0.09181021 -0.071083285 0.15960488 0.07199456 0.11513307
0.021040242 0.052918825 -0.059477825 -0.15718135 0.15802272 -0.11800944 -0.063002504 -0.06589369
00000000: 3cda dabd 430c 0c3e 14f9 46be fe06 bc3d
00000010: 1d94 91bd 766f 233e e271 933d e3ca eb3d
00000020: 965c ac3c 69c1 583d 059f 73bd 26f4 20be
00000030: b5d0 213e efae f1bd 7507 81bd 45f3 86bd

weight f4 [16, 32, 3, 3]
0.15801568 0.06796786 -0.038923636 0.18080005 0.10625989 0.019259345 0.11705168 0.089307316
-0.011883035 -0.07051203 0.023417024 0.03438203 -0.06745779 0.023855494 0.031906333 -0.02518816
0.063590184 0.064345784 0.07022037 0.04155747 -0.0026541024 0.0643648 0.050493255 0.016136277
0.02804047 0.027969673 -0.009727491 -0.038942963 0.06942466 0.0916942 -0.063724704 0.056587055
0.08171602 -0.026738394 0.08711053 0.10811443 0.014946222 -0.050037093 -0.053874135 0.005900447
-0.06211728 -0.09530464 0.008404686 -0.08920782 -0.11390081 -0.12726244 -0.092318766 -0.043296184
-0.10026714 -0.09561915 -0.061047457 -0.024608718 -0.055699527 -0.028584007 0.0017323637 0.016585229
0.011169628 0.0056774267 0.0014517952 0.0035726996 0.04510612 0.016727272 0.015476105 -0.13916215
-0.05912177 -0.028545214 -0.09270805 -0.039115313 0.00014306199 -0.032087807 0.019895297 0.050749507
-0.10358359 -0.036766734 0.0041399435 -0.094278 -0.058932964 -0.027505144 -0.026013102 -0.019077053
0.0071368846 0.007713353 -0.016288674 -0.04036528 0.07863846 0.038426723 0.0007132212 0.11319877
0.06396404 0.0005517608 0.045736898 -0.07839117 -0.07179428 0.0797096 -0.056306735 -0.06405556
0.11648945 -0.04745308 -0.06209995 0.10115854 0.011476715 -0.06070123 0.13064805 0.053851154
-0.030518554 0.18203709 0.10406724 0.026222782 -0.13492282 -0.058942366 -0.008109442 -0.10930006
-0.036487848 0.031598058 -0.036089562 0.0419714 0.10533023 0.03065569 0.00017214585 -0.057266705
0.05483897 0.060459968 -0.0131328115 0.12738793 0.124699704 0.05956595 0.09186457 0.047991175
0.025223248 0.07921478 0.065993406 0.04569372 0.0572834 0.072581746 0.046681676 0.047192097
0.06249517 -0.013782055 0.015511783 0.08759477 0.005833583 -0.053974293 0.047950566 -0.023434982
-0.07678078 -0.107379876 -0.10723266 -0.14940408 -0.1517314 -0.13318497 -0.25770187 -0.22193168
-0.1780046 -0.213241 -0.1951459 -0.20672618 -0.19137149 -0.209874 -0.24319647 -0.17324977
-0.21843915 -0.26494867 0.02489921 0.029283745 0.023446042 0.02980166 0.022900498 0.019425668
0.07030001 0.048875645 0.037289813 0.3743684 0.38244194 0.40049115 0.3377334 0.3779619
0.42452008 0.34911305 0.40589133 0.45296785 -0.058161534 -0.04079404 -0.0124834925 -0.06995716
-0.070561975 -0.0589971 -0.045328885 -0.054091673 -0.06076741 -0.11380834 -0.12408916 -0.16743417
-0.07944355 -0.12614942 -0.1879606 -0.058817543 -0.12460305 -0.18973282 0.031162778 0.015429612
0.038497254 0.0035022097 0.008108948 0.03555479 -0.055633955 -0.027305184 0.0051348247 -0.15237664
-0.16112392 -0.21190849 -0.11497963 -0.15733325 -0.22132482 -0.0889211 -0.15269108 -0.21416847
0.010504795 -0.0073508727 0.008109273 -0.025127321 -0.020723144 0.0019497237 -0.09249049 -0.06437313
-0.031013945 -0.07609321 -0.031690907 -0.016354384 0.007384519 0.008115109 -0.00929761 0.13315304
0.084445715 0.025942774 -0.076269366 -0.10603662 -0.17045857 -0.07082763 -0.11744568 -0.1796002
-0.050472166 -0.10938512 -0.16434553 -0.028402623 -0.010593142 0.01706672 -0.036755037 -0.0076161143
0.020025505 -0.067781195 -0.033696823 -0.009067843 -0.043581445 -0.04211895 -0.0770314 0.0024219493
00000000: ddce 213e bc32 8b3d 646e 1fbd a623 393e
00000010: c99e d93d c6c5 9d3c cbb8 ef3d c1e6 b63d
00000020: 10b1 42bc 9c68 90bd 0fd5 bf3c 2cd4 0c3d
00000030: 4f27 8abd 996c c33c 37b0 023d 6657 cebc
00000040: 923b 823d b9c7 833d b3cf 8f3d 2a38 2a3d
00000050: 73f0 2dbb b1d1 833d 04d2 4e3d 3a30 843c
00000060: 21b5 e53c a820 e53c 0e60 1fbc a882 1fbd
00000070: 842e 8e3d 2bca bb3d 1982 82bd d4c7 673d
00000080: bb5a a73d 7a0a dbbc 0167 b23d 196b dd3d
00000090: 00e1 743c b2f3 4cbd 20ab 5cbd 8958 c13b
000000a0: b06e 7ebd 142f c3bd cfb3 093c 97b2 b6bd
000000b0: d444 e9bd 1651 02be 9f11 bdbd 5757 31bd
000000c0: dc58 cdbd f9d3 c3bd e60c 7abd 3998 c9bc
000000d0: 3025 64bd 0229 eabc 7b10 e33a bfdd 873c
000000e0: d100 373c b509 ba3b 2a4a be3a f423 6a3b
000000f0: 32c1 383d a207 893c 7d8f 7d3c 8680 0ebe
00000100: ab29 72bd a7d7 e9bc b8dd bdbd 6137 20bd
00000110: e902 1639 816e 03bd 76fb a23c b7de 4f3d
00000120: a223 d4bd b798 16bd 5da8 873b d314 c1bd
00000130: b163 71bd 7852 e1bc 6e19 d5bc 7b47 9cbc
00000140: 87dc e93b 4bc0 fc3b d36f 85bc 1056 25bd
00000150: 330d a13d 5765 1d3d 77f7 3a3a c2d4 e73d
00000160: 94ff 823d 0aa4 103a 9d56 3b3d 8d8b a0bd
00000170: e108 93bd c93e a33d e4a1 66bd 902f 83bd
00000180: 0592 ee3d 295e 42bd 845c 7ebd 352c cf3d
00000190: d508 3c3c daa1 78bd 9ac8 053e 0793 5c3d
000001a0: 0c02 fabc ee67 3a3e 3521 d53d 29d1 d63c
000001b0: 3529 0abe 8d6d 71bd 77dd 04bc b6d8 dfbd
000001c0: 4874 15bd f76c 013d a6d2 13bd 34ea 2b3d
000001d0: 60b7 d73d a421 fb3c 0d82 3439 7e90 6abd
000001e0: d49e 603d dfa4 773d 012b 57bc fb71 023e
000001f0: 8f62 ff3d 6dfb 733d 7e23 bc3d 6592 443d
00000200: fca0 ce3c 5c3b a23d 8d27 873d 5729 3b3d
00000210: 00a2 6a3d bda5 943d 4935 3f3d 804c 413d
00000220: effa 7f3d 21ce 61bc 2225 7e3c e364 b33d
00000230: a427 bf3b 2614 5dbd d067 443d b8fa bfbc
00000240: 3e3f 9dbd fbe9 dbbd cc9c dbbd 62fd 18be
00000250: 7a5f 1bbe a461 08be 80f1 83be 0f42 63be
00000260: d646 36be d95b 5abe 54d4 47be 07b0 53be
00000270: e3f6 43be 36e9 56be 7f08 79be 6368 31be
00000280: 83ae 5fbe 5aa7 87be 6ef9 cb3c 77e4 ef3c
00000290: ea11 c03c 9c22 f43c d399 bb3c 9422 9f3c
000002a0: 74f9 8f3d d431 483d 34bd 183d 37ad bf3e
000002b0: 6ecf c33e 2d0d cd3e 64eb ac3e 3984 c13e
000002c0: b25a d93e f2be b23e fdd0 cf3e 67eb e73e
000002d0: ca3a 6ebd a717 27bd 9087 4cbc b345 8fbd
000002e0: cc82 90bd f1a6 71bd c8aa 39bd 3b8f 5dbd
000002f0: 3fe7 78bd 5914 e9bd 7522 febd dd73 2bbe
00000300: 4db3 a2bd 502d 01be be78 40be aaea 70bd
00000310: e22f ffbd 5249 42be 1549 ff3c 7ccc 7c3c
00000320: 4caf 1d3d 5485 653b 65db 043c e6a1 113d
00000330: 6ee0 63bd 1faf dfbc 0842 a83b 9f08 1cbe
00000340: abfd 24be 8afe 58be 717a ebbd f81b 21be
00000350: f9a2 62be 441c b6bd 0d5b 1cbe fb4e 5bbe
00000360: 4e1c 2c3c 97df f0bb c2dc 043c d0d7 cdbc
00000370: 95c3 a9bc df8d ff3a a76b bdbd 0fd6 83bd
00000380: f510 febc c2d6 9bbd 53ce 01bd a1f9 85bc
00000390: d6f9 f13b 3cf5 043c 0155 18bc 4559 083e
000003a0: e0f1 ac3d f185 d43c 1d33 9cbd ba29 d9bd
000003b0: b18c 2ebe 140e 91bd 5c87 f0bd 1de9 37be
000003c0: e7bb 4ebd 4e05 e0bd 324a 28be 9eac e8bc
000003d0: dc8e 2dbc 82cf 8b3c 738c 16bd 9990 f9bb
000003e0: 870c a43c ded0 8abd ae05 0abd 4a91 14bc
000003f0: 7582 32bd ec84 2cbd a3c2 9dbd 91b9 1e3b

bias f4 [16]
-0.15679237 -0.10859444 0.14771463 -0.007771286 -0.04566693 0.042226583 -0.018316222 0.052604277
0.02155509 0.007853165 -0.2557207 0.09456663 0.0023079908 -0.013734586 -0.06010993 0.22994404
00000000: 2e8e 20be c366 debd 8142 173e 46a6 febb
00000010: 3f0d 3bbd c8f5 2c3d e70b 96bc 9577 573d
00000020: 4d94 b03c 90aa 003c d3ed 82be 26ac c13d
00000030: a941 173b 0707 61bc d435 76bd 7376 6b3e

weight f4 [16, 16, 3, 3]
0.010447301 -0.01428085 0.009660966 0.055160616 0.031150002 0.039766338 0.14803746 0.10973866
0.081151485 0.14186315 0.0794152 0.03191614 0.07499484 0.014211356 -0.048825685 0.06582492
0.034776438 -0.0069807204 0.07589278 0.096261695 0.024463618 0.01279132 0.07174392 0.033699557
0.0012588879 -0.06364333 -0.020850416 0.111849934 0.12074185 0.09251904 0.079955675 0.09462443
0.12615912 0.08737374 0.06699047 0.07144359 -0.083390765 -0.09355967 -0.14165825 -0.05549068
-0.04497084 -0.094737485 -0.10027036 -0.10030971 -0.09944317 -0.053228926 -0.0796578 -0.19644512
-0.10369626 -0.1930277 -0.16385987 -0.123663194 -0.023809915 -0.04446897 0.054993667 0.014840409
-0.011464133 0.056866616 0.05047693 0.005016255 0.093474284 0.051398624 -0.07354545 0.11756294
0.11526028 -0.00077999715 0.077049166 0.09280599 -0.007214357 0.03595027 0.062745556 -0.028681537
0.10756534 0.02283019 0.008590208 0.059872456 -0.022242224 -0.03180449 0.009131291 -0.04889662
-0.051842127 0.097566985 0.0636821 0.109014384 0.08395122 0.06648209 0.07720298 0.041399285
0.037917662 0.06341875 0.08470139 0.09762521 0.11223213 0.097886056 0.11723675 0.13213748
0.1582414 0.18260692 0.20191546 -0.03431655 -0.07336402 -0.0349436 -0.026186261 -0.07534374
-0.03894455 0.016034368 -0.016311873 0.017789522 -0.011332715 -0.052439477 -0.088120714 -0.0900821
-0.07694161 -0.108476594 0.00852897 0.016469905 -0.075062655 0.033872843 0.047812354 -0.046283547
-0.030231027 0.007657007 -0.07233262 -0.07722885 -0.03189703 -0.12771963 -0.004751918 -0.055864353
-0.051780675 0.01336486 -0.0012108966 -0.0041825008 0.0034457815 0.062397365 0.006762598 -0.059856813
-0.044846736 -0.044670857 -0.095250994 -0.07155165 -0.06415586 0.036106903 -0.002360724 0.057851233
0.145229 0.10259068 0.08923716 0.11581117 0.06901851 0.05553963 0.092826664 0.052221
0.036340043 0.10940004 0.013623894 -0.020528497 0.049342297 -0.03384143 -0.04182427 0.02848891
-0.004322472 0.029193284 0.0129356235 -0.0132401455 -0.066556804 0.085729696 0.051617038 -0.062467176
-0.0019945332 -0.051262297 -0.050281577 0.0071041123 0.034928266 0.10194168 -0.044458695 -0.03968221
0.027761782 -0.038222466 0.00419222 0.0355267 -0.14802215 -0.18582954 -0.23002896 -0.10333862
-0.12779929 -0.17272617 -0.20141615 -0.1824824 -0.18889302 -0.037432235 -0.14902398 -0.057461698
-0.04760887 -0.096405655 -0.17762816 -0.06705334 -0.09802391 -0.031171687 0.016462848 0.022791436
0.025778497 0.060540993 0.026781268 0.05464298 0.020084538 0.084093615 -0.043166827 0.07580162
0.10477015 0.04389366 0.027607176 0.06045561 -0.0014696557 -0.0036142813 0.020377273 -0.04907359
0.20142454 0.12811217 0.14318913 0.11646909 0.04214635 0.08442593 0.058666863 -0.006202642
0.040314395 0.1590989 0.11967693 0.15885931 0.103928246 0.10590648 0.12385071 0.09846736
0.051580716 0.11506748 -0.07610426 -0.047642525 -0.02680866 -0.09925656 -0.06259186 -0.034071688
-0.10632611 -0.06558306 -0.027654123 -0.060267355 -0.060060713 -0.023101239 -0.07918614 -0.08078403
-0.03130623 -0.058238186 -0.05479484 -0.0069661164 -0.058505256 -0.12426455 -0.031138442 -0.12704779
00000000: 282b 2b3c 3afa 69bc 0749 1e3c 19f0 613d
00000010: 4a2e ff3c 07e2 223d 2297 173e aabe e03d
00000020: c032 a63d 9344 113e 70a4 a23d 80ba 023d
00000030: e596 993d bfd6 683c 71fd 47bd 37cf 863d
00000040: bd71 0e3d 87be e4bb ad6d 9b3d da24 c53d
00000050: ed67 c83c af92 513c 7aee 923d 8c08 0a3d
00000060: 4501 a53a 6f57 82bd 7ece aabc 9411 e53d
00000070: 8147 f73d 9f7a bd3d cdbf a33d 74ca c13d
00000080: db2f 013e 01f1 b23d 4d32 893d 0451 923d
00000090: c7c8 aabd 369c bfbd dc0e 11be 324a 63bd
000000a0: 5833 38bd ba05 c2bd 8c5a cdbd 2d6f cdbd
000000b0: dca8 cbbd 9306 5abd a123 a3bd e928 49be
000000c0: b45e d4bd 0ea9 45be e2ca 27be 2143 fdbd
000000d0: 030d c3bc 1825 36bd 0a41 613d 3025 733c
000000e0: 0fd4 3bbc f8ec 683d e6c0 4e3d 665f a43b
000000f0: 726f bf3d 5d87 523d ff9e 96bd d7c4 f03d
00000100: 950d ec3d b978 4cba f4cb 9d3d 1111 be3d
00000110: 6a66 ecbb 9740 133d be80 803d 8bf5 eabc
00000120: 384b dc3d 6106 bb3c f2bd 0c3c d23c 753d
00000130: 5335 b6bc 6d45 02bd 699b 153c d247 48bd
00000140: 6958 54bd 33d1 c73d c36b 823d ef42 df3d
00000150: 9eee ab3d c327 883d 991c 9e3d 4c92 293d
00000160: 8d4f 1b3d b1e1 813d ec77 ad3d baef c73d
00000170: f5d9 e53d 7c78 c83d d219 f03d 0c4f 073e
00000180: 090a 223e 4ffd 3a3e edc2 4e3e 838f 0cbd
00000190: e03f 96bd 0521 0fbd 9284 d6bc d24d 9abd
000001a0: 5284 1fbd 825a 833c 7aa0 85bc 55bb 913c
000001b0: daac 39bc c7ca 56bd a278 b4bd f77c b8bd
000001c0: 9093 9dbd fa28 debd 18bd 0b3c e5eb 863c
000001d0: 73ba 99bd 40be 0a3d e3d6 433d d193 3dbd
000001e0: 0fa7 f7bc a1e7 fa3b 2023 94bd 292a 9ebd
000001f0: 76a6 02bd efc8 02be fab5 9bbb 05d2 64bd
00000200: f917 54bd 49f8 5a3c f3b6 9eba 5c0d 89bb
00000210: 9fd2 613b 6194 7f3d c998 dd3b 6b2c 75bd
00000220: 36b1 37bd caf8 36bd f412 c3bd ac89 92bd
00000230: 2664 83bd d5e4 133d 60b6 1abb 6af5 6c3d
00000240: e9b6 143e 101b d23d f9c1 b63d 682e ed3d
00000250: 9459 8d3d 867d 633d e81b be3d b0e5 553d
00000260: 4cd9 143d 210d e03d c136 5f3c 612b a8bc
00000270: 261b 4a3d 509d 0abd ed4f 2bbd 9361 e93c
00000280: 86a3 8dbb c126 ef3c f0ef 533c 32ed 58bc
00000290: ef4e 88bd 0d93 af3d 636c 533d 95dd 7fbd
000002a0: b7b6 02bb 6af8 51bd 0ef4 4dbd 9dc9 e83b
000002b0: f110 0f3d cdc6 d03d 521a 36bd d089 22bd
000002c0: ad6c e33c 298f 1cbd e45e 893b 7284 113d
000002d0: 1e93 17be 194a 3ebe b68c 6bbe 33a3 d3bd
000002e0: d1dd 02be 21df 30be 0940 4ebe abdc 3abe
000002f0: 2c6d 41be 8b52 19bd be99 18be f55c 6bbd
00000300: 8501 43bd 5470 c5bd 28e4 35be 4353 89bd
00000310: c2c0 c8bd c45b ffbc 18dd 863c 1bb5 ba3c
00000320: 6d2d d33c d5f9 773d 6464 db3c 51d1 5f3d
00000330: 5488 a43c 4639 ac3d b3cf 30bd e13d 9b3d
00000340: bb91 d63d d7c9 333d 7228 e23c 4da0 773d
00000350: 76a1 c0ba 94dd 6cbb 3dee a63c 6401 49bd
00000360: 3c42 4e3e d62f 033e 2ca0 123e 5987 ee3d
00000370: a7a1 2c3d 81e7 ac3d aa4c 703d 883f cbbb
00000380: b520 253d d2ea 223e 2e19 f53d 04ac 223e
00000390: 55d8 d43d 7fe5 d83d 71a5 fd3d 41a9 c93d
000003a0: 4d46 533d 80a8 eb3d 8ddc 9bbd cf24 43bd
000003b0: d69d dbbc 0647 cbbd 2930 80bd c18e 0bbd
000003c0: 81c1 d9bd 6950 86bd e68a e2bc e7da 76bd
000003d0: 3902 76bd cf3e bdbc 582c a2bd 1972 a5bd
000003e0: f63a 00bd 2a8b 6ebd 8e70 60bd 0544 e4bb
000003f0: 35a3 6fbd 6a7e febd 0c16 ffbc d118 02be

bias f4 [16]
-0.03304508 0.042407878 0.14813355 0.30451137 0.20624426 0.005895047 0.22593817 -0.087649554
-0.02445346 -0.2390524 -0.09652984 0.024633316 0.18440937 0.11824509 0.096545435 0.0908423
00000000: 475a 07bd e2b3 2d3d 52b0 173e eae8 9b3e
00000010: b231 533e 3d2b c13b 565c 673e 9c81 b3bd
00000020: 9f52 c8bc 27ca 74be 70b1 c5bd cfcb c93c
00000030: cfd5 3c3e 7b2a f23d 9db9 c53d 870b ba3d
