data/ForestSegmentationOutput/experiemnts/REAL_RERUN_04_run_17-12-2023_18h07min/unet_id=6F2su_width=32_num_layers=2_lr=0.00085_epochs=140.pth (torch, 115317 bytes, 16 tensors)

weight f4 [16, 8, 3, 3]
000000 62 ee a2 bc dd 58 c6 3c 7e 7a b7 3c 75 b7 48 bd
       -0.01988906 0.024212295 0.022397276 -0.049003083
000010 07 12 ab bc 1f 3a 3e bb c9 81 4b bd 7c e4 72 bd
       -0.02088262 -0.0029026342 -0.04968432 -0.05929993
000020 d3 b3 e8 bc e7 17 87 ba 14 d2 1a 3c 1e bf 58 3c
       -0.02840606 -0.0010306806 0.009449501 0.01322916
000030 b9 05 d6 bc 34 93 a8 bb 64 86 64 3b df 3b 30 bd
       -0.026125776 -0.005144501 0.0034870142 -0.043025848
000040 14 8d 29 bd b3 85 d4 bc 57 19 a1 3a ff 90 bb 3c
       -0.04139431 -0.025942659 0.0012290877 0.022896288
000050 0f 2b ba 3c 79 86 3d bd 77 02 b2 bc 91 0c b0 bb
       0.02272561 -0.04627082 -0.021729691 -0.005372592
000060 33 5a 8e bd 14 2e 77 bd ba 08 45 bd 10 15 9c 3c
       -0.06950798 -0.060346678 -0.048104025 0.019053012
000070 4f f9 07 3d 35 2f 01 3d 1b 9e 1a bd 31 49 e2 bb
       0.033196744 0.03153916 -0.037748437 -0.0069056978
000080 51 d2 31 3c bc c3 9a bd 01 75 8b bd 0d e0 1a bd
       0.010853366 -0.075568646 -0.06809426 -0.037811328
000090 2e 70 f0 3c 7c 3d 21 3d 8c 6b 14 3d 41 57 c9 bb
       0.029350366 0.039365277 0.036235377 -0.0061444347
0000a0 17 c9 80 3c c1 43 bf 3c aa 5a 40 bd 1e f4 2e bd
       0.015720887 0.023347737 -0.046961464 -0.042713277
0000b0 9f 0b bc bc 1e a4 35 bb 2f 55 27 3d 7a 0b 24 3d
       -0.02295476 -0.002771623 0.04085272 0.040050007
0000c0 a5 b5 10 be 5b a0 fb bc 95 cb 42 3c c4 b6 f4 bd
       -0.14131792 -0.030716112 0.011889358 -0.11948922
0000d0 53 7f 09 be 40 88 f2 bd 67 27 15 3d 7d cf b6 3d
       -0.13427477 -0.11842394 0.03641453 0.08926294
0000e0 75 dc 81 3d 4e 3a 07 be ed 23 db bc 07 59 f9 3c
       0.06340877 -0.13205835 -0.02675053 0.03043796
0000f0 14 72 b5 bd af c0 bb bd 06 fe b0 bd 4c 06 d1 3c
       -0.08859649 -0.09167611 -0.08642201 0.025515698
000100 79 b0 b7 3d 30 15 19 3d 63 87 b1 bd 8c 05 06 bd
       0.08969206 0.03737372 -0.08668401 -0.032720134
000110 b8 f6 94 3c 14 f1 0a bd 80 97 6a bd c5 bc 9f bd
       0.01818405 -0.033921316 -0.057273388 -0.07799677
000120 88 a9 c7 3c cf 37 71 bd 64 8d 77 bd 3a ae eb bd
       0.024372831 -0.058891114 -0.060437575 -0.115078405
000130 ab 88 74 bd eb 39 db bd 9a c9 1e be e1 7c d0 bb
       -0.05970065 -0.10704406 -0.15506592 -0.006362543
000140 a8 b6 47 bd f7 75 53 3c 05 d7 bf 39 89 f3 08 bc
       -0.04875818 0.012906543 0.0003659056 -0.008358845
000150 76 90 49 bd 37 92 a1 3b 76 2d 65 bc 69 22 35 3d
       -0.049210034 0.0049307602 -0.0139878895 0.04422227
000160 3b 64 bb bb de 51 84 3c 54 d7 f9 3c 33 92 e1 3d
       -0.0057187355 0.016152319 0.030498184 0.110142134
000170 12 2c e8 3a b1 e8 cc 3d d7 25 8c 3d ff d4 c6 3d
       0.0017713329 0.1000532 0.06843155 0.097085945
000180 84 22 41 3d a0 97 4d bd cb 6e 1b 3d 2a e0 00 3d
       0.047152057 -0.05019343 0.037947457 0.03146378
000190 7e c9 12 3e 04 98 66 3d 16 05 05 3e 43 8f 0f 3e
       0.14334676 0.056297317 0.12990221 0.14019494
0001a0 33 ac 7e 3a 2c 66 07 3e 27 b1 5f 3d 1b 54 d2 3d
       0.0009714991 0.13222569 0.054612305 0.10269948
0001b0 70 23 55 3e ff 17 72 3e a4 db 87 3e e5 90 0e 3e
       0.208143 0.23641966 0.2653476 0.1392246
0001c0 0f ac 71 3e 4b 52 fc 3d db 3a 74 3e dc bf 31 3e
       0.23600791 0.12320384 0.23850577 0.17358345
0001d0 d4 b8 41 3e e7 0c fd 3d 2a 1b ff 3d e7 62 55 3e
       0.18918163 0.123559766 0.12456353 0.2083851
0001e0 6d 6e ff 3d 6d 02 18 3e 60 1a dd 3d 64 59 47 3e
       0.12472234 0.14844675 0.10796046 0.19467694
0001f0 30 7b 12 3e da 0f 16 3e 8e 9e 45 3b 06 8f 6b bd
       0.14304805 0.14654484 0.003015432 -0.057509445
000200 d6 95 9d bd 6f 9e b7 bc 87 92 c3 3c 9f 9f 19 3d
       -0.076945946 -0.022414414 0.02387358 0.037505742
000210 6d 9a d4 3c 4c 0a 90 3d f9 11 c1 3b f6 5e ca bd
       0.025952542 0.07033214 0.005892035 -0.098813936
000220 01 01 1f bd d4 d3 97 bd 4f 08 8c bd 43 b8 8e bd
       -0.038819317 -0.0741345 -0.06837522 -0.06968739
000230 92 05 ec bd 60 57 c1 3c 70 1e 9f bd 94 04 e1 bd
       -0.115245 0.023601234 -0.07769477 -0.10987201
000240 5b 4a d3 3d 1a 37 b5 3c 45 aa d2 3c 52 7f a7 3d
       0.103169166 0.022121001 0.025715956 0.08178581
000250 b6 d5 7c 3c ee 6b e4 3d 1b 2f 1a 3d 32 60 97 3d
       0.015431812 0.111533985 0.03764258 0.07391395
000260 9a 22 0a 3e 82 64 cc 3d b8 45 b7 3d 5c ab 7a 3c
       0.13489762 0.09980108 0.08948845 0.015299644
000270 7e 06 2a 3e 99 9f b7 3d ae 09 29 3d 4b 53 c3 3c
       0.16604039 0.08965988 0.041268997 0.023843428
000280 61 84 df 3d 72 e2 2d 3e 7a 36 b0 3d 2a a3 00 3e
       0.10913921 0.16980913 0.086041406 0.12562242
000290 45 10 10 3e 73 54 d3 3d f5 52 8b 3d c2 e8 1a bc
       0.14068706 0.10318842 0.06802932 -0.009454908
0002a0 9b 48 c3 3d 2c 8b 47 3d c2 68 87 3d 1b ea 55 3c
       0.09535333 0.04871671 0.06611778 0.013056303
0002b0 a3 7d df 3b c8 d2 ba 3b fe dc 4d 3d 37 63 4e 3d
       0.006820397 0.0057013966 0.050259583 0.050387587
0002c0 02 1f be 3d 0a eb 11 3d a9 14 da 3c 2d d2 ec 3d
       0.09283258 0.03562454 0.02662118 0.11563525
0002d0 fb 91 d8 3d a4 5f 1f 3e 66 4b 1f 3e 44 fa d3 3d
       0.105747186 0.15563828 0.15556106 0.10350469
0002e0 b3 74 b9 3d e8 7e f1 3c d3 37 d1 3d 3e 08 c2 3c
       0.09055462 0.029479459 0.10215726 0.02368557
0002f0 32 68 9c 3d 42 d4 f1 3c fc 37 03 3e a2 ad fd 3d
       0.07637061 0.029520158 0.12814325 0.123866335
000300 28 34 c4 bc a8 b0 0a 3d 5d ca 3b bd ae e5 c7 3c
       -0.023950651 0.03385988 -0.045847286 0.024401512
000310 28 b6 6a 3b 7b c1 9f bd 22 c9 00 bd 19 d6 cb 3d
       0.003581414 -0.07800575 -0.031441815 0.09952945
000320 c4 f8 77 bd 2b 5f 5a bb 46 30 db bc c3 e7 5d bd
       -0.060539976 -0.0033320885 -0.026756417 -0.054176103
000330 1b 04 f5 bc d1 a7 f5 bc 96 6d 3b be 52 dd 19 bd
       -0.029909184 -0.029987248 -0.18303522 -0.037564583
000340 61 17 56 bd 4f fc ad bc d0 45 9f bd e3 3b e0 bd
       -0.05226839 -0.021238474 -0.077769876 -0.109489225
000350 9e fe e9 bd 82 f8 0f be 6d 5b 62 be cf 41 40 be
       -0.114255175 -0.14059642 -0.22105189 -0.18775104
000360 64 15 16 bb 81 71 13 bb 65 2b 13 bb 3b 61 14 bb
       -0.0022900933 -0.0022498074 -0.0022456285 -0.0022640962
000370 58 e3 12 bb 5f 57 13 bb 21 54 13 bb 58 06 14 bb
       -0.002241334 -0.0022482497 -0.0022480565 -0.002258679
000380 83 a5 14 bb 84 44 06 ba ec 2e 0c ba 91 cc 09 ba
       -0.002268166 -0.0005121904 -0.0005347568 -0.0005256618
000390 57 d1 06 ba cc 37 06 ba 24 28 05 ba 09 78 09 ba
       -0.00051428884 -0.0005120009 -0.0005079529 -0.0005244022
0003a0 4f d2 08 ba 1f 22 05 ba a6 ab a1 ba 22 f0 9f ba
       -0.00052193267 -0.0005078632 -0.001233448 -0.0012202302
0003b0 eb 0a a0 ba dd 53 a3 ba df c9 a1 ba 7d 47 a2 ba
       -0.0012210285 -0.0012460906 -0.0012343487 -0.0012380924
0003c0 79 41 a4 ba 91 52 a2 ba c6 66 a0 ba e5 74 80 ba
       -0.0012531719 -0.0012384226 -0.001223766 -0.0009800462
0003d0 93 77 7d ba f9 aa 78 ba 15 07 83 ba 2c c3 83 ba
       -0.0009669002 -0.0009485926 -0.0009996617 -0.0010052673
0003e0 f0 5b 7b ba bf e8 80 ba 29 74 81 ba 69 47 7e ba
       -0.000958859 -0.0009834989 -0.0009876537 -0.0009699972
0003f0 fb 0e b0 b8 25 58 b1 b8 6b ff a4 b8 da 9c a7 b8
       -8.395124e-05 -8.456436e-05 -7.867705e-05 -7.9923964e-05

bias f4 [16]
000000 bd cc 45 3e 60 03 45 be d1 b3 1e 3e 0b 5c 2c bc
       0.19316383 -0.19239569 0.15498282 -0.010519992
000010 5e 86 9b bd d3 aa 79 bc a3 17 63 bc bd a5 54 3e
       -0.07593988 -0.015238482 -0.013860616 0.20766349
000020 dd 6d b1 3d 72 5b e1 bc 8d eb 0e bd 7f 41 0a 3e
       0.08663533 -0.027509425 -0.034892607 0.13501547
000030 dc 4f 33 be a7 30 e7 bc 00 05 0c 3e 8a 8b 83 bc
       -0.17510933 -0.028221441 0.13673782 -0.016057748

weight f4 [16, 16, 3, 3]
000000 a4 96 5d 3d 1a 25 29 3d a9 33 d7 3c 6d c9 b4 3d
       0.05409874 0.04129515 0.02626975 0.088274814
000010 dc 7d 63 3d c5 ea 78 3c 28 7c 38 3d 6a ab f7 3b
       0.05553995 0.015192692 0.04504028 0.007558276
000020 11 48 8c bc 33 0b 53 be 34 14 79 be 43 7d 8c be
       -0.017124208 -0.20609741 -0.24324113 -0.27439317
000030 8e 3e 44 be ca 18 46 be d8 c5 83 be 64 6b 65 be
       -0.19164488 -0.19345394 -0.2573688 -0.22404248
000040 58 a4 4d be c6 fa 76 be 4f 02 a1 bd e9 29 04 bc
       -0.20082223 -0.241191 -0.078617685 -0.008066633
000050 59 f0 c5 3d 12 83 d5 ba 30 7a 1f 3d 7b 5a 9e 3d
       0.09664983 -0.0016289672 0.038934886 0.077321015
000060 ce 31 8d 3c e4 fa 6b 3d d2 11 7a 3c 23 f1 0f bb
       0.017235663 0.057612315 0.015263038 -0.0021963797
000070 a7 50 0f bb b2 95 0f bb 01 b7 0e bb 04 54 0f bb
       -0.002186814 -0.0021909294 -0.002177656 -0.0021870146
000080 ed 7d 0e bb 07 40 0f bb 58 2b 0f bb 39 87 0e bb
       -0.0021742538 -0.0021858232 -0.0021845903 -0.002174808
000090 bb 25 ff 3c 93 0e 0e bd 9e fb a1 3c 62 73 67 bd
       0.031145921 -0.034681868 0.0197733 -0.056506522
0000a0 d4 9d 6a 3d c0 95 18 bd 55 4e e2 bb 84 b2 ef 3c
       0.057279423 -0.037252188 -0.0069063106 0.029259928
0000b0 49 07 61 3d b5 d4 69 3a 79 f1 6a 3a f3 f2 6a 3a
       0.05493859 0.00089199404 0.0008962374 0.0008962594
0000c0 f6 1d 69 3a dd e8 69 3a 4f 12 6a 3a 9f 55 68 3a
       0.0008892709 0.0008922944 0.000892912 0.0008862856
0000d0 9a b6 68 3a 08 e7 68 3a c5 ef 1b b6 73 4f 1e b6
       0.00088773074 0.0008884524 -2.3236364e-06 -2.359008e-06
0000e0 6b d7 20 b6 ce 9e 0e b6 b0 aa 11 b6 4a c0 18 b6
       -2.3967248e-06 -2.1252085e-06 -2.1706037e-06 -2.2761692e-06
0000f0 db 29 08 b6 fb 9f 0a b6 5c 2d 13 b6 f1 9c 0b be
       -2.0289942e-06 -2.0656723e-06 -2.193111e-06 -0.13634087
000100 6e f0 af bd b2 41 69 bd ce ff d0 bd 8b 22 2a be
       -0.0859078 -0.056947418 -0.10205041 -0.1661474
000110 b6 89 a5 bd f0 5c c0 bd 00 08 04 be 5b 1c dd bd
       -0.08082907 -0.093927264 -0.12893677 -0.10796424
000120 01 dc 44 ba 77 dd fa 3c f6 57 ef bb b8 ff 01 3c
       -0.000750959 0.03062318 -0.007304187 0.007934503
000130 4e 5a 7e bb f1 98 86 bc d9 ef ab bc 3e 38 85 3a
       -0.003881115 -0.01643035 -0.020988392 0.0010163856
000140 cd 4c 15 bd a6 47 eb bb 69 e8 ec bb e7 65 ea bb
       -0.036450196 -0.007180172 -0.007229854 -0.007153261
000150 7c 9c eb bb c9 82 eb bb 40 c1 ea bb 35 b9 ec bb
       -0.0071902853 -0.0071872217 -0.0071641505 -0.007224227
000160 8a b7 ec bb e5 2c ec bb ad 57 a8 ba 83 bd 6e ba
       -0.007224028 -0.0072075003 -0.0012843512 -0.0009107219
000170 e7 bc 06 bb 8e 5f 3d ba 14 c3 a9 39 d5 d1 36 b8
       -0.0020559372 -0.00072240166 0.00032379536 -4.3587603e-05
000180 f0 17 45 3a 86 f6 d8 3a c6 fb 16 b9 b8 c1 29 bd
       0.00075185206 0.0016552962 -0.00014398908 -0.04144451
000190 a8 7c 74 bd b9 09 09 bb 4f 0a 66 bc f7 24 5e bd
       -0.059689194 -0.0020910336 -0.014040544 -0.05423447
0001a0 10 2d 58 3d a5 84 13 3d 59 60 0a 3d 13 0c 3c 3d
       0.05277735 0.03601517 0.03378329 0.045909952
0001b0 04 8b d1 bd 46 c4 e3 3c df 0c d1 bc d7 40 0a bd
       -0.10231593 0.027803551 -0.025518833 -0.033753242
0001c0 89 6a bf 3c 28 6b 8a bd 31 2a e8 bc c7 9c ba bd
       0.02336623 -0.0675872 -0.02834043 -0.09111934
0001d0 1f 74 b5 bd 68 ec 94 bc 09 4c 95 bc f0 62 94 bc
       -0.08860039 -0.018179134 -0.018224733 -0.018113583
0001e0 c3 77 94 bc 7a c7 95 bc f9 83 95 bc 43 31 93 bc
       -0.018123513 -0.018283594 -0.018251406 -0.017967826
0001f0 a1 e4 94 bc ec 5a 95 bc 52 f7 be bd e0 97 b0 bd
       -0.018175425 -0.018231831 -0.09324516 -0.08622718
000200 70 4c 71 bd d9 cd a9 bd 2a b0 b6 bd 4a 71 88 bd
       -0.058910787 -0.082912154 -0.089203194 -0.06662233
000210 c9 37 4c bd 5e bf b3 bd a8 93 6c bd a4 78 e9 3a
       -0.04985789 -0.08776735 -0.057758003 0.0017812443
000220 6e 6e e4 3a 1d 5a df 3a 22 ab ea 3a 44 c1 e5 3a
       0.001742793 0.0017040406 0.0017903785 0.0017528911
000230 f0 16 e1 3a eb 5a eb 3a 40 65 e6 3a 9a eb e2 3a
       0.0017172974 0.0017956173 0.0017577782 0.0017312646
000240 d7 80 95 3d d4 0a 8c 3d 74 a2 cc 3d b9 0d 7e 3b
       0.07299965 0.06838003 0.09991923 0.0038765504
000250 23 40 87 3c f7 a2 0a 3d 1a 4f c5 bd c9 f2 35 bd
       0.016510075 0.03384682 -0.09634228 -0.04442099
000260 36 74 60 3a 95 70 13 be 89 e3 12 be 76 02 52 be
       0.00085622387 -0.14398415 -0.1434461 -0.20508751
000270 2e ba 5f be 02 09 3b be 31 a6 56 be 73 c0 28 be
       -0.21848366 -0.18265155 -0.20961834 -0.16479664
000280 e7 0b 1a be 3f 60 f3 bd a6 c9 29 bd 09 7c 35 3c
       -0.15043603 -0.11883592 -0.041452073 0.011076936
000290 bf 0f 02 3e 7c 57 f7 bd bb 7a 2a bd e2 1f c0 3d
       0.12701319 -0.12077233 -0.04162095 0.09381081
0002a0 c8 95 3a be a5 da 42 3b 74 53 c5 3d 02 1f 15 bb
       -0.182212 0.0029732373 0.09635058 -0.0022754078
0002b0 36 b0 14 bb 7a 71 14 bb c5 6f 12 bb 66 1b 12 bb
       -0.0022688038 -0.0022650645 -0.0022344452 -0.0022294163
0002c0 2a 1e 12 bb 4d a7 0f bb 81 60 10 bb 8b bd 12 bb
       -0.0022295811 -0.0021919787 -0.0022030177 -0.0022390808
0002d0 b7 18 1b 3e 84 04 6a 3d 2b a7 5f bd a2 42 0a 3e
       0.15146147 0.057133213 -0.054602783 0.13501981
0002e0 33 2f 67 3c c4 df fb bd 1f 6b 3b bd 42 7f f9 bd
       0.014110374 -0.12298539 -0.045756456 -0.121824756
0002f0 d5 7b 1f be 79 9d 3a 37 0c 5c 3c 37 d3 41 3c 37
       -0.15574582 1.1123128e-05 1.1227105e-05 1.1220999e-05
000300 dc 17 32 37 69 09 32 37 30 e7 31 37 55 17 28 37
       1.0615182e-05 1.0611818e-05 1.060385e-05 1.0019013e-05
000310 75 82 28 37 da 27 2a 37 07 1f 98 b4 cd b0 8f b4
       1.0043955e-05 1.0142068e-05 -2.8334782e-07 -2.6764465e-07
000320 35 5b 84 b4 b0 0b 84 b4 96 84 70 b4 eb 43 69 b4
       -2.4653278e-07 -2.459542e-07 -2.2399976e-07 -2.1724524e-07
000330 45 5d 60 b4 df d4 4c b4 87 f9 52 b4 19 1b 35 3d
       -2.0895557e-07 -1.9076423e-07 -1.9648552e-07 0.044215295
000340 96 33 1e 3d bb 72 e1 3c 33 2d 84 bc 5c ba d7 bc
       0.038623415 0.027520528 -0.016134834 -0.02633398
000350 10 a7 6c bc c7 af 4b bd 50 1f 9e bc 44 06 39 bd
       -0.014444128 -0.04972818 -0.01930204 -0.04517199
000360 99 58 2b 3c 9c 52 21 3d 1d 85 3e 3d ab 85 ba 3b
       0.010458135 0.039385423 0.046513665 0.005692204
000370 28 71 8e 3c 66 82 a6 3c 77 ef 52 bc 11 16 6f bb
       0.017387941 0.02032585 -0.012874476 -0.0036481658
000380 e5 78 72 bb 66 43 62 bc c0 f8 61 bc 7a 73 60 bc
       -0.0036998328 -0.013810014 -0.013792217 -0.013699407
000390 af fa 61 bc 50 9c 60 bc 84 bb 5f bc e6 6d 62 bc
       -0.013792678 -0.013709143 -0.013655547 -0.013820147
0003a0 5b 11 61 bc 82 a6 5f bc 0b 78 73 bb cb d6 ba ba
       -0.013737048 -0.013650538 -0.0037150409 -0.0014254687
0003b0 cc a5 d4 ba b0 95 d7 bb 20 fc cf bb 8a 1c b5 bb
       -0.0016223728 -0.0065791234 -0.0063471943 -0.0055270838
0003c0 1f 31 90 bb f0 19 2c bb 94 8e 29 bb a1 49 4f bd
       -0.004400387 -0.0026260577 -0.0025872337 -0.050607327
0003d0 47 99 24 3c 0d 66 a9 3d 6d 3b 18 bd dd 91 38 3b
       0.01004631 0.08271418 -0.037166048 0.0028163113
0003e0 a0 5d 32 3d 0c 6a 25 be 65 d7 ee bd 01 ce 2e bc
       0.04354632 -0.16153735 -0.11662177 -0.010669232
0003f0 ac 35 2c 3d 6b 2f 91 3d 46 0b 95 bd e5 c8 0e 3e
       0.042043373 0.070891224 -0.07277541 0.13943823

bias f4 [16]
000000 f9 e9 13 3e c1 59 cc 3d b7 eb 43 bc 90 a6 b4 3d
       0.14444722 0.09978057 -0.011958054 0.08820832
000010 66 58 90 bd 77 a9 6c 3d ee 58 13 3e 79 eb c3 bd
       -0.07048111 0.0577788 0.14389393 -0.09566397
000020 b5 a3 f9 3d f5 f1 3b bd 60 51 b0 3d af 40 ba 3d
       0.12189428 -0.045885045 0.08609271 0.09094369
000030 87 b5 81 3d 35 6a 0a 3e 5d c9 00 be c1 6d b8 3d
       0.06333452 0.13517077 -0.12576814 0.09005309

weight f4 [32, 16, 3, 3]
000000 33 1d fc 3d c1 ce c1 3d 9c 75 94 3c 03 6f 0e 3e
       0.12310257 0.09463263 0.018122487 0.13909535
000010 f6 e6 f9 3d 36 df 51 3d 10 d4 88 3c b5 95 73 3d
       0.122022554 0.05123826 0.016702682 0.059468944
000020 50 15 76 3d 08 b4 a1 3d 39 3c 75 3c 50 94 84 bd
       0.06007892 0.07895666 0.0149679715 -0.06473601
000030 bd db 80 3d 99 dd 26 3d f3 46 9c bc 72 46 1c 3d
       0.06291912 0.040738676 -0.0190768 0.03815312
000040 11 5c 29 3d da db 74 3b 26 06 1f bd 10 0d fa 3c
       0.041347567 0.0037362487 -0.038824223 0.030523807
000050 18 17 49 3d e0 88 9a bd a9 5c 06 bd 42 a8 90 bc
       0.04909429 -0.07545638 -0.03280321 -0.017658357
000060 09 c9 2f be ce 3c e0 bd 80 0d 28 bd 11 3a c8 3c
       -0.17166533 -0.109490976 -0.0410285 0.02444175
000070 d5 7d 44 3d 00 1a bb bc 28 c0 56 3b 58 cb 85 3c
       0.047971565 -0.022839546 0.0032768343 0.016332313
000080 9c 40 23 bd 02 d0 84 bb 37 34 b5 3c c2 de 04 bd
       -0.03985654 -0.004053117 0.022119625 -0.032439
000090 9d fe 84 3d ff 6f 49 bc 8d df 71 bc 24 09 83 3d
       0.06493876 -0.012294768 -0.014762771 0.06398228
0000a0 f8 3f ca 3c 6d fc 4f 3c df 88 12 3e 03 a0 c6 3d
       0.024688706 0.01269446 0.14310025 0.096984886
0000b0 5c a0 2e 3d 82 af e4 3d f5 26 6b 3d e0 5a 6a 3d
       0.0426334 0.11166288 0.0574102 0.05721557
0000c0 16 b1 e7 3d a1 85 de 3d 10 17 be 3d e0 a0 cb 3d
       0.11313073 0.108653314 0.092817426 0.09942794
0000d0 a4 14 d2 3d ba 56 a7 3d 84 a2 2b 3d 74 64 bf 3b
       0.10257843 0.08170839 0.041903034 0.0058408324
0000e0 c7 67 ac bd 6a 4d 75 3d ef bd 1b 3d e7 40 14 bd
       -0.084182315 0.05988828 0.03802293 -0.03619471
0000f0 cc 21 a0 3c de 6f cd 3c 31 28 15 bc 81 ce 11 3d
       0.019547366 0.025077756 -0.009103821 0.035597328
000100 a5 fa 56 3d 78 23 5d 3d d7 b7 be bb dc 75 35 bb
       0.052485127 0.053988904 -0.0058202553 -0.0027688658
000110 95 09 b1 ba 74 12 9d bc 74 8b 26 bc 3b 8c 3e bb
       -0.0013506884 -0.019173838 -0.010165084 -0.0029075283
000120 f1 8a d6 3d c8 48 5f 3d dc 64 7a bc 4a 8d ef 3d
       0.1047572 0.05451277 -0.015282836 0.116968706
000130 08 a2 d0 3d d2 af 2c 3d 61 d4 24 3d 33 4d 84 3d
       0.10187155 0.042159863 0.040241603 0.06460037
000140 94 01 3e 3d 40 d9 28 bd eb 52 12 3d 98 a7 9a 3d
       0.046388224 -0.04122281 0.035723608 0.07551497
000150 77 ea c2 bd 65 29 64 bd 23 ed 8d bc 32 23 34 be
       -0.09517377 -0.05570354 -0.01732499 -0.17591551
000160 ba 9f 00 be d5 aa 78 bd e8 7b f8 3d 3a b7 1c 3e
       -0.12560931 -0.060709793 0.12133008 0.1530427
000170 22 89 05 3e 5b ca 0b 3e 53 db 1b 3e bc 4b 01 3e
       0.13040593 0.13651411 0.15220384 0.12626547
000180 67 bd 44 3d 22 09 be 3d 57 67 eb 3d a1 ab c2 3d
       0.04803219 0.09279086 0.1149432 0.09505392
000190 90 e3 9b 3c 5e b4 c8 bd 68 cd f7 3d 16 84 ac 3d
       0.019029409 -0.09800027 0.12099725 0.08423631
0001a0 00 93 c7 bb 6f f3 77 3d 6b 9e 80 3d 14 da 02 3d
       -0.006090522 0.06053489 0.06280216 0.031946257
0001b0 d5 73 86 bd ee 13 00 3d 5e 4d 85 3d ce 62 b9 bd
       -0.06565062 0.031269006 0.06508897 -0.090520486
0001c0 39 c4 01 bd 76 af 41 bc 4a ac 49 be 7c 9c fb bd
       -0.031681273 -0.011821618 -0.1969463 -0.122857064
0001d0 a7 90 4f bd 27 60 76 3d e4 7d 7f 3b fe f0 ae bd
       -0.05067506 0.06015029 0.0038984949 -0.08542059
0001e0 7e 5f 88 3d a8 fd 25 3d c8 e0 e9 bc b2 33 25 3d
       0.06658839 0.04052511 -0.028549567 0.040332504
0001f0 f9 01 19 3d 47 d8 a9 ba ad 94 e4 3c 10 7f 24 3d
       0.037355397 -0.0012958132 0.027902925 0.04016024
000200 36 09 9b 3d f8 42 1d bd 26 8b f8 bc 3d 70 5d 3c
       0.07570116 -0.038393945 -0.030339789 0.013515529
000210 60 07 95 bd 78 ef 35 bd 08 94 17 3b 1d e5 80 3d
       -0.07276797 -0.04441783 0.0023129005 0.062937
000220 45 06 e2 3b 59 7e 89 bc 51 82 25 3d 8f c3 fa 3c
       0.00689772 -0.01678388 0.040407483 0.030610828
000230 8e 65 51 3c 43 b2 fe 3c a7 d2 11 3d 60 c9 86 3c
       0.01278056 0.031090861 0.035601284 0.016453445
000240 f4 ef 13 be 63 bb 29 bd b3 4d 65 bd 57 ae 8f bd
       -0.14447004 -0.04143847 -0.055982303 -0.070156746
000250 19 2b ad bb 48 31 ab 3d be 2f fb bd 7c a2 80 3d
       -0.0052846787 0.08359009 -0.122649655 0.062809914
000260 00 ab d2 3d 83 e2 2a be 45 4a 02 be 3e 33 01 bd
       0.10286522 -0.1668797 -0.12723644 -0.03154301
000270 f3 46 48 bd 42 77 3f bc dc 22 ca 3d 51 4e 0a bd
       -0.048895787 -0.011686148 0.0986993 -0.033766095
000280 59 14 5f 3d d6 95 6a 3e f0 7d a4 3d 89 93 8f 3d
       0.054462764 0.2290872 0.08031833 0.07010562
000290 52 61 16 3d 8d 53 15 3d dc 25 5d bd b9 b2 a4 bd
       0.036713906 0.036456633 -0.053991184 -0.08041901
0002a0 f3 2f 02 bd 39 92 1a be 60 61 28 be 80 20 1f 3d
       -0.03178401 -0.15094842 -0.16443396 0.038849354
0002b0 ca 6f cc 3c f3 54 48 3d e4 a5 85 bc cb 22 98 bd
       0.024955649 0.04890914 -0.016314454 -0.07428511
0002c0 1a 36 5e 3d a1 8e cf bd 1e e0 03 bd 0c 26 e4 3d
       0.054250814 -0.10134626 -0.032196157 0.11140069
0002d0 5b 16 29 be fb 92 3c be a2 51 00 bc 64 2b ec bd
       -0.16512434 -0.18415444 -0.007831963 -0.115317136
0002e0 c5 a5 75 bd a0 a2 15 bc d7 97 d6 bb fc 55 6b 3d
       -0.059972543 -0.009133011 -0.0065488624 0.057455048
0002f0 59 e0 28 3e c8 f0 88 be d9 4d 1c be f1 0f cf 39
       0.16491832 -0.26746202 -0.15264072 0.00039493994
000300 49 6d c2 bd 44 a6 2f 3d f6 5c 06 3e 2c 3e 1a bd
       -0.09493501 0.042883173 0.131214 -0.037656948
000310 e6 94 3e 3e 1a 19 91 3e 23 71 21 be 4a f4 bf bd
       0.18611488 0.28339463 -0.15765814 -0.09372766
000320 33 93 52 bd 5e bd b2 bd 39 90 fa 3c 64 dd de 3c
       -0.05140991 -0.08727525 0.030586349 0.027205177
000330 da c8 9b bd 46 e7 88 3b ab 53 91 3d 59 93 7d 3e
       -0.07606669 0.0041779606 0.070960365 0.2476324
000340 9c bc 1d 3e f2 ed 29 3d a7 e7 a9 3d 1b d1 1c bd
       0.1540398 0.041486688 0.08296137 -0.038285356
000350 80 20 c6 bd ed c2 f8 3b 7f bb 52 be 4c 0b 57 be
       -0.09674168 0.0075915963 -0.20579337 -0.21000403
000360 36 ff 6b be 4b e3 b1 bd d1 de 91 bd 4d 6e f6 bd
       -0.23046574 -0.08685931 -0.07122577 -0.12032757
000370 ff 42 1d 3d d5 f3 0e 3e e5 da 66 bd 0d f3 92 3d
       0.03839397 0.13960202 -0.056361098 0.071752645
000380 b2 2f 5b 3e ff 9f 69 3e de 87 d4 3d f5 bc 1d 3d
       0.21404913 0.2281494 0.10377477 0.03851028
000390 f3 1a eb 3c c4 6b bb bd 60 2a df bd 59 75 c5 bc
       0.028699374 -0.09151414 -0.10896754 -0.024103807
0003a0 9f 95 32 be c4 88 5b be cc 42 50 bd 14 04 df bc
       -0.17439888 -0.2143889 -0.050844952 -0.027223624
0003b0 d0 26 d8 3c ad 1c 8a bd 45 5b 87 3d 27 e5 29 3d
       0.026385695 -0.06743751 0.06609205 0.041478302
0003c0 29 71 6a bc ff 84 bc bc c1 0c 83 3c d5 68 55 be
       -0.014309206 -0.023012636 0.015997292 -0.20840771
0003d0 df cc ff bd cd c0 9d bd b6 50 ce bd cd 1b 26 3d
       -0.12490248 -0.077027895 -0.10073988 0.040553857
0003e0 63 cc a6 3d 1e 53 76 bd 0a 39 8a 3d c7 94 2a 3e
       0.081444524 -0.06013786 0.067491606 0.16658317
0003f0 c3 fb f6 3d a7 18 0f 3e 17 90 88 3d 2e dc f8 3c
       0.120597385 0.13974248 0.06668108 0.030378427

bias f4 [32]
000000 6a 4d 50 be fb 36 22 bd 18 37 bf bc d6 b6 07 bd
       -0.20342031 -0.039603215 -0.0233417 -0.03313335
000010 3a 89 4a b5 bb 12 f4 bc b5 15 9e bc 69 11 9d ba
       -7.5450555e-07 -0.029794088 -0.01929746 -0.0011983338
000020 69 78 a6 bc fb 64 39 b8 f2 2e b5 3d 6b 56 5a bd
       -0.020321088 -4.4201483e-05 0.08846845 -0.05330507
000030 1d 10 38 be 6e f3 12 b4 fd 76 2b bc ff ed 8f bc
       -0.17974897 -1.3685869e-07 -0.010465381 -0.01756954
000040 88 1c 30 3c 5d 8f 25 bc fe e8 f5 b6 73 72 c9 bd
       0.01074899 -0.010104981 -7.328693e-06 -0.098362826
000050 e7 f4 30 88 29 87 12 bd 92 22 ba bd 56 c2 b5 91
       -5.3250955e-34 -0.03577343 -0.09088625 -2.8676534e-28
000060 d8 88 49 3d d7 1f 36 bd f7 78 ab 3d 04 15 b0 bc
       0.04920277 -0.04446396 0.083726816 -0.021494396
000070 f1 f6 3e bd 95 99 3f bd d2 80 1a bd ea ec 0b bd
       -0.04662222 -0.046777327 -0.03772051 -0.034161486

weight f4 [32, 32, 3, 3]
000000 f0 e8 37 bd 8d ca 15 3d aa eb 80 3d 30 dd 81 bd
       -0.04489988 0.03657012 0.06294949 -0.06341016
000010 cf 1c 84 3c ed 46 5c 3d 67 73 62 bd cb 30 9b 3c
       0.016127018 0.053778578 -0.055285838 0.018944165
000020 04 fe 0f 3d 48 ba 50 ba f3 8e a6 3d cc b8 0e bc
       0.035154358 -0.00079623284 0.08132734 -0.008711051
000030 2b c1 f4 bc 2f 98 4e 3d 90 54 9b 3c 84 12 da bd
       -0.029877266 0.050438102 0.018961221 -0.10648063
000040 ec 0f ad bd f9 f2 7f bd df c7 19 b2 02 aa 88 b1
       -0.084503025 -0.062487576 -8.9512175e-09 -3.9774486e-09
000050 7f 87 a8 b0 d0 71 8e 32 71 18 d2 2f 2b 5f 25 b1
       -1.2262119e-09 1.6582732e-08 3.8216144e-10 -2.4064757e-09
000060 c6 17 a3 33 91 2a 04 33 8d cb bc 31 ab b6 8e 3b
       7.594603e-08 3.077236e-08 5.494661e-09 0.004355272
000070 19 08 56 bb 8c c2 0b bc 8c f8 b8 3b 01 73 07 bb
       -0.0032658635 -0.00853027 0.0056448635 -0.0020667913
000080 20 a5 11 bc 23 dd a1 3b c8 c2 d9 ba d7 69 f9 bb
       -0.0088894665 0.0049396916 -0.0016613835 -0.007611494
000090 7a 11 00 80 d1 13 00 00 85 07 00 00 e6 4b 00 00
       -6.27e-42 7.109e-42 2.697e-42 2.7227e-41
0000a0 ad 42 00 80 4a 47 00 80 55 31 00 00 b0 37 00 00
       -2.3919e-41 -2.5574e-41 1.7697e-41 1.9977e-41
0000b0 8d 2d 00 80 dd 01 4a 3d 77 c7 3b 3d 22 69 06 3e
       -1.634e-41 0.049318183 0.04584452 0.13126042
0000c0 69 06 3f 3b f5 a1 1e bd 46 ce 5d 3d 65 7b d1 3d
       0.0029148108 -0.038728673 0.054151796 0.10228614
0000d0 52 c2 ec 3c 15 2b c7 3d d2 9a e2 06 f2 aa 12 86
       0.028901253 0.09725014 8.523924e-35 -2.758514e-35
0000e0 e8 20 cf 01 7a 81 67 87 f8 fd 96 85 4b 8b a4 01
       7.608701e-38 -1.7416558e-34 -1.4199226e-35 6.044396e-38
0000f0 02 0d 13 86 f6 5d e9 84 3c 7b 0c 01 9f 1e 00 80
       -2.7657184e-35 -5.4864326e-36 2.5802355e-38 -1.0985e-41
000100 67 3e 00 80 af 01 00 80 27 2b 00 80 8d 26 00 00
       -2.2386e-41 -6.04e-43 -1.548e-41 1.383e-41
000110 2c 2c 00 00 88 1f 00 00 4b 3c 00 00 09 36 00 00
       1.5846e-41 1.1311e-41 2.1629e-41 1.9384e-41
000120 26 6e 0a 3e 55 a4 e8 3d 5d ea e4 3d f4 d2 c2 3c
       0.13518581 0.11359469 0.11177514 0.02378223
000130 d9 c6 1d 3d 76 e6 90 3d 76 5c 9a bc ec 04 53 3d
       0.038519714 0.07075207 -0.018842917 0.051518366
000140 0a b4 e3 3d 67 1b 00 00 ee 3e 00 80 c5 2f 00 80
       0.11118324 9.83e-42 -2.2575e-41 -1.7136e-41
000150 8f 16 00 80 6f 55 00 00 cb 68 00 00 43 52 00 80
       -8.092e-42 3.0648e-41 3.7593e-41 -2.951e-41
000160 dd 22 00 00 a3 50 00 00 c2 d7 09 bc 53 cc 05 bd
       1.2507e-41 2.8927e-41 -0.008413257 -0.032665562
000170 7f 85 02 bd e8 a2 a5 bc 0d 8c 72 bd 0a b3 89 bd
       -0.031865593 -0.020219281 -0.059215594 -0.06723602
000180 a9 f9 ad 3c e6 84 65 bc e2 ee 5e bc 3f 53 d6 3c
       0.021237211 -0.014008736 -0.013606759 0.026162742
000190 74 fb e4 3c eb 15 58 3b 33 4c 72 3c f6 88 2b 3d
       0.027951933 0.0032972049 0.014788675 0.041878663
0001a0 1b 5e f8 3c 01 d6 97 bd a0 4b 18 3d c7 cd 04 3d
       0.03031831 -0.07413865 0.037181497 0.032422807
0001b0 85 c1 a5 3c 6c 66 d4 3c fc 26 49 3d e0 39 2c bd
       0.020233879 0.025927745 0.049109444 -0.04204738
0001c0 19 f2 30 bd 7b 23 28 bc ee 0a fc bc 18 83 96 bc
       -0.043199632 -0.010262365 -0.03076693 -0.018373057
0001d0 04 68 83 3c 97 10 00 00 f9 17 00 80 c2 03 00 00
       0.01604081 5.951e-42 -8.6e-42 1.348e-42
0001e0 20 54 00 00 b9 8a 00 00 3a 07 00 00 70 1e 00 00
       3.0178e-41 4.9764e-41 2.592e-42 1.0919e-41
0001f0 e7 15 00 00 18 7a 00 80 52 75 40 be 7d 7f 72 bd
       7.857e-42 -4.3799e-41 -0.18794754 -0.059203614
000200 c6 9a 62 3c e6 59 93 bd 36 94 cc 3c 91 cb a6 3d
       0.013830846 -0.07194881 0.024973016 0.08144296
000210 e6 e9 c9 3c 8d 11 03 3e 8d 7f 71 3e 87 3d 00 00
       0.024647664 0.12799664 0.23583813 2.2072e-41
000220 08 0c 00 00 0c 00 00 80 a7 21 00 80 45 24 00 00
       4.316e-42 -1.7e-44 -1.2072e-41 1.3011e-41
000230 86 0a 00 00 38 3d 00 80 75 2e 00 00 f2 0d 00 00
       3.775e-42 -2.1961e-41 1.6666e-41 5.003e-42
000240 32 f3 0e bd 83 c7 d3 bc 46 52 fd bc 49 bf 88 ba
       -0.034899898 -0.02585197 -0.03092302 -0.0010432984
000250 8d e5 e8 bc 7c a3 ce bc 81 4b 2e 3e 61 0e 71 3d
       -0.02842977 -0.02522444 0.1702099 0.058851603
000260 8c c3 0e 3d 46 5d 09 bd af 3d 08 3d 03 24 87 3d
       0.034854457 -0.033536218 0.03326195 0.065986656
000270 48 da 95 bd a2 50 ae 3c 4b 16 78 3d b9 99 19 be
       -0.073170245 0.021278683 0.060568135 -0.15000047
000280 6c 29 89 bd ac c6 71 bd ad 59 00 00 53 7a 00 80
       -0.06697354 -0.05902736 3.217e-41 -4.3882e-41
000290 df 30 00 00 d2 55 00 80 de 1e 00 80 c6 40 00 80
       1.7532e-41 -3.0787e-41 -1.1073e-41 -2.3236e-41
0002a0 68 05 00 80 84 71 00 00 63 58 00 80 e3 c9 88 bc
       -1.94e-42 4.0722e-41 -3.1707e-41 -0.01669783
0002b0 89 38 bb bc a6 e4 d8 bd 03 f3 5f bc d3 90 50 3c
       -0.022854107 -0.10590486 -0.013668778 0.012729841
0002c0 0b 09 9a bd e2 19 0d bc 04 d4 6d bd a5 18 2d be
       -0.07521256 -0.008612128 -0.058063522 -0.16903932
0002d0 f0 80 00 80 b7 14 00 00 d2 4e 00 80 c4 8f 00 80
       -4.6254e-41 7.431e-42 -2.8275e-41 -5.1573e-41
0002e0 26 6c 00 00 df 43 00 00 98 5e 00 00 39 c3 00 00
       3.8796e-41 2.4348e-41 3.3934e-41 7.0033e-41
0002f0 ea 40 00 00 4f 03 15 99 78 f8 aa 99 0a 4c 5d 9a
       2.3287e-41 -7.703788e-24 -1.7677944e-23 -4.5763153e-23
000300 65 8a 3d 9c 5a c0 7b 9c 80 06 b1 9c 88 06 15 9e
       -6.2713725e-22 -8.329754e-22 -1.1714558e-21 -7.889345e-21
000310 eb 23 10 9e 49 5c ac 9d 24 77 08 b9 42 0b 83 b9
       -7.630724e-21 -4.562344e-21 -0.00013014354 -0.00024994655
000320 a7 0a 6d ba bd f3 c4 ba 2c 29 aa ba 32 4c c6 ba
       -0.000904242 -0.0015026253 -0.0012982241 -0.0015128909
000330 ae ee d1 ba 2d 95 22 37 55 08 91 b9 a5 38 00 80
       -0.0016016567 9.690685e-06 -0.00027662763 -2.032e-41
000340 c3 85 00 80 63 7d 00 00 43 29 00 00 90 84 00 80
       -4.7985e-41 4.498e-41 1.4802e-41 -4.7554e-41
000350 e1 9d 00 00 c0 68 00 00 63 62 00 80 47 11 00 80
       5.6636e-41 3.7577e-41 -3.5295e-41 -6.198e-42
000360 7e 3e 3e 3d 3a 53 c3 bb e1 d8 83 bd cd a4 27 3d
       0.046446316 -0.005960849 -0.06437851 0.04092865
000370 b3 f0 0e bc cd bb 9b bd 1e c1 31 3d b7 be 81 bc
       -0.008724379 -0.076041795 0.04339706 -0.01583801
000380 1b c9 ca bd c9 d8 ac a5 8f 9c 5f 22 7d 82 dc a5
       -0.09901639 -2.9984143e-16 3.0305017e-18 -3.825234e-16
000390 d3 ab 7b a6 ae ee 61 a4 88 25 78 a5 77 87 d8 26
       -8.7315984e-16 -4.8991267e-17 -2.1523287e-16 1.5024729e-15
0003a0 26 e2 d8 25 9a b9 f3 a4 db 1b 95 3d a9 ac db 3c
       3.762327e-16 -1.0569887e-16 0.07280704 0.02681573
0003b0 32 75 ee bc ca eb e8 3d 16 87 21 3d 6d 98 04 bd
       -0.029108617 0.11373098 0.03943547 -0.032371927
0003c0 8e 9d 25 3e 51 2c 12 3d 89 7d 84 bd 3f cd 98 bd
       0.16173384 0.035686795 -0.064692564 -0.074610226
0003d0 87 d8 dd bc 26 70 c2 3d 0e 8f 90 bd f6 3f 27 bd
       -0.027080787 0.09494047 -0.070585355 -0.040832482
0003e0 93 5e 1b 3d 9a 62 d8 bc 1c 46 de bc a8 54 c6 bc
       0.03793199 -0.026414204 -0.02713304 -0.02421029
0003f0 5d 71 1c 3c a2 99 27 3c 5c ce 2e 3c 72 f2 e4 3b
       0.009548512 0.0102295 0.010669317 0.0069869095

bias f4 [32]
000000 f7 de d7 3c 3e 37 e6 3c b0 50 58 bc de 6a 2a bc
       0.026351435 0.028102513 -0.013202831 -0.010401456
000010 92 6c 99 3a a9 92 f5 3d 04 ee b2 3d 90 83 ef 3d
       0.001170533 0.11990864 0.08736804 0.116950154
000020 55 a8 d8 3c dd 43 3b bc 4c 89 23 bd 2e f5 e4 3d
       0.026447454 -0.011429754 -0.03992586 0.11179577
000030 b9 c0 d7 bb f3 44 82 3d 7a 96 59 bd 7a e1 18 bd
       -0.0065842536 0.06360807 -0.05312202 -0.037324406
000040 8f 39 e2 bd fd f7 9e 3c a1 1f 1f bc 3b 51 03 3d
       -0.11046135 0.01940536 -0.009712131 0.03205989
000050 0b 18 0d bc 6f bf 44 bc 2a e4 8f bd 2f e8 f5 bd
       -0.008611689 -0.012008532 -0.07025941 -0.12007176
000060 d0 a7 d3 bb 04 a8 12 bd 21 6f 43 bc fa 1d 68 bd
       -0.006459214 -0.035804763 -0.011928351 -0.056669213
000070 fc 21 03 bd 4d 0d 4e 3c 78 05 e5 3a f9 f1 ed bd
       -0.032014832 0.012576413 0.0017472943 -0.11618418

weight f4 [32, 16, 2, 2]
000000 e5 46 e5 bc a2 01 a2 3d 8a b9 01 bd 84 10 c1 3d
       -0.027987907 0.07910468 -0.031671084 0.09426978
000010 38 10 5e bd bc dd 5f bd 97 b4 5d bd 74 83 bb bc
       -0.054214686 -0.05465482 -0.054127302 -0.02288983
000020 bb a4 30 3d 4b bc b1 3d 20 99 e3 3c 0c 41 70 3d
       0.04312585 0.08678492 0.027782977 0.058655784
000030 68 64 a3 3d 04 8b 0e 3c 0f c3 88 3c 7a 43 33 3c
       0.07978135 0.008700136 0.016694574 0.010941381
000040 e2 8e d3 bd bb 67 f8 bc 87 9f 89 bd 95 47 bc bc
       -0.10329987 -0.0303229 -0.067198806 -0.022983352
000050 fb 10 af bc 55 e2 a9 bd af 6e 0c 3c 59 00 66 bd
       -0.021370402 -0.082951225 0.008571311 -0.056152675
000060 87 21 91 3d a6 89 07 3e 9f 8e 01 3d d2 fa d8 3d
       0.07086473 0.13236102 0.031630155 0.10594715
000070 f2 9b 95 3d ce a7 a5 3d 2e 49 ed 3c 8b 5d 40 3d
       0.07305135 0.08088647 0.028965559 0.04696421
000080 11 0c e0 3c 60 99 8a 3c d4 59 0d 3c 74 89 14 3c
       0.027349504 0.016918838 0.008627374 0.0090659745
000090 bc 26 aa 3c 54 4c 5a 3d 98 d3 b9 3a c5 97 76 3c
       0.020770423 0.05329545 0.001417744 0.015050833
0000a0 81 76 dc bc 26 f1 1f bc 9f 13 03 bc 98 27 22 3b
       -0.026911976 -0.009762084 -0.0080002835 0.0024742838
0000b0 56 49 fc bc 87 9a 78 bd 23 4a 50 bc a5 bf dc bc
       -0.030796688 -0.060694244 -0.012712988 -0.026946852
0000c0 8a 59 45 bd 0b 88 05 3d 60 c3 95 bd fb fa 43 3d
       -0.048181094 0.032600444 -0.073126554 0.047846776
0000d0 f2 7a 7d 3d 06 57 e5 3c 0a 2b ba 3d 0c 88 5d 3d
       0.061884828 0.027995598 0.0909024 0.054084823
0000e0 6e e4 8f 3d bc 7a 2a 3d 2e da 15 3d 38 d2 70 3c
       0.070259914 0.041620955 0.036585025 0.014698558
0000f0 2a 52 58 3d c7 3b fe bb 64 a7 82 3d 35 6d 26 bc
       0.052812733 -0.007758591 0.063795835 -0.010157873
000100 f1 e5 ba 3d 6e b3 e2 3d 38 f6 07 3d 0b f5 c5 bc
       0.09125889 0.1106938 0.033193797 -0.024164697
000110 24 81 a9 3c a7 87 d2 3c a6 5a f5 bd cc 98 13 bd
       0.020691462 0.02569945 -0.119801804 -0.03603439
000120 69 2f 6f 3c 47 78 b9 bc cf be ee bc 58 06 b9 bc
       0.014598706 -0.02264036 -0.029143719 -0.022586033
000130 1b 6c 1e bd 74 bd 6b bd 01 52 c7 3b a4 cd 67 3c
       -0.038677316 -0.057553723 0.0060827737 0.01414815
000140 2b 5c 2e 3e 80 c2 35 3e 8e 43 1d 3e 4b b7 c9 3d
       0.17027347 0.17749977 0.15357801 0.098494135
000150 35 48 c6 bb a6 bc 87 39 21 7f 3e bc dc a8 62 3b
       -0.006051088 0.0002588976 -0.01162699 0.0034585511
000160 2a 0c 1f be b2 a9 1b be 94 53 01 be 65 71 22 be
       -0.15531984 -0.15201452 -0.12629539 -0.15863569
000170 c7 c2 b8 bd ed f1 ea bd 18 18 1f be 49 30 f9 bd
       -0.09021526 -0.11471925 -0.15536535 -0.12167413
000180 83 0f b9 bc 16 85 b2 bd ba 63 a6 3c 6b cc a4 bb
       -0.022590404 -0.087167904 0.020311225 -0.0050292513
000190 42 db af 3d 93 d0 4f 3d b0 d3 34 3d b7 1d b6 bb
       0.08586742 0.05073602 0.044147193 -0.0055577415
0001a0 c9 e4 ac 3d a9 02 89 3d 6d fa 38 3e ca 74 33 3e
       0.08442075 0.066899605 0.1806428 0.1752502
0001b0 8d ac af 3d 5e 67 e0 3d 87 68 14 3e 55 a2 37 3e
       0.08577833 0.10957216 0.14492999 0.17933019
0001c0 a4 e1 78 3d e7 40 94 3d 33 e4 9f 3d 1a d5 78 3d
       0.060762063 0.07238942 0.078071974 0.060750104
0001d0 cd 84 ac 3d cd 94 43 3d 43 c4 89 3d 5e f8 73 3d
       0.08423767 0.04774933 0.06726887 0.059563033
0001e0 0a 7c fd bd 87 11 db bd 2a c6 0d bd da 94 da bc
       -0.12377174 -0.106967025 -0.034612812 -0.026682306
0001f0 28 53 12 39 26 ef 45 bc ef 14 15 3d c1 94 96 bc
       0.00013954623 -0.012080943 0.036396917 -0.018381478
000200 5a ad 8a bd 13 2c 8a 3d 86 78 5c bd 03 c0 78 3c
       -0.067713454 0.06746688 -0.053825878 0.015182498
000210 41 ba bd 3d b8 31 42 3d ec cb 51 3d d6 f1 ad 3d
       0.09264041 0.047410697 0.051219866 0.08493392
000220 15 9e de b9 bd cd ba 3c b7 87 74 bc 93 ab cf 3c
       -0.0004246092 0.022803182 -0.014924935 0.025350368
000230 21 71 19 3d b3 6f f9 3c f4 83 54 3d 67 8b b5 3b
       0.037461404 0.03044877 0.051883653 0.0055402997
000240 35 5f c7 bc 37 33 ae bb 00 60 7d bd e6 08 b2 bc
       -0.02433739 -0.005316164 -0.06185913 -0.021732759
000250 de d9 a3 3d 1a ba 19 3d 47 36 67 3d 9d 70 9d 3c
       0.08000539 0.037530996 0.056448247 0.019218737
000260 9e f6 f8 bb 05 1b f8 3c fd e1 43 bd 9f 31 94 bb
       -0.0075977584 0.030286321 -0.04782294 -0.004522517
000270 57 8f 35 bc 04 16 81 3d ab 05 33 3b 1c 71 91 3d
       -0.011081538 0.06303027 0.002731661 0.07101652
000280 60 76 93 bd b5 67 94 bd 64 70 94 bd 67 a5 36 bd
       -0.072003126 -0.07246343 -0.07247999 -0.044591334
000290 8a c1 16 bd 38 36 0e bc 6c d1 65 bb 29 aa 23 3d
       -0.036805667 -0.008679919 -0.0035067452 0.0399572
0002a0 0e 5f fd bc 1c 8a 74 bd a7 dd 8c bd 7a ef 62 bd
       -0.030929115 -0.059702024 -0.06878214 -0.055404164
0002b0 dd 87 0e bc 4e f3 6f bd b7 2e 8f bc 0a f8 94 bd
       -0.0086993845 -0.058581643 -0.01747833 -0.07273872
0002c0 e8 75 cc bc 81 e3 96 3d 07 89 31 3c 80 b9 04 3c
       -0.024958566 0.07367612 0.0108358925 0.008100867
0002d0 57 99 a1 ba 20 be 98 bd e0 b3 d6 ba 60 6e 42 3b
       -0.0012329024 -0.074581385 -0.0016380511 0.002966784
0002e0 4e 71 7e bb 75 54 4a 3d 5e 5b e3 3b 7e c3 26 3d
       -0.003882486 0.04939695 0.006938382 0.04071378
0002f0 57 d1 cf 39 42 45 6c bd 92 6d dc 3c e3 e3 d0 bc
       0.00039638087 -0.057683237 0.026907716 -0.02549929
000300 cb 06 70 3d 53 5a a8 bb 94 58 43 bd 4c 51 05 be
       0.05860023 -0.0051377206 -0.047691897 -0.13019294
000310 13 96 f8 3c a2 62 c1 3d 91 c3 56 bd e0 0a ba bc
       0.030344998 0.09442641 -0.0524326 -0.022710264
000320 42 ce 96 3d a3 32 da bc 90 63 1c 3d 0d 98 57 bd
       0.07363559 -0.026635474 0.038180888 -0.05263524
000330 b5 13 c2 3d b6 4b de 3d c2 a6 11 3e 9d 3a 2b 3e
       0.09476415 0.108542845 0.1422377 0.16721578
000340 4d b8 b8 3d 57 5f 1c 3d 76 18 a7 3b c2 31 47 bd
       0.090195276 0.03817686 0.0050993515 -0.048631437
000350 45 8c 3c 3d af b6 71 3d 23 fb de 3c 9c 0a 44 3d
       0.04603221 0.05901211 0.02721936 0.04786168
000360 ed 46 2a 3d 2f cb 30 bd b6 51 7d bb fa eb d4 bd
       0.041571546 -0.04316252 -0.003865344 -0.103965715
000370 ee 3b 83 3c 79 c3 0e 3c 67 d5 b8 3c 55 a9 c1 3c
       0.016019788 0.0087135965 0.022562696 0.023640314
000380 c3 c4 08 bd d7 33 8d bd cb 4d 6d 39 61 b4 a8 bc
       -0.03339077 -0.06894653 0.00022631061 -0.020593824
000390 7b 6e 8b bc 9c 30 27 39 64 2e 04 bd ca 71 9d bc
       -0.017020455 0.0001594447 -0.032270804 -0.019219298
0003a0 87 75 d2 3c fd 73 2c bd d6 77 c1 3d 69 3a 0d 3d
       0.025690807 -0.042102803 0.09446685 0.034479532
0003b0 67 56 e4 bd 99 90 40 bd 19 1f 05 3d 1b 0b c4 3d
       -0.111492924 -0.0470129 0.03250036 0.09572431
0003c0 64 77 98 3d 7a 53 0d 3d a4 ca 52 3d 73 6d 00 bc
       0.07444647 0.034503438 0.051462784 -0.007838595
0003d0 e2 af 52 bd 72 4b 3c bc f5 0f 6d bb 9f 1f 6e 3d
       -0.051437266 -0.011492597 -0.0036172841 0.058135625
0003e0 64 1d c7 3b 0f 5f 94 3c a2 26 ff 3c 85 09 3c 3d
       0.0060765017 0.018111734 0.031146351 0.045907516
0003f0 6c 53 c8 bc 4f 54 c5 3c 18 67 2b 3d 68 c3 de 3d
       -0.024453841 0.024088053 0.041846365 0.108771145

bias f4 [16]
000000 35 0a 20 3e a2 43 30 bb 8e 48 0e 3e 22 95 de bc
       0.15628894 -0.002689578 0.13894865 -0.027170721
000010 f7 f1 79 3d be 93 48 bd 17 e0 17 3e 4e 87 b8 3d
       0.06102177 -0.048969023 0.14831577 0.09010182
000020 5b fd 53 bd bd f4 48 3d cc 5d 80 3d 7e 20 cf bd
       -0.05175529 0.049061526 0.0626789 -0.10113619
000030 8e e4 f8 3d 09 88 9a bd 70 d8 2d bd 54 07 b7 bd
       0.12152968 -0.07545478 -0.04244274 -0.089369446

weight f4 [16, 32, 3, 3]
000000 ed bc 10 be dc 82 47 bd f3 0f e5 bd 64 6a cc bd
       -0.1413457 -0.04870878 -0.11184683 -0.0998123
000010 ea 60 16 bd 3e 37 d6 bd c2 8b 1d bd a6 1f a3 3b
       -0.03671352 -0.10459755 -0.03846336 0.004978138
000020 59 86 90 bd 5d 94 85 3c 33 3a 71 bb 09 cb 21 3d
       -0.07056875 0.016306097 -0.003680837 0.03950027
000030 96 4b e8 3c d4 02 05 3d 1c 5e aa 3d ec 0d 53 3d
       0.028356355 0.0324734 0.08318731 0.05152695
000040 16 ba 90 3d b7 50 0b 3e 83 a2 41 be f3 a4 5c bd
       0.07066743 0.13605009 -0.1890965 -0.053868245
000050 8c 30 ae bd af 7a de bd 29 8c 83 bc ea 8c 71 bd
       -0.08505353 -0.10863244 -0.016058045 -0.058972277
000060 a9 7c a2 bd 96 68 dc ba 36 32 9c bd da 99 e1 3d
       -0.07933933 -0.0016815837 -0.076267645 0.11015673
000070 08 87 ae 3d 5d e8 da 3d f0 50 fa 3d d1 58 be 3d
       0.08521849 0.10688851 0.12222469 0.09294284
000080 fa aa da 3d 59 6c d4 3d d2 9f 7d 3d 07 6a aa 3d
       0.106771424 0.10372228 0.061919995 0.08321004
000090 e5 09 d1 bd 4d a4 8d bd cd 2a c2 bd 52 83 64 bd
       -0.10206965 -0.069161035 -0.0948082 -0.0557893
0000a0 16 b5 20 bd 29 3b ab bd f1 df bb bc 60 1f 57 bc
       -0.039235197 -0.08360893 -0.022933932 -0.013130039
0000b0 f2 f6 9a bd 8c 45 9a 3d 8d 7b a4 3c ec 72 b7 3d
       -0.07566632 0.07532796 0.020078445 0.089574665
0000c0 a8 2e a9 3d 23 50 70 3c 9d c9 b5 3d 5c 73 a9 3d
       0.08260852 0.014667544 0.08876345 0.08273956
0000d0 0f 65 56 3b 06 36 a1 3d f5 59 4b be 03 b9 10 bd
       0.0032714044 0.07871632 -0.19858535 -0.03533269
0000e0 3b a1 3d bd a6 3d 30 be ed 66 0f bd 9b b8 58 bd
       -0.04629634 -0.17211017 -0.035010267 -0.05291043
0000f0 36 24 fd bd 1a 67 8c bc b2 39 8f bd 2a 3d 0b bd
       -0.12360422 -0.017139006 -0.069934264 -0.033993877
000100 a8 f4 c5 bc 71 96 be bb 7e ce 0b bd bb c2 ff bb
       -0.024164513 -0.005816274 -0.034132473 -0.007805196
000110 ff b5 75 3c 57 0f 79 bd e0 71 ab bc 84 82 02 3c
       0.0149970045 -0.060805645 -0.020928323 0.007965688
000120 73 cf 9e 3b 9a 12 f1 3c f5 ec 01 3d fc bd 53 bb
       0.004846507 0.029427815 0.03172012 -0.0032309284
000130 ca 22 82 bb 6f fe 11 bc eb 44 1e bd 45 3f 64 bd
       -0.0039714323 -0.008910759 -0.038639944 -0.0557244
000140 96 a6 80 bd 98 fd 81 bd d4 f9 52 bd 7f 84 cb bd
       -0.06281774 -0.06347197 -0.051507786 -0.09937381
000150 62 1e 75 bd dd c5 ca bc 24 9b 8b bd 1a 5b 15 bd
       -0.05984343 -0.024752552 -0.068167 -0.036463834
000160 5c 66 1b 3c c0 bb d3 bc 91 3a 8c bd e5 77 16 bd
       0.009484854 -0.025846362 -0.06847108 -0.036735434
000170 68 30 9d bd 93 bd 9f bd de 15 87 bd c1 44 f3 bd
       -0.076752484 -0.0779983 -0.06595968 -0.11878348
000180 c5 3b 8b bd 67 7e a0 bd 8f c3 18 be e2 05 df 3d
       -0.067985095 -0.07836609 -0.1491835 0.10889794
000190 bc f7 ad 3c 76 c2 c2 3c f9 74 af 3d 7b 57 1b 3c
       0.021236293 0.023774367 0.08567233 0.009481306
0001a0 d1 c6 26 bb 50 41 2f 3d 53 6a 03 bd 5e a7 b4 bc
       -0.0025448094 0.042786896 -0.03208382 -0.022052463
0001b0 9e bc ff bd 69 3a 89 bd 62 89 f9 bd 0c 42 95 bd
       -0.12487148 -0.06700594 -0.12184407 -0.07287988
0001c0 93 46 26 bd f1 43 e6 bd 44 20 ba bc 86 17 d8 3b
       -0.04059465 -0.112434275 -0.022720464 0.006594601
0001d0 54 e4 a6 bd 37 b8 de 3d f6 26 8d bb d9 d7 5c 3c
       -0.08149019 0.1087498 -0.004307623 0.0134791965
0001e0 66 93 91 3d f4 89 d6 bc f7 eb 86 ba 46 10 95 3d
       0.07108192 -0.026188828 -0.0010293712 0.072784945
0001f0 8a ff db bc 1a 06 2f 3c 9c 96 7b 3d 33 21 32 3d
       -0.026855249 0.010682607 0.06142293 0.043488692
000200 c5 7e a1 3d a5 3f 9f 3d de 42 59 3d 3e 46 ac 3d
       0.078855075 0.07775811 0.053042285 0.08411835
000210 88 b8 6e 3d da 1e b8 3c 5a 0e 80 3d c8 37 0c 3e
       0.05828145 0.022475649 0.06252737 0.13693154
000220 38 35 4b 3d 85 7a c0 3d 74 31 d0 3d 69 d2 5f 3d
       0.0496113 0.09398369 0.101656824 0.054644022
000230 e0 76 c1 3d 91 73 84 3d 0b 46 c1 3c 23 d7 aa 3d
       0.09446502 0.06467355 0.02359297 0.08341815
000240 b1 a7 09 3d ff 45 43 3d b5 cd 11 3d 25 34 db 3c
       0.03360719 0.047674175 0.03559657 0.026758263
000250 db e3 2f 3d 2c c8 d8 3c bd db 0a 3d bb 4a 26 3d
       0.04294191 0.026462637 0.033900965 0.040598612
000260 45 a5 05 3d 2f 88 e7 bc 5f 3b c1 bc 51 3e 1e bd
       0.032628316 -0.02826318 -0.02358788 -0.03863365
000270 92 6c 46 bb 59 5c a7 bb ed e3 08 bd 42 d3 41 3d
       -0.0030277115 -0.0051074442 -0.033420492 0.04732061
000280 0e b8 ae 3c 7b a8 d9 bb a1 7d 28 3d 9b cf 29 3d
       0.021327998 -0.006642399 0.041135434 0.041457754
000290 37 74 34 3d 20 55 09 3c 45 7d c4 3c ad 25 08 3d
       0.044056144 0.008382112 0.023985514 0.033239055
0002a0 68 ae 2d bd da 84 24 bc b2 fb 01 3c 53 fc ad bd
       -0.042402655 -0.01004144 0.007933544 -0.08495393
0002b0 f5 5c a4 bd b8 f3 6b bd 19 d0 a2 bd 90 db bd bd
       -0.08025543 -0.057605475 -0.07949848 -0.09270394
0002c0 1d 41 aa bd 6d 74 69 bd d7 25 a4 bd be eb b5 bd
       -0.083132006 -0.056995798 -0.0801503 -0.08882855
0002d0 b1 83 67 3c 0e 6c 9d ba c4 76 6c bc be 8c c3 3d
       0.014130519 -0.0012010352 -0.014432613 0.09548329
0002e0 41 21 77 3d 8a cd 12 3d 45 4f 44 3e d4 8e 09 3e
       0.060334448 0.03584055 0.19170864 0.13433391
0002f0 86 78 c5 3d 3b 86 25 3d 90 29 12 3d 52 47 89 bb
       0.09642129 0.040411215 0.03568417 -0.0041894102
000300 09 24 ac 3d c0 f8 9a 3d 3a 82 24 3d 3e f6 0e 3e
       0.08405311 0.075669765 0.040163256 0.13961121
000310 e9 cc ff 3d f3 5e c8 3d e9 7d 05 bd 62 a3 64 bc
       0.124902554 0.09783735 -0.03259078 -0.013954969
000320 3b c8 6c bc 35 73 3d bd 4a 7c 0b bd 2e 94 2b bd
       -0.014452036 -0.046252448 -0.03405408 -0.041889362
000330 85 2e 10 bd d9 91 27 bd 6e af 40 bd ea a5 23 3d
       -0.035200614 -0.040910576 -0.047042303 0.03995315
000340 5c 68 10 3d 42 71 9c 3d ec d9 1c 3b 09 5d 3e 3c
       0.035255775 0.0763879 0.0023933602 0.011618861
000350 55 b9 40 3d 13 c0 4b bd c7 2d 0d bd 70 a0 42 bc
       0.047051746 -0.049743723 -0.034467485 -0.011879072
000360 4c 17 e9 3c 19 95 34 3d b4 e6 7a 3c 27 d8 20 3d
       0.028453492 0.044087503 0.015313793 0.03926864
000370 80 d5 43 3d 62 a4 a2 3c 98 1a 8a 3d 4c b5 88 3d
       0.04781103 0.019853774 0.067433536 0.06675205
000380 23 ae 2f 3d 32 95 58 3c 73 67 bb 3b d4 f2 d1 3c
       0.04289068 0.013219165 0.005719119 0.025628485
000390 af 28 d9 bc 66 e3 ac bc b1 c5 34 3a be ac a7 bd
       -0.026508657 -0.021104526 0.00068959134 -0.08187245
0003a0 45 f6 74 bd 75 1d 15 bd 08 e0 fa 3d 6b ed 0b 3e
       -0.059805173 -0.036405046 0.12249762 0.13664787
0003b0 0e 34 eb 3d 67 e6 f6 3d 14 cb 11 3e 5b b7 04 3e
       0.11484538 0.120556645 0.14237624 0.1296057
0003c0 49 c1 da 3d 24 d1 0b 3e 7c 66 0a 3e de 51 dd 3c
       0.106813975 0.13654 0.13515657 0.027016576
0003d0 ac 4d 48 3d bc 26 d5 3c 3e 97 bb 3c f7 11 1b 3d
       0.0489022 0.026019447 0.022899266 0.03785893
0003e0 84 60 91 3c 5e c8 18 3d e3 37 2c 3d b1 f2 d2 3c
       0.017746218 0.03730046 0.042045485 0.02575049
0003f0 63 a3 b2 3c 75 1d ba 3c 2b 83 11 3d 78 c9 08 bd
       0.021806424 0.022719124 0.035525482 -0.03339526

bias f4 [16]
000000 77 da 00 be ae d2 32 3e 05 2a 10 3e 2b 91 30 bc
       -0.12583338 0.1746318 0.14078529 -0.010776798
000010 95 c4 8b 3d eb 08 cb bc d1 24 7c 3d 62 bd d9 3d
       0.068246044 -0.024784526 0.06155855 0.10631825
000020 3d 79 ab b7 cb dc 24 be 1f a7 05 3e ae 5b d2 3c
       -2.0441244e-05 -0.16099851 0.13052033 0.025678482
000030 fe 13 2e 3e cb fc 05 3e 61 f3 28 bd 60 fe ad bc
       0.16999814 0.13084714 -0.04124773 -0.02123946
