data/ForestSegmentationOutput/experiemnts/2nd_attempt_05-11-2023_11-37-21/unet_id=L2NsU_width=32_num_layers=2_lr=0.001_epochs=140.pth (torch, 115317 bytes, 16 tensors)

weight f4 [16, 8, 3, 3]
000000 04 04 00 80 6f 43 00 80 cd 96 00 80 28 86 00 80
       -1.44e-42 -2.419e-41 -5.4097e-41 -4.8126e-41
000010 dc 6b 00 80 9b 46 00 00 5e b7 00 80 3e b9 00 80
       -3.8693e-41 2.5328e-41 -6.578e-41 -6.6452e-41
000020 57 6d 00 00 7b 00 00 80 d8 85 00 80 78 4c 00 00
       3.9224e-41 -1.72e-43 -4.8014e-41 2.7432e-41
000030 23 87 00 00 ac 3f 00 00 c0 43 00 00 e4 c1 00 80
       4.8478e-41 2.2841e-41 2.4304e-41 -6.9555e-41
000040 c5 c0 00 80 27 02 00 80 0c a4 00 80 52 bc 00 80
       -6.9153e-41 -7.72e-43 -5.8849e-41 -6.7557e-41
000050 01 1c 00 80 b8 33 00 00 0c b1 00 80 5e a7 00 00
       -1.0046e-41 1.8553e-41 -6.3512e-41 6.004e-41
000060 2b 50 00 00 61 b2 00 80 5d ac 00 80 81 4b 00 00
       2.8759e-41 -6.399e-41 -6.1832e-41 2.7086e-41
000070 08 af 00 80 ab 46 00 00 ed b3 00 00 a1 20 00 00
       -6.279e-41 2.5351e-41 6.4545e-41 1.1705e-41
000080 26 b6 00 80 f0 21 00 00 4a 17 00 80 12 c7 00 80
       -6.5343e-41 1.2174e-41 -8.355e-42 -7.1413e-41
000090 74 9d 00 00 3c c8 00 80 4d a7 00 00 18 3e 00 00
       5.6484e-41 -7.183e-41 6.0016e-41 2.2275e-41
0000a0 72 5f 00 00 5f 0e 00 00 07 7d 00 00 7b 6d 00 00
       3.424e-41 5.155e-42 4.4851e-41 3.9274e-41
0000b0 ad 88 00 80 39 f1 c3 a2 d6 6d 8c 22 64 bf 44 a2
       -4.903e-41 -5.311026e-18 3.806337e-18 -2.6664275e-18
0000c0 de 3f 2b 22 8a 56 0e a3 8f 39 c1 a1 0e 8f a6 a1
       2.3208632e-18 -7.716161e-18 -1.3093424e-18 -1.1286464e-18
0000d0 06 20 89 a1 96 64 83 a1 ff eb d8 ac 3c 7e 5f ad
       -9.291958e-19 -8.90353e-19 -6.16529e-12 -1.2704112e-11
0000e0 eb 07 2d aa 65 c3 be ab 7b 8b 12 2d 60 74 f8 ac
       -1.5368234e-13 -1.3554545e-12 8.33011e-12 -7.061504e-12
0000f0 2e 93 a1 ab cd cd 11 ab 08 09 e9 ab da 3d 49 2b
       -1.1480589e-12 -5.1799954e-13 -1.6558152e-12 7.149538e-13
000100 84 e9 04 2c 99 47 cc 2b e6 c2 7f ab 3d 72 ca aa
       1.8887955e-12 1.4514944e-12 -9.0864675e-13 -3.5961677e-13
000110 13 3f 85 2a eb e4 c0 aa 6b 7d 8d aa f6 6f 80 a9
       2.3669312e-13 -3.4264895e-13 -2.5133658e-13 -5.703764e-14
000120 b0 5d 22 3c 98 8f 75 3d f3 f3 90 3d fd ac b4 bd
       0.009910032 0.059951395 0.070777796 -0.088220574
000130 ef 5d 98 3d 00 51 6d 3c 54 35 d5 bc 30 1d f8 bc
       0.074397914 0.014484644 -0.026026405 -0.030287355
000140 cc ff 07 be 55 7a ef 3c e3 ed a8 bd bd c8 eb bd
       -0.13281173 0.029233137 -0.08248498 -0.11512897
000150 0c 67 b7 bd 10 f3 82 3d c2 8b 0a 3d 6f e3 32 3d
       -0.089552015 0.06394017 0.03382469 0.04367393
000160 20 d3 b6 bc 7d 86 d5 3c ca 43 9f bc 26 02 04 be
       -0.02231747 0.026065106 -0.019441504 -0.12891445
000170 6a d1 fe bd dd c4 e0 3c d0 2a 0d be 9e c1 a0 bd
       -0.12442286 0.027437622 -0.13785863 -0.078494295
000180 c7 c6 35 bd bf e1 dd ba be 9c 9d bd 5b 2f 7e bd
       -0.044379022 -0.001692824 -0.07695912 -0.06205688
000190 54 67 06 be 69 c8 46 be f0 0d 1c be 30 91 ad 3c
       -0.13125354 -0.19412388 -0.15239692 0.021187395
0001a0 89 b9 34 bd 0e 60 bf bd 27 80 07 be 32 ea 23 be
       -0.044122253 -0.09344493 -0.1323248 -0.16007307
0001b0 c7 2b af bc dc 7e 1e be 6f 1d 87 bd ca c7 bf bd
       -0.02138318 -0.1547808 -0.06597411 -0.093642786
0001c0 71 59 af bd 28 86 08 bd a5 b2 08 be b3 0f 37 be
       -0.085619815 -0.033331066 -0.13349397 -0.17877083
0001d0 ea 49 ff bc fd c1 80 3d 8a c9 ac bc ce 53 a9 bd
       -0.031163175 0.06287 -0.021092195 -0.082679376
0001e0 61 d5 82 3d bd ec 35 bb 00 8e 7c bd f0 bc 12 be
       0.06388355 -0.0027759515 -0.06165886 -0.14329886
0001f0 41 6a 39 3d bf 1f 04 3d 63 9c a3 bb 96 e2 8c 3d
       0.045267347 0.032256838 -0.004993008 0.06879155
000200 49 38 0e 3d 4b 55 30 bc 89 1f ab 3d dd 6d b6 3d
       0.034721646 -0.010762523 0.08355624 0.089076735
000210 4a 30 73 3d aa 0f c4 bd f1 ff 22 bd d6 e9 4a bc
       0.059372224 -0.095733 -0.039794866 -0.012384852
000220 0f a1 35 3d aa 1f 52 3d 0e a4 19 bc 0a 77 c7 bd
       0.04434305 0.05129973 -0.009377493 -0.09739502
000230 66 65 6c 3d 0e 5f 5d 3d a0 46 b5 3c c4 32 8a bc
       0.05771389 0.05404573 0.022128403 -0.01686991
000240 f8 b7 e0 bc 8b bf e1 bc a5 34 e2 bc 2a 75 e1 bc
       -0.027431473 -0.027557155 -0.027612993 -0.027521688
000250 8f 63 e1 bc 88 37 e2 bc ac 0d e1 bc da 86 e1 bc
       -0.027513294 -0.02761437 -0.02747234 -0.027530123
000260 e5 6f e1 bc 5e 96 d3 bc 2a 32 d5 bc d0 83 d5 bc
       -0.027519176 -0.025828537 -0.026024897 -0.02606383
000270 35 ef d4 bc 5b 1b d6 bc 0c 85 d4 bc 58 50 d5 bc
       -0.025992969 -0.026136091 -0.025942348 -0.026039287
000280 0e 59 d4 bc 93 28 d3 bc 41 15 d8 bc c2 f7 d9 bc
       -0.02592137 -0.025776183 -0.026377322 -0.026607398
000290 c5 ac d9 bc 36 20 d8 bc 54 ad d7 bc 9f fb d7 bc
       -0.02657164 -0.026382547 -0.026327766 -0.0263651
0002a0 e2 b1 d7 bc 33 26 d6 bc 0e b5 d5 bc 00 90 ce bc
       -0.026329938 -0.026141262 -0.02608731 -0.025215149
0002b0 c8 d2 cf bc de 83 d3 bc c6 bf cf bc 23 74 cf bc
       -0.025369063 -0.025819715 -0.02536 -0.025323933
0002c0 b2 b9 d2 bc fa c1 cf bc 5b 6e cd bc 44 9b cf bc
       -0.025723312 -0.02536105 -0.025077036 -0.025342591
0002d0 bd 37 b7 bc 45 c8 ba bc 49 4f be bc 72 a3 b9 bc
       -0.022365445 -0.022800574 -0.023231165 -0.022660945
0002e0 18 32 bc bc e9 01 ba bc fb 99 b7 bc a3 63 b4 bc
       -0.022973105 -0.022705989 -0.02241229 -0.022020167
0002f0 1a 90 b7 bc 61 e2 ed bc ba 88 ed bc 37 3e ed bc
       -0.02240758 -0.02903861 -0.02899586 -0.02896033
000300 de 56 ec bc bc 92 eb bc d0 2c eb bc 75 fd ea bc
       -0.028850015 -0.028756492 -0.028707892 -0.02868531
000310 bd d7 e9 bc d7 60 e9 bc af be 00 bd 54 71 00 bd
       -0.028545255 -0.02848856 -0.03143185 -0.031358078
000320 a4 07 00 bd 6f ac ff bc 7b 1e ff bc 8b 70 fe bc
       -0.031257287 -0.031210152 -0.031142464 -0.031059524
000330 52 05 fe bc 5f 71 fd bc 79 28 fd bc 5d 27 00 bd
       -0.031008396 -0.030937849 -0.030903088 -0.03128754
000340 7a dd ff bc 34 25 ff bc 35 78 fe bc 2f 14 fe bc
       -0.031233538 -0.03114567 -0.031063179 -0.031015484
000350 97 ab fd bc b9 d9 fc bc 60 5d fc bc 42 37 fc bc
       -0.03096561 -0.030865537 -0.030806243 -0.030788068
000360 5d 80 5d 3d 8d 63 cc 3d d9 14 ce bd 2b 48 9f bc
       0.054077495 0.09979925 -0.1006257 -0.019443592
000370 29 a0 4c bc 46 13 61 bd e4 b0 2d 3d a7 bb 46 bd
       -0.012489357 -0.05495002 0.042405024 -0.048518803
000380 32 d4 09 3c 02 d8 8a bd 72 fb 05 bd fa 0b 3e bd
       0.008412408 -0.067794815 -0.0327105 -0.04639814
000390 34 4b e6 bc 50 6a d2 bd e8 70 c3 bd 69 25 88 bd
       -0.028112032 -0.10274184 -0.095430195 -0.066477604
0003a0 cd f2 a3 bd 54 a9 bd bd dd 04 36 bd 6b f6 62 3c
       -0.08005295 -0.092608124 -0.04443823 0.013852696
0003b0 87 81 ee bd be 96 4e 3d 2e 9c da bd ea c9 ce bd
       -0.11645799 0.050436728 -0.1067432 -0.10097106
0003c0 1f fb 30 bd 93 64 d1 bd ad 74 d4 bd 0a cd 3e be
       -0.043208238 -0.10224261 -0.10373817 -0.18632904
0003d0 96 c8 a6 bd 70 86 3c be ca 5e 8f bd ec 9a 08 bd
       -0.081437275 -0.18410659 -0.070005015 -0.03335087
0003e0 30 9f 92 bd b7 5d 4f be 55 a6 47 be 0a 55 f1 bd
       -0.07159269 -0.20250593 -0.19497044 -0.11783798
0003f0 ac c7 7a be 3f ef b5 bd 27 ee 35 be 2a c8 8d bd
       -0.24490231 -0.08883523 -0.17766629 -0.06922944

bias f4 [16]
000000 1b 3d 72 b4 36 4a f5 bb 1e 4b ed bc 3e d1 c0 3d
       -2.2560236e-07 -0.0074856533 -0.028966483 0.0941491
000010 d1 eb b2 3d 9e 67 ae bb ab cf e2 bd 91 cc 71 ba
       0.08736385 -0.0053224107 -0.11074766 -0.0009223903
000020 87 46 37 3e 4c d8 9e bc 19 38 85 3e a4 5c 44 bd
       0.17897998 -0.019390248 0.26019362 -0.04793991
000030 80 da c7 bc 77 a3 36 be 76 f3 14 ba 77 b0 be bc
       -0.024396181 -0.17835794 -0.00056820305 -0.023277504

weight f4 [16, 16, 3, 3]
000000 4f b7 00 80 d3 6f 00 80 c8 07 01 80 78 4a 01 80
       -6.5759e-41 -4.0115e-41 -9.4627e-41 -1.1855e-40
000010 9b b9 00 00 f0 18 01 00 79 ff 00 80 ba a1 01 80
       6.6583e-41 1.00781e-40 -9.1646e-41 -1.49852e-40
000020 ae 3a 01 80 58 8a e8 bc 25 a8 6f bd 17 fa 3d 3d
       -1.12886e-40 -0.02838628 -0.058509964 0.046381082
000030 7b d1 34 3c d2 47 3f bd 9e 81 ca bc 56 00 48 bd
       0.011036272 -0.046699353 -0.02472001 -0.048828445
000040 9b 53 12 3d a9 4f 47 bc 65 75 94 bc b6 6b 97 bc
       0.035724264 -0.012164989 -0.018122384 -0.018483978
000050 7f 75 99 bc c1 e5 93 bc 3e 97 96 bc e1 97 98 bc
       -0.018732784 -0.018053891 -0.018382665 -0.018627109
000060 6f de 92 bc 43 61 95 bc db 4e 97 bc 45 09 a3 3d
       -0.01792833 -0.018234855 -0.018470218 0.079607524
000070 d6 8f 45 3d df 6a 34 3d fb 27 8a bd 61 70 32 bc
       0.048232876 0.044047233 -0.06745907 -0.010891051
000080 e8 25 8d bd 34 57 4c bc 4f f6 d3 bc 25 e1 8e 3d
       -0.06891996 -0.012471963 -0.025874285 0.06976537
000090 ba b8 ee bd 45 8a a6 bc aa 27 07 be ac 94 c3 bd
       -0.116563275 -0.020329604 -0.13198724 -0.09549841
0000a0 9d 24 0a be 91 0c 00 be 7b 6c 93 bc b0 f7 13 be
       -0.1349053 -0.12504794 -0.017996063 -0.14449954
0000b0 df 65 22 be ef f4 81 bc a5 e2 64 bc 5c e8 5c bc
       -0.15859173 -0.015863864 -0.013970052 -0.013483133
0000c0 02 cd 87 bc ae b7 6c bc b0 04 5a bc bb c9 1c bc
       -0.016577248 -0.0144480895 -0.013306782 -0.009569581
0000d0 ff 31 65 bc a2 a6 74 bc 65 5f c8 3d 82 6a d5 3d
       -0.013988971 -0.0149323065 0.0978382 0.104207054
0000e0 31 53 27 bb 8a 13 36 3d 3e 9f 35 3d 65 57 b1 3d
       -0.0025531764 0.044452228 0.04434132 0.08659247
0000f0 68 9f c1 bb a0 fb 11 3d 92 d9 83 3d 60 af 00 80
       -0.0059088953 0.03564036 0.064379826 -6.2913e-41
000100 1d 20 00 80 cd d6 00 80 a6 6a 00 80 71 99 00 80
       -1.152e-41 -7.7056e-41 -3.8258e-41 -5.5044e-41
000110 3f c1 00 00 81 54 00 00 d6 c2 00 80 1f 14 00 00
       6.9324e-41 3.0314e-41 -6.9894e-41 7.218e-42
000120 d3 11 00 3d ab 17 8c 3c a8 68 f0 bb cb 92 95 3d
       0.031267 0.01710113 -0.0073366947 0.07303389
000130 72 9c 9e bd 17 f4 93 3d d1 61 23 3d f4 d0 66 3a
       -0.07744683 0.07224291 0.039888207 0.000880494
000140 1c a7 92 bd fd d6 75 2b 57 ef 7f 2a d3 4d 81 a9
       -0.0716078 8.733984e-13 2.2731587e-13 -5.742251e-14
000150 41 d1 af 29 18 f1 e8 a8 e0 0a 1f 29 4f cb 70 aa
       7.807861e-14 -2.5861732e-14 3.5314525e-14 -2.1386819e-13
000160 64 21 e2 28 a4 07 0d a6 81 2b c6 3b a5 0f 69 3d
       2.5105521e-14 -4.8929557e-16 0.0060476665 0.056899685
000170 08 e2 e4 3d 27 90 b1 bd 0e 22 6d bd 19 5b 0e 3c
       0.111759245 -0.08670073 -0.057893805 0.008688712
000180 d3 59 28 be c1 32 00 be e4 a4 9d bd d8 b1 ca aa
       -0.16440515 -0.12519361 -0.07697466 -3.6005812e-13
000190 9d e2 9b a8 5d 1e 0e a5 a6 e5 01 ab 5b fe 01 a8
       -1.7306735e-14 -1.2326824e-16 -4.614871e-13 -7.216093e-15
0001a0 06 d2 02 a4 8b 35 e2 ac ed 2f af ad 47 8b 33 a2
       -2.8367153e-17 -6.429251e-12 -1.991648e-11 -2.4332756e-18
0001b0 e8 48 69 bc 03 b8 62 3c f1 3f d6 3c 23 2d 9c bc
       -0.014238574 0.013837817 0.026153537 -0.019064492
0001c0 11 4b 3a bc 32 b8 1c 3b 24 9a 30 bc 1a da b3 bc
       -0.011370436 0.00239135 -0.0107789375 -0.021954585
0001d0 ee 41 db bb 42 e5 fd 3d 05 d4 0b 3e ea ae d3 3d
       -0.006691209 0.12397243 0.13655098 0.103360966
0001e0 6c b1 fe 3d 79 4e 09 3e 05 e6 03 3e 99 a6 0c 3e
       0.12436184 0.13408841 0.12880714 0.13735427
0001f0 51 d9 d1 3d ea ab 7a 3c f7 70 00 00 da 03 00 80
       0.10246528 0.015299777 4.0524e-41 -1.382e-42
000200 61 7c 00 80 69 00 00 00 9e 96 00 80 53 27 00 80
       -4.4619e-41 1.47e-43 -5.4031e-41 -1.4107e-41
000210 95 6c 00 00 f4 87 00 00 24 33 00 80 0c 6b 5b 3d
       3.8952e-41 4.8771e-41 -1.8346e-41 0.053568885
000220 44 9f 8a 3d 7b 88 4d bd a1 a4 2d bd 77 d0 77 bd
       0.06768659 -0.050178986 -0.04239333 -0.060501542
000230 44 cd 67 3d b9 07 a0 3c a7 c1 03 3b 9b ae a0 3d
       0.05659224 0.019534932 0.002010444 0.07845803
000240 6b 0b 00 80 76 d5 00 80 a0 98 01 80 df d1 00 80
       -4.096e-42 -7.6575e-41 -1.46587e-40 -7.5288e-41
000250 1e 4a 01 80 23 4a 01 80 a4 c6 00 80 e6 3e 00 80
       -1.18424e-40 -1.18431e-40 -7.1259e-41 -2.2564e-41
000260 7a 06 00 00 29 45 82 3c de 67 a1 3c f4 73 20 3d
       2.323e-42 0.015902119 0.019702848 0.03917308
000270 a3 71 9c bc 0f 20 b9 3c dd 3f a2 bd b2 44 a5 bb
       -0.019097155 0.022598295 -0.07922337 -0.0050435895
000280 68 b7 a2 bd 5b ae 26 3c fc 54 e5 3a f2 60 c5 3a
       -0.07945138 0.0101734055 0.0017496641 0.0015058799
000290 32 e1 d1 3a 5a c0 e2 3a 75 db b8 3a 92 a8 b6 3a
       0.0016012548 0.0017299757 0.0014103489 0.0013935736
0002a0 e8 14 d8 3a e5 2b b4 3a de 0a ab 3a 43 ce ac bc
       0.0016485723 0.0013745992 0.0013049503 -0.021094447
0002b0 ee d4 87 bd 8e 0d 50 bd 8f e5 00 be 17 7d 90 bc
       -0.0663241 -0.050794177 -0.1258757 -0.017637772
0002c0 c9 c2 90 bd 6d c2 c4 bd 32 fc 8e bc b2 72 c9 bd
       -0.07068402 -0.09607396 -0.01745424 -0.098363295
0002d0 f7 bf 63 bd ae e8 c4 bd 9d b4 a1 bd f2 9f 2a 3d
       -0.055602994 -0.09614693 -0.078957774 0.041656442
0002e0 e1 d6 72 bd e9 29 d4 bd da 53 8d bc 5c 38 9c bd
       -0.059286956 -0.10359556 -0.017251898 -0.07627937
0002f0 e0 47 86 bd 31 52 19 3b 06 9f 04 3b 0f a0 19 3b
       -0.06556678 0.0023394937 0.0020236387 0.002344135
000300 df c9 e0 3a fe 17 26 3b 54 df 36 3b a6 52 12 3b
       0.0017150006 0.002534389 0.002790411 0.0022327094
000310 5e 2f 16 3b f5 2e 15 3b 2d d8 50 bb 9f 80 ef 3c
       0.0022916417 0.0022763584 -0.0031867132 0.029236136
000320 f4 c4 5c 3c e2 fe b9 bb ef 2e d5 bc 8a c7 d1 3c
       0.013474692 -0.0056761364 -0.026023356 0.025607843
000330 bb 09 6c bd a5 a1 a8 bd 64 93 8c bd fb db 00 00
       -0.057626467 -0.08233956 -0.0686405 7.8914e-41
000340 dc 7c 00 80 d1 c8 00 80 81 25 00 80 9a 66 00 80
       -4.4791e-41 -7.204e-41 -1.3454e-41 -3.6807e-41
000350 54 c2 00 00 67 34 00 00 2a 47 00 80 e3 d4 00 00
       6.9712e-41 1.8798e-41 -2.5529e-41 7.637e-41
000360 cf 26 ca 3c 2a a9 8e 3c 43 3c 22 bc 6e 3a e6 bd
       0.024676709 0.017414648 -0.009902063 -0.11241613
000370 b5 fd 72 3d 78 82 e8 3b a6 fa cd bd ea 75 e8 bd
       0.059323985 0.007095631 -0.10057573 -0.11350615
000380 84 43 05 bc ae b0 ad b0 3e cb 7e 31 28 3f 11 b1
       -0.008133773 -1.2637622e-09 3.7077394e-09 -2.1136177e-09
000390 be 16 b2 b0 3f 53 80 b0 38 28 9d b0 d2 3d 5a 30
       -1.2957668e-09 -9.336886e-10 -1.1434684e-09 7.939579e-10
0003a0 9b c8 09 b1 da b2 69 b0 75 28 dc bd 5c 81 0b be
       -2.0050155e-09 -8.501907e-10 -0.10749904 -0.13623565
0003b0 2d bf 29 be 4e e1 d8 bd 08 b0 fa bd 6d 0f 1b be
       -0.16576834 -0.105898485 -0.122406065 -0.15142603
0003c0 83 64 e0 bd 74 c4 0b be 1f a1 21 be ef 09 8b 9f
       -0.10956671 -0.1364916 -0.15784119 -5.8885224e-20
0003d0 ac 9f 10 a0 51 89 ec a1 b0 48 7b a0 4d 59 2a a0
       -1.2250105e-19 -1.6028329e-18 -2.1284577e-19 -1.4429107e-19
0003e0 9a 3a da 9f eb 09 09 a4 37 65 54 a0 0b 77 e6 1c
       -9.242354e-20 -2.971554e-17 -1.7990588e-19 1.5250895e-21
0003f0 99 4a 17 3d eb 14 30 ba 04 82 da 3b cb f5 e9 3c
       0.036936376 -0.0006716984 0.006668331 0.028559586

bias f4 [16]
000000 dc a8 d7 bd 77 24 bc 3d b9 cc ef 3d 77 06 21 be
       -0.10530254 0.091866426 0.117089696 -0.15725122
000010 ed 82 fb 3d 8a d2 93 bd eb 85 db bd 0e a7 a1 3d
       0.122808315 -0.072178915 -0.10718902 0.07893191
000020 c5 ef 80 bc cd 9c b6 bc 07 33 d5 bc 49 fc d2 3c
       -0.015739331 -0.022291565 -0.026025308 0.025755065
000030 17 78 c5 3c 8c e5 2e bd ac b7 d0 3d b2 5f 25 3c
       0.024105115 -0.04269938 0.10191283 0.010093616

weight f4 [32, 16, 3, 3]
000000 db 0f 1e be 12 a9 83 bd d9 a4 5f 3d cc 79 7d bd
       -0.15435736 -0.06428732 0.05460057 -0.061883733
000010 31 1b ba 3c 16 4b d9 3d 8d 3e 25 3e 76 11 2f 3d
       0.022718044 0.10610025 0.16137142 0.04274126
000020 72 81 f8 3d e9 65 94 bd ec 6f 64 3c 1d d7 2a bd
       0.12134065 -0.07246 0.0139427 -0.041709054
000030 6c 39 51 3d d3 e0 2e 3c a2 f9 85 3d 5c c9 55 3d
       0.051080152 0.010673719 0.06541754 0.052193984
000040 f9 95 94 bc 35 6f 67 3d 0e 32 b1 bc 31 4e 25 bd
       -0.018137919 0.05650254 -0.021630313 -0.040357772
000050 d7 61 8c 3d 25 47 de bd 04 90 87 bc 9e 55 85 3d
       0.06854599 -0.108534135 -0.016548164 0.06510471
000060 7e 0a 97 bc 99 d6 9a 3d f6 95 3b 3e 56 92 30 be
       -0.01843762 0.075604625 0.18318924 -0.17243323
000070 a1 d0 8c bb 27 1b b6 3d ea ff e3 3c af 3c 13 3d
       -0.0042973314 0.08891898 0.02783199 0.035946544
000080 61 9a a6 3d 6d 2b d6 3d ee 53 13 3e 19 b8 4a 3e
       0.08134914 0.104575016 0.14387485 0.1979679
000090 1b 05 33 bd ff c3 14 3d 87 92 ba 3d c1 4c 35 be
       -0.04370604 0.03631973 0.09109979 -0.1770506
0000a0 08 99 62 3b 0b 4f 11 3c 74 77 9c bd d8 33 c4 3d
       0.0034576077 0.008868943 -0.076399714 0.09580201
0000b0 1c 92 14 3e a4 4c 8c 3e 71 d4 0b 3e 3f b3 0f bd
       0.14508861 0.27402222 0.13655259 -0.03508305
0000c0 1e be 68 3e a7 f7 be 3d 0d dd e6 bd 61 86 37 3e
       0.22728774 0.0932458 -0.11272631 0.17922355
0000d0 9a 16 46 bd ea 5b 3f be 9f ed 2d 3d 3b 19 13 bd
       -0.0483614 -0.18687406 0.04246294 -0.035912734
0000e0 18 3e 08 3d fd ee a7 3b 89 45 6d b9 68 db 3b bd
       0.033262342 0.005124925 -0.00022627985 -0.04586354
0000f0 e0 18 14 3d 05 fd ba bd 24 16 ff bc 90 2f 39 be
       0.036156535 -0.09130291 -0.031138487 -0.1808455
000100 c9 a9 14 bc 39 37 09 3e 6a 93 4b be 0b 6c f1 3c
       -0.009073683 0.13399972 -0.19880453 0.029470464
000110 2b 73 3a 3e ed ed cd bd ea 5d 77 3d f5 e8 5c 3e
       0.18207996 -0.10055146 0.060392298 0.21573241
000120 62 8e 28 3e 60 5c dc 3d 40 e5 de bd c6 4b ee 3d
       0.16460565 0.10759807 -0.1088357 0.116355464
000130 65 39 5d 3d 66 af 1a be b5 6e ad 3c f1 7c 90 bd
       0.054009814 -0.15105972 0.021170953 -0.07055081
000140 2f 27 15 be 59 4a 91 3d e4 11 4c bc ae 59 4d 3d
       -0.14565729 0.07094259 -0.012455437 0.050134353
000150 46 d9 79 bd e5 28 01 3d fb c3 92 bd 14 c8 c0 bd
       -0.060998224 0.03153314 -0.071662866 -0.09413162
000160 d3 d3 88 bd 5d 1a 2b bd 84 50 32 bc 4e 8b f5 bd
       -0.06681027 -0.04177319 -0.010883454 -0.11989461
000170 3a 7a 87 bd 95 65 68 bc f0 0d f8 bb e1 e2 99 bc
       -0.0661511 -0.014184375 -0.007570021 -0.018784942
000180 7f ab 13 3d 32 3c fa 3d 9a a4 6e 3d 1f 1d 03 be
       0.036052223 0.122185126 0.058262445 -0.12804078
000190 b2 d0 e1 bc 6a 71 a3 3c c4 a9 fc bd ae 16 33 3d
       -0.027565334 0.019951541 -0.12337068 0.0437228
0001a0 69 25 ed 3c 81 e5 8f 3c b5 d5 83 3d 2b f0 b1 3d
       0.028948503 0.01756549 0.06437246 0.086883865
0001b0 19 81 40 3e 59 67 93 3b 46 08 d1 bc fa 53 35 3e
       0.18799247 0.004498404 -0.02551664 0.17707816
0001c0 c6 ef f9 bc 92 00 87 3b 3d a3 5f bc f0 6e f9 3c
       -0.03050984 0.004119941 -0.013649759 0.030448407
0001d0 f0 ff 9f bd 12 3d 82 bd ea d5 11 bc e5 3b 55 3b
       -0.07812488 -0.063593045 -0.008901099 0.003253692
0001e0 52 28 f7 3a ce 1b 8a bd 70 49 9e bd 68 b9 b2 3d
       0.0018856621 -0.067435846 -0.07728851 0.0872677
0001f0 ca e4 38 3d 21 e6 56 3d 43 6b 0e be bb 4b 42 3d
       0.045140065 0.05246556 -0.13908105 0.047435503
000200 1e bf 58 3e a9 e5 21 be 96 7a 84 3d 0a 73 8b 3e
       0.21166655 -0.15810265 0.06468694 0.27236205
000210 cb 20 b8 bd 96 6d 91 3d b7 53 7e 3e 75 bb 1d 3e
       -0.0899063 0.0710098 0.24836622 0.1540354
000220 e5 1a 70 3d e0 35 78 bd 72 5a b6 3d d3 39 b7 3d
       0.0586194 -0.060598254 0.0890397 0.08946576
000230 8f a9 b6 bc d8 8f f2 3d 86 81 b8 3c bc 8f f3 bd
       -0.022297649 0.11843842 0.0225227 -0.118926495
000240 93 a9 83 3c a7 13 9b 3c f3 55 f0 bc df 0e 9b bd
       0.01607207 0.01893027 -0.029337859 -0.07571196
000250 49 37 f5 bb 30 89 4b bb 53 f1 10 3d 2f 8e c3 bc
       -0.007483397 -0.0031057112 0.035386395 -0.02387151
000260 18 2a 15 3d 7a 79 80 bc 54 a6 31 bd bf 35 0c 3a
       0.036417097 -0.015682925 -0.043371513 0.0005348585
000270 10 43 95 bd cc 5b af bc 51 8c e2 3c 35 47 8f bd
       -0.07288182 -0.021406077 0.027654799 -0.069960035
000280 3e 95 5f bb 5f d4 e1 bc 6f 87 b0 bd 4c 67 04 bd
       -0.0034116055 -0.027567087 -0.08619582 -0.032325074
000290 0d d2 aa bc 7a e1 84 bd 5b 9b d8 bc f8 f8 4c bc
       -0.020852113 -0.06488319 -0.026441267 -0.012510531
0002a0 18 8f 25 bd 11 0a bb bc 9a 02 36 bd a4 02 b2 bc
       -0.040419668 -0.022831948 -0.044436075 -0.021729775
0002b0 78 b2 17 bd a6 82 0b bd 5a 3e 8b bd fb 88 63 bd
       -0.037035435 -0.034060143 -0.06799002 -0.055550557
0002c0 4b c4 90 bd 10 3d 7b bd 68 13 b8 bc 28 b7 5e bd
       -0.0706869 -0.06133753 -0.022470191 -0.05437389
0002d0 d4 fd b6 3c ef a4 5c 3a 5e 6e 05 bb 93 8c ab bb
       0.022337832 0.0008416911 -0.0020359973 -0.0052352636
0002e0 27 8a 5b bd c8 08 58 bb 41 c9 4b bd 19 c9 9c bc
       -0.05359855 -0.0032964218 -0.049752478 -0.01913886
0002f0 3b 21 7e bc 30 6c 16 bd 7e 19 05 bd 09 f7 82 bd
       -0.015510852 -0.03672427 -0.032495014 -0.063947745
000300 51 b3 9d bc 07 a1 15 b9 99 6a 04 3d 9b b6 94 3c
       -0.019250544 -0.00014269735 0.032328222 0.01815348
000310 eb 2f 4d 3c 06 a5 ea bc 48 ae 73 3b 7f 5c b7 3d
       0.012523632 -0.028643142 0.0037182737 0.08953189
000320 1c 95 dd bc 71 9c fd bc 76 45 1f bd 39 91 74 3d
       -0.02704864 -0.030958386 -0.038884602 0.059708808
000330 82 33 8a 3d 59 89 80 3c cc 02 13 bd 0f c4 cd 3c
       0.067481056 0.015690492 -0.03589134 0.025117902
000340 82 a9 33 bc 99 c5 2d bc e2 d4 78 bc 78 62 ec 3b
       -0.010965707 -0.010606193 -0.015187474 0.007213887
000350 21 94 8c bc 43 8f 7b 3c 62 23 0f 3d 33 78 b6 bb
       -0.017160477 0.0153539805 0.034945853 -0.005568528
000360 9d f2 b4 bd cc 23 52 bd 7c 4e 00 be 82 db e3 bd
       -0.08835337 -0.05130367 -0.1252994 -0.11125852
000370 52 cd 82 bd 5b 9d c4 bd 90 04 89 bd 32 b4 ed bd
       -0.06386818 -0.09600326 -0.06690323 -0.11606635
000380 f0 98 8b bd dd d7 1e 3d 97 cf f0 bc 9d d1 83 3d
       -0.0681628 0.038780082 -0.029395862 0.06436465
000390 90 e2 92 3b 03 08 09 3d b8 f5 09 3c 8b 31 8a 3c
       0.0044825748 0.033454906 0.0084204 0.016869327
0003a0 cb 38 85 3d 5d 86 34 bd f1 93 a5 bd 00 fb cf ba
       0.06504973 -0.04407345 -0.08084858 -0.001586765
0003b0 48 9f ae bd ef 41 4c 3b 4e 69 b0 bd 05 43 e7 bc
       -0.08526474 0.003116723 -0.08613835 -0.0282302
0003c0 91 65 ae bd 06 f4 6d bc 13 c8 04 bd 7b d3 72 bc
       -0.08515466 -0.014523512 -0.03241737 -0.014820929
0003d0 41 07 04 bd a3 f6 0a 3c 4f 4d b1 bd 01 14 33 bd
       -0.03223348 0.008481654 -0.086573236 -0.04372025
0003e0 54 79 03 3d ff e8 2e bd 1a e1 06 bc 32 56 85 bd
       0.03209813 -0.04270267 -0.008232379 -0.06510581
0003f0 8f 62 eb bc 56 63 40 bd 7b eb eb bc d2 d8 ef bc
       -0.02873352 -0.046969734 -0.02879881 -0.029278193

bias f4 [32]
000000 f0 7b 24 bd 3b cc ab bb 1f 15 e0 bc a4 02 07 b7
       -0.04015726 -0.005242852 -0.027353821 -8.047242e-06
000010 79 66 ba 3b 86 24 6e bd b4 f2 c0 bc 3d ef 74 bd
       0.005688485 -0.0581403 -0.02355323 -0.059798468
000020 a2 33 15 bd a6 51 f3 bc df a3 b2 b9 40 27 0c be
       -0.036426194 -0.029702019 -0.000340729 -0.13686848
000030 4d e8 31 bc bf 9c 68 bc 3a 73 f4 bd fa 7d 6e bb
       -0.0108586075 -0.014197527 -0.1193604 -0.0036391006
000040 79 c9 9d bd 5a 4a 79 bd 5e 3b 82 bd 03 96 66 bd
       -0.077044435 -0.060861923 -0.0635898 -0.056295406
000050 b9 62 cd bd f1 0b ec bd 99 bb bb bd 38 5e 0b 3c
       -0.100285955 -0.11525715 -0.09166641 0.00850635
000060 70 32 52 3d 26 50 49 bd b9 1b ca ba cc e6 19 be
       0.051317632 -0.0491487 -0.0015419639 -0.15029448
000070 dd e4 f1 bd b4 e8 8f bd d6 67 75 bd ee 7f 97 bd
       -0.1181123 -0.070268065 -0.05991348 -0.073974475

weight f4 [32, 32, 3, 3]
000000 56 e3 ca bd 49 c9 1a bc 04 f6 e6 bc d0 18 d6 bd
       -0.09906642 -0.009447404 -0.028193481 -0.10453951
000010 35 d5 66 3d c9 15 25 3d e3 4a d0 bd 60 16 1f 3c
       0.056355674 0.04030398 -0.101705335 0.009709924
000020 86 f9 16 3c 10 52 d3 bc e7 6d 3d 3c 82 c8 ca 3c
       0.009214764 -0.025795966 0.011561847 0.024753813
000030 a4 a6 d9 bc 2c ba f2 bc 65 a3 51 3c 07 78 44 bc
       -0.026568718 -0.02962979 0.012795304 -0.011991507
000040 a5 ac 49 bc f6 3f fd ba 69 39 dd bb b4 17 b6 3c
       -0.012309228 -0.001932143 -0.0067512286 0.0222281
000050 34 f4 8f 3d e5 9d cd 3c e9 81 45 3d 39 47 8a 3d
       0.07029 0.025099704 0.048219595 0.06751866
000060 46 b7 40 bd 0c 20 09 bd 6c 02 fe bc 3e ae 00 00
       -0.047049783 -0.033477828 -0.031007014 6.2506e-41
000070 79 35 00 00 fb b9 00 00 df 56 00 80 2a 26 00 00
       1.9182e-41 6.6717e-41 -3.1163e-41 1.369e-41
000080 32 80 00 00 9a 4d 00 80 5a 59 00 80 16 3c 00 80
       4.5988e-41 -2.7838e-41 -3.2053e-41 -2.1555e-41
000090 fd af 12 bd 54 e9 b6 3d 04 57 b3 3d 85 9a e6 bd
       -0.035812367 0.089312226 0.08756831 -0.11259941
0000a0 68 b9 13 3d cc e4 d4 3d ec 72 61 be ac 76 98 bd
       0.03606549 0.10395202 -0.22016495 -0.0744451
0000b0 02 56 c7 3c 51 3e 8b bc 4b c8 01 bc 68 0e cf ba
       0.024333004 -0.016997488 -0.007921289 -0.001579714
0000c0 5e 94 72 bc d5 f1 1d bc 32 c1 ae bb 32 a1 5f bc
       -0.014805881 -0.009640177 -0.0053330893 -0.013649272
0000d0 a2 d3 35 bc 93 29 de bb 23 8a ee bd 60 99 dd bd
       -0.0110978205 -0.0067798584 -0.11647441 -0.108202696
0000e0 db 9c fc bd d7 54 1d bc fb c9 c6 3c eb 96 d7 3b
       -0.12334605 -0.009602747 0.024266234 0.00657927
0000f0 9b 3f 53 3d fa f5 a7 3d 45 cd 5c 3d 00 c9 50 3d
       0.05157433 0.08201213 0.053906698 0.05097294
000100 f6 0c 07 3d 87 cc 62 3c ae ba 4f 3b 27 2c 02 3d
       0.032971345 0.013842708 0.0031696963 0.03178039
000110 50 0a f0 ba cf 80 a6 bc b1 72 c7 bc 4f 4f 0f bc
       -0.001831362 -0.020325093 -0.024346681 -0.008746936
000120 3e e8 89 bd a4 7f 10 bd 50 9f 01 bd f2 df 90 bd
       -0.0673375 -0.035277978 -0.031646073 -0.07073964
000130 5f 2b 71 3c 71 f6 1a 3d 03 3b 96 3b f3 ba 67 3c
       0.014719813 0.03783268 0.0045846715 0.014143693
000140 4a 39 e5 3c c1 d5 05 bc 6c 61 0a b9 2f 2d 98 3c
       0.02798142 -0.008168639 -0.00013196998 0.018576233
000150 f7 0a fb 3b ce 5d fd bb 4b b2 17 3c 7b 87 3e 3c
       0.007661219 -0.0077321297 0.009258817 0.011628981
000160 94 88 97 bb b7 dc 79 ba d3 9a 00 80 88 9a 00 80
       -0.0046244357 -0.0009531485 -5.554e-41 -5.5435e-41
000170 fc b1 00 00 e1 b7 00 00 70 67 00 80 56 a7 00 00
       6.3849e-41 6.5963e-41 -3.7106e-41 6.0029e-41
000180 8a 54 00 80 14 9f 00 80 16 0c 00 80 03 45 c9 3d
       -3.0327e-41 -5.7066e-41 -4.336e-42 0.09827616
000190 42 73 ea 3d f1 7a d5 3d 34 8d 0a 3d 86 9a 0f 3c
       0.11447765 0.1042384 0.033826068 0.008764869
0001a0 21 46 9f bc 86 90 59 3d ac 74 f1 bc 5e 18 5b bd
       -0.01944262 0.053116344 -0.029474579 -0.053490035
0001b0 0c 91 1f 3d 32 22 e5 3c a3 25 1f 3b 65 70 55 3d
       0.038956687 0.027970407 0.0024283908 0.05210914
0001c0 4c b3 0b 3d 5e 56 2d 3c 19 3d 83 3d cf 10 03 3d
       0.034106538 0.010579674 0.06408138 0.03199845
0001d0 04 2b 3b 3c 9b 1f df bc f3 10 01 3c ed 1a c8 3c
       0.01142383 -0.02723675 0.007877576 0.024426902
0001e0 7e a7 8d bd 3b 1e 44 bc ce 13 a4 3c 23 3d fe bd
       -0.06916712 -0.011970098 0.020028975 -0.12414005
0001f0 53 01 70 bd eb 36 ad bd e8 71 5e 3c 0e a5 bd 3c
       -0.058595013 -0.084577404 0.013576962 0.023149993
000200 fb cd bd 3c 81 04 a3 3b 56 5d 2c bd 28 f4 65 bd
       0.023169508 0.004974902 -0.0420812 -0.05614105
000210 6d d6 8a bc 3f 48 5c bd cf 3b 46 bd e9 56 f3 2f
       -0.01694795 -0.053779837 -0.04839688 4.4263196e-10
000220 cd f1 bb 2f 13 0b 58 2f 15 55 3a 2f a0 b8 3d 2f
       3.4186912e-10 1.964902e-10 1.6946829e-10 1.7255042e-10
000230 11 d0 f1 2e 3c 12 9b 2e 65 7c 8f 2e 35 d1 33 2e
       1.0996371e-10 7.051823e-11 6.524984e-11 4.08857e-11
000240 ed 29 36 b9 f3 c0 61 b9 d7 e6 09 b9 80 fb 6c b9
       -0.00017372491 -0.00021529551 -0.00013151333 -0.00022600405
000250 ca f5 a3 b9 60 c8 44 b9 c3 87 7f b9 c1 85 a7 b9
       -0.0003127291 -0.00018766662 -0.0002436927 -0.00031952377
000260 2e 63 6c b9 f8 6c 8f 3c 05 be 2b 3d 5a 25 a2 3d
       -0.00022543661 0.017508015 0.041929264 0.079172805
000270 3f 5f 2b bd d8 1b 06 3d c8 83 7d 3d 4f 0d 52 be
       -0.04183888 0.032741398 0.061893255 -0.2051289
000280 bb 12 57 bd 0a 37 95 bc 32 54 35 bc a6 2d 3d bb
       -0.052508097 -0.018214721 -0.011067437 -0.002886632
000290 8a 24 c5 bd 05 fa cf 3b c5 ab 94 3c e8 4e 6c bd
       -0.0962611 0.0063469433 0.018148312 -0.05769244
0002a0 f1 49 5e bd 5c 0b 5a 3d ef 2a a3 bc a4 bd ed 3c
       -0.054269735 0.05323349 -0.019917933 0.029021092
0002b0 85 78 52 bc 42 c7 21 bc bc 15 d5 bc 30 be 8c bd
       -0.012846117 -0.009874167 -0.02601134 -0.06872213
0002c0 c7 37 48 bd 3c bd 65 bd da aa 31 bd fb f9 3b bd
       -0.04888132 -0.05608867 -0.043375827 -0.045892697
0002d0 f0 bf 35 3b 4c c2 8b 3c 35 52 b7 bd cd 09 24 3d
       0.0027732812 0.017060421 -0.089512266 0.04004841
0002e0 65 b5 66 3d 0d 29 19 bd fb 6d 25 bd 52 06 16 bd
       0.056325335 -0.037392665 -0.04038809 -0.03662712
0002f0 76 b4 d4 bd 39 cb 1f 3d 10 d8 85 3d e5 f6 21 3d
       -0.10385983 0.039012168 0.06535351 0.039542098
000300 57 35 97 3c 13 27 1e 3d bc 1c 4f 3b 27 a0 aa bd
       0.018458052 0.038611483 0.003160282 -0.08331328
000310 d8 2b 8e bd da 31 e8 bd c7 1c b1 3d 73 44 56 3d
       -0.06941956 -0.113376334 0.08648067 0.052311372
000320 6f 01 32 bd 50 4e 28 3d 71 83 b0 3d 48 d7 9b bc
       -0.0434584 0.04109031 0.086188205 -0.019023553
000330 46 33 04 bd 7a 0e b8 ba 03 1d 69 bd ea 36 e5 bc
       -0.03227546 -0.00140424 -0.056912433 -0.027980287
000340 d9 1a a7 39 bb 58 69 3d be e4 9f 3c 60 b7 49 3c
       0.00031872725 0.056969386 0.019518252 0.012311786
000350 df 0a 24 3c 8c 18 89 bc ad d4 70 3c 0a 03 b5 3c
       0.0100123575 -0.016735338 0.014699143 0.022096176
000360 3f 38 31 be 25 3b 35 be d0 51 ee bd 7e 76 b6 bd
       -0.17306612 -0.17698343 -0.11636698 -0.08909319
000370 84 d2 ea bd 06 1d c7 bd e8 42 f3 bd 9b 13 ba bd
       -0.11465934 -0.09722333 -0.11877996 -0.09085771
000380 58 5e e6 bc 9e 5b 90 b7 be 5c 49 b8 64 7c 01 b9
       -0.028121158 -1.72088e-05 -4.8008507e-05 -0.00012348738
000390 c8 ce 84 b7 03 74 db b7 10 38 6f b8 15 50 9e b7
       -1.5831916e-05 -2.6160857e-05 -5.7034253e-05 -1.8872359e-05
0003a0 45 6c a2 b7 0e b2 09 b8 15 5d cb 3c 09 f3 6b 3a
       -1.9362322e-05 -3.282917e-05 0.024824658 0.00090007536
0003b0 89 b2 90 bc 4f 87 e7 3b 64 3e c7 3b 9c ec ad 3c
       -0.017663257 0.0070656906 0.0060804356 0.021230988
0003c0 f6 16 e4 bb d4 17 99 3c ff b1 6b bb 5d ad 63 bd
       -0.006960745 0.01868812 -0.0035964248 -0.055585254
0003d0 94 ee 1a 3d 93 e2 04 3c 4c 0b ff bc 1e b8 79 3d
       0.037825182 0.00811066 -0.031133316 0.060966603
0003e0 c8 86 3f bc f3 46 0b be 1d 99 ac bd d6 6a d8 bd
       -0.011689849 -0.13601284 -0.084276415 -0.10567252
0003f0 e0 3f 0a 3e 3d 2d 96 3d 0e f2 39 3d c2 cb ad bc
       0.13500929 0.07332847 0.045396857 -0.021215323

bias f4 [32]
000000 c3 86 11 3e 71 08 ba bd 10 92 22 be ac fa e5 3b
       0.14211564 -0.09083641 -0.15876031 0.007018408
000010 92 d0 22 bb 13 45 f3 bd 04 ea b9 3d e4 f7 c0 3d
       -0.0024843556 -0.11878409 0.09077838 0.094222814
000020 c1 62 bf bd c9 c3 e0 bd b3 aa f2 bd 63 66 e6 3d
       -0.09345008 -0.10974843 -0.118489645 0.112499975
000030 49 15 37 3d c5 7e 84 3d 87 8a b2 3d 8e b2 bf bd
       0.044698033 0.06469492 0.08717828 -0.093602285
000040 8d d6 15 be b4 58 1b 3e e7 f7 cf 3d e1 7a 9b 3d
       -0.14632626 0.15170556 0.101547055 0.07591797
000050 f5 df c5 bd 17 7a 10 bc 6c 40 8f 3c fd 0b b7 bd
       -0.09661857 -0.008818171 0.017486773 -0.089378335
000060 33 e1 ac bd 8e 1d 83 bd 58 3d f2 bd f5 3d d4 bd
       -0.08441391 -0.064021215 -0.11828107 -0.1036338
000070 77 cf b0 bb 17 4a 92 3d 8b 60 b0 bd 58 56 d3 bc
       -0.0053958255 0.07143038 -0.08612164 -0.025798008

weight f4 [32, 16, 2, 2]
000000 2e 15 9b 3d f1 21 7d 3d 8e 6b 29 3d 11 27 55 3b
       0.07572399 0.061799947 0.041362338 0.0032524506
000010 37 34 9c 3d eb ac 8b bd 74 83 c1 bb 18 41 25 3d
       0.07627147 -0.06820091 -0.005905563 0.04034528
000020 9e 94 36 bd 3c 06 0a be a9 d9 17 be 33 d4 a7 3d
       -0.044575326 -0.1347894 -0.14829125 0.08194771
000030 a3 b6 c8 3d cc 6b e7 3d f8 1c 66 3d 70 2f fd bc
       0.0980046 0.112998575 0.05617997 -0.030906409
000040 a9 b2 06 bd 14 18 d6 3d 55 49 b3 3d b9 9c 15 bd
       -0.032885227 0.10453811 0.08754221 -0.036526415
000050 af ee 97 3d 41 5b 1a 3e 97 2b 16 3c 21 c0 15 3e
       0.07418572 0.15073873 0.009165666 0.14624073
000060 7d b2 9b 3d a2 e2 29 3e 6a 8a 63 3d 24 28 99 3d
       0.07602403 0.1659036 0.055551924 0.07478359
000070 d6 87 b9 bc 91 03 ac 3c 6a bd e5 3a f8 e8 d8 3c
       -0.02264778 0.020997794 0.0017527763 0.026478276
000080 71 a6 24 3d 3a 28 c7 bd 68 ed b7 3c 42 75 10 bd
       0.040197793 -0.097244695 0.022452071 -0.035268076
000090 7c b6 ef bc 7a b2 ae bd 1f db 56 bb 8c 37 cf 3d
       -0.02926182 -0.085301355 -0.0032784415 0.101180166
0000a0 de 70 d3 bd f1 f7 19 be 2d 85 e5 bc 56 fb a2 bd
       -0.10324262 -0.15035988 -0.028017605 -0.07958095
0000b0 07 bc a8 3d 91 59 95 bd 20 a3 c3 bc a4 cf 01 bc
       0.08238988 -0.07292474 -0.023881495 -0.007923041
0000c0 6b a8 72 3d 5a d0 86 bd 29 6e 3c bc ca 18 83 3d
       0.059242647 -0.06582709 -0.011500874 0.064012125
0000d0 54 4a 65 bd e0 17 fa 3d 29 c4 55 bd d7 d7 33 bd
       -0.055979088 0.12211585 -0.052189026 -0.043907013
0000e0 c2 68 e6 3d dc 61 fd 3d 3c 03 33 bd 4d 55 38 bd
       0.1125045 0.12372181 -0.043704256 -0.045003224
0000f0 09 e9 ae bd ba 2a b8 3d a6 30 7b bc 88 70 a3 3c
       -0.08540542 0.089925244 -0.015331423 0.01995112
000100 a8 cc 9d b9 19 4b 2f bb 95 d8 18 be 52 bc fc bb
       -0.00030097854 -0.0026747643 -0.1492637 -0.007712879
000110 93 5e 64 3c a1 6b d3 bd 20 84 6a bd 51 d6 93 bd
       0.013938564 -0.10323263 -0.05725491 -0.07218612
000120 39 50 8e 3d e2 ed e6 3d 5a a6 b0 3d 51 5c 30 3e
       0.06948895 0.11275841 0.08625479 0.17222716
000130 da 59 0c 3d 77 ae a4 3d 29 22 9f 3d d7 11 cc bc
       0.034265377 0.08041089 0.077701874 -0.02491085
000140 d6 79 80 3d 69 e2 a9 3d 22 b0 59 bd 35 4a 0e be
       0.06273238 0.082951374 -0.05314649 -0.13895495
000150 d0 60 90 3d b7 47 0b 3d a6 cb 19 be 56 66 d9 bd
       0.070497155 0.03400394 -0.15019092 -0.10615222
000160 9b 61 8a bc d1 aa e8 bd eb 85 26 3c e0 a5 82 bd
       -0.016892245 -0.11360706 0.0101637645 -0.063792944
000170 a7 58 ef 3c 86 8f 38 bb 2d 0b 10 be e5 07 82 3d
       0.029217077 -0.0028161719 -0.14066763 0.06349162
000180 8d 94 e2 bb b0 11 02 bb ff a6 80 bd cb 6e 8b 3c
       -0.0069146813 -0.0019846968 -0.06281852 0.017020604
000190 7f fe ab 3d f3 d4 91 3d ea c5 b1 3d e9 89 cd 3d
       0.08398151 0.07120695 0.08680327 0.1003607
0001a0 f5 cf 34 3d 3f 93 5b bc 8e fe 65 3d 73 56 2e 3e
       0.044143636 -0.013401805 0.056150965 0.17025165
0001b0 c2 3e c0 3a ba e1 21 bd 58 98 11 be 60 a6 60 bd
       0.0014667141 -0.03952191 -0.14218271 -0.054846168
0001c0 44 13 fc bc b4 53 eb 3d 7f f3 40 3c 66 c3 59 bc
       -0.030770905 0.114905745 0.011776804 -0.0132912155
0001d0 0f 31 0e be c2 69 d0 bd 60 4a 06 be 2d 7c 89 3d
       -0.13885902 -0.10176422 -0.1311431 0.06713138
0001e0 dc c5 ab 3d 9c 04 c2 3c 4f 05 3e be 16 0b 0c bd
       0.08387348 0.023683839 -0.18556713 -0.03419026
0001f0 0b c6 97 3d 87 62 5f bd 1d 0f af 3d 1c 21 20 3d
       0.074108206 -0.054537322 0.085478045 0.039094076
000200 8a 8b 2d 3c a9 92 e8 bd 72 4c 19 bd fb c0 9c bd
       0.010592351 -0.11356098 -0.03742642 -0.076539956
000210 f5 87 27 bc 1c 03 5a bd 9e 77 91 bd 85 dd 05 be
       -0.010225286 -0.05322562 -0.07102893 -0.13072784
000220 d8 38 3f 3d 7a c9 d1 bd 5e c4 4c 3d 7e 86 de 3d
       0.04668507 -0.10243507 0.049991958 0.10865496
000230 be 96 2a be af fe 3e bc c0 ad de bc b5 81 d6 3d
       -0.16659066 -0.011657401 -0.02718246 0.104739584
000240 bb 49 8a bd 46 e4 08 be df 58 b7 3d d6 85 b7 bd
       -0.06752344 -0.1336833 0.08952498 -0.08961074
000250 00 fc bc bd 6f 4f 16 be 98 06 78 bc c0 c4 52 bd
       -0.09227753 -0.14678739 -0.015138291 -0.051457167
000260 14 26 c6 3c 4d 32 a3 3d 52 7d 1a 3d 88 87 85 bc
       0.024188079 0.079685785 0.03771717 -0.016299978
000270 88 e6 f8 3d d6 73 e1 3d 02 d7 43 3d f6 61 21 bd
       0.12153345 0.11008422 0.04781247 -0.039400063
000280 43 65 e0 3d 2f 9b a0 3d 3e 53 8a bd d3 4a 1d 3d
       0.10956814 0.07842099 -0.067541584 0.038401436
000290 70 91 53 bd 0c 0b 13 3e b4 9c 90 3d e1 64 18 bd
       -0.051652372 0.14359683 0.07061139 -0.03720558
0002a0 ec a1 1f 3d 74 02 1a 3e 74 eb 47 3d cd 06 ff 3d
       0.03897278 0.15039998 0.04880853 0.12452469
0002b0 57 22 c2 bd c4 95 ba bd 43 2f 10 3d 6f d6 40 bd
       -0.09479206 -0.09110597 0.035201322 -0.0470795
0002c0 0a fc 0e bd 73 57 85 bd 1c db a4 bd 79 d8 e9 bd
       -0.034908332 -0.0651082 -0.08049604 -0.11418242
0002d0 be 8f d0 3d 5b cf 81 3d f4 80 11 3e 99 fa 64 3c
       0.10183667 0.06338378 0.14209348 0.013975763
0002e0 70 46 20 be cd 63 05 be b9 e5 6b bd 8c 70 1c bd
       -0.1565187 -0.13026352 -0.057592127 -0.03819327
0002f0 63 32 b8 3c 6a cb 5c bd 39 e1 e0 bd 89 64 07 be
       0.022484964 -0.05390493 -0.10980458 -0.13221945
000300 9a 7d 8f bc 7e e6 da 3b ea f2 09 be 40 0f ac bd
       -0.017515946 0.006680309 -0.1347157 -0.08401346
000310 64 02 30 bd a7 4e cd 3d 26 a1 2a 3d bc 4a e2 bd
       -0.04297103 0.10024767 0.04165759 -0.11049411
000320 13 7d 9f 3d f9 39 d9 bd 57 03 5b 3d e9 7b fc 3b
       0.07787528 -0.106067605 0.053469982 0.007705201
000330 5d ef 7c 3d ac e4 b6 3d b2 e3 08 3e d4 c3 d4 3d
       0.061751712 0.089303344 0.13368109 0.10388914
000340 f7 4d 34 3d a0 18 f1 bd 7b 12 e8 bd 12 ac 9f bd
       0.044019666 -0.11772275 -0.1133165 -0.07796492
000350 2b 5a d6 3d 0f d3 89 3d ef 2f 89 3d 2c 7c 50 3d
       0.10466417 0.06729709 0.06698596 0.05089967
000360 2f 90 82 3d 65 7d c3 3d 71 55 62 39 82 bc 32 bd
       0.06375157 0.095454015 0.00021584869 -0.043636806
000370 dd ea a9 3b ce 0f 4f 3d 2f 7c 0e 3e f3 51 55 3d
       0.0051854686 0.050552182 0.1391456 0.052080106
000380 43 85 fa bd af 39 aa 3d 75 b8 5f 3d 31 2a 90 bd
       -0.12232449 0.083117835 0.05461927 -0.07039297
000390 28 68 0f 3e be d3 b4 bb 05 c3 e7 3c 26 df ea 3d
       0.14004576 -0.0055184057 0.028291235 0.114683434
0003a0 ba 4e 1a be 72 62 ed bd 0a c1 ec bd e7 cd 2d 3d
       -0.15069094 -0.115910426 -0.11560257 0.042432692
0003b0 3e 33 eb 3d 0a 6a fd bc a3 d3 88 3b 44 c8 7d bd
       0.11484383 -0.030934352 0.0041756197 -0.061958566
0003c0 e8 46 84 bd 98 f6 eb 3b 7e 3f 1c be c1 12 a9 bd
       -0.06458837 0.007201027 -0.15258595 -0.0825553
0003d0 82 e1 94 3c 97 29 ba bd 6d b1 76 3d 42 f6 9b bd
       0.018173937 -0.09089964 0.0602278 -0.07615329
0003e0 bc fe 95 3c 7a 3f 07 bd 17 0f 0b 3e d5 60 ad bd
       0.018309943 -0.03301952 0.13579975 -0.08465735
0003f0 17 86 92 3d ae 98 ef 3d 0c da 3c bc b8 03 f2 3c
       0.07154482 0.11699043 -0.011526596 0.029542789

bias f4 [16]
000000 a5 aa d4 3d cc d4 ab 3d c8 1f be 3d a6 50 9e bc
       0.1038411 0.08390197 0.092834055 -0.019325566
000010 fb ba 17 3e 7e 53 31 3e 25 ed 4d bd ca e1 48 bd
       0.14817421 0.17317006 -0.050274987 -0.049043454
000020 23 c9 4b be 79 63 09 bd c2 63 2c be b3 f5 32 3e
       -0.19900946 -0.03354213 -0.1683493 0.1747654
000030 b9 e1 67 3c 39 54 d5 bd 3c e6 f8 3d 01 ac fd bd
       0.014152938 -0.10416455 0.12153289 -0.12386323

weight f4 [16, 32, 3, 3]
000000 6e 6c fd bc 41 ca 1a bd 47 df 97 bc b7 4b dc ba
       -0.030935492 -0.03779054 -0.018539084 -0.0016807233
000010 6e 9a 14 bd 76 3a 0e 3d 2f e8 08 bd 9d 6a d1 bc
       -0.036280088 0.03472372 -0.033424553 -0.025563532
000020 a2 f2 d7 bb 57 f3 64 bd a9 0c 8b bd 85 14 54 bc
       -0.0065902034 -0.05589613 -0.06789524 -0.012944345
000030 7c 80 88 bd d4 01 81 bd 0b ca fb bc 5f 76 ba bc
       -0.066651314 -0.06299177 -0.03073599 -0.022761522
000040 17 5b fd bc 6f 63 93 3c 60 fe 66 3e d7 00 09 3e
       -0.030927224 0.01799175 0.22557974 0.13379227
000050 f6 cb bd 3d 75 1d 76 3e d6 57 24 3e 10 5b 0a 3e
       0.09267418 0.24034674 0.16049132 0.135113
000060 42 50 79 3e 2e 2e 4f 3e 93 cf 0f 3e 9d cb 14 bc
       0.24347022 0.2023246 0.14044027 -0.009081748
000070 25 37 50 3d 3d 6b 02 bd bb bd 89 3d 91 1d f0 3d
       0.05083384 -0.03184055 0.06725641 0.11724389
000080 f3 72 be 3d 5d da 85 3c 3f 80 b1 3d f7 1a ba 3c
       0.092992686 0.016339475 0.08667039 0.022717936
000090 39 5f 42 3c 45 64 fe bc 55 8c 9b bc c3 2e bb 3c
       0.011863523 -0.031053672 -0.018987814 0.022849446
0000a0 d1 ba be bb 8c 93 10 3c 6d 62 9e 3c 50 b3 46 bc
       -0.00582061 0.00882424 0.019334042 -0.012127712
0000b0 de ab 19 bc ec 6b d7 3b 9a dd 13 3b 27 85 25 3d
       -0.009379355 0.0065741446 0.0022562505 0.040410187
0000c0 10 6b 74 3c 0e 2c 8d 3c e0 37 4d 3d 3d f1 22 3c
       0.014918104 0.017232921 0.050102115 0.009945211
0000d0 89 f2 bf bb 10 b5 0e 3d ad 61 d4 3c 1e ad 7d 3d
       -0.00585777 0.034840643 0.025925482 0.061932676
0000e0 d9 11 77 3d b6 d4 9f bd 52 9f 64 bd a0 39 9c bd
       0.060319755 -0.07804243 -0.055816002 -0.076281786
0000f0 83 1e ed bd 34 cc 00 be 19 99 da bd f8 a7 f1 3d
       -0.11578085 -0.12577897 -0.10673732 0.117996156
000100 bb e8 06 3e e3 6e d0 3d 0e aa 88 3d 3b b4 91 3d
       0.13174717 0.101774 0.0667306 0.07114454
000110 2e 5d 61 3d 04 4b 39 3d 62 cd 66 3d 8d 6f 36 3d
       0.055020504 0.045237556 0.056348212 0.044539977
000120 f9 22 a4 bd 8f d2 56 bd 28 90 4c bd b5 6a e0 bd
       -0.08014483 -0.052446898 -0.049942166 -0.10957853
000130 68 29 94 bd bb ab b0 bd 41 ce b0 bd 6c 30 90 bd
       -0.0723446 -0.08626505 -0.0863309 -0.07040486
000140 eb b5 5c bd f5 d6 7a 3d 2f ba 9d 3d 97 43 5c 3d
       -0.053884428 0.061240155 0.07701527 0.053775396
000150 31 1c e2 3c af f3 7b 3d 00 c0 75 b9 00 73 99 3c
       0.027601333 0.06151169 -0.00023436546 0.018731594
000160 bf a0 66 3d 35 e8 c3 3c cf 83 c1 3b 48 70 10 3c
       0.056305643 0.023914436 0.0059056054 0.008815832
000170 83 9a a4 bc db 2a 01 bc 93 2d da 39 96 43 03 bd
       -0.020093208 -0.007883753 0.00041614156 -0.032046877
000180 35 f9 b7 3b 1d 57 54 3c f0 76 93 bc b6 1e bf 3d
       0.0056144246 0.012960223 -0.01800105 0.093320295
000190 e6 c1 4b 3d d9 37 79 3d 03 e6 b8 3d a0 9c 1b 3d
       0.049745463 0.060844276 0.09028246 0.037991166
0001a0 a7 22 73 3d 5c 46 9e 3d f7 88 53 3d bf 30 54 3d
       0.05935922 0.07728264 0.05164429 0.0518043
0001b0 cf 69 d9 bd 35 18 e5 bd 0a 81 c3 bd fb 2f df bd
       -0.106158845 -0.11186258 -0.095460966 -0.108978234
0001c0 34 c6 d6 bd 7b 01 f3 bd 38 b2 44 bd 91 79 49 bd
       -0.10487023 -0.11865517 -0.048021525 -0.0491882
0001d0 d8 f2 36 bd 47 b5 18 3e f8 0f 4c 3d a7 92 86 3d
       -0.044665188 0.14912902 0.049819916 0.065709405
0001e0 bd 73 f1 3d d3 99 15 3d d3 3f 63 3d ed 6d dd 3d
       0.117896535 0.03652365 0.05548079 0.10811982
0001f0 ad 89 f2 3c 87 0c 02 3d 42 1f 89 3b 53 35 45 bd
       0.029606665 0.03175023 0.0041846344 -0.048146557
000200 1f 78 b3 3c 4e 9e aa 3b f1 1d ac bc 1f c1 0f 3d
       0.021907864 0.0052068597 -0.02101037 0.035096284
000210 b0 ed db ba 99 89 30 bd d8 d8 7b 3c 68 5f 0a be
       -0.001677921 -0.043099973 0.015371524 -0.13512957
000220 89 a4 cf bd ac 18 a9 bd 51 6e 0c be 2f 7e be bd
       -0.101388045 -0.08256659 -0.13713957 -0.09301411
000230 48 a4 af bd 37 6b ee bd 15 32 c2 bd f9 ef 8e bd
       -0.08576256 -0.11641543 -0.09482209 -0.06979365
000240 74 d1 58 bd bd 85 6b bd 0b ea 97 bd f8 32 71 bd
       -0.052934125 -0.05750059 -0.07417687 -0.0588865
000250 c9 57 85 bd 38 49 b2 bd f1 a6 87 bd 06 8a 95 bd
       -0.06510884 -0.087053716 -0.066236384 -0.073017165
000260 a1 5a c9 bd bd e9 da bb ca c8 ac bc 12 ce 2c bd
       -0.09831739 -0.006680696 -0.021091837 -0.04218871
000270 89 13 62 bc e4 4a 13 bd 04 bd 7c bd a8 75 83 bc
       -0.013798603 -0.035960093 -0.061703697 -0.016047314
000280 ba 39 36 bd 06 55 97 bd f9 a3 49 3d 86 07 d8 3c
       -0.044488646 -0.07389264 0.049228642 0.026370775
000290 63 84 28 3a 03 59 1b 3d 37 90 74 3c fc f6 82 bb
       0.00064284186 0.037926685 0.014926962 -0.003996728
0002a0 48 05 32 3d e4 69 91 3c 98 fb 69 3b 7f e9 2f bd
       0.043462068 0.017750688 0.003570294 -0.04294729
0002b0 d6 68 50 bd 81 66 8e bd cb 95 52 bd 2e f7 78 bd
       -0.05088123 -0.06953145 -0.051412385 -0.060782604
0002c0 cd db ac bd 64 01 78 bd 5f d6 8f bd 66 5b c6 bd
       -0.08440361 -0.0605482 -0.0702331 -0.096854016
0002d0 9a 25 9e 3d 93 50 65 3d 67 09 f2 3c ff de 88 3d
       0.07722016 0.055985045 0.029545499 0.06683158
0002e0 34 81 39 3d cb b6 cf 3c d9 a8 84 3d 27 c9 27 3d
       0.045289233 0.025355717 0.06477518 0.04096332
0002f0 ff 5e e2 3c 7e 8a 09 bd 65 78 95 bc 37 d3 b9 3b
       0.027633188 -0.033579342 -0.018245885 0.0056709307
000300 a4 d7 af bc 79 b2 9b bb 1d 5e 9d 3c 3d b5 8f bc
       -0.02146513 -0.0047515 0.019209916 -0.017542476
000310 f7 22 83 3a 10 d8 ce 3c f6 06 ae bc e2 be 3c bc
       0.0010004927 0.025249511 -0.021243554 -0.011520119
000320 24 1f b1 3b 8b 82 52 bc ee bc b7 ba f6 31 88 3c
       0.0054053236 -0.012848507 -0.0014018097 0.016625386
000330 a3 50 02 bc eb 93 9d 3b 73 9f ba 3c 38 db 5e 3d
       -0.007953796 0.004808893 0.02278111 0.054408282
000340 04 9f 0c 3d 34 cd c2 3b f2 a2 29 3d ce a4 a9 3c
       0.034331337 0.0059448723 0.041415162 0.020708468
000350 89 dd 7d bb fa 44 1d 3d 61 12 85 3c 3c f5 bd bb
       -0.0038736782 0.03839586 0.016244115 -0.0057970565
000360 3a 9f 73 ba ba 71 59 3c 3f 6a 1a 3d 16 d7 10 3c
       -0.0009293441 0.013271743 0.03769898 0.008840343
000370 fe 1b c9 3c b8 90 50 3d be 78 89 3c 1d 3a 07 3d
       0.02454948 0.050919265 0.016781207 0.033014406
000380 d7 61 76 3d 76 cf f2 3c 14 09 01 3d dc e7 31 3d
       0.0601519 0.02963994 0.0315028 0.04343401
000390 28 1c 12 3d 84 b0 20 3d c9 f1 60 3d 71 2f 26 3d
       0.035671383 0.03923084 0.054918084 0.040572587
0003a0 86 d7 35 3d af 23 81 3d b0 3b fc bc 8a 9b 02 bd
       0.044394992 0.06305634 -0.03079018 -0.031886615
0003b0 c1 f2 31 bd 3d bc 11 bd fa 8f 1a bd 7b 42 5a bd
       -0.0434444 -0.03557991 -0.037734963 -0.053286057
0003c0 c4 44 29 bd 7b 9a 30 bd 47 f7 7c bd ee 00 bc 3c
       -0.041325346 -0.043116074 -0.06175926 0.022949662
0003d0 56 f4 5a 3b 9e 48 9d bc af c6 75 3c eb 79 f7 bb
       0.0033409796 -0.019199666 0.015000983 -0.0075523756
0003e0 bc 31 f1 bc 48 84 98 3c f6 b3 f5 bb f0 d7 fb bc
       -0.02944266 0.018617764 -0.0074982597 -0.030742615
0003f0 55 09 05 3c 50 1b 99 3c 9f 17 1e 3d e3 c5 98 3c
       0.008119901 0.018689781 0.038596746 0.018649047

bias f4 [16]
000000 e1 19 f5 3c 8d da d5 3d 02 75 9e 3d c0 3a fe 3d
       0.029919567 0.10442076 0.07737161 0.124135494
000010 57 13 3e be 18 63 56 3e 27 0c 28 be c8 e4 b1 3d
       -0.18562065 0.20936239 -0.16410886 0.08686215
000020 43 45 b9 3d 00 95 46 bd 07 85 3f 3d 3b ee d3 3d
       0.09046414 -0.04848194 0.046757724 0.10348173
000030 02 e0 33 be a0 a6 c3 bd 0b b7 8d 3d 5b fe ee bd
       -0.17565921 -0.095532656 0.06919678 -0.11669608
