data/ForestSegmentationOutput/experiemnts/REAL_RERUN_04_run_17-12-2023_15h16min/unet_id=Spuea_width=32_num_layers=2_lr=0.00085_epochs=140.pth (torch, 115317 bytes, 16 tensors)

weight f4 [16, 8, 3, 3]
000000 3c b3 b8 bd 95 79 4e be 25 53 1b be 7e 9d c8 bd
       -0.09018561 -0.20163567 -0.15168436 -0.09795664
000010 08 1a 9d bd 26 fa 5e be 78 57 8b bd 90 2e 64 bc
       -0.07670981 -0.21775112 -0.06803793 -0.013927117
000020 59 96 4a be 45 e8 ee bd 2a 2e 79 bd 74 e4 35 bd
       -0.19783916 -0.11665396 -0.06083504 -0.044407323
000030 7c 2e 41 bd 17 d1 15 be 49 cd 26 bc 57 76 ee bd
       -0.04716347 -0.14630543 -0.01018078 -0.11643665
000040 1a d9 cb bd fa bc 27 be 60 2a 0c be cc 29 13 bb
       -0.09953518 -0.16380683 -0.1368804 -0.0022455333
000050 cd d0 a9 bd 8c 9e fc bd b4 3c 45 bd 06 ef db bd
       -0.08291779 -0.12334928 -0.048153594 -0.107389495
000060 17 8e ff bd 73 63 24 3d be c4 02 be 12 2b 3d 3d
       -0.12478273 0.040133905 -0.12770364 0.046183653
000070 5b e6 9e bd fc 48 f9 bd 8d af 0a bc d7 cd 38 bd
       -0.077587806 -0.12172124 -0.008464706 -0.04511818
000080 26 e1 fb bd af 5a 1b be 8f b7 86 bd c6 a8 b3 3c
       -0.12298803 -0.15171312 -0.0657798 0.021931063
000090 e6 ff 89 bd d8 6e d6 3a fd 1b a2 bd 96 2e 2c bb
       -0.06738262 0.0016359938 -0.079154946 -0.0026272885
0000a0 47 43 83 3c 18 c0 14 3d c0 54 c0 bc f4 91 85 bd
       0.016023291 0.036316007 -0.023477912 -0.06521979
0000b0 cd f7 d9 bd 28 b0 67 3d d2 05 e2 3d 9e e3 53 3d
       -0.106429674 0.05656448 0.110362664 0.051730745
0000c0 5d 54 aa bc 29 99 bc bd 12 d3 ca 3d ec b9 e5 3d
       -0.02079218 -0.092089005 0.0990354 0.112171024
0000d0 a7 6d 2a bd c6 41 e8 bc 0e af cd 3d da e5 20 3d
       -0.04160848 -0.028351676 0.10043155 0.039281704
0000e0 4a ab bb bb b6 13 79 3c 94 6c e6 3d bd 2f 58 3d
       -0.0057272064 0.015202453 0.112511784 0.0527799
0000f0 63 b8 92 3d 44 15 1b 3d 13 95 65 3d 45 7f e1 3d
       0.07164075 0.037862077 0.05605037 0.11010603
000100 58 09 10 3e 58 ba 1b 3e 6e 8e ea 3d 12 62 94 3d
       0.14066064 0.15207803 0.114529476 0.07245268
000110 3c 37 4a 3d 8b ce a4 3d 88 fb bb 3d 1b a5 0b 3e
       0.04936908 0.080472074 0.09178835 0.13637201
000120 43 27 00 80 05 19 00 00 79 2d 00 00 06 2e 00 80
       -1.4084e-41 8.975e-42 1.6313e-41 -1.651e-41
000130 1b 2d 00 00 3e 35 00 00 bd 50 00 80 f6 14 00 00
       1.6181e-41 1.91e-41 -2.8963e-41 7.52e-42
000140 65 1b 00 80 df 47 00 00 6f 40 00 80 85 62 00 80
       -9.827e-42 2.5782e-41 -2.3114e-41 -3.5342e-41
000150 42 5a 00 80 51 3c 00 00 22 30 00 00 6f 12 00 80
       -3.2378e-41 2.1637e-41 1.7267e-41 -6.613e-42
000160 58 46 00 00 59 5f 00 80 c6 05 00 80 1d 56 00 80
       2.5235e-41 -3.4204e-41 -2.071e-42 -3.0892e-41
000170 1c 05 00 80 26 3a 00 80 d8 58 00 00 12 20 00 00
       -1.833e-42 -2.086e-41 3.1871e-41 1.1505e-41
000180 98 55 00 00 f1 0e 00 80 ba 13 00 80 77 46 00 80
       3.0705e-41 -5.36e-42 -7.077e-42 -2.5278e-41
000190 95 39 00 80 f6 01 00 00 62 52 00 00 46 21 00 00
       -2.0657e-41 7.03e-43 2.9553e-41 1.1936e-41
0001a0 da 19 00 00 22 52 00 80 51 33 00 80 2e 55 00 80
       9.274e-42 -2.9464e-41 -1.8409e-41 -3.0557e-41
0001b0 f5 63 00 00 05 67 00 00 ff 70 00 00 50 10 00 80
       3.5858e-41 3.6956e-41 4.0535e-41 -5.852e-42
0001c0 9d 39 00 80 01 6c 00 00 8a 73 00 00 8a 1d 00 00
       -2.0668e-41 3.8745e-41 4.1448e-41 1.0597e-41
0001d0 6c 19 00 00 51 33 00 80 9f 19 00 00 7d 15 00 00
       9.12e-42 -1.8409e-41 9.191e-42 7.709e-42
0001e0 2b 42 00 00 42 22 00 00 a5 02 00 00 3a 2b 00 80
       2.3737e-41 1.229e-41 9.49e-43 -1.5507e-41
0001f0 45 0a 00 00 c2 3f 00 80 77 32 00 00 68 07 00 00
       3.684e-42 -2.2872e-41 1.8103e-41 2.657e-42
000200 82 0a 00 00 c4 2c 00 80 61 20 00 80 a4 36 00 80
       3.77e-42 -1.6059e-41 -1.1615e-41 -1.9601e-41
000210 6d 1c 00 80 8c 2c 00 00 5c 17 00 80 08 12 00 80
       -1.0197e-41 1.598e-41 -8.38e-42 -6.468e-42
000220 1c 1f 00 80 58 04 00 00 8b 30 00 00 bb 26 00 80
       -1.116e-41 1.558e-42 1.7414e-41 -1.3894e-41
000230 65 1c 00 00 13 1e 00 00 b3 1f 00 00 95 12 00 80
       1.0186e-41 1.0789e-41 1.1372e-41 -6.666e-42
000240 48 c8 8b 3d 1d 44 a4 3c 1f e5 b9 3d ae d7 64 3d
       0.0682531 0.02005201 0.090769045 0.05586975
000250 e9 7e 4f 3d a4 e3 5d 3d af 55 6f 3d e1 a3 d5 3d
       0.05065814 0.054172173 0.058431324 0.10431648
000260 e7 5c 9f 3d 46 cf 11 3d 03 16 a2 bb 25 f6 70 3d
       0.077813916 0.035598062 -0.0049464717 0.05882849
000270 f8 98 8d 3d 62 24 ab 3d 79 be 76 3d 1f 12 d3 3c
       0.06913942 0.08356549 0.060240243 0.025765477
000280 04 4f 85 3d 90 ae 34 3c fe 9f b8 3d 3a d1 a5 3d
       0.06509212 0.011027947 0.09014891 0.080965474
000290 2d 9d 3b 3d e5 54 c1 3d c6 55 57 3d 15 86 56 3c
       0.04580419 0.094400205 0.052572034 0.013093491
0002a0 ad ed 93 3d b6 1f 21 3d 3a b6 d1 3b 47 f2 65 3d
       0.072230674 0.039336883 0.006399897 0.056139257
0002b0 1b a7 d5 3c 43 b5 fe bc 4e 71 93 3d 27 90 81 bb
       0.026080659 -0.031092292 0.071993455 -0.003953952
0002c0 7a 27 c1 bb 8f 44 c3 3c 2c e5 49 3b 77 df 09 3d
       -0.0058945986 0.023836402 0.0030806763 0.03366038
0002d0 a5 e4 c3 ba cd f7 98 bc 86 16 ac bd 80 4a 70 3a
       -0.0014945461 -0.018672848 -0.084027335 0.0009166375
0002e0 8e e5 66 3c f7 f7 d9 bc 29 c8 85 3c 04 51 61 3c
       0.014092816 -0.026607497 0.016330795 0.013752226
0002f0 f5 4f 6a 3c 09 21 97 3d 45 0b be bc ea 03 f1 bd
       0.01430129 0.07379348 -0.023198733 -0.11768325
000300 b4 60 11 3d 2f a8 dd bc bd 4a 34 be 54 c6 fb bc
       0.035492614 -0.027057735 -0.17606635 -0.030734219
000310 6a e2 e3 bd b2 b2 10 bd 1e 23 3c 3e 95 f5 59 3d
       -0.111271694 -0.035326667 0.18372771 0.05321272
000320 c0 54 2d be 5c 42 b2 3d 59 c8 22 be 93 93 44 be
       -0.16926861 0.08704063 -0.15896739 -0.1919692
000330 1c c0 36 3c 12 ff f0 bd 7d 7c 27 be e1 f6 27 3e
       0.011154201 -0.11767401 -0.16356082 0.1640277
000340 82 88 ea bd 37 f9 1a be 1f 72 30 3c 4d 8f 54 be
       -0.11451818 -0.1513413 0.010769396 -0.2075779
000350 07 e0 6c be 5e 6e 82 3b 57 30 ca bd 91 0f 51 be
       -0.23132335 0.003980442 -0.09872501 -0.20416094
000360 7f 4c 88 bc 60 a4 90 3d ce 25 3a 3c 6f 38 8c 3c
       -0.016638039 0.07062602 0.011361552 0.017116753
000370 93 f9 a9 3c 2e 53 72 3d da 77 33 3c 76 63 33 3d
       0.02074889 0.059161358 0.010953868 0.043796025
000380 00 e8 b1 3d be 83 1f 3d 25 90 4f 3c 76 de 3d 3d
       0.086868286 0.038944 0.012668644 0.046354733
000390 1c e4 34 3d cc 22 1c 3d db 52 59 ba ce 89 e7 3a
       0.044162855 0.038119122 -0.00082902395 0.001766497
0003a0 e1 a1 9b bd 8a 01 a0 bd 90 50 e3 bd de 2e 38 bd
       -0.07599235 -0.078127936 -0.110993505 -0.04496657
0003b0 86 a9 a7 3b 9c 3d b0 bb 17 a6 bc 3c a7 a3 e3 bd
       0.0051166443 -0.005378438 0.023028417 -0.111151986
0003c0 fe 79 03 3b b2 b4 e9 3b 82 98 fe bc 74 a1 9e bd
       0.0020061727 0.0071321363 -0.03107858 -0.077456385
0003d0 ce 17 08 3c 71 e6 08 bd 46 d3 50 bd 40 6b 7c 3c
       0.008306457 -0.03342289 -0.050982736 0.01540643
0003e0 62 a0 d3 bd 0c 0c 12 3d c9 66 81 bd 4d 03 60 3a
       -0.10333325 0.03565602 -0.06318433 0.0008545414
0003f0 8f 85 45 bd 06 59 59 bd 0b 91 dc bc 23 fd 98 bd
       -0.048223075 -0.053063415 -0.02692463 -0.07470157

bias f4 [16]
000000 40 51 31 be 65 75 4e 87 86 a4 5b 3e 99 82 f6 3d
       -0.1731615 -1.5532217e-34 0.2144948 0.12036628
000010 c7 62 1e 3c 25 95 0a 3e 4c e0 11 3e cf c5 21 bb
       0.009667105 0.13533457 0.14245719 -0.0024684554
000020 6b 4e 38 3c 8b 63 b2 bb df 92 ff bd c7 4d 14 be
       0.011249165 -0.0054439954 -0.12479185 -0.14482795
000030 2a 6d 4d 3e 5e 8c 98 bc 5a 06 8c bc 67 d1 4f 3e
       0.20061174 -0.01862162 -0.017092872 0.20294724

weight f4 [16, 16, 3, 3]
000000 07 64 fb ba 1c 47 99 3d d8 2a 27 bd ca 21 a2 3d
       -0.0019179591 0.07484266 -0.040812343 0.07916601
000010 af 6f da 3c 26 2a da bc 8b ff b7 3d da 8a 07 3d
       0.026664583 -0.026631426 0.08984288 0.033091404
000020 97 db ec 3c 4a 12 00 80 bf 4f 00 00 51 0e 00 00
       0.028913302 -6.561e-42 2.8608e-41 5.136e-42
000030 a7 42 00 80 6c 40 00 00 43 38 00 00 45 06 00 80
       -2.391e-41 2.311e-41 2.0183e-41 -2.249e-42
000040 dc 0a 00 00 94 40 00 80 9f 0c 6b 3d b4 ed 56 bc
       3.896e-42 -2.3166e-41 0.057385083 -0.013118196
000050 a1 bf 16 3d 19 aa 63 3c 39 6b 3e 3c 1d 3d c6 3c
       0.036803845 0.013895535 0.011622244 0.024199063
000060 20 21 af bc 4b 5e b0 bc 1b 30 16 bd 25 d0 54 3d
       -0.0213781 -0.021529337 -0.03666697 0.051956315
000070 39 51 8a 3c 06 1d a5 3b 46 98 f1 3c f1 87 51 bc
       0.016884433 0.0050388603 0.029491555 -0.012788759
000080 fd 92 8b 3c 18 59 bb 3c f7 55 8c 3b 29 ed 00 3d
       0.017037863 0.022869632 0.0042827087 0.031476174
000090 69 7f 5b ba 3f 60 a0 3b f2 b2 9e 3c 5f 2a 72 bc
       -0.00083731726 0.004894286 0.019372437 -0.01478061
0000a0 90 8c 35 bc 04 45 14 bc 99 58 89 bc 13 93 b9 bc
       -0.011080876 -0.009049658 -0.01676588 -0.022653138
0000b0 33 0a bd bc 34 9e c1 3d 10 c0 24 3d 7a b9 bd 3d
       -0.023076152 0.09454003 0.040222228 0.092638925
0000c0 16 13 2e 3e 3b fb d6 3d 35 c4 24 3d 64 a1 83 3e
       0.16999468 0.10497137 0.04022618 0.2570907
0000d0 69 27 35 3e 1f b1 2b 3e 59 87 4a bc d1 4d 01 3d
       0.17690815 0.16766785 -0.012361371 0.031568352
0000e0 06 12 4f 3d 75 53 93 3d 09 26 82 3c 87 f0 9f bc
       0.050554298 0.071936525 0.015887277 -0.019523872
0000f0 8a 2f 3a 3e a6 9b 38 3e 70 f1 ca 3d 2a f6 ba 27
       0.18182197 0.18028125 0.09909332 5.1892262e-15
000100 a1 0f a3 27 e6 85 80 27 2b 13 b7 27 fa 5c 91 27
       4.5258533e-15 3.567231e-15 5.0813485e-15 4.034639e-15
000110 c1 81 6f 27 24 cb b7 27 22 35 8b 27 fe c8 72 27
       3.3238253e-15 5.101295e-15 3.8637857e-15 3.3693205e-15
000120 9a 4e c2 3c 5c 32 eb 3c 48 a0 e5 3d 7e 33 01 bc
       0.02371912 0.028710537 0.11212212 -0.007885812
000130 eb 72 b1 3d fe 79 dd 3d e4 fc a0 bb bb f4 7b 3c
       0.08664497 0.10814284 -0.0049129594 0.0153781725
000140 59 d6 39 3c 59 9f c2 37 32 f4 b8 37 a9 0b a3 37
       0.011342608 2.3200804e-05 2.2048222e-05 1.9436544e-05
000150 83 0b ba 37 d8 b7 b2 37 d4 ac a0 37 93 22 ab 37
       2.2178288e-05 2.1304862e-05 1.9153966e-05 2.0400888e-05
000160 cb 9f a6 37 bc c8 9c 37 14 89 eb 3d a5 38 e4 3d
       1.9863151e-05 1.8690123e-05 0.11500755 0.111436166
000170 2e fd e4 3d d4 b9 05 3e 1b bb e2 3d 73 d0 f6 3d
       0.11181103 0.13059169 0.11070844 0.12051477
000180 6b 3b c0 3d 5a b7 ce 3d 9a cd d7 3d 6e 88 6f bd
       0.09386333 0.10093565 0.10537262 -0.05847972
000190 be 87 94 bd 0f fd 6f bd c2 71 13 3c a7 3d 28 3b
       -0.07252453 -0.058590945 0.00899929 0.0025671513
0001a0 bb 54 a1 bd e1 db 3a bd 56 8d ef bd 0a 6d f9 bc
       -0.07877489 -0.04561985 -0.116968796 -0.030447502
0001b0 9f 5d bf 3d 48 fe a4 3d 53 a7 1c 3d ab 46 58 3d
       0.09344029 0.08056313 0.03824551 0.05280177
0001c0 0c 02 0b 3d 1b 0a 16 bc 82 e0 8b b9 6b 6f b1 3b
       0.0339375 -0.009157683 -0.00026679417 0.0054148934
0001d0 ad b4 ce bc 34 53 07 bc 91 2e 06 bc 10 c9 05 bc
       -0.025232637 -0.008259583 -0.008189813 -0.008165613
0001e0 80 a9 05 bc c5 66 04 bc 22 16 04 bc 9d 3b 04 bc
       -0.008158088 -0.008081143 -0.0080619175 -0.008070854
0001f0 b7 a5 02 bc 4f 36 02 bc 4d d1 d0 b9 67 40 d6 b9
       -0.00797408 -0.0079475185 -0.00039828793 -0.00040865244
000200 b7 71 e0 b9 72 3b cb b9 8a 4c cd b9 f7 3e d5 b9
       -0.00042809334 -0.00038763467 -0.00039157673 -0.00040673438
000210 26 a4 c6 b9 92 28 c6 b9 2a 25 c9 b9 13 f1 4b bd
       -0.00037887803 -0.0003779573 -0.00038365397 -0.049790453
000220 ad 97 03 be 34 c6 76 bd 3d af 1e be 95 ea 1c be
       -0.12850828 -0.060247615 -0.15496536 -0.15323861
000230 0f 29 c7 bd 84 5a 04 be 54 21 84 bd a2 eb ba bd
       -0.09724628 -0.12925154 -0.06451669 -0.09126975
000240 b3 72 9d bd 44 bc e7 bd 71 93 04 be 14 21 cf bd
       -0.07687893 -0.11315206 -0.1294687 -0.10113731
000250 ae d2 21 bd 17 17 91 bd bd 49 7b bd cb e4 8e bd
       -0.03950756 -0.07084482 -0.06134962 -0.069772325
000260 03 56 b6 3c 16 42 00 00 8e 03 00 80 bd 22 00 00
       0.02225781 2.3707e-41 -1.275e-42 1.2462e-41
000270 36 09 00 00 30 48 00 80 67 5b 00 80 89 52 00 80
       3.304e-42 -2.5896e-41 -3.2789e-41 -2.9608e-41
000280 ec 4a 00 00 86 06 00 80 01 5f f0 3d e6 82 a3 3d
       2.6877e-41 -2.34e-42 0.117368706 0.07983951
000290 e5 0b c5 bc 58 0b 93 3d a7 42 7f 3c d0 31 9c bd
       -0.024053523 0.07179898 0.015579856 -0.076266885
0002a0 6d b0 d6 3c 49 fa d0 bb 46 01 aa bd a7 ef af bc
       0.026207173 -0.0063774926 -0.08301024 -0.02147658
0002b0 1a dd 2f bd 3d 9c 3c bd 42 cc b9 3c fb 28 43 3b
       -0.04293547 -0.046047438 0.022680406 0.0029779065
0002c0 bb d3 00 bd c8 a2 43 3d 5b b1 2a 3b 37 3a 11 bd
       -0.031451922 0.047762662 0.0026045654 -0.03545591
0002d0 c9 eb 8c 3c 91 0a 0d 3d 2b c6 3b 3d 54 e5 af bb
       0.017202275 0.034433905 0.045843285 -0.005367914
0002e0 29 15 1e 3c 78 a5 c9 3c f1 d6 a5 bc e0 07 6a 3a
       0.0096486 0.024615034 -0.020244094 0.0008927565
0002f0 d3 ec 50 3c 4f 08 34 3e 2d 86 81 3e af f2 03 3e
       0.012751776 0.17581294 0.2529768 0.12885545
000300 70 50 5a 3e 4c b2 f9 3d 1b 40 e3 3d f4 1d 80 3e
       0.21319747 0.121922106 0.110962115 0.25022852
000310 54 f6 1e 3e 7e c8 2f 3e 2e e7 c4 3e f9 be be 3e
       0.15523654 0.17166325 0.38457626 0.37255076
000320 da 93 4d 3e 59 57 60 3e 7c ea 5b 3e 4e 2a df 3d
       0.20075932 0.2190832 0.21476167 0.10896741
000330 38 80 7e 3e c1 c6 fa 3d 1d 27 68 3e 71 cb 68 a2
       0.24853599 0.122449405 0.2267117 -3.1549564e-18
000340 58 7b 2f a2 07 80 39 a2 8c 66 51 a2 67 d0 38 a2
       -2.378222e-18 -2.5139952e-18 -2.837907e-18 -2.5046977e-18
000350 16 69 53 a2 82 52 65 a2 ca 08 74 a2 a6 a8 80 a2
       -2.8651464e-18 -3.1078966e-18 -3.307282e-18 -3.4873033e-18
000360 73 dd 0d 3d b2 ab a7 3c 34 4a 0a bd b4 6c 3e bc
       0.03463502 0.020467613 -0.033762172 -0.0116225965
000370 ac 6f 22 3d 6f 99 7f 3d 2a ad 2f 3d 87 3e cd 3c
       0.03965728 0.062402185 0.04288975 0.02505423
000380 ee 64 ce 3c 9f b8 18 39 72 fb 18 39 a6 75 16 39
       0.025194611 0.00014564626 0.0001458952 0.00014348942
000390 71 11 1e 39 db d1 1e 39 c1 08 1b 39 f3 aa 1e 39
       0.00015074552 0.00015146231 0.00014785213 0.00015131738
0003a0 fe 70 1e 39 6f 1d 1a 39 0c 8d 03 be 0f 04 d3 bd
       0.00015110147 0.0001469755 -0.12846774 -0.103035085
0003b0 f2 87 45 be a2 bb c2 bd b1 df 15 bd e7 26 9b bd
       -0.1929014 -0.09508444 -0.036590282 -0.075757794
0003c0 ef c5 64 bc 4d 1d 9b bd 9f b6 01 be 74 47 49 bd
       -0.013963207 -0.07573948 -0.1266732 -0.04914041
0003d0 ef 2e 74 bd 43 92 9a bd 70 aa 96 bd d8 e8 34 3b
       -0.059615072 -0.075474285 -0.07356727 0.0027604606
0003e0 1f e7 b8 3d fc 94 5e bd b6 e3 a5 3d 8d 2a 14 bc
       0.09028458 -0.0543413 0.08100073 -0.009043348
0003f0 ed 9e 17 be 9a 1f 19 be 4a 45 31 be 0f 78 ed bd
       -0.14806719 -0.14953461 -0.17311588 -0.11595165

bias f4 [16]
000000 dc 82 1e be ef cd 14 3d 4f 0e b1 3d 04 e4 04 be
       -0.15479606 0.036329206 0.08645307 -0.12977606
000010 bf 45 71 3b 25 1e 1d be a3 fa a8 bd 4c 74 e7 3d
       0.0036815254 -0.1534353 -0.0825093 0.11301479
000020 58 1f eb 3d d2 41 16 3e fc 42 87 bd a0 c9 9b bd
       0.11480588 0.14673546 -0.06604573 -0.07606816
000030 f6 ae 0e be c3 9c 3c bd 3a 14 c0 bd 3a 14 2e 3b
       -0.1393393 -0.046047937 -0.09378858 0.002656235

weight f4 [32, 16, 3, 3]
000000 85 aa 87 3c 0b c0 80 bd ca c2 61 bd 9b a5 6b 3d
       0.016560802 -0.06286629 -0.055117406 0.05753098
000010 79 1e 80 bb 2c 38 03 bd 6b f8 9f 3d 1f 6b 45 3d
       -0.0039098826 -0.03203599 0.07811054 0.04819786
000020 45 2e 2a 3c 24 e1 84 3c be ca 82 3d 01 6e 8b 3d
       0.010387008 0.016220637 0.06386326 0.06808091
000030 dc be a3 3b ca 80 86 3c 59 33 38 3d 95 89 2f bd
       0.0049971174 0.016418833 0.044970844 -0.042855818
000040 03 92 29 bd 3e 9a db 3b b9 f8 bd 3d b9 41 a4 3d
       -0.041399013 0.0067017367 0.09275956 0.08020348
000050 dc 44 da 3d cd 5a dc 3d e2 8d 97 3d 40 70 10 3d
       0.10657665 0.107595064 0.07400109 0.0352633
000060 8c 4a 53 3d be d3 b6 3c 7a af 42 bd a2 35 c5 bd
       0.051584765 0.022317763 -0.04753063 -0.0962937
000070 cb 4c 2a be e6 e2 2b be ee 99 81 bd 33 fb a6 bd
       -0.16630857 -0.16785774 -0.06328188 -0.08153381
000080 86 58 c1 bd bf ab 19 bd 10 7c 89 bc ce 2d 6d bc
       -0.09440713 -0.037517305 -0.01678279 -0.014476253
000090 01 78 9a bd 56 59 8c bc 0a 8f 69 3b 2e aa 71 bd
       -0.0754242 -0.017132442 0.0035638236 -0.059000187
0000a0 47 99 56 3c f4 1d 45 3d d5 cb 95 bd 99 48 08 3c
       0.013098068 0.04812427 -0.073142685 0.00831809
0000b0 ae 84 26 3d 19 ad bb 3c 99 3b 71 bd 11 df a0 bd
       0.040653877 0.022909688 -0.058894727 -0.078550465
0000c0 50 81 27 3d c9 f6 a4 bc 74 41 e6 bc 89 0b 73 3d
       0.040894806 -0.020137208 -0.028107382 0.059337173
0000d0 49 7f 18 3d 7a 30 f7 3c e0 13 f5 bc e7 5c 6e bd
       0.037230764 0.030174483 -0.029916704 -0.058194067
0000e0 61 68 ad bd dc e9 29 bd 9c 8f d5 bc 8d cd 1d bd
       -0.08467174 -0.04148279 -0.026069455 -0.038526107
0000f0 61 d0 87 bd ae 76 c8 bc 6b ed 84 bc cf 96 c7 3d
       -0.06631542 -0.024470653 -0.016226491 0.09745561
000100 ea df 62 3e ab 68 61 3e 20 dd 71 3d 44 af 1f 3e
       0.22155729 0.22012584 0.05904877 0.15594202
000110 f5 d0 6c 3e fd 78 99 3c d0 0f 75 3d 29 bd 39 3e
       0.23126586 0.01873445 0.059829533 0.18138565
000120 7c 18 d8 bd f8 9c 69 bd e0 5e 82 bd 1b 39 bb bd
       -0.10551545 -0.057034463 -0.06365752 -0.091417514
000130 69 39 e1 bb 17 5e 6a 3c 20 a8 b2 bd 3c 82 45 3c
       -0.006873299 0.014304659 -0.087234735 0.012054976
000140 85 44 43 3d 3b 78 61 3d 27 19 51 3d 03 6e c7 3c
       0.047672767 0.0550463 0.051049378 0.02434445
000150 4e 7b a9 bc c8 08 ac b9 28 ed b1 bc a8 f6 ae bd
       -0.02068868 -0.0003281294 -0.02171953 -0.0854314
000160 34 55 29 bd 54 1e 7e bd fc 72 7a 3d ed 8f a2 bc
       -0.04134102 -0.062040642 0.061144814 -0.01984402
000170 5c 04 3c bd 7d 13 9f 3d f2 19 0d bb 1b 9e 0f bd
       -0.045902595 0.07767389 -0.0021530357 -0.03506289
000180 2d 38 a2 3d a6 9e fb 3c eb 4e 86 bb 8e 79 69 3d
       0.07920871 0.030715298 -0.004098763 0.05700069
000190 45 02 1d bd 64 09 86 bd b9 ae 82 3d b4 fa 04 bd
       -0.038332243 -0.0654476 0.06380982 -0.03246565
0001a0 2e 5c a8 bd eb 34 70 3d ff 77 d5 bb fb 95 6b bd
       -0.08220707 0.058644217 -0.006514549 -0.05751608
0001b0 72 2d 34 bd 86 af 81 bd d0 39 8c bd fd 58 ae bc
       -0.043988653 -0.063323066 -0.06846964 -0.021282667
0001c0 5c f3 a1 bc 21 03 66 bc 1b c1 8f 3c ca 22 28 3d
       -0.019769363 -0.014038832 0.017548135 0.041048802
0001d0 3b d0 66 3d fe da 89 3d 19 12 ce 3c 79 68 eb 3c
       0.056350928 0.067312226 0.025155114 0.02873634
0001e0 1e 76 b4 3d f6 62 20 3d 10 47 cf 3c 0a af 8c 3d
       0.088115916 0.039156877 0.02530244 0.068693236
0001f0 c7 50 e0 3c 92 45 8c 3c 35 c9 8d 3d 5c d2 6a bc
       0.027382268 0.017123017 0.06923143 -0.01433238
000200 37 ce ee bc 18 c9 c8 3d b1 54 89 3b 41 85 32 bd
       -0.029151065 0.098039806 0.004191004 -0.043584112
000210 1d 96 c6 3d a1 d6 af 3c 86 a2 41 bd f8 d9 bc bb
       0.096966006 0.021464648 -0.047274135 -0.0057632886
000220 30 3e 9d 3d f8 ba bb 3d 3f 7d 52 bc 6e 18 a0 3d
       0.07677877 0.09166521 -0.012847244 0.078171596
000230 8c 26 d9 3d c1 8e 53 bd a4 dc 14 3d 1d c1 98 3d
       0.10603055 -0.051649813 0.03634323 0.074587084
000240 e0 35 ac 3b d5 0f 68 3c 05 cc 2e 3d 1a f7 f4 bc
       0.005255446 0.014163931 0.042675037 -0.029902983
000250 8b f0 fb bc 4c 48 cb bc a3 71 21 bd 28 93 8b bc
       -0.030754348 -0.024814747 -0.039415013 -0.017037943
000260 ab 7f a2 bd 66 f8 26 bd 44 4f 7f bd 1a 7c 31 bd
       -0.07934507 -0.040764235 -0.062331453 -0.043331243
000270 c7 6a 92 bd b8 1c 01 bd 2b 17 5d bc 6d 7e 76 39
       -0.071492724 -0.03152153 -0.013494293 0.00023507485
000280 00 50 e7 3c 12 f5 ac 3d 42 c0 35 3d ad c4 c2 3c
       0.02823639 0.08445181 0.044372804 0.023775423
000290 d0 0b 64 3d dc e8 15 bc d6 1b 82 bd db 37 8d 3d
       0.055675328 -0.009149756 -0.063529655 0.06895419
0002a0 e1 07 bb bc f8 4d ad 39 0d 66 2e 3d 9d 7e 4e bd
       -0.022830905 0.00033055223 0.042577792 -0.050413717
0002b0 9a 28 0b 3d ae da 4e bc 3d 36 9f bc f5 83 d7 3c
       0.033974268 -0.0126253795 -0.019435043 0.02630804
0002c0 a4 02 82 bd ae b5 91 bd bd 95 95 bd b2 79 c8 bd
       -0.0634816 -0.07114731 -0.07303951 -0.097888365
0002d0 06 2f 13 be fd 59 d8 bd e3 7c 0c be c7 00 56 bd
       -0.14373407 -0.10564039 -0.13719516 -0.052246835
0002e0 00 ab 98 bc 48 14 e3 bd d6 2f 29 be 18 43 9f bd
       -0.018636227 -0.11087853 -0.16522154 -0.07776469
0002f0 cf a5 58 be a1 bb 1f be 0c b9 26 be 87 c5 72 bd
       -0.21157001 -0.15598918 -0.16281527 -0.059270408
000300 5c 73 7e bd 12 a7 c7 bd 41 1c 55 bd d0 33 bb bd
       -0.062121734 -0.09748663 -0.0520289 -0.09140742
000310 a2 a8 c7 bd 28 f2 b3 bd 32 27 f2 bc 88 f5 87 3d
       -0.09748961 -0.08786422 -0.029559705 0.06638628
000320 fa 47 58 3c 82 ee 9d bc 52 6b 23 bb 25 0a 97 bd
       0.013200754 -0.019278768 -0.0024935794 -0.07374982
000330 cb 18 f6 bc db af 1a bd 28 96 2b be 1c 01 8b 3d
       -0.03004112 -0.037765365 -0.16756499 0.06787321
000340 89 68 4d 3d 33 46 da 3d 44 2b 01 bc 89 fb 81 3d
       0.05014852 0.10657921 -0.0078838505 0.06346805
000350 dc 51 46 3d d7 d7 85 3d e6 aa 20 3d db da ef 3d
       0.04841791 0.06535309 0.03922548 0.11711665
000360 fd 01 8d bd 69 02 15 bd 56 65 c1 bd e5 42 13 3b
       -0.06885145 -0.03637925 -0.094431564 0.0022470292
000370 86 51 2f 3d c5 c4 3c bc 7c 53 91 bd eb 4b 19 bd
       0.042802356 -0.011521523 -0.070960015 -0.037425917
000380 41 50 8f bd f3 55 66 be 16 d2 8f bc 3c 0b 27 3d
       -0.06997729 -0.22493725 -0.017556231 0.0407822
000390 d5 0f 18 be dc 55 ca bc 7a a0 a0 3d 10 79 bf bd
       -0.1484979 -0.024699144 0.078431085 -0.09349263
0003a0 0e f0 af 3d 1a 08 a3 3d c6 ad 2e be 51 70 87 bd
       0.08590709 0.079605296 -0.17058477 -0.066132195
0003b0 85 f1 b2 bd 5f 74 a4 bd 96 69 d2 bd 88 a4 85 bd
       -0.087374724 -0.080300085 -0.10274045 -0.065255225
0003c0 40 1c 89 bd 79 57 89 bd c3 59 07 bb 40 4f 3e be
       -0.066948414 -0.06706137 -0.0020652867 -0.18584919
0003d0 4a b0 bd bd ad 97 d5 bd 45 8a ca bd b5 69 b2 bd
       -0.0926214 -0.104293205 -0.09889654 -0.08711568
0003e0 27 f3 4f bd c8 2a 9a bd ea 34 02 bd d4 bd b2 bb
       -0.050768998 -0.07527691 -0.031788744 -0.005454758
0003f0 d8 1b d4 bc 0a 2a d0 bc f9 cf a3 bd e4 b8 13 bd
       -0.025892183 -0.02541067 -0.07998652 -0.036064997

bias f4 [32]
000000 98 5a 84 bd ed 81 7e 3d a5 f6 f8 bc de 41 10 ab
       -0.06462592 0.062135626 -0.030391047 -5.1250486e-13
000010 ed bb 33 be 28 5a e0 bc 05 b9 32 bd 1c 74 13 3d
       -0.17552157 -0.02738674 -0.04363348 0.035999402
000020 ee 18 92 3c 20 fa c6 bc ed c0 a2 ba 4e e4 03 3d
       0.017834153 -0.02428919 -0.0012417116 0.03220015
000030 9e 7a 03 3d 85 48 ab bc ed 41 f9 bd 60 04 bf bd
       0.03209936 -0.020908603 -0.121707775 -0.09327006
000040 ac 59 e1 3d 84 01 10 bd 84 ba af bb 54 90 29 ba
       0.11003432 -0.035157695 -0.0053628106 -0.0006468345
000050 e5 e4 d5 bc 5a 82 4e bd 67 b0 4a bb d4 56 5a bd
       -0.026110122 -0.05041728 -0.0030927898 -0.053305462
000060 88 48 27 bd b3 08 a1 bd 1d c8 b6 bd 59 7b 67 bd
       -0.040840656 -0.07862987 -0.08924887 -0.056514118
000070 da 4c 3e 3d d0 3f 72 be 0e 97 ed bd a8 4d 6b 3d
       0.04646001 -0.23657155 -0.11601077 0.057447106

weight f4 [32, 32, 3, 3]
000000 3a d3 a8 3d 5f 18 1d 3e cb 1f 37 3e 0f a3 8e 3d
       0.08243413 0.15341328 0.17883222 0.06964695
000010 87 42 e4 3d bb 25 e2 3d 74 1d e2 3c 48 c1 b8 3d
       0.111455016 0.11042353 0.027601935 0.090212405
000020 ba e4 81 3d 68 68 be bd e2 bb eb bc 05 d7 0d bd
       0.06342454 -0.09297258 -0.028776113 -0.034628887
000030 ce 47 5b bd 47 d1 1a bd 1a a9 81 bd 88 d1 98 bc
       -0.053535275 -0.03779724 -0.06331082 -0.0186546
000040 6f 4a 83 bd 60 9c dd bd 61 f2 c7 bc 24 39 ca 3d
       -0.064106815 -0.10820842 -0.024407567 0.0987418
000050 ff 9b d9 3d 37 a5 0c be 5d 87 11 bd 92 5e b8 bd
       0.10625457 -0.137349 -0.035529483 -0.09002413
000060 6f d4 17 be 59 c1 43 bd 28 82 0e be 2e 35 00 00
       -0.1482713 -0.047791813 -0.13916838 1.9077e-41
000070 47 85 00 80 5c 1f 00 00 2f 38 00 00 f7 00 00 00
       -4.7811e-41 1.125e-41 2.0155e-41 3.46e-43
000080 d6 6d 00 00 8d 47 00 80 f8 2a 00 00 68 69 00 80
       3.9402e-41 -2.5668e-41 1.5414e-41 -3.7813e-41
000090 f7 47 03 bd 7c d3 18 bd d4 86 15 bd a4 c2 27 3d
       -0.032051053 -0.037311062 -0.036505535 0.04095711
0000a0 db af 50 3d 5b fb 1a 3c 8b f4 5d 3c dd 40 70 3d
       0.05094896 0.009459342 0.013547073 0.05865561
0000b0 ad fb 6a 3d a8 dc 9e 3e bf 53 1c 3e 70 d1 5b 3e
       0.057368923 0.31027722 0.15266322 0.21466613
0000c0 3c dd 8c 3b d7 02 fc bd 8f cd 9f bd c0 c7 a4 bc
       0.004298834 -0.12305229 -0.07802879 -0.02011478
0000d0 9c 49 08 be 34 9c fd bd 34 5b 07 be 2e f8 de 3c
       -0.1330933 -0.12383309 -0.13218385 0.02721795
0000e0 8c 55 61 3d 37 fe 43 be 83 4e 2f bd 13 14 83 bd
       0.055013224 -0.19139944 -0.042799484 -0.06400313
0000f0 e3 e6 53 be 78 6d 94 bd da 17 fa bd 07 2d d8 3d
       -0.20693545 -0.07247442 -0.122115806 0.10555463
000100 f5 43 45 3e 91 ef a6 3e ce e3 f8 bd ce d7 97 3c
       0.19264205 0.3260465 -0.12152825 0.01853552
000110 87 c3 ff 3d 48 c2 a5 be 26 e8 e2 bd 94 de 99 3d
       0.12488466 -0.32374787 -0.11079435 0.075131565
000120 ee 05 10 3e 1c c8 ae 3d a7 22 98 bd 5d d6 58 3d
       0.14064762 0.085342616 -0.074284844 0.052938808
000130 9f d2 0d bc 7b 46 33 be 1e dc 9d bd e5 9b 84 bd
       -0.008656173 -0.17507355 -0.07708 -0.06475047
000140 3c 5c 31 be fd f4 33 34 81 e0 9b 35 36 c1 be 36
       -0.17320341 1.67598e-07 1.1613739e-06 5.684934e-06
000150 56 b7 07 35 a5 a6 54 35 fd f1 c3 35 0e 5c 74 34
       5.055821e-07 7.9218654e-07 1.459906e-06 2.275776e-07
000160 17 4c 22 35 ef 70 cf 34 fe ab e2 a8 bc 02 12 a7
       6.046043e-07 3.8638925e-07 -2.516563e-14 -2.0263053e-15
000170 2d 61 f4 a5 2a a5 28 ab 82 04 71 aa 10 d0 a4 a9
       -4.2393102e-16 -5.99148e-13 -2.1406664e-13 -7.319156e-14
000180 76 37 c1 ab 8c 2f af ab ad 29 b8 ab bb a4 fd bd
       -1.3728868e-12 -1.2447695e-12 -1.3085554e-12 -0.123849355
000190 17 3c 17 3d ee ec 0d 3d c4 70 4d bd 11 81 d1 3b
       0.03692254 0.034649782 -0.05015637 0.0063935597
0001a0 09 99 65 bd 71 37 2a bd 37 a1 97 bd cd a1 73 be
       -0.05605415 -0.04155678 -0.07403796 -0.23792191
0001b0 6a b1 bb 3d 84 f1 d5 3d 0e af 02 3d 69 09 7d 3b
       0.091646984 0.10446456 0.031905226 0.0038610345
0001c0 34 4e 23 3d 15 bd 2c 3d 86 35 ec 3d 99 26 b9 3d
       0.039869502 0.04217251 0.11533646 0.09040565
0001d0 7a 66 8d 3d 9e ae 46 b9 ab 2d 11 3d fb 00 fd bd
       0.069043115 -0.00018947801 0.035443943 -0.12353703
0001e0 30 8d 35 bd 29 1b be 3c d9 aa 4d bd 00 f9 83 bd
       -0.0443241 0.02320631 -0.05021176 -0.06443977
0001f0 6f 5d 70 3c 69 7f 8b 3d e9 f7 52 bc cc 00 6f bd
       0.014670714 0.06811411 -0.012876489 -0.05835037
000200 40 7c c3 bc f3 38 3f 3d 77 ed 02 3c 79 2a e8 3c
       -0.023862958 0.04668517 0.007991186 0.028340565
000210 0a 5c 54 3d 77 fd de bb 2a 05 b4 bc 7f 6c 84 3d
       0.051845588 -0.0068051177 -0.021975119 0.064660065
000220 52 45 95 3d da ee 18 3e 59 ee a4 3d a5 5c 9c 3c
       0.072886124 0.14934865 0.08053274 0.019087145
000230 7e 51 3b 3d b0 86 b8 3d 44 97 11 3d 7f a2 ef 3c
       0.045732014 0.090100646 0.03554465 0.029252289
000240 fc 12 d7 bd f8 ea a3 bb c6 c7 69 3c 06 ae 9b bd
       -0.10501668 -0.0050023757 0.014268821 -0.07601552
000250 f7 e4 99 3c 0d 00 99 3c 00 41 e6 bd 1a 2d 13 bd
       0.018785937 0.018676782 -0.112428665 -0.035931684
000260 9b ba 1e bd 1f 53 9f 3c 3f ae 52 3d a9 11 8d bd
       -0.03875218 0.019448815 0.051435705 -0.06888134
000270 fb b6 e2 bd 1a 99 e9 bc 61 9c 10 bd ec 63 ee bd
       -0.11070057 -0.028515387 -0.035305385 -0.11640152
000280 96 8f 44 bd 56 1c 12 3d 81 29 04 9f 2c c7 29 9b
       -0.047988497 0.035671555 -2.798642e-20 -1.4043708e-22
000290 7f 32 9f 19 5f b5 72 21 88 f4 43 1f 02 49 b3 9d
       1.646061e-23 8.223283e-19 4.1495128e-20 -4.7456394e-21
0002a0 5f 2d b9 21 bb 18 9d 21 ee 51 c1 a2 b6 d9 c1 9f
       1.2548097e-18 1.064528e-18 -5.23995e-18 -8.209885e-20
0002b0 05 8c ba 9d ca d8 05 9b de 37 01 a1 f0 c8 9c a0
       -4.9378567e-21 -1.107155e-22 -4.378084e-19 -2.6560397e-19
0002c0 ef 6f 06 a0 70 47 a1 a0 30 ce d2 a0 72 8e 54 a1
       -1.1387277e-19 -2.7321734e-19 -3.5711827e-19 -7.201692e-19
0002d0 5a 1f ed 3c ed 4b 09 3d 36 29 23 3d bb 23 ec 3c
       0.028945614 0.033519674 0.039834224 0.028825631
0002e0 55 11 08 3d 6b f6 1c 3d 71 1b d7 3c 64 57 f3 3c
       0.033219654 0.03832094 0.026258202 0.029704757
0002f0 a4 2c 05 3d 7b 3f e0 3a f6 1a 5e 39 f7 40 1d 3b
       0.032513276 0.0017108762 0.00021181614 0.002399502
000300 bd 6b 01 3a b9 58 bc b9 b2 fd db b9 d2 05 9b ba
       0.0004937014 -0.00035924258 -0.00041959953 -0.0011827296
000310 5e 97 0f ba 81 f8 07 ba 3d 3e 00 80 ff 02 00 80
       -0.00054775726 -0.0005186871 -2.2327e-41 -1.075e-42
000320 14 0b 00 80 64 23 00 80 3e 07 00 80 e5 0a 00 00
       -3.974e-42 -1.2696e-41 -2.598e-42 3.908e-42
000330 3e 17 00 00 53 31 00 80 a6 15 00 00 87 42 11 3c
       8.338e-42 -1.7694e-41 7.766e-42 0.008865959
000340 c7 23 15 3c e1 70 fb 3b 52 d4 eb 3b 35 c2 e2 3b
       0.009102768 0.0076733683 0.0071969414 0.006920124
000350 65 31 b3 3b c8 8a c7 3b 9c 83 9d 3b ef 1c 89 3b
       0.005468535 0.006089542 0.004806949 0.0041843574
000360 b3 92 b0 b7 e5 23 3d b7 67 38 0b b7 85 38 b0 b7
       -2.1049147e-05 -1.1273635e-05 -8.298178e-06 -2.1007154e-05
000370 f8 e6 fa b6 32 97 84 b7 48 7d 35 b8 e4 b8 97 b7
       -7.477469e-06 -1.5806032e-05 -4.327044e-05 -1.80867e-05
000380 46 e7 b4 b7 fd 83 9f b9 f6 ae b1 b9 24 9d 33 b9
       -2.1565367e-05 -0.00030425182 -0.00033890427 -0.0001712931
000390 f1 1e 04 39 46 bd d8 38 55 20 4f 39 a2 12 f3 39
       0.00012600028 0.000103349375 0.00019753103 0.00046362454
0003a0 70 8e aa 39 cd 69 80 39 4a e5 47 3d f4 8b cf bd
       0.0003253105 0.0002449289 0.04880265 -0.10134116
0003b0 27 ef 43 be 3a 6c 76 3d 16 8b 64 bd 0f 14 d8 bd
       -0.19134198 0.060161807 -0.055796705 -0.10550701
0003c0 c9 f5 11 3e 56 c0 3d 3d e4 3e 15 bd 86 58 98 bc
       0.14253916 0.046326004 -0.03643693 -0.018596899
0003d0 95 43 bb bc ea cf ca bc f6 60 a2 bc cf 0b d0 bc
       -0.022859374 -0.024757344 -0.019821625 -0.025396256
0003e0 b0 f3 fe bc 0b 22 aa bc 77 08 d5 bc 7d b3 09 bd
       -0.031122059 -0.020768186 -0.026005013 -0.03361844
0003f0 00 4a fe bd d3 96 98 bd 90 90 15 bd 86 65 d3 bd
       -0.12416458 -0.074506424 -0.03651482 -0.103220984

bias f4 [32]
000000 3e d4 99 3d 17 59 00 3d 11 05 a7 3c 41 fa d8 bd
       0.07511185 0.031334963 0.020388158 -0.10594607
000010 74 70 a7 3d ef ad c9 3c 62 0f c8 bd 2e 87 05 bc
       0.081757456 0.02461907 -0.09768559 -0.008149905
000020 08 11 ef 3d 28 9b ae bd ed 50 bc 3d a1 4d a0 3d
       0.1167317 -0.085256875 0.09195123 0.078273065
000030 c9 dd 2a bd 80 1f a1 3d 3c b7 6c 3b 1e 27 95 3d
       -0.041715417 0.07867336 0.0036119958 0.07282852
000040 8f ba 2b bc 5c 7f a5 3c b5 d1 f4 3d fc a5 02 bd
       -0.010481491 0.020202331 0.11954061 -0.031896576
000050 11 64 1a 3d 64 7d 15 bc 09 59 73 bc b9 56 ee bd
       0.037693087 -0.009124134 -0.014852771 -0.11637635
000060 c1 19 ee 3c 03 3c 42 bd ec 9c b1 3d f1 84 1a bd
       0.029065015 -0.047420513 0.086725086 -0.03772444
000070 a1 6f 81 bd 38 eb 20 bd f0 8a 06 bd 74 61 81 bd
       -0.0632012 -0.039286822 -0.032847345 -0.06317416

weight f4 [32, 16, 2, 2]
000000 9c ba 3a bd 17 be 85 3d 24 ca 23 be ee a2 5c bd
       -0.04558812 0.065303974 -0.1599508 -0.05386632
000010 cb f2 65 3d bd 41 0a 3e 5e 20 ae 3c 9d 48 ec 3c
       0.05613975 0.1350164 0.021255668 0.028843218
000020 06 a9 22 3d 2f 11 1d 3e b4 d2 6c 3d 0a fa da 3d
       0.039711975 0.15338586 0.05781813 0.106922224
000030 48 fa 36 be 25 7d 9b be 37 4c 6c be ca cd 75 be
       -0.17868912 -0.30368915 -0.23075949 -0.24004284
000040 9a 9e 2a 3e 16 a4 ea 3d 6e fd 28 3e 5f 1a 24 3e
       0.16662064 0.11457078 0.16502926 0.16025685
000050 40 bf 8f bd 5b 28 56 bd 68 c0 38 bc 0b 57 7c bd
       -0.070189 -0.05228458 -0.011276342 -0.06160645
000060 21 36 ef 3d a1 76 7e 3d 3f df 36 3e 72 02 21 3e
       0.11680246 0.062124852 0.17858599 0.15723589
000070 ec f8 e1 bb 3a a7 87 b9 7f c2 f7 bd 3d d8 d4 bd
       -0.006896129 -0.000258738 -0.12097644 -0.10392807
000080 bb 51 15 3e a9 83 2f 3e 12 2a 81 3d e0 e9 03 3e
       0.14581959 0.17140068 0.063068524 0.12882185
000090 ea fd 0c be 60 83 cf bd 45 46 9c bd fd 67 9f bd
       -0.13768736 -0.1013248 -0.0763059 -0.07783506
0000a0 ea ef ea bd b2 6c f4 bd 1d 0e 04 be 14 14 1c be
       -0.11471541 -0.119347945 -0.12896009 -0.15242034
0000b0 96 b0 0a 3d 17 37 bb 3c 0e d8 93 3c 26 de 13 bc
       0.03385981 0.022853417 0.018047359 -0.009025132
0000c0 9f 4b 15 bd 53 c5 b5 bd a3 b3 10 3d 58 fc ae bc
       -0.03644907 -0.08875527 0.035327565 -0.021360561
0000d0 e8 7b 98 bc b0 ad a5 3c 55 b1 7b 3b 04 95 ba 3b
       -0.01861377 0.020224422 0.0038405259 0.0056940336
0000e0 6a 8f e8 bc f3 53 ab 3c 32 c3 b8 3d 35 c9 c0 3d
       -0.028388698 0.020914054 0.090216056 0.09413377
0000f0 5c 1e a1 3c c5 80 ba 3d 2f 5d 13 be 08 30 22 bd
       0.019667797 0.09106592 -0.14391015 -0.039596587
000100 9d ff b1 3d f8 01 c0 3d bd 00 9c 3d 7a 6d 5f 3d
       0.086913325 0.093753755 0.07617328 0.054547764
000110 79 30 13 3c fc 98 77 3b 0b 3e f5 bc 36 50 27 bc
       0.008983725 0.0037780395 -0.029936811 -0.010211995
000120 fe c9 43 3b 89 eb e6 3c db 1f 96 bd a2 d4 63 bb
       0.0029875035 0.028188484 -0.07330295 -0.003476419
000130 bd 29 29 3c ee 7b e3 3c 07 dc 72 bc 21 b3 e3 3c
       0.010324893 0.027769055 -0.014822966 0.027795376
000140 b8 19 95 3c 1a d7 00 3d 60 c7 b8 bc be b9 65 3b
       0.01820074 0.031455137 -0.022556007 0.0035053338
000150 d7 4b 93 bc 43 99 f8 bc 83 4d 93 3b ba fa e7 3c
       -0.0179805 -0.030346518 0.004495324 0.028317798
000160 4a 56 70 bd 1a 64 0a bd c3 52 cd bd 08 31 75 bd
       -0.05867604 -0.03378687 -0.10025551 -0.059861213
000170 20 fe 03 3d a5 29 a4 3d fb e9 93 3d e1 ca 18 3d
       0.032224774 0.080157556 0.072223626 0.037302855
000180 0f 8a ea ba 1e bc 17 3d 66 b3 46 bb 49 00 3a 3b
       -0.0017893928 0.037044637 -0.0030319332 0.0028381518
000190 9b 0c 8b 3d b9 d1 98 bc de 30 c4 3d 30 22 69 bc
       0.06789514 -0.018654691 0.09579633 -0.014229342
0001a0 88 64 78 bd d3 c9 32 bc da 2c 20 bd f0 86 d9 3c
       -0.06064275 -0.010912376 -0.039105274 0.026553601
0001b0 ff e8 bf 3b 68 29 52 3c 91 5d 0b bc f8 1b de bc
       0.0058566327 0.012827255 -0.008506195 -0.027112946
0001c0 af 19 13 3b 38 ab 1f bd 03 af 52 3d 81 b7 d3 bb
       0.0022445729 -0.038981646 0.051436435 -0.0064610844
0001d0 1e 98 03 bd 08 d3 2e bb 92 8b 34 3c 72 c5 e2 bc
       -0.032127492 -0.0026676077 0.011019604 -0.02768204
0001e0 ae 2f 67 bb 5b 62 1e bd 7f 97 6f 3d 14 eb 54 bc
       -0.0035276222 -0.038668018 0.058494087 -0.0129955
0001f0 1c ce b1 bc 6c e6 7c 3c 02 09 9c ba cf c3 78 3c
       -0.021704726 0.015435796 -0.001190454 0.015183403
000200 65 d4 48 bd 6b d6 4c bd 8c 90 a5 bd 7e 2e 82 bd
       -0.04903068 -0.050009172 -0.08084211 -0.06356524
000210 86 a4 e7 bc d0 8e 8d bc 01 9c 09 3c 88 c7 00 bb
       -0.028276693 -0.017280012 0.008399011 -0.001965018
000220 d7 4f cc 3d 50 49 6f 3d 7a 44 a2 3d b7 61 8a 3d
       0.09976166 0.058419526 0.07923217 0.06756919
000230 ec cd 9f bd fc c6 12 be b5 2a e1 bd 31 7f 15 be
       -0.07802948 -0.14333719 -0.10994474 -0.14599301
000240 e3 d0 5d 3d ac c2 7c bb 35 ba b6 3d 45 e9 5b 3d
       0.054154288 -0.0038568182 0.08922235 0.05368926
000250 91 56 c9 bc 4a a8 8b 3c 32 cc 08 3b 39 a1 26 bc
       -0.02457741 0.01704802 0.0020873663 -0.010170274
000260 69 18 88 3d 53 68 0a 3d 58 94 24 3e a0 95 b2 3d
       0.06645281 0.033790898 0.16072214 0.08719945
000270 4c d5 82 bd 34 db ac bd ea 84 cc bd b9 0e bf bd
       -0.063883394 -0.08440247 -0.09986289 -0.0932898
000280 17 5e 3c 3d 08 07 05 3d 18 86 96 3d 0a 3c 8e 3d
       0.04598817 0.03247741 0.07349795 0.06945045
000290 79 8c e3 bd 0b bb 09 bd cd a8 fa bd e4 03 2a bd
       -0.111107774 -0.033625644 -0.122392274 -0.041507617
0002a0 ac 4f 42 3d 0a d2 8e 3b ce 62 b3 bb c0 64 42 3b
       0.047439262 0.0043585347 -0.005474425 0.0029662102
0002b0 80 c5 b0 bc 11 3d 5b bd ad df fc 39 21 52 c6 bc
       -0.02157855 -0.053525034 0.00048231837 -0.024209084
0002c0 d7 61 0a bd 68 0b 4d bd d1 4c 14 bd cb 86 f0 bc
       -0.033784714 -0.050059706 -0.03620607 -0.02936115
0002d0 f5 33 8b bb f7 71 80 3d c6 0c d5 3c d6 4a 57 3d
       -0.004248137 0.06271737 0.026007067 0.052561603
0002e0 ac bf 02 bd 8f e7 b8 3c 71 28 54 bd 71 d7 22 3c
       -0.031921074 0.022571353 -0.05179638 0.009939061
0002f0 6a ea b7 3c a2 65 b8 3c cc e9 09 bd 57 ab 4b bd
       0.022450645 0.0225094 -0.03367023 -0.04972395
000300 ee 2c cf bd aa d9 34 bd 77 7a cd 3b 67 bc 3a bc
       -0.101159915 -0.044152893 0.0062707025 -0.011397458
000310 6d ca d0 bd 47 43 b2 3c 71 97 8a bd df de 80 bd
       -0.1019486 0.021760596 -0.067671664 -0.06292509
000320 2b e3 97 bc f8 1e 66 bd 8f d6 69 3c 57 17 a6 bd
       -0.01854094 -0.056181878 0.014272346 -0.081099205
000330 98 f5 b7 3d aa 2e af 3d fd 55 9f 3d 81 38 d5 3c
       0.0898239 0.08553822 0.07780073 0.02602792
000340 02 85 84 39 9b 1a 80 bc a5 b1 b6 bc 1c 25 16 3d
       0.000252761 -0.015637686 -0.022301504 0.036656484
000350 cc 8e b8 3c b6 7c a4 3c 12 f9 84 bc c9 44 5f bc
       0.022529028 0.020078998 -0.016232047 -0.0136272395
000360 e8 9f dc 3c e3 24 7d 3d c4 3c dd bc 2a 0b 9b 3d
       0.026931718 0.061802756 -0.027006514 0.07570489
000370 e7 91 07 be 9c bc 0e be 8e 5c ed bd 96 19 95 bd
       -0.13239251 -0.13939136 -0.11589919 -0.07280271
000380 a4 05 97 bd 5c 2a 9f bd f4 f4 0c b9 9a 3f 94 bb
       -0.07374123 -0.07771751 -0.00013442693 -0.0045241835
000390 79 84 bf 3d e1 b7 22 3c 17 82 95 3c 61 74 d9 3c
       0.09351439 0.009931535 0.018250508 0.026544752
0003a0 2c 45 6e 3c d0 95 52 bd 5c 1a 71 bd 26 9f aa bd
       0.014542859 -0.051412404 -0.05886303 -0.083311364
0003b0 02 85 dc 3c 5f 8c bd 3d 35 37 ee 3c cb bb 54 3d
       0.026918892 0.09255289 0.02907906 0.051936906
0003c0 a7 16 44 3d 6b d6 a1 3d 42 b8 1c bd b0 eb b2 3c
       0.047873165 0.07902225 -0.03826166 0.0218409
0003d0 60 4d 29 ba 34 cb 5d bd 0a 4f ae 3c 6f b9 92 3b
       -0.0006458368 -0.054148868 0.021277923 0.004477672
0003e0 da 85 40 3d 38 64 90 3d 2a 98 26 3d 6b c6 bf bc
       0.04700265 0.07050365 0.04067246 -0.023410043
0003f0 4b 58 a7 bb 93 cf 71 bc 53 ac d1 3c 7c 3a 4f 3c
       -0.005106961 -0.014758962 0.025594866 0.012648221

bias f4 [16]
000000 22 12 a1 3d 43 16 fc 3d b8 5e c7 3d 14 3e df bc
       0.07864787 0.123089336 0.09734863 -0.02725128
000010 94 8b 05 3e a5 28 a3 bd d1 05 20 3d 3d 31 ff 3d
       0.13041526 -0.07966737 0.039068047 0.12460563
000020 00 06 d1 3d f2 a7 23 be 78 e2 2b bd b4 04 72 3d
       0.102062225 -0.15982035 -0.041964024 0.059086516
000030 89 80 1e bd 16 fc 05 be 40 ce d6 bd 80 49 fe 3c
       -0.0386968 -0.13084444 -0.10488558 0.031040907

weight f4 [16, 32, 3, 3]
000000 28 c2 14 bd 97 8c 9c bc 2c 07 08 3d 6a de 72 bd
       -0.036317974 -0.019110007 0.033209965 -0.05929414
000010 73 e1 3d bd ea 3f f9 bc af 7c e5 bc 45 de 72 bd
       -0.046357583 -0.030425984 -0.028013555 -0.059294004
000020 de 97 19 bd 77 17 5b bd 9f 17 b1 bd bf 26 7f bd
       -0.037498347 -0.053489175 -0.086470835 -0.06229281
000030 51 25 92 bd 72 f0 84 bd 78 29 5e bd dc 03 92 bd
       -0.07136024 -0.06491174 -0.054238766 -0.07129642
000040 7d bf 70 bd 71 6c 9c bc 63 e4 90 3d 83 84 ea 3d
       -0.058776367 -0.019094678 0.07074811 0.11451056
000050 3c 30 f6 3d ed 8e 1b bd 00 31 64 3c ab 1d 90 3d
       0.12020919 -0.0379781 0.013927698 0.07036909
000060 ed 2b 93 bd 87 94 1e bc eb 1f 7e 3c 21 f2 12 bd
       -0.071861126 -0.009678966 0.0155105395 -0.035875443
000070 79 19 89 bd 29 82 2c bd c3 83 98 3d 5b 6a 42 3d
       -0.06694312 -0.042116318 0.074470066 0.04746471
000080 4d b5 1a 3d c9 c2 f7 3d c7 d1 98 3d be eb aa 3d
       0.03777056 0.12097699 0.07461887 0.083457455
000090 eb 55 25 3d 2a 78 33 3d 34 62 7f 3d a6 b2 03 bd
       0.04036514 0.04381577 0.062349513 -0.032152794
0000a0 a5 ab 7c 3c ff 94 6d 3d a3 68 d7 bd c8 b9 eb bc
       0.015421783 0.058003422 -0.10518005 -0.02877511
0000b0 b5 88 0a 3d f7 52 5b bc f2 e1 04 bd 0d df e3 bd
       0.03382178 -0.01338648 -0.03244204 -0.11126528
0000c0 06 61 d4 3d 57 d4 50 3d 15 4c 28 bd 08 40 de 3d
       0.10370068 0.050983753 -0.041088182 0.10852057
0000d0 55 08 8c 3d 2c 97 d0 bc 9e 34 a6 bc ea f0 27 bd
       0.06837527 -0.02546271 -0.020288762 -0.041001238
0000e0 84 ca a3 bd 39 38 c0 bb 87 c8 4e bc df f8 02 bd
       -0.07997611 -0.0058660773 -0.012621052 -0.031975623
0000f0 0c 33 1b bd e5 7e fd bb dd 96 97 3c 20 6b 56 bd
       -0.03789048 -0.0077360743 0.018504554 -0.052348256
000100 63 3d 58 bd 31 f3 9f bd ec 83 98 bd b4 b2 b2 bd
       -0.052792918 -0.07810057 -0.07447037 -0.08725491
000110 b8 fb c2 bd 58 05 98 bd 62 79 95 bd fb 7e 97 bd
       -0.09520668 -0.07422894 -0.072985426 -0.073972665
000120 a4 bd d2 3c b7 63 a4 3d 28 09 09 3e 67 19 be bd
       0.025725193 0.080268316 0.13382399 -0.09282189
000130 5a cf 82 b8 4f 8d b5 3d b5 cf 26 be 41 52 68 bd
       -6.237505e-05 0.08864843 -0.16290171 -0.05671907
000140 cd 15 7f 3d f3 d7 52 3d 49 b7 92 3d 43 19 b6 3d
       0.06227665 0.051475476 0.07163865 0.08891537
000150 93 4b 99 3d e6 cd b5 3d b4 6b d2 3d 3c 1b 98 3d
       0.07485118 0.08877163 0.10274449 0.074270695
000160 a8 06 83 3d 07 97 91 3d 3a 74 4c 3d d2 76 cc 3d
       0.06397754 0.07108884 0.04991553 0.09983601
000170 63 60 3c 3e f5 3b 2a 3c e4 a3 2b 3d d9 25 f4 3d
       0.18396144 0.010390271 0.041904345 0.11921281
000180 37 d9 02 bc fc d4 b3 bb 4e ff 52 3d e0 1f cc bd
       -0.007986358 -0.005488036 0.05151301 -0.09967017
000190 2d 55 b5 bd 5f 8e 81 bd cf 21 8b bd 31 28 94 bd
       -0.088541366 -0.06325983 -0.06793558 -0.072342284
0001a0 99 39 26 bd ca de 0d 3d 3e 3c 7d 3d 31 b4 c4 3d
       -0.040582273 0.034636296 0.06182503 0.09604681
0001b0 13 6d c0 bc 58 22 b8 3b 0a 6c 41 3d c7 55 67 3d
       -0.02348951 0.0056193285 0.047222175 0.056478288
0001c0 a2 fd 93 3d 36 26 ea 3d 62 71 6a 3c 12 ac 4a 3d
       0.07226111 0.114330694 0.014309259 0.049480505
0001d0 7b 6b 72 3d fc 1b 89 3d a9 28 97 3d 07 9a 1f 3d
       0.059184533 0.06694791 0.07380802 0.03896525
0001e0 ac 0f 10 3d e1 0a 24 3d 14 50 40 bb 4f b9 96 3c
       0.035171196 0.040049437 -0.0029344605 0.018398909
0001f0 e2 0c 71 3b f3 60 0a bd 48 97 6f 3d c8 63 b0 3d
       0.003678136 -0.033783864 0.058493882 0.08612782
000200 b7 5f b0 3d 35 db 1c 3d 32 dd 7b 3d 64 d2 9a 3d
       0.08612006 0.03829499 0.061490245 0.0755966
000210 31 8e 00 3d be 59 47 3d 1f 10 35 3d 74 7e 21 bc
       0.031385604 0.04866957 0.044204827 -0.009856809
000220 63 25 36 bd c8 cc 7f bd 8c 32 8a bd 3e 0b ba bd
       -0.04446925 -0.062451154 -0.06747922 -0.090841755
000230 e5 05 d3 bd fb 72 83 3c 1d 0a de bc 90 41 88 bd
       -0.10303859 0.016046038 -0.027104432 -0.0665313
000240 ef dd 7c bc e2 ac 89 bc e1 f6 24 bd b6 c3 e5 bc
       -0.0154337725 -0.01680607 -0.040274505 -0.028047424
000250 fb 86 01 bd d3 f7 25 bd 34 b9 68 bc cd 23 66 bc
       -0.031622868 -0.040519547 -0.014204312 -0.0140466215
000260 4c 6f f0 bc d5 a1 41 3d 07 5c 62 3c d2 a4 07 3d
       -0.029349945 0.047273476 0.013815886 0.03311617
000270 35 e9 0a 3b de 48 e9 ba 00 d0 ff 3b d8 57 ec bc
       0.002119613 -0.0017798205 0.007806778 -0.02885048
000280 48 18 15 bd 6f 61 48 bc 95 b1 db 3d 4a ca 58 3c
       -0.03640011 -0.012230261 0.107272305 0.013231823
000290 21 70 77 ba f3 dd 12 3d 76 cf 63 bd 68 78 5b bd
       -0.0009439011 0.0358562 -0.055617772 -0.053581625
0002a0 4b 33 6f bc 69 6e 9c bd 3d 77 ac bd 3b f3 5e bc
       -0.014599632 -0.076382466 -0.084211804 -0.013607795
0002b0 21 92 af bb 37 f8 06 bd 0a 59 ad bb 84 72 a3 bb
       -0.005357996 -0.03295156 -0.0052901553 -0.0049880166
0002c0 45 86 55 bc 21 bb 03 3c 18 3a 99 3c b6 36 28 3a
       -0.013032501 0.0080402205 0.01870446 0.0006416844
0002d0 fa e8 99 bd b5 61 2e bd 4b ed da bc 34 26 ad bd
       -0.0751514 -0.04257365 -0.026724478 -0.08454552
0002e0 a9 4b 9a bd f6 ae 2b bd 02 af 12 be 0a 54 c5 bd
       -0.07533962 -0.041914903 -0.14324573 -0.0963517
0002f0 9a f4 90 bd dc 44 01 bd 93 e7 4a bc 5c ba 78 bd
       -0.07077904 -0.03155981 -0.012384313 -0.0607246
000300 1f 02 99 3c 70 bd 8f 3c d5 cf 4b bc 5c c3 81 3d
       0.01867777 0.017546386 -0.012439688 0.0633609
000310 a6 d0 83 3d 4c 80 4c 3d d6 24 8b bd 5d dc 2e bd
       0.06436281 0.04992704 -0.06794135 -0.042690624
000320 c4 44 25 bd c0 75 07 bd 98 fa da bc 68 81 3f bd
       -0.040348783 -0.03307128 -0.02673082 -0.04675427
000330 f0 dc e8 bc cb bc 94 bc bd b4 36 bd f8 0d c3 bc
       -0.028425664 -0.01815643 -0.04460596 -0.023810372
000340 95 d4 18 bd 69 94 93 bc 90 ca 55 bd 48 c4 d0 bc
       -0.03731211 -0.018015103 -0.05219513 -0.02548422
000350 6c 94 13 bd c2 ba 4a bd b6 ce 41 bd 0b 30 1b bd
       -0.036030218 -0.049494512 -0.047316276 -0.037887614
000360 11 d6 8a bd e1 02 f5 bc a5 34 98 3c c6 e8 05 bd
       -0.06779111 -0.0299086 0.01857979 -0.032692693
000370 86 4a 04 bc ac f6 8c 3c 18 bb 9e bd 01 cb 1c bd
       -0.008074408 0.017207466 -0.07750529 -0.038279537
000380 04 f7 9e bb 3c c7 1b bd 38 91 a1 bc cc ee 23 bd
       -0.004851224 -0.0380318 -0.019722566 -0.040022656
000390 59 06 fa bc 9c 88 ab bc bc 06 6a bd 09 7f 25 bc
       -0.030520605 -0.020939164 -0.05713533 -0.010101088
0003a0 7f 8c 97 bb 25 e5 16 bd ea 98 88 3c 62 7a 19 bb
       -0.0046249027 -0.036839623 0.016674478 -0.0023418893
0003b0 c1 6d 5c bd 78 b4 43 3d c2 ee 09 3c 23 a2 f5 bc
       -0.053815607 0.04777953 0.008418741 -0.02998454
0003c0 c2 c2 af 3d 7f 1a 60 3d d1 d8 33 3d 73 63 8d 3c
       0.08582069 0.05471277 0.043907944 0.017259335
0003d0 20 12 22 3c 2e b1 1b bd d3 d5 28 3d 56 c3 2b 3c
       0.009892017 -0.03801077 0.041219544 0.010483583
0003e0 3e 6d 9d bc 90 b0 a8 3d 11 61 87 3d 1e d4 26 3d
       -0.01921713 0.082368016 0.06610311 0.040729634
0003f0 e7 e9 9e bd 69 06 5b bd e5 0b 8f bd bc 67 d0 bc
       -0.07759457 -0.05347291 -0.069846906 -0.02544009

bias f4 [16]
000000 00 25 1a 3d 6c b9 9f be 81 b3 05 be ad bd 8e be
       0.037632942 -0.31196153 -0.13056757 -0.27879086
000010 7d 1f 9b 3d 56 db 50 3d 9a 57 43 3e 8c ab 46 3c
       0.07574365 0.050990425 0.19076386 0.012125861
000020 2b 94 04 3d 1c c1 ed 3d 94 65 09 be 13 1e 19 3d
       0.032367866 0.11609098 -0.13417655 0.037382197
000030 40 71 83 3d 15 3e 92 3d 36 a1 3f 3d d4 ad 50 ae
       0.06418085 0.071407475 0.046784602 -4.7448115e-11
