data/ForestSegmentationOutput/experiemnts/DIFF_BATCH_FIXED_BLOCK_run_FINAL_05-01-2024_08h05min/unet_id=FjBRb_width=32_num_layers=2_lr=0.00085_epochs=400.pth (torch, 115765 bytes, 16 tensors)

weight f4 [16, 8, 3, 3]
000000 6a e7 40 3e 9f 21 3f 3e 37 8b 75 3e ed c1 51 3e
       0.18838277 0.18665169 0.23978887 0.20484133
000010 37 15 50 3e 76 64 33 3e b8 3d 21 3e b7 00 ea 3d
       0.20320593 0.17518792 0.157462 0.114259176
000020 6a d3 15 3e da 84 11 3e 50 17 d5 3d 23 21 8a bc
       0.1463143 0.14210835 0.10404837 -0.016861504
000030 57 0a 08 3d 40 45 b3 3d 33 0c bd 3d c6 a9 fc 3c
       0.033212986 0.08753443 0.092308424 0.030842673
000040 c2 37 c0 3c 88 6f 11 3e 33 85 06 be f9 da 7e bd
       0.023464087 0.14202702 -0.13136749 -0.062220547
000050 da ec fd bd eb cf 2f bb 9d 40 c6 bd 86 6b bc bd
       -0.123986915 -0.002682681 -0.09680293 -0.09200196
000060 83 75 a0 bc 5e 4e ef bd 59 a1 cf bd af 20 1f bd
       -0.019587284 -0.11684869 -0.101381965 -0.03884953
000070 8c 50 fd bd 2b bd d8 bd 6d 04 2b be 22 9b 7e bc
       -0.12368879 -0.10582956 -0.16700907 -0.015539916
000080 80 75 0c be bb e0 37 3b 0f ad cb bd 32 73 f4 bd
       -0.13716698 0.0028057534 -0.09945118 -0.11936034
000090 bd 5a 8e be 7f 22 bf be 0e 29 e5 be d2 00 97 be
       -0.27803603 -0.37331006 -0.44757885 -0.29492813
0000a0 bd cc e2 be e7 09 a9 be 25 ac da be a7 50 bf be
       -0.44296828 -0.33015367 -0.4270946 -0.3736622
0000b0 36 ca e7 be ab b2 68 be 73 a6 1d be fb b8 76 be
       -0.45271462 -0.22724406 -0.15395527 -0.24094002
0000c0 11 01 81 be 32 2d 52 be fd 62 63 be 79 f6 81 be
       -0.25196126 -0.20525053 -0.2220573 -0.25383356
0000d0 c3 d7 b1 be a3 b5 56 be f8 6a 9c bd 08 44 d7 3d
       -0.34734926 -0.20967726 -0.0763759 0.10511023
0000e0 d8 91 4b bd 32 c6 26 3c 64 85 d9 3d 73 12 21 bc
       -0.049699634 0.010179089 0.10621145 -0.009831059
0000f0 9b 66 0a bc 65 14 31 bd d4 ad 8a bd e6 fd 27 3c
       -0.008447315 -0.04323234 -0.06771436 0.010253405
000100 6b 8f 8a 3d 67 6e 4e 3e 7d 09 43 3e c6 6f 0a 3e
       0.06765636 0.20159303 0.19046588 0.135192
000110 45 d4 e1 3d b9 04 58 3d 8f db 15 3e a1 6e ee 3d
       0.11026815 0.05273888 0.14634536 0.116421945
000120 f9 20 00 80 8c 23 00 00 01 36 00 80 c3 04 00 00
       -1.1828e-41 1.2752e-41 -1.9373e-41 1.708e-42
000130 63 0d 00 80 dc 48 00 80 fc 47 00 00 f8 06 00 80
       -4.802e-42 -2.6137e-41 2.5823e-41 -2.5e-42
000140 1f 06 00 00 5a 1f 00 80 ae 31 00 80 55 2d 00 00
       2.196e-42 -1.1247e-41 -1.7822e-41 1.6262e-41
000150 58 4c 00 80 1c 03 00 00 bd 33 00 80 fa 06 00 80
       -2.7387e-41 1.115e-42 -1.856e-41 -2.503e-42
000160 8e 5e 00 00 c0 18 00 00 c8 53 00 00 56 30 00 80
       3.392e-41 8.879e-42 3.0055e-41 -1.734e-41
000170 17 58 00 00 ce 65 00 00 63 62 00 00 63 60 00 00
       3.16e-41 3.652e-41 3.5295e-41 3.4577e-41
000180 57 48 00 80 6d 47 00 00 06 27 00 00 79 25 00 80
       -2.595e-41 2.5623e-41 1.3999e-41 -1.3443e-41
000190 51 12 00 00 3a 49 00 00 2e 46 00 00 7a 54 00 00
       6.57e-42 2.6269e-41 2.5176e-41 3.0304e-41
0001a0 1d 50 00 00 93 18 00 80 8e 02 00 80 9d 25 00 00
       2.8739e-41 -8.816e-42 -9.16e-43 1.3493e-41
0001b0 e3 29 00 00 05 0c 00 80 87 2c 00 80 19 9a 00 00
       1.5026e-41 -4.312e-42 -1.5973e-41 5.528e-41
0001c0 7a 7a 00 80 62 46 00 00 6e 63 00 80 ca 7b 00 00
       -4.3936e-41 2.5249e-41 -3.5669e-41 4.4407e-41
0001d0 b4 08 00 80 e8 04 00 00 3f 05 00 80 2d 1e 00 00
       -3.122e-42 1.76e-42 -1.882e-42 1.0825e-41
0001e0 f1 40 00 00 69 48 00 80 d3 48 00 00 28 3f 00 00
       2.3297e-41 -2.5976e-41 2.6124e-41 2.2656e-41
0001f0 ac 12 00 00 02 23 00 80 17 10 00 00 1a 3d 00 00
       6.698e-42 -1.2558e-41 5.772e-42 2.1919e-41
000200 a8 30 00 00 ee 33 00 80 95 17 00 00 40 12 00 00
       1.7455e-41 -1.8629e-41 8.46e-42 6.547e-42
000210 32 1d 00 80 86 39 00 80 2c 0e 00 80 e0 29 00 00
       -1.0473e-41 -2.0636e-41 -5.084e-42 1.5022e-41
000220 ff 18 00 80 78 36 00 80 fa 35 00 00 f2 0d 00 80
       -8.967e-42 -1.954e-41 1.9363e-41 -5.003e-42
000230 91 00 00 80 6d 3f 00 00 97 0b 00 80 f5 25 00 00
       -2.03e-43 2.2753e-41 -4.158e-42 1.3616e-41
000240 a7 09 0f ba 63 2d 12 ba a5 fe 15 ba 72 3c 16 ba
       -0.00054564554 -0.0005576221 -0.0005721844 -0.0005731053
000250 26 c8 14 ba b6 29 13 ba dc 4f 1e ba f7 75 15 ba
       -0.00056755764 -0.00056138204 -0.00060391217 -0.0005701477
000260 56 1c 0e ba e7 07 b9 b7 3d d3 cd b7 87 9a e4 b7
       -0.00054210925 -2.2057398e-05 -2.453627e-05 -2.7251675e-05
000270 be c2 da b7 6c 6a d7 b7 c6 ea d2 b7 ce f7 03 b8
       -2.6078309e-05 -2.5679554e-05 -2.5143276e-05 -3.146362e-05
000280 c9 e7 d9 b7 45 25 b9 b7 d1 2b 6e b9 2c b0 7a b9
       -2.597635e-05 -2.2071074e-05 -0.00022713772 -0.00023907487
000290 35 99 87 b9 e4 73 89 b9 09 6f 83 b9 51 91 7d b9
       -0.00025863355 -0.00026217022 -0.00025068995 -0.00024182095
0002a0 81 b4 9c b9 9c 8f 82 b9 60 8b 5c b9 68 7a 1a b9
       -0.00029889125 -0.0002490253 -0.00021032756 -0.00014732184
0002b0 15 22 31 b9 56 17 42 b9 45 b9 47 b9 1f d0 41 b9
       -0.00016892732 -0.00018509975 -0.00019047137 -0.00018483445
0002c0 08 ff 32 b9 cb 8f 7b b9 04 1c 41 b9 db 97 10 b9
       -0.0001707041 -0.00023990792 -0.00018416351 -0.0001378948
0002d0 ee 03 43 b5 bf 5c b0 b5 66 9c f6 b5 83 28 de b5
       -7.264888e-07 -1.3140015e-06 -1.8373946e-06 -1.6552079e-06
0002e0 ca 42 e1 b5 83 15 b7 b5 d8 8a 71 b6 5a eb e3 b5
       -1.6783245e-06 -1.3640823e-06 -3.5992616e-06 -1.6981314e-06
0002f0 cc c8 3d b5 26 36 ce bb af cd c8 bb bc 47 c9 bb
       -7.0700185e-07 -0.006293076 -0.006128035 -0.0061425846
000300 cd d5 d6 bb 19 4d ce bb 0c 2b c7 bb 90 85 d8 bb
       -0.0065562488 -0.006295812 -0.0060781296 -0.0066077188
000310 27 24 cd bb ed 6f bf bb 17 87 24 bc 3c 44 1f bc
       -0.006260413 -0.0058422 -0.010041974 -0.009720858
000320 55 6e 1d bc 4e f3 26 bc fc ef 20 bc 4d 66 1b bc
       -0.009608825 -0.010189844 -0.009822842 -0.00948484
000330 a1 1d 25 bc 8f b2 1e bc fc 52 16 bc 9b b6 15 bc
       -0.010077865 -0.009686126 -0.009175058 -0.009137775
000340 90 ea 10 bc cd ce 0e bc 9b b4 17 bc ad 3b 12 bc
       -0.008844987 -0.008716297 -0.009259368 -0.008925361
000350 d1 c5 0c bc 21 ce 15 bc ff e2 0f bc 8d c8 07 bc
       -0.008592085 -0.009143383 -0.008782147 -0.008287561
000360 03 58 99 3c b7 30 b2 3c 44 4b c1 3c 04 55 1b 3c
       0.018718725 0.021751745 0.02359546 0.0094807185
000370 92 e7 85 3c f0 03 b7 3c 4d fb f1 bb c5 52 ac ba
       0.016345773 0.022340745 -0.0073846937 -0.0013147226
000380 47 23 e6 3b 62 bc 33 3c aa 16 30 3c 13 70 4d 3c
       0.0070232484 0.010970207 0.010747591 0.012538928
000390 ba e8 a4 3b ed 84 e9 3b 86 ab 43 3c 36 6b e2 b9
       0.005032626 0.0071264417 0.01194275 -0.00043185957
0003a0 05 f4 05 3a 6d 70 ab 3b 5a 8c 0e 3c df 79 0e 3c
       0.0005109909 0.005231908 0.008700455 0.0086960485
0003b0 26 4f 55 3c 4e dd 16 ba f9 53 39 3b 86 fa 4c 3c
       0.013019359 -0.0005755023 0.0028278811 0.012510901
0003c0 f1 55 00 bc 56 f2 dd bb 97 50 e0 3a d2 af 97 3b
       -0.00783299 -0.0067732735 0.0017113861 0.0046291137
0003d0 07 d4 d9 3b c9 6b 3b 3c 99 57 09 bc ee 64 02 bb
       0.00664759 0.011439272 -0.008382701 -0.0019896585
0003e0 54 f3 32 3c c8 7d 87 bc 37 c8 61 bc 1f f6 17 bb
       0.010922272 -0.01653947 -0.013780645 -0.002318747
0003f0 08 51 db ba 47 12 dc b8 16 e8 5d 3b 9b 2d 3a bc
       -0.0016732523 -0.00010493822 0.0033860258 -0.011363412

bias f4 [16]
000000 99 36 a7 3e 92 55 eb a1 6d f7 54 bc f8 ae 94 3e
       0.32658842 -1.594687e-18 -0.012998444 0.2903974
000010 41 17 0c bb 27 33 fb 3e fd 5d 7d bc 2e 52 22 bc
       -0.0021376165 0.49062464 -0.015464303 -0.0099072885
000020 41 7f cb 3e 8d 2d 02 3e 6e eb b8 3e 97 e7 5d 3e
       0.39745525 0.12712689 0.3611712 0.21670376
000030 83 6b 5e 3e 86 24 ec bb f8 96 8f be 18 cb 7a bb
       0.217207 -0.0072065024 -0.28044868 -0.0038268026

weight f4 [16, 16, 3, 3]
000000 ec b3 67 be 16 c0 2d be c4 13 f1 bd 36 7e 33 be
       -0.22627228 -0.16967806 -0.11771348 -0.17528614
000010 c7 b9 44 be 2e ce b7 bd 51 96 55 be 08 7c 24 be
       -0.19211493 -0.089748725 -0.20858122 -0.16062939
000020 ce cd 9d bd 12 05 00 00 05 10 00 80 e9 23 00 80
       -0.0770527 1.819e-42 -5.747e-42 -1.2882e-41
000030 c4 0e 00 00 b5 0c 00 00 3d 14 00 80 43 3d 00 00
       5.297e-42 4.558e-42 -7.26e-42 2.1977e-41
000040 4c 47 00 80 2d 17 00 80 af 3c d3 3b 62 96 cd 3b
       -2.5576e-41 -8.314e-42 0.006446443 0.0062740305
000050 af 60 c7 3b bb 65 c7 3b 0f 52 c5 3b ee 11 c4 3b
       0.0060845236 0.0060851253 0.006021745 0.0059835827
000060 9d fb b7 3b 69 9d bd 3b 6b 17 c3 3b 5e 44 2f 3b
       0.0056147114 0.005786587 0.0059537194 0.002674363
000070 cc 81 71 3d f2 3b fc 3d 5e 2a 10 b9 bd 9f 00 3d
       0.058961675 0.12316121 -0.00013748693 0.03140234
000080 70 00 89 3d 2b a8 8d 3c cd 56 59 3d 6c 6f a7 3d
       0.066895366 0.017292103 0.053061295 0.08175549
000090 39 47 46 b3 4e 98 41 b3 3c d0 3c b3 5a 44 30 b3
       -4.6165244e-08 -4.5074835e-08 -4.396155e-08 -4.104036e-08
0000a0 f7 92 28 b3 9a b7 29 b3 d5 53 21 b3 1a 41 16 b3
       -3.9249212e-08 -3.9515363e-08 -3.756198e-08 -3.4983806e-08
0000b0 c9 ac 18 b3 4f 37 71 3e e4 8a 83 3e c0 0a b9 3e
       -3.5547405e-08 0.23556255 0.25691903 0.36141014
0000c0 ff 61 bb 3e f5 96 cb 3e 1a 15 a9 3e 56 c1 fa 3e
       0.36598203 0.3976361 0.33023912 0.4897563
0000d0 35 12 fa 3e 2e f3 fd 3e 66 b7 2a 3c 82 90 2d 3c
       0.48842016 0.49599594 0.010419702 0.010593535
0000e0 56 73 30 3c 23 48 27 3c 9d 93 27 3c c7 e8 29 3c
       0.010769686 0.01021007 0.010228065 0.01037044
0000f0 0d 1d 2d 3c 6d 45 2b 3c 7c 0f 2b 3c 81 a7 07 02
       0.010566008 0.010453564 0.0104407035 9.966305e-38
000100 d4 fd ab 02 69 0a 35 00 09 07 05 80 de 1f 00 80
       2.5271882e-37 4.871016e-39 -4.61701e-40 -1.1432e-41
000110 62 86 00 00 dc 38 00 80 89 1a 00 80 1e 4f 38 80
       4.8207e-41 -2.0397e-41 -9.519e-42 -5.17117e-39
000120 39 67 4f 3e db 73 5e 3e fc 92 af 3e e7 c1 b4 3e
       0.2025422 0.21723883 0.34291828 0.35304186
000130 1f 58 be 3e 6c b2 9c 3e ac 0b f2 3e 58 e1 e9 3e
       0.37176606 0.30604875 0.4727453 0.45679736
000140 74 33 e4 3e 2a d6 41 3e 46 b1 35 3e 57 7e 06 3e
       0.44570506 0.18929353 0.17743406 0.13134132
000150 5b 7d 3d 3e b3 04 4b 3e 1f 3a 00 3e a6 7e 55 3e
       0.1850485 0.19826011 0.12522171 0.20849094
000160 6f 97 4b 3e 0b cf 53 3e e3 65 65 be 8e 29 5b be
       0.19881986 0.2068445 -0.22402148 -0.2140257
000170 4d 6f 43 be 84 ad 55 be 9d ae 6f be 16 4c 1b be
       -0.19085427 -0.20866972 -0.23406453 -0.15165743
000180 39 33 35 be 57 f5 04 be fc d6 c3 bd 91 6d 26 be
       -0.17695321 -0.12984215 -0.095624894 -0.16252734
000190 62 05 85 be 77 b5 67 be 2b e9 6c be 57 b4 ac be
       -0.2598067 -0.22627817 -0.23135822 -0.33731338
0001a0 2f 4d 75 be 0d d3 5b be 77 08 9c be 7b 0b a6 be
       -0.23955224 -0.21467228 -0.30475208 -0.32430634
0001b0 34 ad 45 3d ce ae 78 3d a3 75 ef 3d 70 2f 13 3e
       0.048260882 0.06071358 0.11692359 0.14373565
0001c0 be 5b 0c 3e c3 2d 97 3d e1 65 3e 3e 93 3b 57 3e
       0.13706872 0.07381775 0.18593551 0.2101882
0001d0 94 6a 45 3e 87 ae dc 3a e5 b0 d3 3a 76 c4 d2 3a
       0.19278938 0.0016836681 0.0016150741 0.0016080278
0001e0 50 ea e0 3a 19 b1 d9 3a 93 6e de 3a e9 4d ea 3a
       0.0017159674 0.0016608565 0.001697021 0.0017876002
0001f0 e5 ae eb 3a bf d9 f9 3a c2 6f 0b bc 18 62 35 bc
       0.00179812 0.0019062086 -0.008510532 -0.011070751
000200 49 3b d6 3a 0a 19 ae bd 16 66 b9 bd 12 38 4d bd
       0.0016344573 -0.085008696 -0.090526745 -0.0501023
000210 f9 a0 e6 bd d5 87 30 be 5d c6 e6 bd 69 0b 51 3c
       -0.11261172 -0.17239316 -0.112683035 0.012759068
000220 f1 37 50 3c 20 16 50 3c e7 52 52 3c e1 ab 50 3c
       0.01270865 0.0127005875 0.012837148 0.012736292
000230 36 af 4f 3c b1 3a 53 3c aa 6f 51 3c c7 a2 4f 3c
       0.012676051 0.012892411 0.01278297 0.0126730865
000240 db e8 f9 3d 91 9b 1d 3e dd dc 36 3e 86 df 13 3e
       0.12202617 0.15391375 0.1785769 0.14440736
000250 07 af 75 3e 18 1d 4e 3e 8b 89 03 3e 3d de 60 3e
       0.23992549 0.20128286 0.12845437 0.21959777
000260 f0 43 0e 3e 8e 25 00 00 21 15 00 80 e1 53 00 80
       0.13893104 1.3472e-41 -7.58e-42 -3.009e-41
000270 57 54 00 80 a3 48 00 80 bc 29 00 00 30 4c 00 00
       -3.0255e-41 -2.6057e-41 1.4971e-41 2.7331e-41
000280 c5 41 00 80 f5 2c 00 00 46 5f 3e 3b f3 44 3f 3b
       -2.3594e-41 1.6128e-41 0.0029048487 0.0029185384
000290 fa 1f 3f 3b 47 e7 3c 3b aa b8 40 3b 85 32 43 3b
       0.0029163347 0.0028824375 0.0029406943 0.002978475
0002a0 92 32 36 3b fd 2d 3c 3b eb e3 42 3b 2d 48 05 bd
       0.0027801138 0.0028713935 0.00297379 -0.032539535
0002b0 02 e3 70 bd c5 22 43 bd 4c ca 9d bc 47 27 87 bd
       -0.05881024 -0.04764058 -0.019261502 -0.065992884
0002c0 cb 45 8b bd 46 6c 38 bd 68 4d 6d bd 3b 5c b9 bd
       -0.06800421 -0.045025133 -0.05793515 -0.09050795
0002d0 ad 6d a3 37 74 55 a9 37 a7 c2 a5 37 6a 41 8f 37
       1.9482186e-05 2.0186162e-05 1.9760175e-05 1.707739e-05
0002e0 80 47 93 37 5c b0 92 37 1d c4 83 37 ce a3 82 37
       1.755706e-05 1.748668e-05 1.570774e-05 1.5573485e-05
0002f0 bc 06 82 37 07 2e 45 bd 9b eb fa bd 23 2d bc bd
       1.5500344e-05 -0.0481396 -0.122519694 -0.09188297
000300 82 19 cc bc 93 44 a2 bd 4a 15 25 be 02 99 00 be
       -0.024914507 -0.07923236 -0.16121402 -0.12558368
000310 91 c9 93 bd fd f6 e2 bd 37 bc 5f bb 95 76 6d bb
       -0.0721618 -0.110822655 -0.0034139284 -0.003623401
000320 49 63 6d bb 2b 31 57 bb 4f d0 56 bb 99 50 4e bb
       -0.0036222509 -0.0032835703 -0.003277797 -0.0031481145
000330 b0 75 3b bb 78 40 2a bb 2f a8 1d bb ee 9d 9d b9
       -0.0028604083 -0.0025978368 -0.0024056544 -0.0003006304
000340 63 e4 a4 b9 f0 fc a9 b9 75 62 99 b9 c1 0d a0 b9
       -0.0003145068 -0.00032422645 -0.0002925579 -0.00030527826
000350 7e af a6 b9 75 59 a1 b9 c3 77 a7 b9 0d 53 aa b9
       -0.0003179274 -0.00030774964 -0.00031941952 -0.00032486804
000360 ec b2 23 bd d2 d9 d0 bd dc 74 9e bd af 51 d8 bc
       -0.039965555 -0.10197796 -0.07737133 -0.026406137
000370 dc b8 8f bd 8d 98 0e be dd d3 cb bd a9 b3 88 bd
       -0.07017681 -0.13925381 -0.09952519 -0.066748925
000380 11 57 c5 bd ea 13 ae be 47 06 2c bf f7 e5 f3 be
       -0.09635747 -0.33999568 -0.6719708 -0.47636387
000390 9c 91 02 be ac a7 08 bf 76 f7 cd be a0 69 84 3d
       -0.12750858 -0.53380847 -0.4022786 0.06465459
0003a0 8b e4 3b be 5e 0e fc bd fc d5 b3 3b cf 49 27 3d
       -0.18348901 -0.12307428 0.0054881554 0.040841874
0003b0 c4 74 e2 3d 35 d1 e2 3d e6 fc 57 3e 47 d9 6e 3e
       0.110574275 0.11075059 0.21092567 0.23325072
0003c0 b2 3d d8 3d 24 74 43 3e 33 4a 1d 3e ad e1 34 3e
       0.105586424 0.19087273 0.15360336 0.17664213
0003d0 73 fc 94 3e 21 66 57 3e f8 53 25 3e ce 19 8c 3e
       0.29098853 0.21035053 0.16145313 0.27363437
0003e0 c0 ef 78 3e 1e 05 60 3d d3 54 5b 3e 94 41 54 3e
       0.24310207 0.05469238 0.21419077 0.20728141
0003f0 be e3 e7 bc 68 c8 83 bd 59 05 58 bd 9d 42 62 bb
       -0.028306838 -0.06434709 -0.052739475 -0.0034524568

bias f4 [16]
000000 00 8b d9 3d d0 39 12 be fe d9 b2 b3 a4 34 9c 3d
       0.10622215 -0.14279866 -8.3284235e-08 0.07627228
000010 be db 9b bc c3 4b 28 b7 78 e4 a6 bd 2e 79 29 3d
       -0.01902568 -1.003122e-05 -0.08149046 0.04137533
000020 c0 fd 7c bc 85 b6 9c bc 98 98 8c bc 10 86 13 b7
       -0.015441358 -0.01913 -0.017162606 -8.793097e-06
000030 ec dc aa bb cf 5c bc bc 78 81 4f bd 9c 8b 32 bc
       -0.005214324 -0.022993473 -0.05066058 -0.010897543

weight f4 [32, 16, 3, 3]
000000 ff 43 00 80 30 49 00 80 35 1c 00 00 21 1e 00 00
       -2.4392e-41 -2.6255e-41 1.0119e-41 1.0808e-41
000010 ce 15 00 80 47 52 00 00 b6 02 00 00 22 42 00 80
       -7.822e-42 2.9516e-41 9.73e-43 -2.3724e-41
000020 70 12 00 00 14 5c 00 00 0b 3a 00 80 0d 11 00 00
       6.614e-42 3.3031e-41 -2.0822e-41 6.117e-42
000030 ed 09 00 00 54 37 00 80 66 58 00 00 ae 3d 00 80
       3.56e-42 -1.9848e-41 3.1711e-41 -2.2127e-41
000040 63 18 00 80 5d 5a 00 00 f1 a9 00 00 a3 be 00 80
       -8.748e-42 3.2416e-41 6.0963e-41 -6.8388e-41
000050 6e 2e 00 80 10 09 00 00 84 cb 02 00 b2 6d 01 80
       -1.6656e-41 3.251e-42 2.56679e-40 -1.31187e-40
000060 04 26 00 00 75 fa 00 00 ed c7 00 80 d9 37 00 80
       1.3637e-41 8.9847e-41 -7.172e-41 -2.0034e-41
000070 44 3c 00 00 0e 41 00 00 9a 4c 00 80 d6 4b 00 80
       2.1619e-41 2.3337e-41 -2.748e-41 -2.7205e-41
000080 6a 23 00 00 02 3e 00 80 d6 11 00 00 f1 2c 00 00
       1.2704e-41 -2.2244e-41 6.398e-42 1.6122e-41
000090 08 f4 01 00 e3 24 02 00 63 d7 01 00 39 0f 01 00
       1.79377e-40 1.96903e-40 1.69102e-40 9.7296e-41
0000a0 ce 2e 01 00 3d 86 03 00 87 64 00 00 9c b0 00 00
       1.08626e-40 3.23662e-40 3.6062e-41 6.3356e-41
0000b0 55 4d 00 80 c5 95 02 80 e2 17 02 00 d3 38 01 80
       -2.7742e-41 -2.37398e-40 1.92239e-40 -1.1222e-40
0000c0 f6 95 03 80 11 59 02 80 69 c8 02 00 b8 08 00 00
       -3.29302e-40 -2.15622e-40 2.55565e-40 3.128e-42
0000d0 db 70 01 80 4a 50 00 80 0b 40 00 80 8c 43 00 80
       -1.3232e-40 -2.8802e-41 -2.2974e-41 -2.4231e-41
0000e0 59 39 00 80 a8 2c 00 80 97 2f 00 00 8e 1a 00 00
       -2.0572e-41 -1.602e-41 1.7072e-41 9.526e-42
0000f0 66 17 00 00 5a 3c 00 00 ee 23 00 80 25 3a 00 00
       8.394e-42 2.165e-41 -1.2889e-41 2.0858e-41
000100 44 29 00 80 ad 3e 00 00 17 27 00 00 00 26 00 00
       -1.4803e-41 2.2484e-41 1.4023e-41 1.3632e-41
000110 af 3f 00 80 b3 09 00 00 3b 3e 00 00 25 28 00 00
       -2.2845e-41 3.48e-42 2.2324e-41 1.4401e-41
000120 ba c7 00 80 1d f3 02 80 04 85 00 00 6a be 00 80
       -7.1648e-41 -2.70884e-40 4.7717e-41 -6.8308e-41
000130 d8 c7 02 00 11 b1 01 80 37 b2 01 00 e8 22 00 00
       2.55361e-40 -1.55355e-40 1.55767e-40 1.2522e-41
000140 92 85 02 00 38 03 00 00 61 00 00 00 45 17 00 80
       2.31587e-40 1.155e-42 1.36e-43 -8.348e-42
000150 3e 22 00 00 04 1e 00 80 a1 0d 00 00 bc 24 00 80
       1.2284e-41 -1.0768e-41 4.889e-42 -1.3178e-41
000160 e1 2c 00 00 a3 37 00 00 93 3f 00 00 8b 07 00 80
       1.61e-41 1.9959e-41 2.2806e-41 -2.706e-42
000170 38 3e 00 80 12 3e 00 00 d0 05 00 00 ee 25 00 00
       -2.232e-41 2.2267e-41 2.085e-42 1.3607e-41
000180 3e 0e 00 00 76 29 00 00 8e 28 00 00 fe 30 01 80
       5.109e-42 1.4873e-41 1.4548e-41 -1.0941e-40
000190 e2 0a 01 00 5d f7 02 00 fc e9 01 80 df ec 00 00
       9.574e-41 2.72408e-40 -1.75773e-40 8.4973e-41
0001a0 03 ce 01 80 25 b0 01 80 bd d8 00 80 47 af 01 80
       -1.65739e-40 -1.55024e-40 -7.7751e-41 -1.54713e-40
0001b0 88 4e 00 00 9f a7 00 00 56 fb 01 80 f5 2b 01 00
       2.8172e-41 6.0131e-41 -1.81998e-40 1.07604e-40
0001c0 aa dc 01 80 75 6a 00 00 02 4c 02 80 21 fb 01 80
       -1.70995e-40 3.819e-41 -2.10937e-40 -1.81924e-40
0001d0 aa b3 01 80 b6 0f 04 80 31 ca 00 00 25 2b 01 00
       -1.56287e-40 -3.72978e-40 7.2533e-41 1.07313e-40
0001e0 67 48 02 80 c8 7a 02 00 3c 76 00 80 0c 1d 01 80
       -2.09644e-40 2.27717e-40 -4.2415e-41 -1.02256e-40
0001f0 ae c9 03 80 42 96 03 00 98 31 00 80 36 3e 00 00
       -3.47856e-40 3.29409e-40 -1.7791e-41 2.2317e-41
000200 c6 3a 00 80 ff 33 00 80 1e 1a 00 00 86 1e 00 00
       -2.1084e-41 -1.8653e-41 9.369e-42 1.095e-41
000210 31 48 00 80 9a 18 00 80 a7 2c 00 00 cb d3 00 00
       -2.5897e-41 -8.825e-42 1.6018e-41 7.5977e-41
000220 4f b0 00 80 95 91 00 80 ec a5 00 80 f4 58 00 80
       -6.3248e-41 -5.2225e-41 -5.9522e-41 -3.191e-41
000230 3f 19 01 80 3a be 01 80 59 fe 01 80 76 47 00 00
       -1.00892e-40 -1.60076e-40 -1.83078e-40 2.5635e-41
000240 f7 49 00 00 ad 5b 00 80 5d 12 00 80 66 2d 00 00
       2.6534e-41 -3.2887e-41 -6.588e-42 1.6286e-41
000250 17 47 00 00 4d 53 00 00 31 21 00 80 00 62 00 00
       2.5502e-41 2.9883e-41 -1.1907e-41 3.5156e-41
000260 95 68 00 80 98 13 00 00 9d 52 00 00 8c 14 00 00
       -3.7517e-41 7.029e-42 2.9636e-41 7.371e-42
000270 3d 13 00 80 af 50 00 00 4d 28 00 00 df 4e 00 00
       -6.901e-42 2.8944e-41 1.4457e-41 2.8294e-41
000280 6c 0b 00 80 3d 53 00 00 19 8b 02 00 ad e5 00 00
       -4.097e-42 2.986e-41 2.3357e-40 8.2392e-41
000290 14 1b 01 80 5c 36 01 80 4e 95 01 80 c7 67 02 00
       -1.01549e-40 -1.11336e-40 -1.45396e-40 2.20899e-40
0002a0 9d f1 02 80 72 1b 01 00 99 e8 00 80 74 39 00 00
       -2.70346e-40 1.01681e-40 -8.344e-41 2.061e-41
0002b0 8b 20 00 80 39 3b 00 80 76 40 00 00 72 00 00 00
       -1.1674e-41 -2.1245e-41 2.3124e-41 1.6e-43
0002c0 9a 37 00 00 bf 19 00 00 05 04 00 80 e7 3e 00 00
       1.9946e-41 9.236e-42 -1.442e-42 2.2565e-41
0002d0 b4 dc 00 00 4c fb 01 00 c4 32 01 00 1d 6d 00 80
       7.9173e-41 1.81984e-40 1.10047e-40 -3.9142e-41
0002e0 bd 66 02 00 a9 6c 02 00 ac 6d 01 00 6a 27 01 80
       2.20527e-40 2.22651e-40 1.31178e-40 -1.05975e-40
0002f0 19 a3 00 80 92 67 01 80 cd 22 00 80 cb e7 00 80
       -5.8508e-41 -1.2899e-40 -1.2484e-41 -8.3152e-41
000300 a5 95 02 80 6d 21 03 00 f4 b7 00 80 73 c6 00 80
       -2.37353e-40 2.87497e-40 -6.599e-41 -7.119e-41
000310 91 3f 01 00 ec 41 03 00 fd 66 00 00 3f 59 00 00
       1.14639e-40 2.99155e-40 3.6945e-41 3.2015e-41
000320 1e 4f 00 00 24 50 00 80 e4 56 00 00 07 41 00 00
       2.8382e-41 -2.8749e-41 3.117e-41 2.3327e-41
000330 05 44 00 80 eb 40 00 80 b2 24 00 00 1d c6 0a 91
       -2.4401e-41 -2.3288e-41 1.3164e-41 -1.0947329e-28
000340 fe 1e 3b 91 6d 50 36 91 43 98 55 93 62 98 b4 90
       -1.4761249e-28 -1.4382052e-28 -2.695945e-27 -7.1232264e-29
000350 f7 77 0d 8f 6f 25 ad 93 ab 67 c5 8e 2d 94 35 8c
       -6.974941e-30 -4.3708252e-27 -4.8664078e-30 -1.3988323e-31
000360 3e ca 02 80 58 6a 00 80 73 04 03 80 0d 31 00 00
       -2.56222e-40 -3.8149e-41 -2.77103e-40 1.7596e-41
000370 33 2e 01 80 d6 51 02 00 d9 35 00 80 92 d2 01 00
       -1.08409e-40 2.13028e-40 -1.9317e-41 1.67374e-40
000380 6a e7 00 80 71 ce 00 00 70 8c 00 00 3d 79 00 80
       -8.3016e-41 7.4057e-41 5.038e-41 -4.3492e-41
000390 23 24 00 00 eb 3c 00 00 82 01 00 00 89 76 00 00
       1.2963e-41 2.1853e-41 5.41e-43 4.2522e-41
0003a0 0f ba 00 00 1d 5c 00 00 34 29 00 00 f1 32 00 00
       6.6745e-41 3.3044e-41 1.4781e-41 1.8274e-41
0003b0 b7 05 00 00 0e 39 00 00 a2 2b 00 00 1b 33 00 00
       2.05e-42 2.0467e-41 1.5653e-41 1.8333e-41
0003c0 00 17 00 80 2e 3c 00 00 3c 07 00 00 0a e9 00 00
       -8.251e-42 2.1588e-41 2.595e-42 8.3599e-41
0003d0 e0 59 00 80 9d ed 00 80 64 bc 00 80 2a 8e 01 00
       -3.2241e-41 -8.524e-41 -6.7582e-41 1.42834e-40
0003e0 9e 31 01 80 35 70 00 00 90 e1 03 80 53 d0 02 80
       -1.09635e-40 4.0252e-41 -3.56423e-40 -2.58404e-40
0003f0 25 06 01 00 d3 99 02 80 f0 4c 00 80 45 2c 00 80
       9.404e-41 -2.38853e-40 -2.76e-41 -1.5881e-41

bias f4 [32]
000000 38 f2 b0 a6 f7 18 21 ac 0c 76 87 3e 7c d6 02 bc
       -1.2278107e-15 -2.2893334e-12 0.2645725 -0.007985707
000010 0c 82 ad bb e7 f6 4d b1 a2 57 59 be 2a b1 ab bb
       -0.005295044 -2.9971774e-09 -0.21224836 -0.0052396255
000020 ea 07 0d 96 0d 42 33 bc 5a 06 a1 bc f1 43 59 3e
       -1.1392387e-25 -0.010941041 -0.019656349 0.21217324
000030 d7 8e 0a bc be 6b a4 92 4b c9 25 bc 64 1b 15 bd
       -0.008456907 -1.0376416e-27 -0.010118793 -0.036403075
000040 3e f2 ff b0 4e f1 bd 3b 8e f6 1c bd f2 dc a4 bd
       -1.8622541e-09 0.005796588 -0.03832107 -0.080499545
000050 ec df 41 bb 80 42 33 b9 ea 1a 00 bc 3a e4 ad b9
       -0.002958293 -0.00017095543 -0.007818917 -0.00033167173
000060 bf e0 83 b8 46 10 a4 bb 1d cc f2 3c 61 18 7a 3e
       -6.288429e-05 -0.0050068228 0.029638344 0.24423362
000070 b1 7b fa b0 64 62 f4 ad e6 23 ab 3e 6c ac a8 bb
       -1.8225049e-09 -2.7783283e-11 0.33425826 -0.0051475074

weight f4 [32, 32, 3, 3]
000000 84 85 00 00 00 65 00 80 be 4c 03 80 19 b5 00 80
       4.7896e-41 -3.6232e-41 -3.03036e-40 -6.4966e-41
000010 e5 96 00 00 16 a6 01 00 bb 1f 01 80 ba 20 00 80
       5.4131e-41 1.51416e-40 -1.03218e-40 -1.174e-41
000020 f7 6d 01 00 de 06 00 80 b2 0c 01 00 7a 24 00 00
       1.31283e-40 -2.463e-42 9.639e-41 1.3085e-41
000030 4d d2 00 00 df 10 01 80 69 44 00 80 b4 65 01 80
       7.5442e-41 -9.7888e-41 -2.4541e-41 -1.2832e-40
000040 32 2b 00 80 4d e0 01 00 7a bf 00 00 f1 27 00 80
       -1.5496e-41 1.723e-40 6.8689e-41 -1.4328e-41
000050 d2 71 00 80 ed 16 00 00 06 b8 00 80 76 0d 01 00
       -4.0831e-41 8.224e-42 -6.6015e-41 9.6664e-41
000060 5a 50 00 80 47 79 00 80 e5 35 00 00 4f 05 00 80
       -2.8825e-41 -4.3506e-41 1.9334e-41 -1.904e-42
000070 38 1d 01 80 03 25 01 80 35 c6 01 80 40 9d 01 80
       -1.02317e-40 -1.05113e-40 -1.62939e-40 -1.48246e-40
000080 46 5e 02 00 0b 52 00 00 33 b7 02 00 b9 17 02 80
       2.1749e-40 2.9431e-41 2.4939e-40 -1.92181e-40
000090 3c 95 00 00 bc 38 02 80 22 6e 02 80 44 91 02 00
       5.3535e-41 -2.04023e-40 -2.23179e-40 2.35782e-40
0000a0 01 83 01 00 5e 72 02 80 bc 47 01 00 f9 91 01 00
       1.38831e-40 -2.24698e-40 1.17569e-40 1.442e-40
0000b0 4f 65 02 00 6e e5 01 80 37 6c 01 80 e2 5f 02 00
       2.20014e-40 -1.7414e-40 -1.30656e-40 2.18067e-40
0000c0 58 56 01 80 da 98 01 00 9d 66 01 80 a9 3a 01 00
       -1.2281e-40 1.46668e-40 -1.28646e-40 1.12879e-40
0000d0 b9 26 01 80 48 86 02 80 80 3e 00 00 0e 1f 00 80
       -1.05727e-40 -2.31842e-40 2.2421e-41 -1.114e-41
0000e0 d2 2f 00 00 44 3e 00 80 ee 02 00 80 84 0e 00 00
       1.7155e-41 -2.2337e-41 -1.051e-42 5.207e-42
0000f0 41 0f 00 80 32 11 00 80 6d 2d 00 80 98 50 01 00
       -5.472e-42 -6.169e-42 -1.6296e-41 1.20747e-40
000100 a5 ea 00 80 b8 29 02 80 fc 85 01 80 a5 76 02 80
       -8.4175e-41 -1.98637e-40 -1.399e-40 -2.26233e-40
000110 f7 21 00 80 36 23 01 80 1b ea 01 00 e9 71 02 00
       -1.2184e-41 -1.04467e-40 1.75817e-40 2.24534e-40
000120 42 99 00 80 ec 40 02 00 9b 09 04 00 92 68 00 00
       -5.4979e-41 2.0696e-40 3.70788e-40 3.7513e-41
000130 a7 56 01 00 9d e6 02 80 d9 94 03 80 16 22 00 00
       1.2292e-40 -2.664e-40 -3.28903e-40 1.2228e-41
000140 4f 60 02 80 4c 6d 00 00 0d 5a 00 80 2e 7c 02 80
       -2.1822e-40 3.9208e-41 -3.2304e-41 -2.28218e-40
000150 e4 6f 00 00 e7 c3 02 80 f6 e8 02 00 7e cb 02 00
       4.0139e-41 -2.53948e-40 2.67242e-40 2.5667e-40
000160 ac 21 02 00 3b 7b 02 80 b2 c0 02 00 02 e3 03 00
       1.9575e-40 -2.27878e-40 2.52797e-40 3.56942e-40
000170 90 c3 03 00 b8 a8 02 80 fa 85 01 00 29 40 02 80
       3.45661e-40 -2.44196e-40 1.39897e-40 -2.06687e-40
000180 37 ff 02 80 b1 7f 01 00 0d 1f 00 00 52 79 00 00
       -2.75225e-40 1.37643e-40 1.1139e-41 4.3522e-41
000190 a0 00 00 80 c8 4c 00 80 fa 7f 00 80 9e 44 00 00
       -2.24e-43 -2.7544e-41 -4.591e-41 2.4615e-41
0001a0 a8 50 00 80 78 6f 00 00 ee 1d 00 00 ed 0e 00 80
       -2.8934e-41 3.9987e-41 1.0737e-41 -5.354e-42
0001b0 ae 65 01 80 92 57 00 80 07 d2 00 00 2e 7e 01 80
       -1.28311e-40 -3.1414e-41 7.5344e-41 -1.371e-40
0001c0 62 60 03 80 08 64 02 00 93 43 00 80 29 fd 02 80
       -3.10082e-40 2.19555e-40 -2.4241e-41 -2.74488e-40
0001d0 fc 33 01 80 8c 5f 02 80 c7 6a 00 80 d0 1a 01 00
       -1.10484e-40 -2.17947e-40 -3.8304e-41 1.01454e-40
0001e0 c0 eb 03 80 f0 91 02 80 fd e5 03 80 9b ff 00 80
       -3.60078e-40 -2.36024e-40 -3.58011e-40 -9.1694e-41
0001f0 1b 64 00 00 83 58 01 00 5a 77 00 00 9f 97 02 00
       3.5911e-41 1.23588e-40 4.2815e-41 2.38062e-40
000200 9f 56 00 00 fb 85 02 00 eb 72 01 00 c9 44 03 00
       3.1074e-41 2.31734e-40 1.3306e-40 3.00182e-40
000210 4a 64 01 00 78 5b 00 80 61 00 02 80 5f 3f 01 00
       1.27812e-40 -3.2813e-41 -1.83807e-40 1.14569e-40
000220 56 ca 02 00 29 40 00 80 ac ba 01 80 9a 46 02 80
       2.56255e-40 -2.3016e-41 -1.58801e-40 -2.08998e-40
000230 43 87 01 00 ea 10 00 80 90 66 01 00 70 4b 01 00
       1.40358e-40 -6.068e-42 1.28628e-40 1.18897e-40
000240 7d 33 02 80 db fc 00 00 4f 15 02 80 49 23 01 80
       -2.02142e-40 9.0707e-41 -1.91315e-40 -1.04493e-40
000250 6b ff 03 00 3d 45 00 00 a7 1e 00 80 2a 27 00 80
       3.67133e-40 2.4838e-41 -1.0996e-41 -1.405e-41
000260 20 bd 03 80 43 38 00 00 9f 09 00 00 ec 25 00 80
       -3.43352e-40 2.0183e-41 3.451e-42 -1.3604e-41
000270 c7 02 00 00 fb 3b 00 80 b8 3a 00 80 82 3e 00 80
       9.96e-43 -2.1517e-41 -2.1064e-41 -2.2424e-41
000280 04 09 00 00 5a 22 00 80 16 32 00 00 be 8c 01 80
       3.234e-42 -1.2323e-41 1.7967e-41 -1.42324e-40
000290 34 6d 01 80 76 35 01 00 ca c4 01 80 e3 be 01 00
       -1.3101e-40 1.11014e-40 -1.6243e-40 1.60313e-40
0002a0 e7 fe 02 00 6f 84 01 80 b0 16 01 80 97 11 00 00
       2.75113e-40 -1.39344e-40 -9.9974e-41 6.31e-42
0002b0 cb 26 00 00 0e 11 00 00 3c 07 00 00 b1 2b 00 00
       1.3916e-41 6.118e-42 2.595e-42 1.5674e-41
0002c0 07 1b 00 80 8a 01 00 00 e7 3a 00 80 dc 39 00 80
       -9.696e-42 5.52e-43 -2.113e-41 -2.0756e-41
0002d0 76 a4 02 80 ab 70 02 00 c0 88 02 80 01 ef 02 80
       -2.42668e-40 2.24089e-40 -2.32728e-40 -2.6941e-40
0002e0 f5 85 00 00 fc e3 01 80 35 9a 02 00 cf b0 02 00
       4.8055e-41 -1.73621e-40 2.3899e-40 2.47098e-40
0002f0 df 1a 01 00 75 1b 03 80 9e 27 00 80 f3 ca 01 80
       1.01475e-40 -2.85356e-40 -1.4212e-41 -1.6464e-40
000300 b9 4b 01 00 32 b1 02 00 4b 1b 01 00 5e 85 00 00
       1.19e-40 2.47237e-40 1.01626e-40 4.7843e-41
000310 e2 5f 00 00 5e 22 00 80 0a 6e 00 00 2b 7a 00 80
       3.4396e-41 -1.2329e-41 3.9475e-41 -4.3826e-41
000320 b5 6b 00 80 68 3a 00 00 39 74 02 80 d8 92 00 80
       -3.8638e-41 2.0952e-41 -2.25364e-40 -5.2678e-41
000330 d2 79 00 00 6a cc 00 80 8e 1f 01 00 ea f7 00 80
       4.3701e-41 -7.333e-41 1.03155e-40 -8.8935e-41
000340 4a 27 01 00 70 f3 00 00 28 98 01 00 93 d0 02 00
       1.0593e-40 8.7329e-41 1.46419e-40 2.58493e-40
000350 da ce 00 80 38 2c 00 80 76 e1 01 00 2c c5 01 80
       -7.4204e-41 -1.5863e-41 1.72716e-40 -1.62567e-40
000360 aa 58 00 00 a6 d9 01 80 9d f7 00 80 86 f9 00 00
       3.1807e-41 -1.69913e-40 -8.8827e-41 8.9512e-41
000370 ba a4 01 80 87 c2 00 80 fe ad 01 80 9f 7f 01 00
       -1.50928e-40 -6.9783e-41 -1.54252e-40 1.37617e-40
000380 82 1b 02 00 c9 a5 00 80 c6 bc 00 00 5d 21 00 80
       1.93539e-40 -5.9473e-41 6.7719e-41 -1.1968e-41
000390 98 38 00 80 67 59 01 00 42 88 02 80 f5 c7 02 80
       -2.0302e-41 1.23907e-40 -2.32551e-40 -2.55402e-40
0003a0 b5 67 01 80 c3 f3 01 80 27 1d 00 80 be 35 00 00
       -1.29039e-40 -1.79281e-40 -1.0458e-41 1.9279e-41
0003b0 90 09 00 80 97 28 00 80 ac 3d 00 80 6e 2d 00 00
       -3.43e-42 -1.4561e-41 -2.2124e-41 1.6297e-41
0003c0 42 3c 00 80 4e 3e 00 80 71 3c 00 00 66 22 00 00
       -2.1616e-41 -2.2351e-41 2.1682e-41 1.234e-41
0003d0 65 0f 00 00 8a ad 01 00 b8 4d 01 00 39 91 00 00
       5.523e-42 1.5409e-40 1.19716e-40 5.2096e-41
0003e0 5e 70 00 00 48 2e 00 00 cc 36 01 80 cc b5 00 80
       4.031e-41 1.6603e-41 -1.11493e-40 -6.5216e-41
0003f0 b3 08 02 80 0c af 02 80 ac 5d 00 80 de aa 02 80
       -1.86792e-40 -2.46466e-40 -3.3603e-41 -2.44967e-40

bias f4 [32]
000000 62 e7 79 a2 43 b5 8a 3d 60 3d e9 3c 2e 08 5c b5
       -3.3868286e-18 0.06772854 0.028471649 -8.196829e-07
000010 28 ca dc aa bf aa a2 bc c8 bc 9b bc ea 8c 42 bb
       -3.9220125e-13 -0.019856809 -0.019010916 -0.0029686042
000020 a3 24 6b 9c 95 eb 9f bb 95 a5 8c 3e 3e 88 3d b1
       -7.780233e-22 -0.0048803785 0.2747008 -2.7580564e-09
000030 be 0d 1a bc 6b 00 f5 b7 c7 79 e4 9b 50 29 dc b4
       -0.00940269 -2.920647e-05 -3.7798133e-22 -4.1008252e-07
000040 1b 6e 26 3e 3c a0 16 a9 d9 cc ef b5 03 3c 35 3d
       0.1625294 -3.3445672e-14 -1.7866506e-06 0.044246685
000050 47 dc bd 9e c8 f7 32 ad 99 2c 81 b9 63 ae 16 a9
       -2.0102258e-20 -1.0173147e-11 -0.00024638025 -3.3457947e-14
000060 fd 3b 78 3e 85 49 76 aa ad 7f 06 b3 ea 14 5d ba
       0.24241634 -2.1874696e-13 -3.1315427e-08 -0.00084335974
000070 2f 26 b1 bc 87 31 09 3e a4 97 b7 bc b2 78 0b b6
       -0.021624653 0.133978 -0.022411175 -2.0782868e-06

weight f4 [32, 16, 2, 2]
000000 30 43 eb 91 1e ad b1 94 e6 3c ec 8f 3b 96 e3 92
       -3.711787e-28 -1.7940715e-26 -2.3294854e-29 -1.4362749e-27
000010 d5 53 00 00 18 36 00 80 f2 53 00 80 6c 64 00 80
       3.0073e-41 -1.9405e-41 -3.0114e-41 -3.6025e-41
000020 60 4f 00 00 fd 45 00 00 a2 1f 00 80 03 51 00 80
       2.8474e-41 2.5107e-41 -1.1348e-41 -2.9062e-41
000030 c3 3e 00 00 22 12 00 00 d8 3c 00 80 86 10 00 00
       2.2515e-41 6.505e-42 -2.1827e-41 5.927e-42
000040 20 2b 00 00 72 20 00 00 f5 5a 00 00 04 0e 00 00
       1.547e-41 1.1639e-41 3.2629e-41 5.028e-42
000050 36 2a 00 80 b0 2e 00 80 da 3c 00 80 a3 3e 00 80
       -1.5142e-41 -1.6748e-41 -2.183e-41 -2.247e-41
000060 c8 01 00 00 72 39 00 00 27 3a 00 80 57 1c 00 80
       6.39e-43 2.0607e-41 -2.0861e-41 -1.0166e-41
000070 4b 28 00 00 36 05 00 00 79 48 00 80 c0 26 00 80
       1.4454e-41 1.87e-42 -2.5998e-41 -1.3901e-41
000080 4c 31 00 80 dd 3e 00 00 8f 2a 00 00 38 0c 00 80
       -1.7684e-41 2.2551e-41 1.5267e-41 -4.383e-42
000090 f1 2b 00 80 e3 13 00 80 50 3b 00 00 9f 0c 00 80
       -1.5763e-41 -7.134e-42 2.1277e-41 -4.528e-42
0000a0 78 21 00 80 d5 42 00 00 c9 07 00 80 b7 48 00 80
       -1.2006e-41 2.3975e-41 -2.793e-42 -2.6085e-41
0000b0 b1 3f 00 00 b9 4d 00 80 03 4c 00 80 0c 4f 00 00
       2.2848e-41 -2.7882e-41 -2.7268e-41 2.8357e-41
0000c0 c5 0b 00 80 1f 09 00 00 fb 18 00 80 8f 2f 00 00
       -4.222e-42 3.272e-42 -8.961e-42 1.7061e-41
0000d0 db 0b 00 00 e9 2c 00 80 12 0a 00 80 e6 43 00 00
       4.253e-42 -1.6111e-41 -3.613e-42 2.4357e-41
0000e0 22 4e 00 80 e3 2f 00 80 41 35 00 00 c5 0f 00 80
       -2.8029e-41 -1.7179e-41 1.9104e-41 -5.657e-42
0000f0 17 0d 00 80 48 3d 00 80 c9 12 00 00 e6 59 00 00
       -4.696e-42 -2.1984e-41 6.739e-42 3.225e-41
000100 9f eb 35 3d 19 63 5d 3c 15 c2 fb 3d 20 b4 c5 3d
       0.04441416 0.013512396 0.122928776 0.09653497
000110 75 04 35 3d a9 28 ac bd 38 0d 0f 3d f8 e3 85 bd
       0.044193704 -0.08406193 0.034924716 -0.06537622
000120 47 b5 1b bd dd 43 04 3c 5e 57 ed bd 6c fb 5d bd
       -0.038014676 0.0080728205 -0.115889296 -0.054194853
000130 4a 58 f2 3d 3d d6 13 3e 30 0f d2 3d 55 d6 05 3e
       0.11833246 0.14437194 0.10256803 0.13070042
000140 a9 ce 39 3e dd ea 4d 3e ca 26 90 3e f4 a4 a1 3e
       0.18145241 0.20109124 0.28154594 0.31571162
000150 35 4b dd 3d 81 10 0c 3e ae 6e 3d 3e fc fe 67 3e
       0.1080536 0.1367817 0.18499252 0.22655863
000160 b2 f4 a2 bd a8 11 04 be c7 e3 95 bd 95 6e 00 be
       -0.07956828 -0.1289736 -0.07318836 -0.12542184
000170 70 84 85 bd b4 30 9c 3d 6c ea 78 bd 62 7a 62 3d
       -0.06519401 0.07626477 -0.060770437 0.055292495
000180 be e7 d4 bd 11 30 26 be 73 4f 1e be 7e 46 68 be
       -0.10395764 -0.16229273 -0.15459995 -0.2268314
000190 4f 7f a8 3d ac 6a f7 3d fc 41 0c 3d 8a d2 95 3d
       0.08227407 0.12080893 0.034242615 0.07315548
0001a0 d1 ee 6d bb 71 48 0d bc 8e 1b 3c bc 7c e9 87 bc
       -0.0036305676 -0.008623228 -0.011481179 -0.016590826
0001b0 82 94 a6 bd a2 75 fd bd 41 6b f4 bd 0c 17 26 be
       -0.08133794 -0.12375952 -0.119345196 -0.16219729
0001c0 f3 35 14 3e bf b0 38 3e 25 b0 24 3e b6 95 4b 3e
       0.14473705 0.18036173 0.16082819 0.19881329
0001d0 42 0b 8a 3e be 04 69 3e 4d 7b 70 3e 26 f6 41 3e
       0.26961714 0.22755715 0.23484536 0.18941554
0001e0 30 0e dc 3d df e6 c6 3d 10 de 15 3d 39 ea ae 3c
       0.107448936 0.09712004 0.03658873 0.02135192
0001f0 68 f5 11 3e e5 75 00 3e 9c 5c 1e 3e 31 8c 0e 3e
       0.14253771 0.12544973 0.15465015 0.13920666
000200 77 02 a6 be 40 44 13 be b0 af 5a be f0 f8 22 bc
       -0.32423756 -0.14381504 -0.21356082 -0.009947047
000210 5b 43 6f 3e d3 4b 17 3e 44 de 13 3e ec a0 bb 3d
       0.23365538 0.14775018 0.14440256 0.09161553
000220 a1 d3 58 3b 9e 70 2e 3d 2d 03 ad bb 5a 38 cb 3b
       0.0033085125 0.04258787 -0.0052799196 0.006201786
000230 1c ba 28 3e 3b 93 5b 3d 3f 33 f4 3d 88 be fb 3b
       0.16477245 0.053607207 0.11923837 0.007682625
000240 87 ef 80 3c c8 7e 51 bc 52 68 52 3d 50 13 36 3d
       0.015739216 -0.012786575 0.05136902 0.04445201
000250 21 24 bb 3d 90 77 24 3d ee 7f fe 3d b0 09 a6 3d
       0.091377504 0.040153086 0.124267444 0.081073165
000260 aa 14 4d be 50 43 e2 bd a1 d6 2d be e7 c8 96 bd
       -0.20027414 -0.11047995 -0.16976406 -0.07362538
000270 0b 16 0f bf 33 53 d6 be 4e e8 e2 be b9 49 ac be
       -0.5589301 -0.4186035 -0.4431786 -0.33649996
000280 78 19 9e be a0 ad 32 be 62 57 9c be 16 68 32 be
       -0.30878806 -0.17449045 -0.30535418 -0.17422518
000290 94 67 b3 3d 6a db 82 bd 7d ff 2a 3d 28 ec e4 bd
       0.0875999 -0.06389506 0.04174756 -0.11177856
0002a0 4f d2 1b 3e 63 3e 27 3e 82 1b 08 3e 0f d0 1d 3e
       0.15216945 0.16332392 0.13291743 0.154114
0002b0 d2 36 d1 bc a4 7c bd bc 82 89 4c bd 8f 2e 33 bd
       -0.025538836 -0.023130722 -0.049935825 -0.043745574
0002c0 b8 44 56 bc d3 99 04 be 89 99 d8 bc 3d 3d 09 be
       -0.013077907 -0.12949304 -0.026440399 -0.13402267
0002d0 83 af 6b bd 35 6d 6e be 03 d2 2e be 9c 78 a0 be
       -0.057540428 -0.23283847 -0.170723 -0.31342018
0002e0 7c 6f 61 bc 19 3d 46 be 8e d8 d8 bd c9 e3 8a be
       -0.01375949 -0.19359244 -0.105881795 -0.2712691
0002f0 d1 d4 c2 bd c4 39 4b be fc e4 f7 bd 5e 51 53 be
       -0.09513248 -0.19846255 -0.12104222 -0.20636508
000300 55 0e 00 80 47 3f 00 80 81 38 00 00 30 23 00 00
       -5.141e-42 -2.27e-41 2.027e-41 1.2623e-41
000310 e9 70 00 80 0d 03 00 00 af 55 00 80 26 0e 00 00
       -4.0505e-41 1.094e-42 -3.0737e-41 5.076e-42
000320 b6 45 00 00 16 0b 00 00 7c 57 00 80 cf 24 00 00
       2.5008e-41 3.977e-42 -3.1383e-41 1.3204e-41
000330 ea 22 00 00 0b 0e 00 00 95 47 00 80 76 16 00 00
       1.2525e-41 5.038e-42 -2.5679e-41 8.057e-42
000340 25 40 00 00 7c 0c 00 80 18 08 00 00 37 1f 00 80
       2.3011e-41 -4.479e-42 2.903e-42 -1.1198e-41
000350 14 0e 00 00 9c 1f 00 00 6d 25 00 80 81 64 00 00
       5.05e-42 1.134e-41 -1.3426e-41 3.6054e-41
000360 42 0b 00 00 38 07 00 00 bb 15 00 80 aa 19 00 80
       4.039e-42 2.59e-42 -7.795e-42 -9.207e-42
000370 17 5a 00 00 8f 56 00 00 36 5c 00 80 6f 18 00 80
       3.2318e-41 3.1051e-41 -3.3079e-41 -8.765e-42
000380 ce 4a 00 80 2e 43 00 80 ff 0f 00 00 73 21 00 80
       -2.6835e-41 -2.41e-41 5.738e-42 -1.2e-41
000390 1c 03 00 00 fc 1f 00 00 96 1e 00 80 cf 40 00 00
       1.115e-42 1.1474e-41 -1.0972e-41 2.3249e-41
0003a0 16 3b 00 80 49 5b 00 00 29 63 00 00 b6 22 00 80
       -2.1196e-41 3.2747e-41 3.5572e-41 -1.2452e-41
0003b0 95 50 00 00 e3 4b 00 80 a2 39 00 00 c1 36 00 00
       2.8907e-41 -2.7223e-41 2.0675e-41 1.9642e-41
0003c0 1b 08 00 80 25 47 00 00 b4 46 00 00 0f 1f 00 00
       -2.908e-42 2.5522e-41 2.5364e-41 1.1142e-41
0003d0 c5 14 00 80 65 2f 00 00 5f 33 00 80 b2 35 00 00
       -7.451e-42 1.7002e-41 -1.8428e-41 1.9262e-41
0003e0 3d 49 00 00 63 05 00 80 d8 14 00 80 1e 20 00 80
       2.6273e-41 -1.932e-42 -7.477e-42 -1.1521e-41
0003f0 3a 00 00 00 aa 48 00 00 da 24 00 80 dc 4c 00 00
       8.1e-44 2.6067e-41 -1.322e-41 2.7572e-41

bias f4 [16]
000000 59 1f 2a be 35 5f 04 bc 1d d7 e7 bc eb bd ff bd
       -0.1661352 -0.00807934 -0.028300816 -0.12487396
000010 81 19 68 be 33 ab 4b be b0 8b 07 3e ca 98 7e bc
       -0.22665979 -0.19889526 0.1323688 -0.015539357
000020 31 05 52 3e cc 38 ed bd 74 0a b8 3d 3e a0 01 3e
       0.20509793 -0.11583099 0.08986369 0.12658784
000030 31 d9 4a be df 60 23 be a1 4a f7 bd 21 26 2e be
       -0.19809414 -0.15954922 -0.12074781 -0.17006733

weight f4 [16, 32, 3, 3]
000000 52 45 91 bd 83 81 ac bc e1 87 92 3c 3c 56 94 bd
       -0.070933 -0.02105785 0.017887058 -0.072430104
000010 3d 75 02 bd aa 95 66 bb 5c d7 1e bd 39 83 0d bc
       -0.03185009 -0.0035184422 -0.0387796 -0.008637243
000020 26 3d 15 bb 2f 44 00 3d e8 bf c6 3c bb d7 97 bb
       -0.0022772043 0.031315025 0.02426143 -0.0046338714
000030 42 37 cf bc ba 35 3e bd c9 82 99 bd 74 ac 77 bd
       -0.025294904 -0.046437956 -0.074956484 -0.0604672
000040 38 25 a7 bd b6 32 c5 bd a0 6b 6a bd 8c b6 1f bd
       -0.08161396 -0.09628813 -0.057231545 -0.03899245
000050 05 65 0c bc 1f 8e a9 bd 1f 21 9e bd 95 7c 32 bd
       -0.008569007 -0.082790606 -0.07721161 -0.043575842
000060 a7 a6 a6 bc a3 cd d0 bc 19 0e a6 3b ec b3 ac 3d
       -0.020343138 -0.02548868 0.0050675985 0.08432755
000070 30 5e 74 3d f6 d3 e0 3c 2f d0 a7 3d f5 19 75 3d
       0.059660137 0.02744482 0.08194005 0.059839208
000080 c3 d9 21 3d c3 77 44 3d f8 20 db 3c a2 71 b7 3c
       0.039514314 0.047965776 0.02674912 0.022393052
000090 46 aa b7 3c bc 37 4a 3d c1 4a 8e 3d e8 14 88 3c
       0.02242006 0.04936956 0.06947852 0.016611531
0000a0 d2 a5 0b 3d 71 7f 7b 3d e7 35 d3 b9 44 49 b2 39
       0.034093685 0.061400834 -0.00040285217 0.00034005393
0000b0 86 03 fc 3c a4 b3 9d 3d 4c fe 9d 3d 0e 15 a5 3d
       0.030763399 0.07700279 0.07714519 0.080606565
0000c0 06 43 90 3d b1 55 8f 3d 78 cf a5 3d b1 4c 2e 3d
       0.07044034 0.06998766 0.08096212 0.042553607
0000d0 79 5b 1c 3d f1 ba 6a 3d b8 3c 89 bd fc 6a 3a bd
       0.038173173 0.057307187 -0.06701034 -0.045512185
0000e0 b0 14 f0 bc ff 90 4d bd 7b 8f d1 bc df f7 8b bc
       -0.02930674 -0.050187107 -0.025581112 -0.017085968
0000f0 bd 20 94 bc 1e fd 8f 3b c5 e5 7f bb a8 a4 14 be
       -0.018082017 0.0043941876 -0.0039046865 -0.14515936
000100 28 1c 05 be 33 06 6d bd d5 9e 71 bd c2 2c bf bc
       -0.12999022 -0.05786724 -0.058989365 -0.023336772
000110 24 52 82 3d 03 86 1b 3d 27 13 93 3d 1c f3 13 3e
       0.06363323 0.0379696 0.071813874 0.14448208
000120 7a e1 37 be 31 bd 14 be ff a3 06 be 6b 35 32 be
       -0.17957106 -0.14525296 -0.13148497 -0.1740319
000130 f1 61 0d be bf 02 0c be 58 a5 00 be 6c 87 aa bd
       -0.13806893 -0.13672923 -0.12563074 -0.08326611
000140 6d 5f da bd 60 67 af 3d 62 d0 80 3d 70 33 36 3c
       -0.10662732 0.08564639 0.06289746 0.011120662
000150 5c 84 c0 3d 47 31 9a 3d 00 64 1a 3d b6 49 91 3d
       0.094002455 0.0752893 0.037693024 0.07094137
000160 57 8c 59 3d 9f c4 11 3d ff 3d 9b bc c7 33 fc bc
       0.053112354 0.035587903 -0.01895046 -0.030786408
000170 14 1a 93 ba 40 1d 10 bd a5 e8 6e bd 13 08 05 bd
       -0.0011222982 -0.035184145 -0.058327336 -0.032478403
000180 77 44 2b bd 99 92 99 bd 9d cf 41 bd ce 8d a8 3c
       -0.04181334 -0.074986644 -0.047317136 0.02057543
000190 b9 7a 8a 3c 74 9c 30 bb 85 45 cd 3c bf c8 d9 3c
       0.016904222 -0.0026948722 0.025057564 0.026584981
0001a0 38 85 e7 b9 89 ba 17 3d 63 83 39 3d 1a 0b 48 3c
       -0.0004415901 0.03704313 0.045291316 0.012209678
0001b0 60 57 84 3d 2d 21 85 3d 91 d6 0e 3d 19 07 9e 3d
       0.06461978 0.065004684 0.034872595 0.077161975
0001c0 6e c7 99 3d 26 68 78 3d fb d5 79 3d 49 9c 50 3d
       0.07508741 0.0606462 0.060995083 0.050930295
0001d0 14 72 61 3d 4b 26 bb bd 8b c4 26 bd c9 d0 c4 bd
       0.055040434 -0.09138163 -0.04071478 -0.09610135
0001e0 d9 6a 95 bd 85 d9 ee bc 3c 84 a3 bd 40 1d 9e bd
       -0.0729577 -0.029156456 -0.07984206 -0.07720423
0001f0 51 37 17 bd 79 e3 b0 bd 4e a4 44 bd f6 13 93 bc
       -0.03691799 -0.08637137 -0.048008256 -0.017953854
000200 54 1d bc bd 0b d7 b6 bc ae c7 cd 3b 1e 7f 86 bd
       -0.091852814 -0.022319337 0.006279907 -0.065672144
000210 39 3c 7a bc 08 a1 54 3c 7f 23 5e bd 3e 72 43 3c
       -0.015273147 0.012977846 -0.05423307 0.011929093
000220 d7 1f f2 3c db 0f 14 bc 28 a3 ed 3c d5 13 4e 3d
       0.029556198 -0.009036983 0.029008463 0.050311882
000230 e9 08 6f 3c b3 cc b3 3c 0f c1 36 3d 7b 70 61 3c
       0.014589527 0.021948194 0.04461771 0.013759728
000240 96 fa 32 3e 81 89 68 3d 0b 6a 7a 3d 10 06 8b 3e
       0.17478403 0.05677176 0.061136287 0.27153063
000250 34 39 1e 3e af bf 22 3e fe 41 ea 3e 72 cf b4 3e
       0.15451509 0.15893434 0.45753473 0.35314518
000260 79 3d b5 3e 1c be 2b bd 5b 07 6e bd f4 87 6d bd
       0.35398462 -0.04192935 -0.058112483 -0.057990983
000270 09 8d 2d bd b1 48 56 bd de 1f 3f bd 2e 24 45 bd
       -0.04237083 -0.052315418 -0.04666125 -0.048130207
000280 e0 06 55 bd 39 5d 1e bd b0 df 00 80 47 a9 00 80
       -0.05200851 -0.038663123 -8.0244e-41 -6.0725e-41
000290 02 c0 00 00 62 7a 00 80 d6 cf 00 00 b7 ab 00 00
       6.888e-41 -4.3903e-41 7.4557e-41 6.16e-41
0002a0 b5 10 01 80 11 5c 00 80 f6 16 01 80 47 37 aa bd
       -9.7829e-41 -3.3027e-41 -1.00072e-40 -0.083113246
0002b0 5f 4f af bc 41 57 59 3d b1 9a 15 be b2 3f da bd
       -0.021400152 0.053061727 -0.14609791 -0.1065668
0002c0 ba 5e 66 bd 76 d0 15 be 86 99 12 be 07 2f ff bd
       -0.056242682 -0.14630303 -0.14316377 -0.12460142
0002d0 e8 00 2a 2a e5 eb df 2a c2 3f d2 2b 0c a0 93 28
       1.5099348e-13 3.9776442e-13 1.4939094e-12 1.6389688e-14
0002e0 b5 76 5e 28 a9 b8 9a 28 d5 d8 ab 27 ad 1d c8 26
       1.2349216e-14 1.7177518e-14 4.7697124e-15 1.3885831e-15
0002f0 37 37 39 26 a2 82 00 80 a5 49 00 00 7e 5d 00 80
       6.42596e-16 -4.6862e-41 2.6419e-41 -3.3539e-41
000300 78 74 00 00 1a 81 00 80 7c 8c 00 80 e0 c8 00 80
       4.1781e-41 -4.6313e-41 -5.0396e-41 -7.206e-41
000310 b9 67 00 80 ee 55 00 00 1f e6 99 be bf 6b 85 be
       -3.7209e-41 3.0826e-41 -0.3005838 -0.26058766
000320 83 f8 ab be da 14 96 be e0 04 78 be b3 db 92 be
       -0.33588037 -0.29312783 -0.2422061 -0.28683242
000330 7c 8b b2 be 85 a2 95 be d3 d1 9c be 13 23 0f 3d
       -0.34872043 -0.29225555 -0.30628833 0.03494556
000340 18 e4 fc 3c bb 47 1e 3d 82 f5 7d bd b7 10 8f bd
       0.030870482 0.038642626 -0.062001713 -0.0698561
000350 1c 8a 9f bd b7 fc cb bd d5 1f e7 bd b0 a8 0f be
       -0.07790014 -0.09960311 -0.11285368 -0.14029193
000360 be 19 7d 3c 02 58 7e 3c b1 55 82 3c fe 93 7c 3c
       0.015448032 0.015523912 0.015910001 0.015416143
000370 25 89 7b 3c 6e 75 7f 3c 76 71 7d 3c 7c f0 7d 3c
       0.015352522 0.015591962 0.015468946 0.0154992305
000380 4c d5 7f 3c da 99 9c 3d 2b e2 4b 3b 62 e2 ad bd
       0.015614819 0.07646532 0.0031110148 -0.08490445
000390 e6 6a 5c 3b a0 da 6d bd 64 ba e7 bd e4 57 84 bd
       0.0033633052 -0.058069825 -0.11314848 -0.06462076
0003a0 b8 eb ce bd af fc d4 bd 87 d9 8b 3d ce 3d 8b 3c
       -0.101035535 -0.10399758 0.068285994 0.016997244
0003b0 99 9b 01 bd ae 98 46 bd be a8 c0 bd c8 d4 04 be
       -0.03164253 -0.04848545 -0.09407185 -0.12971795
0003c0 74 2b aa bd 78 bd ee bd 52 0d 0c be ce 02 00 80
       -0.08309069 -0.11657232 -0.13676956 -1.006e-42
0003d0 be 4a 00 00 66 13 00 80 41 49 00 00 62 4e 00 00
       2.6812e-41 -6.959e-42 2.6279e-41 2.8118e-41
0003e0 a7 18 00 00 a4 2c 00 00 84 35 00 80 49 09 00 00
       8.844e-42 1.6014e-41 -1.9198e-41 3.331e-42
0003f0 e3 46 b6 a0 e0 f5 65 9f 2a 28 b9 9f 11 91 4a 20
       -3.0878908e-19 -4.869602e-20 -7.8416993e-20 1.7158064e-19

bias f4 [16]
000000 6c ef 8d be 01 55 9b b6 36 f6 c1 3d f6 5c 5b 3e
       -0.27721727 -4.6292557e-06 0.09470789 0.2142218
000010 a2 58 22 be 3e e9 d4 b6 a0 76 25 a1 c1 9b de bc
       -0.15854123 -6.3452453e-06 -5.6061173e-19 -0.027173879
000020 a9 0c 59 be ea 64 27 3e 04 3d 94 bb 10 d6 7b be
       -0.21196236 0.1634709 -0.004523875 -0.24593377
000030 7c d1 91 bd 9e 71 a5 3e 0c 10 30 3d bb e6 fc bd
       -0.07120034 0.32313246 0.042984053 -0.12348696
