data/ForestSegmentationOutput/experiemnts/Initial_attempt_05-11-2023_11-05-21/unet_id=Psk9o_width=32_num_layers=2_lr=0.001_epochs=70.pth (torch, 115317 bytes, 16 tensors)

weight f4 [16, 8, 3, 3]
-0.053405657 -0.13405956 -0.08916869 -0.03988764 -0.059750646 -0.051368 -0.079295486 -0.04937076
0.023684125 -0.04181657 -0.00959584 0.048703082 -0.00984118 -0.044144284 0.016749376 0.06715192
0.07519473 0.006331389 -0.01970238 -0.028496578 0.0987516 0.056205098 0.13331804 0.034231532
-0.0005844366 -0.02815989 0.06697422 0.13267404 0.118363634 0.012923984 0.12568462 0.092149936
0.08562817 0.03235753 0.12437862 0.13158444 0.15406822 0.19326816 0.22082488 0.22345452
0.17613553 0.0791835 0.18036044 0.21176155 0.06149273 0.1434987 0.047241393 0.20278089
0.09484722 0.02417934 0.112966925 0.18225758 0.11616298 0.10762228 0.035803527 -0.11108643
0.01436473 -0.030614011 -0.110647134 0.015924938 0.068579 0.061055217 -0.054270964 -0.049659666
-0.11396942 0.06771791 -0.14104997 -0.104039915 -0.011067777 -0.09885384 -0.13720053 -0.053256594
-2.2115502e-07 -2.0168531e-07 -2.2621043e-07 -2.3434204e-07 -2.3382437e-07 -2.3260988e-07 -2.3946626e-07 -2.3198538e-07
-2.3557044e-07 -3.1707297e-11 -3.1034404e-11 -3.6010018e-11 -3.4662707e-11 -3.3554826e-11 -3.143506e-11 -3.5304638e-11
-3.642741e-11 -3.5455923e-11 -9.947756e-09 -9.717198e-09 -9.695531e-09 -8.349941e-09 -9.792063e-09 -9.674867e-09
-1.0693177e-08 -8.625778e-09 -7.95222e-09 -4.614322e-09 -4.415752e-09 -4.4860937e-09 -4.872789e-09 -5.0197526e-09
-4.6462825e-09 -5.297946e-09 -5.0101785e-09 -4.262097e-09 -8.5137475e-15 -1.2869426e-14 -1.2121756e-14 -1.2335193e-14
-1.4632262e-14 -1.4114398e-14 -1.5302116e-14 -1.6073905e-14 -1.3530782e-14 -3.2958982e-05 -1.8310871e-05 -2.264378e-05
-2.8170416e-05 -2.5738073e-05 -2.2835684e-05 -2.3607652e-05 -2.9200335e-05 -2.590477e-05 -6.145887e-05 5.045939e-06
-5.222262e-05 -2.8860727e-06 -4.6930774e-05 -2.8492737e-05 -0.00010876261 -4.278816e-05 -6.594434e-05 -8.912043e-05
8.178149e-06 -2.6702954e-05 -7.6096876e-05 -2.2953374e-05 -5.0680293e-05 -8.8594104e-05 -6.408727e-05 -7.598986e-05
0.03332781 0.12575701 0.0011093587 0.0172474 0.058875814 -0.06505477 0.005093187 0.008654328
0.010612889 0.08361651 -0.0020944993 -0.09740982 -0.11192853 -0.011360184 -0.019647839 0.013137757
-0.110581055 -0.053774428 -0.043440197 0.06607888 -0.120069474 -0.0779962 -0.14956027 -0.16217458
0.0067408644 -0.045250904 0.0024955373 -0.15931538 -0.027374852 -0.10434932 -0.003484455 -0.059387155
0.020416671 -0.16983739 -0.01791528 -0.18124685 -0.19224116 -0.2749943 -0.096346155 -0.20590977
-0.13735582 -0.23376498 -0.19047429 -0.22589333 -0.096133955 -0.036180463 -0.089787565 -0.12197209
-0.14393254 -0.038455192 -0.16448264 -0.14852439 -0.03283591 -0.19358775 -0.04820137 0.084662944
0.14261979 0.009039249 0.07749625 0.03449958 0.0732766 -0.01961021 0.08216145 0.02767247
0.15364882 0.0907004 0.16502339 0.16586354 -0.015863335 0.15269202 0.119397976 0.05815806
-0.033532202 -0.03560014 -0.02380837 0.010659915 -0.03013187 -0.015140471 -0.008578513 0.01545424
-0.015453908 -0.012076457 -0.031713177 -0.02195429 -0.017529158 -0.0109711755 -0.019495156 -0.024454141
-0.009928583 -0.026987497 -0.012254726 -0.009809642 -0.001962607 -0.0021753744 0.0109070875 0.0076731746
-0.030008573 0.011806126 0.007943108 -0.014527004 0.011208466 -0.011611005 0.010567452 0.010205409
0.00436031 -0.0023274336 -0.027530063 -0.02095189 -0.007219821 -0.009042821 -0.008213001 0.0027123513
00000000: e4bf 5abd e946 09be 139e b6bd 3961 23bd
00000010: 18bd 74bd 4167 52bd ac65 a2bd fe38 4abd
00000020: 3605 c23c da47 2bbd df37 1dbc e27c 473d
00000030: e73c 21bc a3d0 34bd fd35 893c f286 893d
00000040: b2ff 993d 8a77 cf3b e366 a1bc a871 e9bc
00000050: 473e ca3d 5137 663d 8684 083e 5d36 0c3d
00000060: e034 19ba 92af e6bc c829 893d b4db 073e
00000070: a268 f23d 1ebf 533c 78b3 003e 1bb9 bc3d
00000080: d25d af3d 5489 043d 38ba fe3d 12be 063e
00000090: 0fc4 1d3e 17e8 453e eb1f 623e 43d1 643e
000000a0: df5c 343e f52a a23d 68b0 383e 05d8 583e
000000b0: cddf 7b3d 53f1 123e 3180 413d cba5 4f3e
000000c0: 423f c23d c013 c63c 345b e73d bba1 3a3e
000000d0: dbe6 ed3d 1269 dc3d b8a6 123d 4881 e3bd
000000e0: 0b5a 6b3c 3cca fabc f79a e2bd 0475 823c
000000f0: 2673 8c3d 0915 7a3d 3b4b 5ebd ef67 4bbd
00000100: cd68 e9bd b0af 8a3d 676f 10be e112 d5bd
00000110: 9f55 35bc e273 cabd 4c7e 0cbe 9623 5abd
00000120: a176 6db4 d68e 58b4 40e4 72b4 739f 7bb4
00000130: 2711 7bb4 51c3 79b4 fe8f 80b4 a817 79b4
00000140: 1cf1 7cb4 3e73 0bae a27d 08ae ad5f 1eae
00000150: bd72 18ae 6093 13ae bb40 0aae 7d45 1bae
00000160: 9e35 20ae d2ef 1bae b2e6 2ab2 b0f0 26b2
00000170: 6591 26b2 6e73 0fb2 f339 28b2 8436 26b2
00000180: 17b5 37b2 9330 14b2 3c9e 08b2 018c 9eb1
00000190: 5eb9 97b1 1924 9ab1 816d a7b1 367a acb1
000001a0: 22a5 9fb1 3a09 b6b1 ff25 acb1 cd71 92b1
000001b0: bb5e 19a8 c0d5 67a8 bc5d 5aa8 0936 5ea8
000001c0: b3cb 83a8 2c43 7ea8 47d4 89a8 e7c7 90a8
000001d0: b8bf 73a8 703d 0ab8 4c9a 99b7 26f3 bdb7
000001e0: 824f ecb7 17e8 d7b7 428f bfb7 0c09 c6b7
000001f0: 3ef3 f4b7 124e d9b7 7be3 80b8 4950 a936
00000200: 9c09 5bb8 5aae 41b6 89d7 44b8 b003 efb7
00000210: 7b17 e4b8 7077 33b8 994b 8ab8 2be6 bab8
00000220: e234 0937 2800 e0b7 3396 9fb8 ff8b c0b7
00000230: 8d91 54b8 99cb b9b8 9766 86b8 bf5c 9fb8
00000240: be82 083d 72c6 003e e767 913a 6b4a 8d3c
00000250: c427 713d 6f3b 85bd c0e4 a63b e2ca 0d3c
00000260: afe1 2d3c 223f ab3d de43 09bb cd7e c7bd
00000270: c93a e5bd 1120 3abc 81f4 a0bc bf3f 573c
00000280: 5278 e2bd 9342 5cbd 59ee 31bd 5d54 873d
00000290: fce6 f5bd 79bc 9fbd 5426 19be 1811 26be
000002a0: 78e2 dc3b 0359 39bd 2b8c 233b 9223 23be
000002b0: 3a41 e0bc 19b5 d5bd 745b 64bb f23f 73bd
000002c0: dd40 a73c dae9 2dbe 11c3 92bc c698 39be
000002d0: deda 44be 0ecc 8cbe 2251 c5bd 03da 52be
000002e0: 01a7 0cbe 1660 6fbe b10b 43be 9550 67be
000002f0: e1e1 c4bd f731 14bd 8be2 b7bd 81cc f9bd
00000300: 0d63 13be 3183 1dbd 236e 28be c716 18be
00000310: f27e 06bd de3b 46be cd6e 45bd c463 ad3d
00000320: ec0a 123e 5c19 143c 5bb6 9e3d 6e4f 0d3d
00000330: 0b12 963d 97a5 a0bc 4344 a83d 60b1 e23c
00000340: 1e56 1d3e 22c1 b93d e4fb 283e 22d8 293e
00000350: d3f3 81bc 4c5b 1c3e ed86 f43d 2537 6e3d
00000360: 1059 09bd 74d1 11bd c509 c3bc eda6 2e3c
00000370: 1dd7 f6bc bd0f 78bc e48c 0cbc c833 7d3c
00000380: 6332 7dbc 55dc 45bc ade5 01bd 7cd9 b3bc
00000390: 4f99 8fbc 72c0 33bc 4eb4 9fbc 0d54 c8bc
000003a0: 7fab 22bc e214 ddbc 0cc8 48bc 9fb8 20bc
000003b0: 159f 00bb ba90 0ebb a4b3 323c 416f fb3b
000003c0: 8ad4 f5bc 7b6e 413c cf23 023c ac02 6ebc
000003d0: b7a3 373c 163c 3ebc 1b23 2d3c 9634 273c
000003e0: eee0 8e3b db87 18bb ba86 e1bc 4ca3 abbc
000003f0: 4094 ecbb 5728 14bc d38f 06bc b4c1 313b

bias f4 [16]
-0.03897558 -0.001920855 -0.024726598 0.04963659 -0.11485882 0.20300065 -0.008945427 -1.5172612e-06
-0.0687167 -0.11143549 -0.084121644 0.24145593 -0.022939442 -0.051763333 -0.080938935 0.06291337
00000000: dca4 1fbd 33c5 fbba 6f8f cabc bd4f 4b3d
00000010: 1a3b ebbd 67df 4f3e d78f 12bc b3a4 cbb5
00000020: 57bb 8cbd 4a38 e4bd f847 acbd 3940 773e
00000030: 7feb bbbc ca05 54bd 50c3 a5bd bad8 803d

weight f4 [16, 16, 3, 3]
0.11984054 0.11466623 0.05617846 0.1249509 0.11903182 0.07498865 0.1106415 0.09933153
0.086511865 -3.6378163e-21 -2.6961522e-21 -2.615035e-21 -2.497211e-21 -1.7585212e-21 -1.69799e-21 -1.6770511e-21
-1.1553179e-21 -1.052835e-21 -0.031072319 -0.026283342 -0.089944914 -0.08258098 -0.07116536 0.0030557257
-0.052004747 -0.14252807 -0.014736002 0.009177679 0.023912048 0.032667723 0.001935652 0.016875587
0.03213412 0.0018107618 0.004328072 0.024609307 -0.0144185545 -0.025533807 0.10260605 0.016191304
0.0862261 0.006756062 0.02301472 0.09192954 0.026359236 -0.1847126 -0.18509105 -0.21796356
-0.15142669 -0.16666107 -0.1428108 -0.08525085 -0.1468507 -0.10298096 0.021283275 0.021311432
0.02128944 0.021159032 0.021146554 0.02115655 0.021020629 0.020996615 0.02101808 6.1391e-41
-5.1309e-41 -6.94e-42 -9.1374e-41 4.9118e-41 6.6127e-41 1.872e-42 2.5204e-41 1.09453e-40
0.020688856 0.0044553857 0.018197596 -0.0104921935 0.02471462 0.013849368 -0.018991634 0.01175868
0.017531784 -0.014235277 0.019866286 0.10051026 -0.017059866 0.028126307 -0.024359254 0.013323612
0.0980566 0.0636151 0.105341956 0.093956 0.12688377 0.09837515 0.10479243 0.08749571
0.07667004 0.10496049 0.08629043 -0.07391987 -0.022294626 -0.07313043 -0.08968107 -0.010748359
-0.027502367 -0.10422832 -0.055049837 -0.038270034 -0.014634503 -0.014819339 -0.014553562 -0.015289349
-0.014688041 -0.014807529 -0.014235105 -0.015209478 -0.014521999 -0.0051792157 -0.049240798 -0.014031469
-0.0045743403 -0.03985645 0.056239992 -0.09292147 -0.05548299 -0.08538062 -0.030740462 -0.07947271
-0.085849844 -0.029948603 -0.029119562 -0.00016380969 -0.019627048 -0.086022526 -0.016580172 0.01598776
-0.0016227359 0.0047465772 -0.0027588413 -0.013673523 0.0027331877 0.03961308 0.054370046 -0.012546192
0.02236663 0.027136322 -0.029594386 0.07200564 0.063055016 0.042056978 0.08247467 0.060080845
0.032499824 -9.791851e-22 -2.1556723e-21 -4.0995633e-21 -4.067394e-22 -8.174785e-22 -1.4226497e-21 -1.5445147e-22
-2.6424626e-22 -4.3297256e-22 -0.00093592756 0.08073709 -0.014205685 -0.015221959 0.0789385 0.046991374
0.013847159 0.11498372 0.08478447 0.017546711 0.017690923 0.030966192 0.03233207 0.018255472
0.019586053 0.054523908 0.03818788 0.02710552 0.047912944 -0.08825416 -0.019872263 -0.06347959
-0.02900999 -0.09024269 0.030074108 -0.07441311 -0.016987946 -0.06771104 -0.054329734 0.027803333
-0.08834933 -0.036821038 -0.022210922 -0.09458844 -0.0476712 0.037906464 0.0013937867 0.0013416886
0.0012849179 0.0013458414 0.0012101401 0.0011103362 0.0013315319 0.0011277369 0.0009681111 -5.6622e-41
-6.5337e-41 -5.38e-42 4.085e-42 2.0707e-41 -8.4575e-41 7.7277e-41 9.5556e-41 -5.4244e-41
0.028726997 -0.038005713 -0.036601637 -0.036994036 0.01719931 0.030177953 -0.043579504 0.015887788
0.00562643 0.0030052552 0.03730302 0.017141849 -0.05501133 -0.023097703 -0.07475461 0.004036595
-0.040453203 0.0461347 0.056658827 0.09016774 0.04665107 0.06541341 0.07849174 0.07376979
0.051541656 0.0347344 0.07654982 0.20646726 0.2176871 0.30679876 0.18942548 0.14072272
0.22819729 0.23019871 0.18562394 0.21861857 0.0017556635 0.0018144067 0.0018106014 0.0017565341
00000000: f56e f53d 21d6 ea3d 631b 663d 42e6 ff3d
00000010: f4c6 f33d a693 993d 0398 e23d 546e cb3d
00000020: 222d b13d cd6e 899d 2bb7 4b9d 2296 459d
00000030: 16af 3c9d bfde 049d e74b 009d c66d fd9c
00000040: 3296 ae9c 9519 9f9c 608b febc 2a50 d7bc
00000050: 0a35 b8bd 3820 a9bd 25bf 91bd 9242 483b
00000060: ee02 55bd e1f2 11be 466f 71bc fa5d 163c
00000070: 33e3 c33c 97ce 053d b4b5 fd3a ac3e 8a3c
00000080: 119f 033d 1557 ed3a 80d2 8d3b 7599 c93c
00000090: cd3b 6cbc 462c d1bc 1f23 d23d a0a3 843c
000000a0: 4f97 b03d f561 dd3b 5e89 bc3c 8e45 bc3d
000000b0: 53ef d73c 4d25 3dbe 8288 3dbe d731 5fbe
000000c0: 990f 1bbe 33a9 2abe ff3c 12be ff97 aebd
000000d0: 0860 16be aee7 d2bd 435a ae3c 5095 ae3c
000000e0: 3167 ae3c b555 ad3c 8a3b ad3c 8050 ad3c
000000f0: 7433 ac3c 1801 ac3c 1c2e ac3c 22ab 0000
00000100: 078f 0080 5913 0080 b7fe 0080 ec88 0000
00000110: 56b8 0000 3805 0000 4246 0000 1c31 0100
00000120: ad7b a93c 7cfe 913b 2013 953c 73e7 2bbc
00000130: 5176 ca3c 76e8 623c 5894 9bbc 7ba7 403c
00000140: d19e 8f3c 143b 69bc 9fbe a23c 53d8 cd3d
00000150: 22c1 8bbc 2469 e63c 0f8d c7bc 474b 5a3c
00000160: e6d1 c83d a248 823d 86bd d73d 016c c03d
00000170: d2ed 013e e978 c93d 6a9d d63d f330 b33d
00000180: 2f05 9d3d 86f5 d63d 09b9 b03d 4d63 97bd
00000190: 38a3 b6bc 68c5 95bd b5aa b7bd e319 30bc
000001a0: a54c e1bc a875 d5bd f07b 61bd 0ac1 1cbd
000001b0: 8ec5 6fbc d0cc 72bc 1072 6ebc 2d80 7abc
000001c0: 1ca6 70bc 479b 72bc 5c3a 69bc 2d31 79bc
000001d0: aeed 6dbc 69b6 a9bb b8b0 49bd 3fe4 65bc
000001e0: 59e4 95bb 8440 23bd e85b 663d 9d4d bebd
000001f0: 2242 63bd 09dc aebd 6cd3 fbbc 97c2 a2bd
00000200: 0bd2 afbd c656 f5bc 268c eebc 54c4 2bb9
00000210: e7c8 a0bc 942c b0bd 24d3 87bc c3f8 823c
00000220: fbb1 d4ba 2d89 9b3b adcd 34bb ea06 60bc
00000230: 481f 333b 5341 223d 20b3 5e3d 8b8e 4dbc
00000240: 393a b73c fe4c de3c ed6f f2bc b177 933d
00000250: fd22 813d f043 2c3d 7be8 a83d 5517 763d
00000260: 891e 053d 64f8 939c c4e0 229d 8be0 9a9d
00000270: e0db f59b 5611 779c 18fc d69c 6ab8 3a9b
00000280: 21ba 9f9b a1db 029c 0959 75ba 7d59 a53d
00000290: f6be 68bc 8665 79bc 82aa a13d 077a 403d
000002a0: 32df 623c 967c eb3d 7ba3 ad3d 1fbe 8f3c
000002b0: 8eec 903c d0ac fd3c a26e 043d 808c 953c
000002c0: ee72 a03c 7654 5f3d e56a 1c3d 650c de3c
000002d0: 5d40 443d 99be b4bd 28cb a2bc 9601 82bd
000002e0: 5ca6 edbc 29d1 b8bd fa5d f63c e765 98bd
000002f0: 4e2a 8bbc 16ac 8abd db88 5ebd d1c3 e33c
00000300: 7ef0 b4bd a8d1 16bd aef3 b5bc 96b7 c1bd
00000310: e042 43bd cf43 1b3d b9af b63a 99db af3a
00000320: b16a a83a f266 b03a 909d 9e3a b388 913a
00000330: cc86 ae3a 92d0 933a d6c8 7d3a d79d 0080
00000340: 22b6 0080 ff0e 0080 630b 0000 b939 0000
00000350: c3eb 0080 6bd7 0000 5f0a 0100 3697 0080
00000360: e154 eb3c e1ab 1bbd 99eb 15bd 0f87 17bd
00000370: 91e5 8c3c c137 f73c 6c80 32bd 1b27 823c
00000380: ea5d b83b d1f3 443b 0dcb 183d 106d 8c3c
00000390: 8f53 61bd 6537 bdbc f218 99bd 6a45 843b
000003a0: 42b2 25bd bdf7 3c3d 1613 683d dda9 b83d
000003b0: 3115 3f3d 77f7 853d 47c0 a03d 9e14 973d
000003c0: 581d 533d a945 0e3d 27c6 9c3d 276c 533e
000003d0: 5ee9 5e3e ba14 9d3e c1f8 413e 9e19 103e
000003e0: 8dac 693e 36b9 6b3e 3414 3e3e 8cdd 5f3e
000003f0: 4b1e e63a 63d1 ed3a b451 ed3a 813b e63a

bias f4 [16]
-0.05750643 -0.1424711 0.15922317 0.09115628 0.08950235 -0.10380984 0.0440574 -0.12044102
-0.06885143 0.08543051 -0.08862154 -0.028466083 -0.10060236 -0.10264137 0.004679899 0.12621039
00000000: dd8b 6bbd f2e3 11be 660b 233e 25b0 ba3d
00000010: 024d b73d 419a d4bd 8875 343d c8a9 f6bd
00000020: fb01 8dbd 31f6 ae3d 367f b5bd b431 e9bc
00000030: 9c08 cebd a335 d2bd d759 993b 4c3d 013e

weight f4 [32, 16, 3, 3]
-0.08540363 -0.03462866 0.073713645 0.020172583 0.043992948 0.11615739 0.08060006 0.14174539
0.18476377 -0.092443496 -0.11821993 -0.06408705 -0.06907889 -0.021999296 -0.011212509 -0.023469303
0.04979308 0.011272691 0.20784825 0.1943118 0.14830734 0.12570347 0.11494911 0.063477404
0.0788346 0.03631936 0.011688336 0.16644312 0.0739083 0.068841256 0.051317103 0.03424041
-0.0012601633 0.057661276 0.014997103 0.044188876 0.2853521 0.26847777 0.18008071 0.14025748
0.10160545 0.016539052 0.051251546 -0.054903883 -0.08208017 -0.10149485 -0.10641415 -0.026671952
-0.026505519 0.00061766163 0.020799058 0.03736799 0.09441111 0.106787674 0.1923868 0.1527552
0.038864266 0.07423212 0.031749927 -0.0637361 -0.033474218 -0.14634378 -0.20371069 0.1367656
0.12222893 0.09266298 0.031586207 0.008742751 0.0059391283 -0.0013977386 -0.04645121 -0.033267166
-0.07999771 -0.088024534 0.012645305 0.050071564 0.04581181 0.07306919 0.104315884 0.14315525
0.16174765 -0.03720953 -0.021919701 0.040956713 0.059126936 0.06500768 0.09431234 0.09518348
0.123555094 0.12900645 0.119548455 0.09097961 0.09819698 0.029733155 0.009840734 0.01566943
-0.00395834 -0.034254555 -0.033310536 -0.052152768 -0.03730484 0.05114023 0.036372993 0.041997712
0.09004409 0.0788793 0.109059654 0.12995137 -0.10135586 -0.10493081 -0.0039701075 -0.042872284
-0.031286336 0.026083421 0.037185773 0.09864014 0.14159231 -0.12401975 -0.07896477 -0.012766847
-0.021916578 -0.01886688 -0.00027912023 0.06745193 0.106855035 0.08223135 -0.06896957 -0.06268517
0.0071782744 0.040174823 0.050526872 0.06995626 0.09234876 0.14244865 0.16566665 0.23494133
0.18238789 0.080230184 0.11997303 0.08994812 0.02110103 0.00475849 -0.05988016 -0.07176879
0.010850025 0.0066375984 -0.00542966 0.017293261 0.013484661 -0.008558223 0.014435087 0.014858073
-0.013162069 0.037175003 0.03401866 0.02917398 0.031083876 0.038578656 0.03587138 0.028986711
0.031394683 0.039902158 0.03321351 0.041908264 0.04463256 0.025484707 0.04050871 0.055943865
0.023718044 0.037048385 0.059329238 -0.009184818 -0.018997636 -0.025005247 -0.009125185 -0.012592989
-0.022647778 -0.007994691 -0.010882935 -0.016371945 0.006926746 0.012913338 0.010794717 0.0006375341
-0.0011314952 0.0010918053 -0.0024871011 -0.0008024585 0.01547245 0.011527119 0.007195849 0.002501599
0.005452463 0.011948658 0.0054742014 0.0045071756 0.0037730588 0.010291975 0.00039757474 0.0007036271
0.0035213626 -0.006063746 0.0016091566 0.0068613356 -0.021492235 0.0034969205 0.012562784 0.032867108
0.022409454 0.017968072 0.031027963 0.023106696 0.016531449 0.032034814 0.03208106 0.028678562
-0.0010836573 -0.005293096 0.00025627433 0.0062852874 0.0032203908 -0.0022678147 0.005479966 -0.007867822
0.005656738 -0.030653527 -0.02319351 -0.021579403 -0.026944393 -0.01731354 -0.015872153 -0.024660658
-0.025262337 -0.021928139 0.024505397 0.008154315 0.014907386 0.016264169 0.018013006 0.0075800503
0.024763254 0.02752967 0.022951707 -0.021255152 -0.018071108 -0.020081138 -0.021524224 -0.0118973125
-0.014905101 -0.020556351 -0.022293484 -0.017061276 0.018481776 0.0131132025 0.006683626 0.02797807
00000000: 19e8 aebd c8d6 0dbd 2ef7 963d f940 a53c
00000010: f331 343d ede3 ed3d a511 a53d b425 113e
00000020: b732 3d3e 0453 bdbd 4a1d f2bd 1240 83bd
00000030: 3c79 8dbd de37 b4bc acb4 37bc b242 c0bc
00000040: d4f3 4b3d 18b1 383c 2cd6 543e acf9 463e
00000050: e1dd 173e 69b8 003e 706a eb3d 7100 823d
00000060: 0974 a13d 9cc3 143d 6f80 3f3c 1170 2a3e
00000070: 3c5d 973d a5fc 8c3d e231 523d ac3f 0c3d
00000080: 102c a5ba 3b2e 6c3d 69b6 753c 65ff 343d
00000090: ac19 923e eb75 893e 1467 383e a89f 0f3e
000000a0: 8516 d03d e87c 873c 24ed 513d e5e2 60bd
000000b0: a619 a8bd 88dc cfbd a9ef d9bd 237f dabc
000000c0: 1a22 d9bc 92ea 213a c962 aa3c 2d0f 193d
000000d0: 9d5a c13d 7fb3 da3d 0c01 453e dc6b 1c3e
000000e0: 2330 1f3d 0207 983d 360c 023d 1388 82bd
000000f0: 431c 09bd 25db 15be 8999 50be 480c 0c3e
00000100: 2953 fa3d 17c6 bd3d 8a60 013d c13d 0f3c
00000110: 059d c23b 5334 b7ba a043 3ebd 2743 08bd
00000120: d7d5 a3bd 3546 b4bd 412e 4f3c d717 4d3d
00000130: 2aa5 3b3d 4da5 953d 91a3 d53d 4a97 123e
00000140: 2da1 253e 0569 18bd f290 b3bc 3ac2 273d
00000150: 162f 723d bf22 853d d426 c13d 8eef c23d
00000160: 740a fd3d 441a 043e d2d5 f43d 8553 ba3d
00000170: 801b c93d f292 f33c 083b 213c 2d5d 803c
00000180: f6b4 81bb 814e 0cbd a170 08bd 249e 55bd
00000190: f6cc 18bd 6b78 513d d9fb 143d cb05 2c3d
000001a0: 0969 b83d 788b a13d ab5a df3d f911 053e
000001b0: a993 cfbd f7e5 d6bd ad17 82bb d99a 2fbd
000001c0: 1a26 00bd e6ac d53c 1c50 183d d703 ca3d
000001d0: 93fd 103e 11fe fdbd 48b8 a1bd 0a2c 51bc
000001e0: 658a b3bc b78e 9abc e256 92b9 3d24 8a3d
000001f0: d0d6 da3d e968 a83d eb3f 8dbd 1561 80bd
00000200: bb37 eb3b 5b8e 243d 44f5 4e3d 3a45 8f3d
00000210: 5921 bd3d 0fde 113e 85a4 293e 7694 703e
00000220: e4c3 3a3e b94f a43d 6cb4 f53d b836 b83d
00000230: 11dc ac3c 1bed 9b3b e644 75bd 84fb 92bd
00000240: 4ec4 313c 3680 d93b 4aeb b1bb 99aa 8d3c
00000250: c4ee 5c3c ca37 0cbc 2581 6c3c 466f 733c
00000260: b8a5 57bc d144 183d 2757 0b3d 45fe ee3c
00000270: 9da3 fe3c a704 1e3d deed 123d 8a75 ed3c
00000280: b697 003d 7270 233d e40a 083d 00a8 2b3d
00000290: a2d0 363d 4ec5 d03c 76ec 253d 6525 653d
000002a0: 584c c23c 0cc0 173d 3703 733d eb7b 16bc
000002b0: eea0 9bbc ced7 ccbc cd81 15bc d352 4ebc
000002c0: d587 b9bc 2afc 02bc 564e 32bc 751e 86bc
000002d0: c2f9 e23b 7792 533c 53dc 303c 3020 273a
000002e0: ae4e 94ba e81a 8f3a a2fe 22bb 145c 52ba
000002f0: 2980 7d3c 3edc 3c3c 28cb eb3b def1 233b
00000300: 93aa b23b 4ec4 433c ee60 b33b eeb0 933b
00000310: 6c45 773b ac9f 283c 9471 d039 9e73 383a
00000320: a9c6 663b 63b2 c6bb 56ea d23a 0ed5 e03b
00000330: 7c10 b0bc 972c 653b 23d4 4d3c a99f 063d
00000340: 0894 b73c c731 933c 5b2e fe3c 414a bd3c
00000350: f66c 873c f036 033d 6e67 033d 4eef ea3c
00000360: 8109 8eba b571 adbb 8f5c 8639 d0f4 cd3b
00000370: 310d 533b 9e9f 14bb 4991 b33b 0ae8 00bc
00000380: 285c b93b 1b1d fbbc 5100 bebc 4ac7 b0bc
00000390: 7dba dcbc 20d5 8dbc 5106 82bc 2605 cabc
000003a0: f6f2 cebc a4a2 b3bc 8bbf c83c ad99 053c
000003b0: 1c3e 743c 6f3c 853c 0390 933c 1262 f83b
000003c0: 4fdc ca3c e785 e13c 3805 bc3c 491f aebc
000003d0: dc09 94bc 3381 a4bc 9253 b0bc f2ec 42bc
000003e0: 8634 74bc cb65 a8bc d3a0 b6bc 17c4 8bbc
000003f0: 1867 973c c2d8 563c 5202 db3b 4432 e53c

bias f4 [32]
0.013558604 -0.13587861 -0.09231877 -6.0684283e-12 0.0029601257 -0.01506559 -0.083401285 -0.11184231
-0.10060807 -0.058389917 -0.14060749 -2.278142e-05 0.0074723163 -0.045563977 -0.06705172 -0.00026538977
-0.028372927 -0.07104117 -1.4561311e-05 -0.015573848 -3.4425695e-11 -0.08729235 -0.022929374 -0.005672245
-0.031339414 -0.019181939 -0.17399473 -0.011962009 -0.12139853 -0.04072067 -0.08316585 -0.15089704
00000000: e824 5e3c c323 0bbe a011 bdbd 8b83 d5ac
00000010: abfe 413b aad5 76bc 4bce aabd 950d e5bd
00000020: 9b0b cebd 442a 6fbd 69fb 0fbe ba1a bfb7
00000030: 55da f43b 4ba1 3abd 6a52 89bd 0324 8bb9
00000040: 576e e8bc 087e 91bd 5b4c 74b7 7429 7fbc
00000050: e367 17ae 55c6 b2bd 62d6 bbbc 3dde b9bb
00000060: c25d 00bd 7123 9dbc ad2b 32be 4dfc 43bc
00000070: cb9f f8bd b8ca 26bd db52 aabd c184 1abe

weight f4 [32, 32, 3, 3]
0.1602454 0.10971217 0.10770053 0.072362974 -0.011782967 0.011341473 0.014521581 -0.056715127
-0.015951108 -0.0012527572 -0.0030085745 -0.035788495 -0.0114306845 -0.0032188783 -0.011795373 -0.01288442
-0.010400992 -0.0047225794 -0.003348487 -0.005316811 -0.0092955595 -0.0028139865 -0.0035057338 -0.0052693933
-0.00096008804 -0.0023209827 -0.003350741 7.9476e-41 5.919e-41 5.912e-41 -1.8856e-41 7.1997e-41
-4.355e-41 8.4378e-41 -6.1024e-41 -7.9035e-41 -0.007813699 -0.0024089776 -0.0034254962 -0.020008557
-0.008391653 -0.0056507965 -0.007080566 -0.022293905 -0.017004488 -0.0027848415 -0.0018770462 -0.0016854885
0.001689902 -0.0010133857 -0.0022954207 -0.0061275037 -0.0051192734 0.0029379567 -4.8871152e-05 0.00020678976
0.0005542217 -3.4597415e-05 0.00027788014 0.0003071953 0.0007022409 0.0004302424 0.00011052326 0.014115777
0.015953397 -0.015285892 0.007483323 0.02224735 0.014774737 0.005216753 0.016991112 0.023752403
0.038655326 0.041411784 0.030236218 0.05563745 0.039845943 0.10315897 0.078446515 0.056795195
0.11662924 0.04104281 0.06867059 -0.0030969651 0.09541877 0.11557778 0.018230146 0.01874211
0.026439976 -0.065491654 0.008796417 0.018956555 0.027607057 0.046731636 0.051078558 0.02655859
0.04504193 0.037141338 -0.012190441 -5.9174e-41 3.0746e-41 -9.673e-42 1.2487e-41 -2.2602e-41
-5.6378e-41 6.7726e-41 6.808e-41 6.6423e-41 0.1479035 0.023206018 -0.055978883 0.09471038
-0.06418695 -0.12973459 0.14664754 -0.090619855 -0.20163193 0.08520932 0.09436136 0.11284516
0.06093997 0.07032553 0.06975657 0.023150595 0.0512603 0.046167534 -0.026481837 -0.0037484656
-0.02597443 -0.030801158 -0.071760274 -0.01429662 0.084216155 -0.01466878 0.001213531 1.5537887e-26
2.5305897e-26 -7.508693e-27 2.759165e-26 5.861698e-26 6.8496275e-26 2.508902e-26 5.266939e-26 7.4532916e-26
0.13616563 0.0615548 0.051143683 0.099038385 -0.017983502 0.038686413 0.21438265 0.0677744
0.1303522 0.019662539 0.020906577 -0.0044547794 0.0014663758 0.013401052 0.018913481 0.0070879757
0.00889747 0.028351834 5.0971e-41 3.345e-41 -6.2058e-41 5.287e-41 -5.0685e-41 6.0486e-41
-5.1974e-41 -6.6619e-41 -4.8397e-41 -0.023539715 0.0071697417 0.047794383 -0.064121105 0.033698514
0.05565765 -0.11894107 0.0119336955 0.012243408 -1.3815e-41 7.2671e-41 -5.2026e-41 7.0026e-41
-1.6412e-41 2.9696e-41 -4.3813e-41 -2.8581e-41 -5.9126e-41 -0.0123013845 -0.0075314166 -0.0035134254
-0.0056101 -0.0035704724 0.0024669946 -0.00029519183 0.0020163574 0.004489877 -2.133955e-10 -2.570878e-10
-1.8567878e-10 1.6264678e-09 2.0654631e-09 1.2068664e-09 5.0755284e-07 2.496689e-07 -1.7454944e-07 0.016502095
-0.0015950807 0.019744636 0.03532894 -0.032569204 0.057672 0.02849738 0.025034731 0.014899331
-0.011284904 0.0017963332 0.0024830354 -0.01772189 -0.010853777 0.0051289727 -0.010617208 -0.011930243
-0.0010407681 0.0058095143 0.001538502 0.006901603 -0.003999986 -0.004538264 0.004493793 -0.0020443564
-0.00040590577 0.0051307227 0.0045333477 -0.0143259885 -0.07406856 -0.037513614 -0.015630474 -0.027084913
-0.036788065 -0.02454068 0.0072587463 -0.08441232 -0.1284311 -0.21283525 0.022520898 0.022214249
-0.09734621 -0.012108325 0.0728183 -0.13862123 -0.05253251 -0.03012456 -0.074482076 -0.007941022
00000000: 5f17 243e c6b0 e03d 1892 dc3d 0a33 943d
00000010: 580d 41bc 96d1 393c edeb 6d3c 1f4e 68bd
00000020: e6ab 82bc 8e33 a4ba 812b 45bb f596 12bd
00000030: c447 3bbc d1f3 52bb 6141 41bc 2d19 53bc
00000040: ec68 2abc debf 9abb 4a72 5bbb a538 aebb
00000050: 674c 18bc dc6a 38bb 74c0 65bb e0aa acbb
00000060: 6bae 7bba a11b 18bb 1b98 5bbb 8cdd 0000
00000070: ffa4 0000 cda4 0000 9034 0080 b3c8 0000
00000080: 6679 0080 36eb 0000 1caa 0080 51dc 0080
00000090: 0705 00bc f0df 1dbb 4a7e 60bb fce8 a3bc
000000a0: 257d 09bc 512a b9bb 1804 e8bb b5a1 b6bc
000000b0: ff4c 8bbc e381 36bb 3807 f6ba 9ceb dcba
000000c0: b47f dd3a 95d3 84ba c56e 16bb 3ac9 c8bb
000000d0: 94bf a7bb bc8a 403b 00fb 4cb8 b4d5 5839
000000e0: 3049 113a b11c 11b8 71b0 9139 0e0f a139
000000f0: 9716 383a 2892 e139 b9c8 e738 dc45 673c
00000100: b3b0 823c ae71 7abc aa36 f53b 1340 b63c
00000110: bd11 723c 4cf1 aa3b f230 8b3c 6694 c23c
00000120: 0c55 1e3d 679f 293d f2b1 f73c 18e4 633d
00000130: 8035 233d 0345 d33d 91a8 a03d 14a2 683d
00000140: 50db ee3d 811c 283d 2ba3 8c3d 74f6 4abb
00000150: eb6a c33d 0bb4 ec3d 6357 953c 0e89 993c
00000160: a698 d83c 7d20 86bd d91e 103c c74a 9b3c
00000170: 3228 e23c ac69 3f3d c037 513d 6691 d93c
00000180: e37d 383d 8421 183d 6aba 47bc f4a4 0080
00000190: b555 0000 f71a 0080 cf22 0000 013f 0080
000001a0: 299d 0080 cbbc 0000 c8bd 0000 29b9 0000
000001b0: 0474 173e 8c1a be3c 1d4a 65bd 84f7 c13d
000001c0: 7374 83bd 25d9 04be c62a 163e e796 b9bd
000001d0: 9a78 4ebe 3982 ae3d 8740 c13d 5d1b e73d
000001e0: 319c 793d d506 903d 88dc 8e3d 51a6 bd3c
000001f0: 52f6 513d 2b1a 3d3d 70f0 d8bc d1a8 75bb
00000200: 54c8 d4bc b652 fcbc 0df7 92bd 5f3c 6abc
00000210: 8579 ac3d 5355 70bc 580f 9f3a 39e1 9914
00000220: 129e fa14 99b9 1494 92a0 0815 ed20 9115
00000230: ac96 a915 3978 f814 3167 8215 d988 b815
00000240: 016f 0b3e e320 7c3d 0a7c 513d a3d4 ca3d
00000250: 2352 93bc a575 1e3d 2087 5b3e 4ecd 8a3d
00000260: 0c7b 053e 5513 a13c 4544 ab3c 66f9 91bb
00000270: 6833 c03a 1690 5b3c 72f0 9a3c 4042 e83b
00000280: b2c6 113c 1b42 e83c 168e 0000 3f5d 0000
00000290: feac 0080 6193 0000 4a8d 0080 9ca8 0000
000002a0: e290 0080 b5b9 0080 e986 0080 5cd6 c0bc
000002b0: 27f0 ea3b 0bc4 433d ed51 83bd 7407 0a3d
000002c0: 47f9 633d 6097 f3bd 8c85 433c 9398 483c
000002d0: 8326 0080 94ca 0000 0791 0080 34c3 0000
000002e0: c02d 0080 c852 0000 227a 0080 ac4f 0080
000002f0: d2a4 0080 bf8b 49bc 1aca f6bb 7f41 66bb
00000300: eed4 b7bb 96fe 69bb 4dad 213b fac3 9ab9
00000310: dd24 043b d11f 933b 7ea1 6aaf e455 8daf
00000320: ee27 4caf 408a df30 03f0 0d31 d6de a530
00000330: c43e 0835 3b0a 8634 c96b 3bb4 672f 873c
00000340: 0712 d1ba 81bf a13c 14b5 103d 4967 05bd
00000350: 7a39 6c3d 5673 e93c a315 cd3c 531c 743c
00000360: 51e4 38bc f172 eb3a 6cba 223b 7f2d 91bc
00000370: 0ad4 31bc f110 a83b ccf3 2dbc 1177 43bc
00000380: 626a 88ba bd5d be3b 90a7 c93a d826 e23b
00000390: 5112 83bb b8b5 94bb ab40 933b 9cfa 05bb
000003a0: c0cf d4b9 9f1f a83b 7a8c 943b 8db7 6abc
000003b0: 42b1 97bd e0a7 19bd 7b0b 80bc 2ee1 ddbc
000003c0: 15af 16bd 8909 c9bc c7da ed3b 5ee0 acbd
000003d0: 7183 03be 7cf1 59be bf7d b83c a8fa b53c
000003e0: 735d c7bd ff61 46bc c321 953d b9f2 0dbe
000003f0: 542c 57bd c8c7 f6bc 0f8a 98bd 0f1b 02bc

bias f4 [32]
-0.0037334098 0.062585585 0.07572709 0.06683131 0.10760522 0.1149177 -0.112174414 0.00082563114
0.022552863 0.012715054 0.054512758 0.104095645 0.009509388 0.021943115 0.094639994 0.054854285
-0.014114428 0.013210017 -0.08705598 0.05235195 0.012499615 -0.045971025 -0.09811515 0.101035655
-0.09862177 0.0086004315 0.102288164 0.029628865 0.06996332 -0.046900645 0.085945874 0.019860515
00000000: 39ac 74bb df2c 803d ce16 9b3d dbde 883d
00000010: 2060 dc3d f959 eb3d b3bb e5bd 2b6f 583a
00000020: c8c0 b83c cd52 503c c548 5f3d 1930 d53d
00000030: 44cd 1b3c 0cc2 b33c 9dd2 c13d e3ae 603d
00000040: 3440 67bc d46e 583c 684a b2bd 006f 563d
00000050: 2fcb 4c3c 1d4c 3cbd 99f0 c8bd c8eb ce3d
00000060: 36fa c9bd d3e8 0c3c 757c d13d 3cb8 f23c
00000070: ee48 8f3d e41a 40bd 6404 b03d 85b2 a23c

weight f4 [32, 16, 2, 2]
-0.05238888 0.11761584 0.07402474 -0.04791412 0.091894865 -0.00887774 -0.0101409955 0.11447375
-0.0514756 -0.10348781 -0.00960464 -0.06368071 0.096561536 0.0053450796 -0.10348261 -0.0480682
0.08440196 0.09148994 0.13993879 0.11411045 0.0052737626 -0.045201197 -0.08763118 0.019034466
0.086923376 0.0326473 -0.026397176 -0.15626048 -0.019620841 0.05056775 -0.067775816 -0.048867892
0.033027824 0.11513825 -0.07953619 -0.07453008 0.14972487 0.12890062 0.10608394 -0.027217414
0.052492242 0.119526014 -0.07101754 0.038122367 -0.0019552915 -0.004274088 -0.08408476 0.044913914
-0.011876209 -0.009375178 -0.09021595 -0.09315507 -0.07781497 0.00042680517 0.0006599191 0.11484931
-0.07695144 -0.119667836 -0.18095952 -0.050829496 -0.033382654 -0.09201949 -0.03574803 0.036538552
0.044929884 -0.026469616 0.07931361 0.0180061 0.026447369 0.18192008 -0.087681726 0.015385039
0.09265832 0.09889109 0.06591279 0.012758433 0.11371975 0.07077249 0.08765575 0.03784382
0.011109792 -0.10601213 -0.033421278 -0.02097983 0.0030711463 -0.15592177 0.21833192 0.15961963
0.047713317 0.09137587 -0.059182733 0.049675427 0.061690815 -0.18146642 0.0885079 0.035731237
0.05053604 -0.06882471 0.027217008 0.0036828106 0.07205448 0.056356315 -0.09633805 -0.12193074
0.037424814 -0.017833985 0.02875986 0.03953733 0.046492662 0.07206499 -0.08128517 -0.02156311
0.058903188 -0.17239259 0.08862702 0.118663676 0.091323145 -0.058008734 -0.06028869 0.064461835
0.15664443 0.080646 0.15838064 0.16556484 0.09800735 0.16261426 -0.14790858 -0.13554458
0.09866868 -0.05767913 0.003065597 -0.061445296 -0.053264562 -0.0054315375 -0.043904502 -0.058726795
0.016149355 0.07859246 0.028067943 0.011999934 0.007608533 0.021412354 0.040763352 0.052569598
0.09717875 0.07875499 -0.1280705 -0.090877205 0.043686207 0.05313408 0.0655426 -0.020951997
-0.030851535 0.04274136 -0.08392226 -0.015404926 0.03605604 0.062359758 0.0894389 0.038607694
0.04312467 0.11888153 0.014453596 -0.06329566 -0.06980505 0.12716718 0.005478919 0.04665279
-0.005482796 -0.052131973 0.095978044 -0.00031708795 -0.09618176 0.07279037 0.01621405 0.11938424
-0.027182726 -0.013253103 0.07418334 -0.08737259 0.12880765 -0.0062730866 0.014139656 0.07892765
0.021422723 0.06995566 0.124084584 -0.007885717 -0.03782564 0.040146805 0.112862036 0.17861906
0.06424359 0.04662371 0.105685495 -0.010796632 0.06258898 0.10829108 0.03269555 0.070821576
0.034863733 -0.008683674 -0.0027362679 0.05089384 0.085435696 -0.043658424 -0.055320736 -0.04292909
-0.09448472 0.007749556 0.004727746 -0.09516834 -0.055520624 0.086337626 0.0918116 0.1256911
0.012884892 0.116613045 0.10233002 0.15378268 0.035175603 0.06735534 -0.10005119 -0.07118726
0.05746854 -0.1302279 -0.013114642 -0.111156404 -0.04144217 -0.050602403 -0.06928503 -0.033555288
0.05777975 0.07158067 -0.021895476 -0.07045627 0.055700514 -0.08823854 -0.02028554 0.040193494
0.06386629 0.029767763 -0.011201766 -0.012443991 -0.048865058 0.07948968 -0.0546328 -0.029846583
0.014542372 -0.077179246 0.13040315 0.08374265 -0.0070085335 0.051775634 0.051558394 0.03836512
00000000: b995 56bd 93e0 f03d 489a 973d 9941 44bd
00000010: 6033 bc3d f173 11bc 6b26 26bc 3771 ea3d
00000020: 14d8 52bd 6bf1 d3bd c85c 1dbc 086b 82bd
00000030: 0ec2 c53d c725 af3b b1ee d3bd 29e3 44bd
00000040: efda ac3d 145f bb3d 1d4c 0f3e bdb2 e93d
00000050: 87cf ac3b e424 39bd fa77 b3bd 2bee 9b3c
00000060: e204 b23d 2db9 053d e43e d8bc bf02 20be
00000070: e3bb a0bc 2120 4f3d 0cce 8abd b329 48bd
00000080: 2f48 073d 9acd eb3d dfe3 a2bd 3aa3 98bd
00000090: 7a51 193e 86fe 033e 8942 d93d 0ef7 debc
000000a0: 1b02 573d 0eca f43d a571 91bd 3326 1c3d
000000b0: 5924 00bb a60d 8cbb a134 acbd a7f7 373d
000000c0: 6e94 42bc 599a 19bc 24c3 b8bd 16c8 bebd
000000d0: 745d 9fbd d2c4 df39 6cfe 2c3a 1d36 eb3d
000000e0: b798 9dbd 6914 f5bd 744d 39be 9732 50bd
000000f0: 40bc 08bd b774 bcbd 876c 12bd 73a9 153d
00000100: 6608 383d cfd6 d8bc 2d6f a23d 8781 933c
00000110: 27a8 d83c 4249 3a3e 7a92 b3bd 8811 7c3c
00000120: a5c3 bd3d 6987 ca3d 49fd 863d bf08 513c
00000130: e6e5 e83d 2bf1 903d dc84 b33d 1f02 1b3d
00000140: d805 363c e31c d9bd c0e4 08bd e4dd abbc
00000150: 4945 493b f5a9 1fbe 6792 5f3e 5473 233e
00000160: 0a6f 433d 4623 bb3d 9869 72bd 7678 4b3d
00000170: 82af 7c3d 55d2 39be a143 b53d eb5a 123d
00000180: e1fe 4e3d f8f3 8cbd 34f6 de3c 4f5b 713b
00000190: 4d91 933d e1d5 663d e24c c5bd d3b6 f9bd
000001a0: c34a 193d 9418 92bc cc99 eb3c e5f1 213d
000001b0: 176f 3e3d cf96 933d d778 a6bd 1fa5 b0bc
000001c0: 7844 713d af87 30be 1582 b53d f105 f33d
000001d0: a107 bb3d 919a 6dbd 46f1 76bd 9104 843d
000001e0: 6667 203e bb29 a53d 892e 223e d489 293e
000001f0: 14b8 c83d 5a84 263e 5975 17be 33cc 0abe
00000200: ce12 ca3d f440 6cbd 2fe8 483b 10ae 7bbd
00000210: f12b 5abd 0afb b1bb 35d5 33bd 828b 70bd
00000220: a74b 843c 15f5 a03d beee e53c 5f9b 443c
00000230: 0051 f93b f668 af3c 79f7 263d 3853 573d
00000240: a705 c73d 4c4a a13d ea24 03be d41d babd
00000250: 4ff0 323d 1fa3 593d 333b 863d 86a3 abbc
00000260: 5cbc fcbc 9011 2f3d 6fdf abbd f164 7cbc
00000270: 80af 133d f26c 7f3d be2b b73d 1a23 1e3d
00000280: 7ea3 303d 2978 f33d c7ce 6c3c 28a1 81bd
00000290: f3f5 8ebd 1d38 023e 8188 b33b ff16 3f3d
000002a0: 07a9 b3bb 5688 55bd 2390 c43d d33e a6b9
000002b0: f1fa c4bd 1e13 953d 54d3 843c b97f f43d
000002c0: 4fae debc 8b23 59bc 6fed 973d 67f0 b2bd
000002d0: 27e6 033e 778e cdbb 04aa 673c d2a4 a13d
000002e0: b57e af3c ea44 8f3d 0f20 fe3d 1833 01bc
000002f0: 0fef 1abd fa70 243d 3624 e73d eae7 363e
00000300: 2592 833d 81f8 3e3d a371 d83d 5be4 30bc
00000310: a72e 803d b7c7 dd3d c5eb 053d e70a 913d
00000320: 46cd 0e3d f845 0ebc f552 33bb 0f76 503d
00000330: e9f8 ae3d 2dd3 32bd ff97 62bd 6ad6 2fbd
00000340: 3481 c1bd fdef fd3b 35eb 9a3b 9ee7 c2bd
00000350: 9869 63bd c8d1 b03d b807 bc3d 2bb5 003e
00000360: 271b 533c d2d2 ee3d 6792 d13d 3579 1d3e
00000370: 4b14 103d 99f1 893d a3e7 ccbd a0ca 91bd
00000380: 2264 6b3d 765a 05be ccde 56bc f8a5 e3bd
00000390: 44bf 29bd 7744 4fbd 4fe5 8dbd 4571 09bd
000003a0: 76aa 6c3d e398 923d 245e b3bc 604b 90bd
000003b0: 3926 643d 68b6 b4bd dc2d a6bc efa1 243d
000003c0: 54cc 823d 86db f33c 9d87 37bc e2e1 4bbc
000003d0: ba26 48bd 7ccb a23d a5c6 5fbd d280 f4bc
000003e0: 2143 6e3c 2710 9ebd 6788 053e 4481 ab3d
000003f0: d7a7 e5bb b012 543d e52e 533d be24 1d3d

bias f4 [16]
-0.06895166 0.1761314 -0.024773566 0.17916614 -0.20008375 -0.061058626 0.14752443 -0.14191873
-0.06636512 0.062261675 -0.0910526 0.077601 -0.09106921 -0.09275357 0.16956203 0.086575426
00000000: 8736 8dbd ca5b 343e eff1 cabc 5477 373e
00000010: c1e2 4cbe 9c18 7abd a510 173e 2553 11be
00000020: 70ea 87bd 1906 7f3d c979 babd 46ed 9e3d
00000030: 7e82 babd 95f5 bdbd aba1 2d3e 754e b13d

weight f4 [16, 32, 3, 3]
-0.022421185 -0.002681409 0.024154555 -0.018865371 -0.02430711 -0.026985401 -0.02116392 -0.009028389
-0.010984638 0.01858995 0.034033667 0.016943295 -0.06578194 -0.08249002 -0.09179287 -0.07187718
-0.08760501 -0.12419472 0.04131193 0.028816245 0.056127526 -0.0077503687 -0.017536616 0.004621226
-0.01899664 -0.038143698 -0.016879486 0.022235427 0.029921897 0.014390976 -0.031135784 -0.053394604
-0.045080066 -0.039111286 -0.054110534 -0.06773273 0.09587875 0.08822134 0.08099543 0.08354766
0.090723656 0.039181467 0.0699236 0.063357145 0.025238188 -0.09401277 -0.07854402 -0.025716204
-0.02352513 0.009849802 0.010917024 -0.0030758095 0.026020903 0.07078473 -0.013689968 -0.010651029
-0.016282614 -0.045987383 -0.048708178 -0.023887636 -0.01695526 -0.026181163 -0.010566427 -0.09341992
-0.11271104 -0.101374485 -0.031832136 -0.02757435 -0.031160338 -0.0143803805 -0.0006630501 0.0069778883
0.0093363775 0.002486305 -0.0038391487 0.06698797 0.061019253 0.0728926 0.10482424 0.10798466
0.1252389 0.14534093 0.1504854 0.10606488 0.06756292 0.061231192 0.06422635 0.059536207
0.054778602 0.005195326 0.036462326 -0.03989842 0.03976696 0.035570588 0.010442751 -0.010671318
0.065787315 0.016006352 0.050386652 0.0034814207 -0.017294852 -0.04128099 -0.0076190997 0.003970223
0.03837743 -0.00034340363 0.003147325 0.017318675 -0.1276115 -0.12808383 -0.09520387 -0.05508487
-0.04424175 -0.054298084 -0.07877237 -0.062056318 -0.03888534 0.08726673 0.073493645 0.06310462
0.10733052 0.062405102 0.039332263 0.10386958 0.056814 0.05157966 -0.03135369 -0.02621534
-0.0016480294 -0.083513215 -0.07907531 -0.064193204 -0.1168101 -0.114743955 -0.09562813 0.06139523
0.06286321 0.027714498 0.010471369 0.019399155 0.015842265 0.0188746 0.0102769425 -0.0049356977
-0.19506545 -0.16280465 -0.12350222 -0.19956934 -0.17371106 -0.14593354 -0.20031081 -0.19121574
-0.18080838 0.11155426 0.10053001 0.08913706 0.09791373 0.09107074 0.08129801 0.08920922
0.08305389 0.071377866 0.29667643 0.28384426 0.2511589 0.2937748 0.28638008 0.26652434
0.27689368 0.28514832 0.28552836 -0.059019078 -0.07262372 -0.08052929 -0.028004136 -0.043040384
-0.052496996 -0.006169971 -0.017761145 -0.025344511 0.15951742 0.12478034 0.09013991 0.18873997
0.1576085 0.13043131 0.20327802 0.18609597 0.17386302 0.03043689 0.024266312 0.01942575
0.017531734 0.011858869 0.0065550967 0.0084421085 -0.00038827947 -0.008978765 0.09808464 0.072458796
0.03955764 0.11298188 0.088270515 0.06489567 0.12369277 0.111361556 0.10341376 0.09992973
0.073614314 0.059039596 0.13880838 0.1122819 0.0947854 0.16420408 0.14469622 0.12877408
0.0137689905 0.017264776 0.018484533 -0.010788142 -0.007313198 -0.008237332 -0.028289996 -0.028806675
-0.035327103 -0.077315405 -0.053152703 -0.03742921 -0.114145614 -0.09078027 -0.07647424 -0.13907349
-0.12219617 -0.112216346 0.039979123 0.0071334546 -0.012331303 0.08103646 0.046599735 0.02319665
0.106952 0.08035263 0.057468113 -0.048531223 -0.04013436 -0.03779535 -0.07557411 -0.06814077
-0.066893406 -0.094256386 -0.093722396 -0.09685613 -0.034973156 -0.03385873 -0.026631698 -0.038803708
00000000: a2ac b7bc 94ba 2fbb c6df c53c 8d8b 9abc
00000010: b41f c7bc 7d10 ddbc f55f adbc cfeb 13bc
00000020: e9f8 33bc f349 983c e366 0b3d aacc 8a3c
00000030: afb8 86bd 87f0 a8bd e6fd bbbd 5834 93bd
00000040: 416a b3bd cd59 febd b336 293d 0c10 ec3c
00000050: fae5 653d cef6 fdbb f3a8 8fbc a76d 973b
00000060: d79e 9bbc 913c 1cbd d946 8abc 1227 b63c
00000070: c41e f53c 21c8 6b3c 7910 ffbc 4db4 5abd
00000080: e0a5 38bd 2833 20bd 02a3 5dbd 75b7 8abd
00000090: 145c c43d 64ad b43d efe0 a53d 091b ab3d
000000a0: 53cd b93d bf7c 203d 1b34 8f3d 64c1 813d
000000b0: 51c0 ce3c c489 c0bd b0db a0bd caaa d2bc
000000c0: c6b7 c0bc 1061 213c 51dd 323c 8593 49bb
000000d0: ca29 d53c 96f7 903d e34b 60bc a781 2ebc
000000e0: 1e63 85bc 445d 3cbd 3a82 47bd 01b0 c3bc
000000f0: c2e5 8abc e179 d6bc cf1e 2dbc f152 bfbd
00000100: 0cd5 e6bd 6d9d cfbd 6a62 02bd 9ae3 e1bc
00000110: f743 ffbc b09b 6bbc 8ad0 2dba c5a6 e43b
00000120: 9bf7 183c 47f1 223b 3a9a 7bbb fd30 893d
00000130: 53ef 793d b748 953d 17ae d63d 1027 dd3d
00000140: a03e 003e 41d4 143e d818 1a3e 8b38 d93d
00000150: 6e5e 8a3d 8fcd 7a3d 1b89 833d 3ddc 733d
00000160: 875f 603d 8e3d aa3b 8559 153d 876c 23bd
00000170: aee2 223d 77b2 113d 1318 2b3c c0d6 2ebc
00000180: 80bb 863d c11f 833c 3c62 4e3d 8c28 643b
00000190: efad 8dbc 4116 29bd a4a9 f9bb a518 823b
000001a0: a731 1d3d db0a b4b9 5a43 4e3b e5df 8d3c
000001b0: 97ac 02be 6828 03be 3ffa c2bd aca0 61bd
000001c0: d636 35bd ab67 5ebd 6953 a1bd c42e 7ebd
000001d0: 3c46 1fbd e6b8 b23d d683 963d ff3c 813d
000001e0: 1bd0 db3d 7e9c 7f3d de1a 213d 93b9 d43d
000001f0: ccb5 683d 3245 533d ba6c 00bd 8dc1 d6bc
00000200: b102 d8ba fa08 abbd 3cf2 a1bd ba77 83bd
00000210: 223a efbd e1fe eabd aed8 c3bd 9179 7b3d
00000220: 6dbe 803d 8409 e33c 1b90 2b3c faea 9e3c
00000230: a3c7 813c e89e 9a3c 9f60 283c a2bb a1bb
00000240: 3dbf 47be 43b6 26be bbee fcbd e85b 4cbe
00000250: 50e1 31be 9a6f 15be 471e 4dbe 0fce 43be
00000260: d525 39be 8f76 e43d aee2 cd3d 7e8d b63d
00000270: fe86 c83d 4c83 ba3d 927f a63d 53b3 b63d
00000280: 2818 aa3d 8f2e 923d f9e5 973e 0954 913e
00000290: e697 803e a769 963e 69a0 923e e175 883e
000002a0: 02c5 8d3e f6fe 913e c630 923e fdbd 71bd
000002b0: bfbb 94bd 8aec a4bd ee68 e5bc 1d4b 30bd
000002c0: 1707 57bd 782d cabb d27f 91bc 4b9f cfbc
000002d0: 8958 233e d68c ff3d 469b b83d 0d45 413e
000002e0: 1f64 213e c98f 053e 1d28 503e f18f 3e3e
000002f0: 2609 323e c956 f93c 25ca c63c c022 9f3c
00000300: b69e 8f3c b44b 423c 23cc d63b c550 0a3c
00000310: fd91 cbb9 ac1b 13bc 9ae0 c83d 4765 943d
00000320: 3107 223d 0b63 e73d 2cc7 b43d 05e8 843d
00000330: a352 fd3d 8711 e43d 98ca d33d f5a7 cc3d
00000340: 1ac3 963d 81d3 713d c923 0e3e 0ef4 e53d
00000350: d91e c23d 1d25 283e 3f2b 143e 5add 033e
00000360: 5597 613c dc6e 8d3c e06c 973c bfc0 30bc
00000370: 8da3 efbb e0f5 06bc 6cc0 e7bc fafb ebbc
00000380: 27b3 10bd 8a57 9ebd a6b6 59bd 5f4f 19bd
00000390: 2dc5 e9bd 02eb b9bd 879e 9cbd 4869 0ebe
000003a0: fc41 fabd afd1 e5bd 26c1 233d c1bf e93b
000003b0: 3c09 4abc 72f6 a53d 5ddf 3e3d e706 be3c
000003c0: a609 db3d eb8f a43d af63 6b3d adc8 46bd
000003d0: ed63 24bd 4ccf 1abd 99c6 9abd 638d 8bbd
000003e0: 69ff 88bd 7e09 c1bd 87f1 bfbd 825c c6bd
000003f0: 0340 0fbd 74af 0abd b82a dabc a3f0 1ebd

bias f4 [16]
-0.17860347 -0.08145512 -0.097018324 0.022919487 0.061100066 -0.025562186 0.03451868 -0.04400043
-0.05650564 0.07300243 0.060134932 -0.13727628 0.08818471 0.10848711 0.20689358 0.093894236
00000000: d4e3 36be f1d1 a6bd 8bb1 c6bd a6c1 bb3c
00000010: 1044 7a3d ca67 d1bc 7663 0d3d cb39 34bd
00000020: 7572 67bd 4c82 953d 0c50 763d 2792 0cbe
00000030: 2f9a b43d 7d2e de3d e9db 533e 9f4b c03d

weight f4 [16, 16, 3, 3]
0.10233234 0.0869905 0.07560087 0.09902879 0.07754371 0.0657976 0.13435937 0.10875961
0.0919384 0.027033918 0.02559552 0.014649469 0.0050029494 0.01872202 0.010739929 0.029958034
0.01590867 0.0136522055 0.099040225 0.14708877 0.09487187 0.18174776 0.11621269 0.07633654
0.061505258 0.08524014 -0.020824488 -0.018687189 -0.08460793 -0.025498822 -0.036041062 -0.076393016
-0.068743035 -0.0700272 -0.146436 -0.03729432 -0.055157688 0.001681864 0.046688914 -0.040828697
-0.071313165 -0.040417254 0.029602535 0.00470657 0.004873792 0.08914164 0.07154566 0.089123
0.07174141 0.06857222 0.087777026 0.047056492 0.046839774 0.080336764 0.021893155 0.008928346
-0.056772444 0.04992706 -0.11888043 -0.024693431 -0.04783061 -0.12850088 -0.10232861 -0.014287027
-0.013460915 -0.012443628 -0.018348737 -0.0140527915 -0.012955659 -0.023707513 -0.0207102 -0.011913418
0.10583282 0.08192179 0.030415436 0.10030085 0.027245881 0.08842098 0.08313729 0.06729309
0.07207788 0.046979457 0.05874696 0.068839855 -0.08220598 -0.0796444 0.065834716 -0.035168733
0.046514012 -0.067564435 -0.120401196 -0.096576914 -0.03871363 -0.08117543 -0.12321556 -0.00219036
-0.070121184 -0.13875888 -0.12741922 -0.117941976 -0.09755345 -0.102455065 -0.15425202 -0.13360237
-0.14909717 -0.19643907 -0.18253332 -0.20483702 0.035286654 -0.001015726 0.005193954 0.048675954
0.014579399 0.019671664 0.08072673 0.040775552 0.039410125 -0.052295838 0.0109169185 0.06539233
0.047355015 -0.065564774 -0.0603124 -0.03371539 -0.027400622 0.014444395 -0.032802522 0.07122693
0.07725379 -0.057442125 -0.056187566 0.028029231 0.029202957 -0.025441717 -0.02099554 -0.05245331
0.04082963 -0.0016844838 -0.09001013 0.03617247 -0.04135212 -0.065029 -0.07064642 -0.010022376
-0.053486057 -0.064782485 -0.12129164 -0.11214335 -0.1070586 -0.15112093 -0.13147226 -0.12678954
-0.16420996 0.030447893 0.034432586 0.033152234 0.032931507 0.03176097 0.026963828 0.02045046
0.012790985 0.02176105 -0.12542328 -0.027320331 0.0031529546 -0.08853192 -0.00901588 0.08150151
-0.052488938 -0.00017428593 0.020505693 0.06755424 0.0019650816 -0.032483883 0.061270665 -0.020414116
-0.034783896 0.060634546 0.013549906 0.011437756 -0.20392781 -0.15403134 -0.13977942 -0.18104975
-0.1273592 -0.14191486 -0.122369 -0.04719457 -0.11289861 -0.037976865 -0.010471793 -0.025166746
0.006783522 0.03556855 0.027192641 0.035284173 0.075390086 0.06733403 -0.025483606 -0.046699576
0.045109384 -0.032044463 -0.07500751 -0.004811407 -0.05617449 -0.005852689 -0.0090871295 -0.013599877
-0.017591497 -0.009886766 -0.013474692 -0.018295811 -0.013467607 -0.0087052705 -0.01350362 -0.014009323
0.1718533 0.14840634 0.10061491 0.17010693 0.14440635 0.09715669 0.16934943 0.15172423
0.11688765 -0.08470944 -0.076721646 -0.078131735 -0.06359721 -0.1039415 -0.09517778 -0.11382845
-0.09864329 -0.09468679 0.053593915 0.039735317 0.03785379 0.09040505 0.12908433 0.0815944
0.10213739 0.038831644 0.053528048 0.041213274 0.003979302 -0.04422855 0.06447616 0.037522566
-0.006410921 0.06646171 0.052358538 0.01824811 0.096976936 0.08111991 0.050862655 0.081774145
00000000: 9e93 d13d 1328 b23d a1d4 9a3d 9bcf ca3d
00000010: 3dcf 9e3d e4c0 863d 8195 093e 5cbd de3d
00000020: 334a bc3d 3c76 dd3c b2ad d13c 5404 703c
00000030: c8ef a33b ec5e 993c 87f6 2f3c 8d6a f53c
00000040: e652 823c 80ad 5f3c 9ad5 ca3d 709e 163e
00000050: 2f4c c23d 161c 3a3e eb00 ee3d 5556 9c3d
00000060: f0ec 7b3d 6292 ae3d 1e98 aabc e015 99bc
00000070: ec46 adbd e8e2 d0bc cb9f 13bd f173 9cbd
00000080: 26c9 8cbd 6c6a 8fbd 52f3 15be eec1 18bd
00000090: 07ed 61bd fe71 dc3a e03c 3f3d fe3b 27bd
000000a0: a30c 92bd 908c 25bd 0481 f23c 9239 9a3b
000000b0: 55b4 9f3b e48f b63d 8886 923d 1f86 b63d
000000c0: 29ed 923d 986f 8c3d 71c4 b33d 4fbe 403d
000000d0: 10db 3f3d 9a87 a43d 4659 b33c 3348 123c
000000e0: 398a 68bd 5180 4c3d 9577 f3bd e149 cabc
000000f0: 08ea 43bd bc95 03be aa91 d1bd 2214 6abc
00000100: 2b8b 5cbc 5ce0 4bbc 1750 96bc ae3d 66bc
00000110: f943 54bc 4236 c2bc 70a8 a9bc 7f30 43bc
00000120: e1be d83d 9dc6 a73d cb29 f93c 886a cd3d
00000130: c132 df3c 0f16 b53d e243 aa3d f6d0 893d
00000140: 919d 933d 886d 403d a7a0 703d e9fb 8c3d
00000150: 9c5b a8bd 9a1c a3bd 5ad4 863d 170d 10bd
00000160: 7a85 3e3d 395f 8abd e794 f6bd 1eca c5bd
00000170: 2f92 1ebd 4e3f a6bd 7158 fcbd 258c 0fbb
00000180: b29b 8fbd cf16 0ebe 2f7a 02be 908b f1bd
00000190: 1aca c7bd f6d3 d1bd 3ef4 1dbe 0fcf 08be
000001a0: eeac 18be 5327 49be 04ea 3abe ccc0 51be
000001b0: bd88 103d 1c22 85ba 0b32 aa3b 7060 473d
000001c0: 6ede 6e3c 7826 a13c 0e54 a53d 4404 273d
000001d0: 836c 213d 2934 56bd e0dc 323c 6aec 853d
000001e0: 55f7 413d d346 86bd 230a 77bd 2619 0abd
000001f0: 4577 e0bc 2fa8 6c3c f05b 06bd 6ddf 913d
00000200: 3c37 9e3d 6f48 6bbd ef24 66bd 8f9d e53c
00000210: 0a3b ef3c 266b d0bc d7fe abbc 48d9 56bd
00000220: f83c 273d e6c9 dcba 3b57 b8bd 9529 143d
00000230: d760 29bd ed2d 85bd 12af 90bd e434 24bc
00000240: 3214 5bbd aeac 84bd c067 f8bd 6aab e5bd
00000250: 8a41 dbbd 72bf 1abe aaa0 06be 1ed5 01be
00000260: a826 28be dc6d f93c 2f09 0d3d a3ca 073d
00000270: 30e3 063d ca17 023d 3fe3 dc3c b987 a73c
00000280: 4891 513c 3b44 b23c f66e 00be e3ce dfbc
00000290: cda1 4e3b 3950 b5bd 57b7 13bc 44ea a63d
000002a0: a4fe 56bd 86c0 36b9 8efb a73c e159 8a3d
000002b0: 99c8 003b d20d 05bd f3f6 7a3d 813b a7bc
000002c0: 8f79 0ebd ee5b 783d 6d00 5e3c 6d65 3b3c
000002d0: 74d2 50be 64ba 1dbe 5622 0fbe 1b65 39be
000002e0: 736a 02be 2152 11be 999c fabd 184f 41bd
000002f0: 6337 e7bd a18d 1bbd e291 2bbc 7e2a cebc
00000300: 4f48 de3b 54b0 113d 1ac3 de3c 2386 103d
00000310: 1e66 9a3d 6de6 893d ffc2 d0bc 0e48 3fbd
00000320: 9ec4 383d 0e41 03bd 8a9d 99bd 02a9 9dbb
00000330: 3917 66bd eac7 bfbb 2fe2 14bc 05d2 5ebc
00000340: 0b1c 90bc 1afc 21bc f4c4 5cbc 19e1 95bc
00000350: 3da7 5cbc 8da0 0ebc 4a3e 5dbc 5c87 65bc
00000360: 50fa 2f3e d5f7 173e 310f ce3d 8330 2e3e
00000370: 42df 133e 16fa c63d f069 2d3e 995d 1b3e
00000380: cb62 ef3d 257c adbd 3d20 9dbd 8803 a0bd
00000390: 413f 82bd 48df d4bd 91ec c2bd e41e e9bd
000003a0: 7e05 cabd 26eb c1bd 4b85 5b3d 80c1 223d
000003b0: 930c 1b3d 4826 b93d af2e 043e f71a a73d
000003c0: 682d d13d ee0d 1f3d 3a40 5b3d 40cf 283d
000003d0: ce64 823b ff28 35bd 140c 843d 43b1 193d
000003e0: b412 d2bb 141d 883d e875 563d 0f7d 953c
000003f0: d89b c63d 3222 a63d 5c55 503d 3479 a73d

bias f4 [16]
-0.08547103 -0.081121616 -0.20550357 -0.046712823 0.059342183 0.05795078 0.092418686 0.27621052
0.019115979 -0.15360734 0.16467696 -0.00011164907 -0.060101863 0.028782925 -0.14183663 -0.05622751
00000000: 6f0b afbd 1723 a6bd 876f 52be f255 3fbd
00000010: ca10 733d cc5d 6d3d 0246 bd3d 776b 8d3e
00000020: 1d99 9c3c 3e4b 1dbe 14a1 283e 2325 eab8
00000030: 5f2d 76bd 2bca eb3c 9f3d 11be d14e 66bd
