data/ForestSegmentationOutput/experiemnts/RERUN_02nd_run_17-12-2023_10h30min/unet_id=SxB5z_width=32_num_layers=2_lr=0.001_epochs=140.pth (torch, 115317 bytes, 16 tensors)

weight f4 [16, 8, 3, 3]
-0.055256404 -0.07876978 -0.058735754 -0.15626217 -0.04696408 -0.100825526 -0.15072371 -0.018622855
-0.14856052 -0.015021827 -0.05051663 -0.06285318 -0.1768289 -0.15852863 -0.025587413 -0.06482457
-0.07973352 -0.0635075 -0.010733199 -0.16821359 -0.016003828 -0.07337994 -0.19008388 -0.018078431
-0.012272997 -0.1272444 -0.08951408 -0.19589582 -0.025287135 -0.16406605 -0.22349279 -0.11971996
-0.031461097 -0.1300929 -0.15696363 -0.17719586 -0.21430212 -0.15601298 -0.09670717 -0.16926403
-0.27368322 -0.24934317 -0.269497 -0.24487147 -0.12605791 -0.05154906 -0.0019527789 0.057975937
-0.052288733 -0.031448703 -0.07951169 -0.12662005 -0.12460638 -0.13885061 -0.01862617 0.06042895
0.0778776 0.12939388 0.081823796 0.0016279565 0.1512242 0.101556204 0.13534245 0.036353085
0.12289245 0.09302605 0.1440764 -0.0070772357 0.00154214 0.042278465 0.013815734 0.1088755
-0.00795946 0.003309569 -0.021656958 0.010902409 -0.055145506 -0.023045948 -0.07333846 -0.06617798
-0.057178862 0.012914572 -0.008204119 -0.05303056 0.020179862 -0.022710752 -0.0137379905 -0.035314135
-0.06101708 -0.041390244 0.044389255 -0.028832065 -0.043471724 0.03886179 -0.036462 -0.022199793
-0.04706684 -0.053296313 -0.046319224 0.033438165 -0.013682227 -0.06798657 0.02400665 -0.008337342
-0.023061788 -0.03225936 -0.06471423 -0.083826624 0.035298333 -0.023057546 -0.05403472 0.014657947
-0.013148543 -0.021411385 -0.025564102 -0.045150504 -0.045610346 -0.037044164 -0.070324175 -0.15363719
0.052908868 -0.080921605 -0.007047451 0.036361545 -0.025257101 -0.074149825 0.051174946 -0.06521981
-0.043482885 -0.032053955 0.0063584144 0.0064418726 0.076383 -0.13070029 -0.056139525 0.05879201
-0.09105728 -0.123439364 -0.026120976 -0.031941846 -0.124588974 0.04216565 -0.11415712 -0.014571369
-5.247761e-22 -4.7585625e-22 -4.3242846e-22 -4.654141e-22 -4.1777087e-22 -3.919593e-22 -4.270521e-22 -3.871124e-22
-3.7122343e-22 5.4714e-41 3.6222e-41 2.5286e-41 3.1937e-41 1.4066e-41 1.1198e-41 2.5443e-41
1.0141e-41 6.309e-42 -2.0766996e-29 -1.0771772e-29 -6.2453364e-30 -1.2641636e-29 -5.9139064e-30 -4.0568868e-30
-9.1352966e-30 -4.3745746e-30 -3.5676517e-30 1.3044217e-34 8.940379e-34 6.96205e-34 8.962462e-34 5.8594123e-34
4.15189e-34 7.5344862e-34 3.966902e-34 3.1460449e-34 2.683e-41 -3.6137e-41 -5.4994e-41 -6.0229e-41
-1.4054e-41 1.3183e-41 -5.1086e-41 2.5485e-41 5.7522e-41 -1.7398151e-10 -1.5314644e-10 -1.380991e-10
-1.8564264e-10 -1.5474019e-10 -1.440772e-10 -2.0152367e-10 -1.6756176e-10 -1.6139709e-10 -1.0604651e-07 -1.0338732e-07
-1.0037462e-07 -1.14883385e-07 -1.0710167e-07 -1.054765e-07 -1.2618017e-07 -1.1690064e-07 -1.1705061e-07 -5.835524e-08
-5.7418188e-08 -5.6204545e-08 -6.318483e-08 -5.930147e-08 -5.8771878e-08 -6.880374e-08 -6.412693e-08 -6.4706505e-08
-0.07425703 0.062324386 -0.060888533 -0.009258249 -0.00026710276 -0.053797297 0.040126156 0.12146306
0.10865742 -0.07077416 -0.08738639 -0.051728543 -0.10485969 -0.041114848 -0.093705975 -0.052627858
-0.13232939 -0.02108013 -0.069981955 -0.04796669 0.005566694 0.06678682 -0.03437215 -0.14562307
-0.10549567 0.07309072 -0.087114714 -0.071423985 0.038467284 -0.026119232 -0.11456834 -0.07396239
0.010420366 -0.026233895 -0.15728886 -0.13250898 -0.29205436 -0.24976268 -0.30749583 -0.1969165
00000000: 8a54 62bd 0d52 a1bd e794 70bd 3103 20be
00000010: 685d 40bd 9d7d cebd 5157 1abe f58e 98bc
00000020: 4020 18be 1c1e 76bc 87ea 4ebd 2bb9 80bd
00000030: a312 35be 5455 22be b29c d1bc bfc2 84bd
00000040: 544b a3bd 3810 82bd 4dda 2fbc 2f40 2cbe
00000050: 761a 83bc 3948 96bd 59a5 42be 3819 94bc
00000060: ae14 49bc 5b4c 02be 2853 b7bd ea98 48be
00000070: f726 cfbc ee00 28be 4bdb 64be bd2f f5bd
00000080: 5add 00bd 1337 05be 13bb 20be d572 35be
00000090: 0472 5bbe dec1 1fbe 690e c6bd 8d53 2dbe
000000a0: 3520 8cbe d153 7fbe 83fb 89be 96bf 7abe
000000b0: 5315 01be 1b25 53bd 63f4 ffba 2d78 6d3d
000000c0: b62c 56bd 5bd0 00bd 06d7 a2bd b0a8 01be
000000d0: a131 ffbd db2e 0ebe e995 98bc 5984 773d
000000e0: 4b7e 9f3d d47f 043e 3c93 a73d 2861 d53a
000000f0: 84da 1a3e b3fc cf3d 3697 0a3e f9e6 143d
00000100: 09af fb3d 7184 be3d c488 133e 28e8 e7bb
00000110: a221 ca3a 2f2c 2d3d 635b 623c 1efa de3d
00000120: 6568 02bc 5be5 583b ef69 b1bc 05a0 323c
00000130: 41e0 61bd dbca bcbc 7932 96bd 5288 87bd
00000140: 6234 6abd a497 533c 926a 06bc 9336 59bd
00000150: 3d50 a53c e60b babc 4f15 61bc 8ea5 10bd
00000160: 0ced 79bd d188 29bd 82d1 353d 3931 ecbc
00000170: 680f 32bd 8a2d 1f3d 2e59 15bd 57dc b5bc
00000180: 29c9 40bd 3c4d 5abd 3ab9 3dbd 75f6 083d
00000190: 6b2b 60bc 8b3c 8bbd 98a9 c43c 5999 08bc
000001a0: 13ec bcbc 6422 04bd e588 84bd 4bad abbd
000001b0: fc94 103d 2ee3 bcbc 8353 5dbd e327 703c
000001c0: fd6c 57bc ee66 afbc cf6b d1bc bcef 38bd
000001d0: ead1 3abd 9fbb 17bd 1f06 90bd 1153 1dbe
000001e0: f8b6 583d 3aba a5bd 4eee e6bb d8ef 143d
000001f0: fbe7 cebc dddb 97bd d29c 513d f791 85bd
00000200: 1c1b 32bd 024b 03bd 3f5a d03b 5816 d33b
00000210: b16e 9c3d 4cd6 05be 8ff2 65bd e4cf 703d
00000220: 3d7c babd c7cd fcbd a8fb d5bc 74d5 02bd
00000230: 8128 ffbd e3b5 2c3d 35cb e9bd c0bc 6ebc
00000240: 969a 1e9c 98d1 0f9c 88b1 029c aca9 0c9c
00000250: e986 fc9b c4ec ec9b 8e11 019c befe e99b
00000260: 0b64 e09b 8598 0000 f964 0000 7d46 0000
00000270: 0759 0000 3627 0000 371f 0000 ed46 0000
00000280: 451c 0000 9611 0000 349a d28f 3d7a 5a8f
00000290: 4857 fd8e 9033 808f 84e5 ef8e 1f91 a48e
000002a0: 2c49 398f 2e74 b18e 9db8 908e 2c63 2d07
000002b0: 2b8c 9408 925a 6708 19ea 9408 5eb6 4208
000002c0: 60f8 0908 5260 7a08 acd2 0308 2e17 d107
000002d0: cb4a 0000 bc64 0080 4d99 0080 e5a7 0080
000002e0: 2d27 0080 c024 0000 688e 0080 0b47 0000
000002f0: 59a0 0000 714b 3faf e462 28af 71d7 17af
00000300: c21d 4caf 7e23 2aaf 206a 1eaf df93 5daf
00000310: 713c 38af 3e75 31af afbb e3b3 c805 deb3
00000320: 888d d7b3 cfb5 f6b3 c4ff e5b3 5282 e2b3
00000330: 247c 07b4 ce0a fbb3 415d fbb3 44a2 7ab3
00000340: f79b 76b3 8d65 71b3 3ab0 87b3 a8b2 7eb3
00000350: 5d6c 7cb3 42c1 93b3 27b6 89b3 c7f4 8ab3
00000360: 1214 98bd db47 7f3d 4166 79bd e9af 17bc
00000370: ed09 8cb9 8e5a 5cbd 535b 243d a0c1 f83d
00000380: c887 de3d 0bf2 90bd a3f7 b2bd 4fe1 53bd
00000390: adc0 d6bd 0b68 28bd ebe8 bfbd 4f90 57bd
000003a0: 5b81 07be 3db0 acbc b352 8fbd b878 44bd
000003b0: d068 b63b 87c7 883d d0c9 0cbd 371e 15be
000003c0: 1d0e d8bd 96b0 953d 3369 b2bd bd46 92bd
000003d0: df8f 1d3d 00f8 d5bc cea2 eabd 9879 97bd
000003e0: 2fba 2a3c 77e8 d6bc 5510 21be 6fb0 07be
000003f0: 2688 95be cac1 7fbe 1870 9dbe 7ba4 49be

bias f4 [16]
-0.06352189 0.1178646 -0.00011297716 0.020985547 0.13799582 -0.025823193 -0.16807503 -0.015507163
-0.00024248782 -0.17661422 0.23987533 -0.008288461 -5.8122755e-28 -0.033078488 -0.017808123 0.22800295
00000000: c417 82bd ff62 f13d 27ee ecb8 e2e9 ab3c
00000010: c74e 0d3e 298b d3bc dc1b 2cbe c111 7ebc
00000020: 5444 7eb9 5cda 34be e1a1 753e 53cc 07bc
00000030: c832 3892 4f7d 07bd 57e2 91bc 9b79 693e

weight f4 [16, 16, 3, 3]
0.038890187 -0.023919048 -0.012445027 0.046303313 -0.057857744 0.07079057 0.038954612 -0.053728193
-0.013023928 0.032427568 0.022507956 0.030054895 0.03757191 0.047530506 0.019347493 0.0428896
0.024005398 0.030381132 -2.32276e-40 1.15688e-40 -2.24625e-40 -1.45515e-40 -3.1148e-40 -2.61317e-40
-2.60881e-40 2.0085e-41 1.56468e-40 0.003685742 -0.120625 -0.038701076 -0.04899399 -0.08221615
-0.019216944 -0.08082712 -0.030152699 -0.04484186 0.023872765 -0.12359763 -0.039767407 -0.039479766
-0.14101152 -0.026347628 0.012501655 -0.16082084 -0.10617492 0.016674332 0.016608465 0.016596962
0.017174428 0.01713042 0.017055428 0.01748648 0.017474392 0.01729641 0.12128362 0.02025496
-0.006587227 0.14282638 0.10142938 0.074853264 0.13262524 0.12817858 0.11380204 0.010428467
0.0103014 0.0099059995 0.010284656 0.010181605 0.0098130815 0.01004746 0.00990515 0.009602456
3.247952e-14 3.3454413e-14 3.7033358e-14 3.4056372e-14 3.5991257e-14 4.049419e-14 3.6760634e-14 3.718777e-14
4.060591e-14 -0.016262054 0.10051776 0.0028072905 -0.015736153 0.033257257 0.016543753 -0.025089221
0.085944295 0.003759785 0.09647908 0.047268152 0.12472443 0.049672257 0.039560206 0.12874572
0.00034179864 0.04268628 0.11438175 1.3606572e-26 1.4987354e-26 1.04407235e-26 1.3563952e-26 1.4857949e-26
1.25258624e-26 1.5002826e-26 1.4539653e-26 1.0474467e-26 9.5933e-41 -1.09835e-40 -1.08205e-40 1.05041e-40
7.5156e-41 8.8357e-41 1.4737e-41 8.3136e-41 -8.3328e-41 0.005741126 0.005606204 0.005550409
0.0054832585 0.0052552964 0.00509077 0.0052535227 0.00496324 0.0047903187 -0.024237083 -0.024263958
-0.024262996 -0.024308557 -0.024308141 -0.024297867 -0.024299294 -0.0242721 -0.024247784 -0.14151698
-0.14639483 -0.024697682 -0.1135096 -0.26240036 -0.1425402 -0.19438414 -0.21006712 -0.19213115
0.027538352 0.118971124 0.039802026 -0.064713895 -0.046704937 -0.025934933 -0.12652786 -0.07126068
-0.14767842 -0.028790826 -0.042764246 -0.04591234 -0.017835984 -0.047993604 -0.054264233 0.017954443
-0.0006479098 -0.024346482 1.03913e-40 -1.40693e-40 -1.84164e-40 4.19203e-40 2.5823e-40 -2.50244e-40
-3.1914e-40 -2.33783e-40 3.20735e-40 -0.013388892 0.043901265 0.094362505 -0.040194258 -0.018099206
-0.0930063 -0.171633 -0.0430386 -0.15411079 0.028381798 0.07222121 0.093289115 -0.017391495
0.12903903 -0.04538561 -0.03387001 -0.020637589 -0.16700923 0.004257158 0.0041905344 0.0041094855
0.0037764802 0.0036817968 0.0037315912 0.0033649316 0.0032867584 0.003428778 -0.016123207 -0.0142614255
-0.02539265 -0.04100423 -0.13634868 0.0021389693 -0.13807009 -0.13355741 -0.04587513 -0.002338725
-0.0028800764 -0.0034828223 -0.002117824 -0.002706662 -0.0031258976 -0.002010649 -0.0024707646 -0.0026813743
-5.2409725e-18 -5.2368027e-18 -5.336998e-18 -5.2534046e-18 -5.563343e-18 -5.83242e-18 -5.690267e-18 -5.875219e-18
-6.0732544e-18 0.08210206 0.041203998 -0.050948553 -0.15171073 -0.017671797 -0.037879437 -0.16264808
-0.06891889 -0.15031599 -0.0791004 -0.22249094 -0.27648032 0.10311677 -0.013337274 -0.16245346
0.23497039 0.112773776 0.0049359077 -4.0079484e-27 -6.311656e-27 -7.077633e-27 3.7501231e-28 -9.268188e-28
-5.536254e-27 3.0986757e-27 2.49388e-27 -1.722453e-27 -8.1535e-41 1.261e-41 -9.9283e-41 -1.31363e-40
00000000: 514b 1f3d e1f1 c3bc 3ae6 4bbc 8ba8 3d3d
00000010: 3efc 6cbd a5fa 903d df8e 1f3d 1812 5cbd
00000020: 5062 55bc c5d2 043d 9b62 b83c af35 f63c
00000030: 01e5 193d 59af 423d a27e 9e3c 01ad 2f3d
00000040: f8a6 c43c dae1 f83c 7e87 0280 7e42 0100
00000050: 2a72 0280 a395 0180 4864 0380 72d8 0280
00000060: 3bd7 0280 fd37 0000 2bb4 0100 7d8c 713b
00000070: 3d0a f7bd 0585 1ebd ecad 48bd f160 a8bd
00000080: da6c 9dbc b088 a5bd cb02 f7bc 19ac 37bd
00000090: d190 c33c c120 fdbd 26e3 22bd 89b5 21bd
000000a0: 5365 10be fbd6 d7bc bed3 4c3c 38ae 24be
000000b0: 3d72 d9bd 9c98 883c 7a0e 883c 5af6 873c
000000c0: 63b1 8c3c 1855 8c3c d3b7 8b3c ce3f 8f3c
000000d0: 7526 8f3c 33b1 8d3c 8c63 f83d bbed a53c
000000e0: aad9 d7bb 1441 123e 35ba cf3d ab4c 993d
000000f0: e9ce 073e 3f41 033e 0b11 e93d 29dc 2a3c
00000100: 34c7 283c c64c 223c f980 283c bfd0 263c
00000110: 0cc7 203c 1a9e 243c 3649 223c 9f53 1d3c
00000120: 5646 1229 50aa 1629 8ec8 2629 5360 1929
00000130: 1817 2229 9f5e 3629 208e 2529 947a 2729
00000140: 6ddf 3629 0038 85bc 41dc cd3d 85fa 373b
00000150: 1be9 80bc c338 083d c486 873c e987 cdbc
00000160: 9003 b03d ba66 763b d396 c53d 409c 413d
00000170: 866f ff3d 2375 4b3d e209 223d ebd5 033e
00000180: 7033 b339 cfd7 2e3d fb40 ea3d c2c0 8614
00000190: 756d 9414 c2cc 4e14 b454 8614 6025 9314
000001a0: ab19 7814 af94 9414 66fe 8f14 dc77 4f14
000001b0: 6c0b 0100 2d32 0180 a22d 0180 d024 0100
000001c0: 81d1 0000 4ef6 0000 1529 0000 c0e7 0000
000001d0: 49e8 0080 0e20 bc3b 3fb4 b73b 35e0 b53b
000001e0: e8ac b33b 9f34 ac3b 79d0 a63b be25 ac3b
000001f0: ada2 a23b 1bf8 9c3b d98c c6bc 35c5 c6bc
00000200: 31c3 c6bc bd22 c7bc de21 c7bc 520c c7bc
00000210: 500f c7bc 48d6 c6bc 4aa3 c6bc d4e9 10be
00000220: 87e8 15be cb52 cabc b977 e8bd 5759 86be
00000230: 0ff6 11be a30c 47be d61b 57be 07be 44be
00000240: 1c98 e13c 22a7 f33d 7307 233d b888 84bd
00000250: ad4d 3fbd 7f75 d4bc 8590 01be 1ff1 91bd
00000260: 0339 17be bdda ebbc 9029 2fbd 940e 3cbd
00000270: c51c 92bc f194 44bd 2c44 5ebd 3215 933c
00000280: 7ed8 29ba 4672 c7bc ab21 0100 3288 0180
00000290: 6001 0280 9190 0400 d7cf 0200 94b9 0280
000002a0: a279 0380 b18b 0280 147e 0300 155d 5bbc
000002b0: d0d1 333d 2141 c13d bca2 24bd c944 94bc
000002c0: 167a bebd 90c0 2fbe 3e49 30bd 38cf 1dbe
000002d0: f280 e83c b7e8 933d 5d0e bf3d 9c78 8ebc
000002e0: cf22 043e 43e6 39bd 48bb 0abd 2910 a9bc
000002f0: 7804 2bbe a17f 8b3b c050 893b dda8 863b
00000300: d37e 773b 4d4a 713b b68d 743b 2f86 5c3b
00000310: a866 573b 59b5 603b d114 84bc c1a8 69bc
00000320: 3f04 d0bc 0df4 27bd fd9e 0bbe f32d 0c3b
00000330: 3f62 0dbe 46c3 08be 8fe7 3bbd 4b45 19bb
00000340: aabf 3cbb 1040 64bb 31cb 0abb 4162 31bb
00000350: dcdb 4cbb 18c5 03bb 8dec 21bb ffb9 2fbb
00000360: 965b c1a2 3434 c1a2 85e6 c4a2 01d1 c1a2
00000370: 4a40 cda2 a62d d7a2 0def d1a2 e0c1 d8a2
00000380: 4410 e0a2 2025 a83d 86c5 283d 6eaf 50bd
00000390: 0f5a 1bbe 72c4 90bc 7827 1bbd 388d 26be
000003a0: 5925 8dbd 6fec 19be 64ff a1bd aad4 63be
000003b0: d48e 8dbe e32e d33d 9584 5abc 335a 26be
000003c0: 149c 703e f0f5 e63d 65bd a13b 6dc5 9e93
000003d0: cc07 fa93 dd2f 0c94 3ab1 ed11 3ddc 9292
000003e0: 4950 db93 9c80 7513 e595 4513 7f77 0893
000003f0: 49e3 0080 2723 0000 c314 0180 306e 0180

bias f4 [16]
-0.07092725 0.029972136 -0.18318847 0.090717986 0.14378582 -0.06855673 -0.21539545 0.08717211
0.0794062 -0.04100329 -0.0652636 0.135605 -0.086952634 0.08251496 -0.13369258 -0.087882645
00000000: 4e42 91bd 2088 f53c c295 3bbe 5aca b93d
00000010: 973c 133e 7967 8cbd a090 5cbe 4b87 b23d
00000020: b89f a23d 11f3 27bd eca8 85bd 0adc 0a3e
00000030: 3914 b2bd 9afd a83d b5e6 08be d1fb b3bd

weight f4 [32, 16, 3, 3]
1.0851646e-18 3.2754703e-19 1.02693775e-19 2.7812387e-18 1.5813182e-18 5.096089e-19 2.0569984e-18 2.640294e-18
1.4511983e-18 4.7683e-41 1.0063e-41 -4.0768e-41 2.5567e-41 -4.3684e-41 5.3105e-41 6.3811e-41
-1.78e-41 1.776e-41 6.5324185e-27 9.589522e-26 1.1300531e-24 1.2220106e-25 5.7846603e-25 3.4281094e-24
1.4183364e-23 5.5951857e-24 1.2732275e-23 -2.0771614e-16 1.6947181e-16 7.5965614e-17 -1.2936562e-15 3.664872e-16
5.923769e-16 1.5568015e-15 -6.57676e-16 1.1693671e-15 -1.5123994e-23 -9.848278e-24 -8.099041e-24 -3.7436347e-22
-3.6438038e-22 -3.1688134e-22 -3.4153023e-21 -3.2498601e-21 -4.3587717e-21 -8.612e-42 5.869e-42 -1.9181e-41
-6.7533e-41 1.3078e-41 3.6972e-41 1.3008e-41 2.0564e-41 -2.8721e-41 -5.4230416e-19 -2.1929543e-19
1.2645213e-18 -9.862503e-18 -4.7150647e-18 9.365496e-19 -8.624122e-17 -3.5391717e-17 -5.642361e-18 6.113682e-17
1.3480042e-16 4.2021443e-17 5.5578474e-16 5.912105e-16 4.516419e-16 2.460392e-15 1.1403463e-15 1.6672473e-15
1.9214804e-32 9.549789e-39 4.6998e-41 2.611409e-32 -2.2716714e-35 1.5525e-41 -1.7932943e-35 -1.5735181e-35
1.687928e-39 -2.1657668e-16 -4.8641178e-17 -7.210574e-18 -6.7653046e-16 -2.410048e-16 -4.6991522e-17 -8.765734e-16
-4.963178e-16 -1.3780169e-16 -2.6143662e-14 -1.0293024e-14 -3.7211165e-15 -7.453958e-14 -3.9121836e-14 -1.4663126e-14
-1.1401962e-13 -8.5234215e-14 -4.0540667e-14 -5.0193e-41 -6.5885e-41 -3.2912e-41 -1.893e-41 5.0227e-41
6.4465e-41 6.0046e-41 6.6077e-41 -3.433e-41 1.9002625e-17 -6.3482336e-21 -1.0830581e-19 4.3329137e-17
9.528004e-18 -2.360612e-19 -8.3428055e-18 1.450305e-17 1.3469037e-18 1.1971e-41 4.1953e-41 5.0657e-41
5.2196e-41 6.2935e-41 6.2829e-41 -2.201852e-39 -3.054462e-39 -6.039772e-39 5.123634e-25 1.812114e-25
5.6672673e-26 7.08742e-24 2.7653237e-24 7.900669e-25 3.798215e-23 1.7921187e-23 4.6003784e-24 1.6543453e-15
-4.373169e-16 -1.2426087e-16 3.689665e-15 7.738768e-16 -4.5528683e-16 -7.136792e-15 2.6074443e-16 -5.75654e-16
-0.010390955 -0.022180421 0.013001577 0.07467525 0.014957628 -0.08462094 0.12917592 0.047127552
-0.11440083 0.10470602 0.115498036 -0.012696446 0.08782965 0.06029148 -0.02770959 0.020175809
-0.077579476 0.02645601 -0.15466322 -0.14211561 0.086263075 -0.12714548 -0.032593116 0.12341027
0.118773334 0.15574409 0.17969057 0.28122544 0.07618467 -0.046946894 0.31219617 0.13064449
-0.082473814 0.2870859 0.045441147 -0.22924413 0.25167403 0.073263094 -0.043306634 0.2355458
0.05475672 -0.058187783 0.21237695 0.04249899 -0.19637577 -0.015035338 0.16806139 0.05970675
0.030460015 0.10843381 0.09671297 -0.08848507 0.11572072 0.1787623 -0.14869298 -0.1174482
0.13321362 -0.14433166 -0.046355635 0.20096585 0.09274821 0.100838475 0.19181617 0.2516471
0.07853696 -0.10860666 0.24373025 0.15509258 -0.13989854 0.23712693 0.07494152 -0.1932041
0.013728911 0.1336437 0.25520974 0.07739454 0.036445737 0.03972104 0.0071952012 -0.009577471
-0.15061907 -0.114410535 -0.047656827 0.21234767 -0.056652956 -0.047055196 0.16169684 0.031223202
0.09611761 0.1327999 0.033590116 -0.07631988 0.058087192 0.018600682 0.003606133 0.04711894
0.0066113393 0.06357398 0.22981472 0.09171199 0.09185904 0.028483659 0.12133294 0.058825336
-0.04994783 0.07465385 0.0048258784 -0.2042592 -0.1002538 0.046322543 0.21993576 -0.16418605
00000000: 5c24 a021 8259 c120 947a f21f 1d38 4d22
00000010: 835c e921 f668 1621 9ac7 1722 bed1 4222
00000020: b928 d621 ec84 0000 0d1c 0000 a571 0080
00000030: 4547 0000 c679 0080 0994 0000 e1b1 0000
00000040: 9f31 0080 8231 0000 4c63 0114 d16c ed15
00000050: 04de ae17 1047 1716 cd06 3317 5a9e 8418
00000060: 4f2c 8919 0974 d818 2c47 7619 fc7a 6fa5
00000070: 4063 4325 2f2a af24 7d6f baa6 f743 d325
00000080: b3bd 2a26 d65b e026 ec8f 3da6 0886 a826
00000090: 3245 9299 507e 3e99 82a8 1c99 f149 e29b
000000a0: 2241 dc9b 038b bf9b c706 819d 708d 759d
000000b0: 74ab a49d 0218 0080 5c10 0000 7835 0080
000000c0: 41bc 0080 7524 0000 1067 0000 4324 0000
000000d0: 5339 0000 1050 0080 580f 20a1 fd72 81a0
000000e0: 449c ba21 5bee 35a3 87f4 ada2 d835 8a21
000000f0: d5db c6a4 2a37 23a4 982a d0a2 cff8 8c24
00000100: 106a 1b25 2aca 4124 ad31 2026 a367 2a26
00000110: 4a2d 0226 394a 3127 5a57 a426 9246 f026
00000120: b689 c70a edfc 6700 0383 0000 9497 070b
00000130: c790 f185 472b 0000 1db2 be85 3d53 a785
00000140: 4261 1200 27b2 79a5 5e51 60a4 f902 05a3
00000150: 23ff 42a6 08ee 8aa5 ccb5 58a4 b3a7 7ca6
00000160: ca0d 0fa6 e1df 1ea5 2e7b eba8 326c 39a8
00000170: 3e11 86a7 24d9 a7a9 6830 30a9 de12 84a8
00000180: eb5f 00aa 2eee bfa9 3594 36a9 eb8b 0080
00000190: a9b7 0080 bf5b 0080 c534 0080 038c 0000
000001a0: b4b3 0000 62a7 0000 32b8 0000 b35f 0080
000001b0: ae44 af23 59d4 ef9d d8ba ff9f 04d2 4724
000001c0: bac2 2f23 8f58 8ba0 c9e5 19a3 5cc4 8523
000001d0: 95c4 c621 5f21 0000 f374 0000 368d 0000
000001e0: 8091 0000 70af 0000 24af 0000 def9 1780
000001f0: 9942 2180 6dc4 4180 9c91 1e17 2f54 6016
00000200: 9350 8c15 3417 0919 e1f4 5518 8c83 7417
00000210: a0ab 371a b652 ad19 f1f7 b118 926a ee26
00000220: 9518 fca5 5643 0fa5 27ef 8427 070e 5f26
00000230: 3d3a 03a6 a590 00a8 164f 9625 c5eb 25a6
00000240: d33e 2abc b7b3 b5bc 9104 553c 56ef 983d
00000250: d710 753c be4d adbd b146 043e d208 413d
00000260: fb4a eabd 1c70 d63d 3c8a ec3d c104 50bc
00000270: 08e0 b33d 33f4 763d 39ff e2bc bd47 a53c
00000280: fde1 9ebd 46ba d83c 0960 1ebe c186 11be
00000290: b2aa b03d 6d32 02be 5c80 05bd 86be fc3d
000002a0: 6f3f f33d 617b 1f3e ce00 383e c8fc 8f3e
000002b0: b506 9c3d 634b 40bd 2dd8 9f3e abc7 053e
000002c0: 08e8 a8bd ecfc 923e 7f20 3a3d f9be 6abe
000002d0: 6bdb 803e f60a 963d 4c62 31bd eb32 713e
000002e0: 9548 603d 5056 6ebd 5879 593e 6c13 2e3d
000002f0: bb16 49be c756 76bc 4918 2c3e 118f 743d
00000300: 4887 f93c 8c12 de3d 7311 c63d a937 b5bd
00000310: fcfe ec3d 770d 373e f942 18be af88 f0bd
00000320: 2769 083e aecb 13be 68df 3dbd fec9 4d3e
00000330: c6f2 bd3d 6784 ce3d 756b 443e e4d7 803e
00000340: fcd7 a03d 2b6d debd 6c94 793e 97d0 1e3e
00000350: 9041 0fbe 67d1 723e f17a 993d 4cd7 45be
00000360: 3aef 603c e5d9 083e daaa 823e 0781 9e3d
00000370: 2048 153d 87b2 223d b9c5 eb3b d3ea 1cbc
00000380: e33b 1abe 1250 eabd ce33 43bd ab71 593e
00000390: ee0c 68bd f3bc 40bd db93 253e cdc7 ff3c
000003a0: 4fd9 c43d b2fc 073e ca95 093d 994d 9cbd
000003b0: d6ec 6d3d 7560 983c df54 6c3b caff 403d
000003c0: efa3 d83b 1333 823d 8d54 6b3e 7fd3 bb3d
000003d0: 9820 bc3d 9056 e93c 687d f83d d6f2 703d
000003e0: 1996 4cbd 1ee4 983d 6722 9e3b 5329 51be
000003f0: dd51 cdbd b5bc 3d3d d736 613e 6320 28be

bias f4 [32]
-0.000214141 0.10866048 -0.027886892 0.0024539782 -0.11890704 -0.16909364 -0.053334717 -0.25162023
0.10837501 0.08545066 -0.26666498 0.010966313 -0.10753457 -0.20362814 -0.10611988 -2.9723863e-06
-0.21799043 -0.16847129 -0.11729283 -0.050666627 -0.07315128 -0.15619916 -0.22602378 -0.12331856
-0.13257396 -0.0047870204 -0.06225085 -5.8910545e-14 -0.043160226 -0.1546675 -0.12503871 -0.056390364
00000000: 098b 60b9 6389 de3d 0d73 e4bc ecd2 203b
00000010: 8985 f3bd e226 2dbe 8175 5abd 5ed4 80be
00000020: b8f3 dd3d c100 af3d 5088 88be 0dac 333c
00000030: 163b dcbd e583 50be 6155 d9bd 3579 47b6
00000040: e238 5fbe bd83 2cbe 3937 f0bd cf87 4fbd
00000050: 57d0 95bd acf2 1fbe c772 67be 718e fcbd
00000060: 78c1 07be 70dc 9cbb bffa 7ebd 9ea7 84a9
00000070: c7c8 30bd 2861 1ebe 260a 00be 95f9 66bd

weight f4 [32, 32, 3, 3]
1.5839e-41 -2.9637e-41 -5.3049e-41 4.5317e-41 6.614e-42 -7.4022e-41 6.613e-41 6.742e-42
4.947e-41 0.043605182 0.0067939837 0.016577223 -0.09024149 0.033943575 0.07598905 -0.18761167
0.12975445 0.09109427 -2.9982739e-21 -7.4094375e-22 -1.4810908e-23 -1.4191242e-19 -1.0171289e-19 -2.6993084e-20
-2.2363682e-18 2.7290482e-19 2.4426395e-19 -0.04117076 0.19604547 0.16515452 -0.07326854 0.11957773
0.092716396 -0.22080065 -0.152175 -0.1611179 0.1139152 0.042452533 0.045506746 0.06773765
0.015743421 0.058531422 0.007549826 0.0046604276 0.044286937 0.016157027 -0.047620453 -0.03888075
0.039823234 0.004531459 0.015451546 0.025667373 0.049980003 0.06069578 0.021891642 0.00066531653
-0.0037786895 0.021465434 0.011708416 -0.004148876 0.016021797 0.021881081 0.010826574 -0.119220115
0.066142455 0.4036228 -0.14779453 -0.12116035 0.14214122 -0.04985399 0.031053582 0.1786267
-0.11886391 0.0880776 0.2142013 -0.074328296 0.08409965 0.072492726 -0.3332568 -0.0147605855
0.15260205 0.018797161 0.13203558 -0.064473584 0.092514545 -0.13091502 -0.2672612 0.15070356
-0.25512668 0.0042253104 -0.039569378 -0.0040055458 0.11203919 0.0044218544 -0.028559392 0.04305152
0.10201332 0.09106196 0.14438277 -0.07847245 0.03051675 0.14138964 -0.1939419 -0.0051881685
0.12724978 0.01769213 0.13711031 0.17251606 -0.1625609 0.13508885 0.46286687 -0.2687028
-0.07729406 0.25993675 -0.5631338 -0.23480174 0.17768984 -0.045875296 -0.06522223 -0.054909278
-0.008638342 -0.0037688252 -0.000858685 0.026656402 0.11009254 0.076566 0.011024358 0.026655158
-0.010629115 0.039915252 0.09089397 -0.005294117 0.04897651 0.13917656 0.027130323 7.1001e-41
7.753e-42 1.691e-41 6.578e-41 3.3916e-41 1.1212e-41 8.0635e-41 -7.0809e-41 1.0459e-41
0.10494839 -0.02132578 -0.15671541 0.09883842 -0.0022791645 -0.052505326 0.5055054 0.20472449
0.09410935 -0.09098154 -0.132967 -0.08525469 -0.0901963 -0.09591284 -0.035440408 -0.07453952
-0.048516773 0.012438876 0.030032543 -0.03893391 -0.009004478 -0.18411697 0.02294944 0.09599606
-0.21625271 0.069945715 0.1607913 0.01227127 0.010557164 0.018026194 0.016294867 0.016468693
0.026369689 -0.00096098013 0.0166257 0.029496916 0.00018344288 0.000120542216 0.00045395168 -3.2999968e-05
0.00022403274 0.00088629767 4.5685454e-05 0.00036804043 0.0012154767 -0.005702991 -0.023803402 -0.033821024
0.0035212769 -0.0016249093 -0.0070839887 0.010883422 0.02754819 0.023387443 0.12275565 -0.053782854
-0.01571871 0.15673316 0.038623016 -0.018388394 0.1873786 0.04709566 0.057862777 -0.17261808
-0.026929585 0.058807176 -0.14060639 -0.10503131 0.0016529992 -0.062002555 -0.07698585 -0.13508892
0.017429288 -0.09693591 -0.06929741 0.056689702 -0.06842113 -0.030335166 0.069677755 0.0758613
0.05257369 -4.781e-41 -1.035e-41 -3.4216856e-28 5.8455e-41 -2.3947e-41 1.6123054e-34 6.9837e-41
1.3001e-41 -5.1414e-41 -0.00044692875 -1.1115774e-05 0.00041364797 -0.0008168079 -0.0003365318 1.8691084e-06
-0.0009197538 -0.00033974304 -0.0003153663 6.9353e-41 6.462e-41 8.0339e-41 7.412e-41 6.7645e-41
-7.9762e-41 -6.7513e-41 3.185e-41 7.5516e-41 -0.0010897104 -0.0016362024 -0.0016430614 -0.0021692773
00000000: 272c 0000 9e52 0080 e193 0080 537e 0000
00000010: 7012 0000 58ce 0080 58b8 0000 cb12 0000
00000020: e789 0000 599b 323d 11a0 de3b f5cc 873c
00000030: 88d0 b8bd 6b08 0b3d 26a0 9b3d 461d 40be
00000040: 5ade 043e a28f ba3d 0d8b 629d bfef 5f9c
00000050: 083e 8f99 668a 27a0 ab29 f09f 46f1 fe9e
00000060: cd03 25a2 3618 a120 2030 9020 aca2 28bd
00000070: 25c0 483e 441e 293e d10d 96bd 2be5 f43d
00000080: 18e2 bd3d 9119 62be c3d3 1bbe 17fc 24be
00000090: 5f4c e93d b5e2 2d3d 4865 3a3d 09ba 8a3d
000000a0: 59f8 803c a5be 6f3d 8864 f73b 80b6 983b
000000b0: 3866 353d be5b 843c aa0d 43bd 6c41 1fbd
000000c0: b01d 233d a27c 943b 7b28 7d3c 6244 d23c
000000d0: d5b7 4c3d 239c 783d 1a56 b33c a368 2e3a
000000e0: e4a3 77bb 47d8 af3c a8d4 3f3c 4bf3 87bb
000000f0: 2540 833c f43f b33c f161 313c ad29 f4bd
00000100: b275 873d a6a7 ce3e 7357 17be eb22 f8bd
00000110: 788d 113e b333 4cbd 1564 fe3c ebe9 363e
00000120: ec6e f3bd 0762 b43d 9657 5b3e 6f39 98bd
00000130: 703c ac3d 1177 943d a3a0 aabe 62d6 71bc
00000140: b643 1c3e 81fc 993c 5634 073e ba0a 84bd
00000150: 4478 bd3d 960e 06be 76d6 88be 0952 1a3e
00000160: f79f 82be 7974 8a3b 8013 22bd f440 83bb
00000170: ce74 e53d 34e5 903b 63f5 e9bc ca56 303d
00000180: 5cec d03d b17e ba3d 14d9 133e 2ab6 a0bd
00000190: 43fe f93c 72c8 103e b598 46be 8301 aabb
000001a0: c44d 023e 16ef 903c a566 0c3e 0da8 303e
000001b0: 5d76 26be bb54 0a3e e3fc ec3e 6a93 89be
000001c0: 594c 9ebd 6e16 853e 8929 10bf de6f 70be
000001d0: 53f4 353e bce7 3bbd 3c93 85bd 8de8 60bd
000001e0: d587 0dbc 65fe 76bb 6019 61ba 875e da3c
000001f0: 3378 e13d a3ce 9c3d 829f 343c eb5b da3c
00000200: bd25 2ebc 2d7e 233d 9e26 ba3d 467a adbb
00000210: 989b 483d 4d84 0e3e 6940 de3c ecc5 0000
00000220: 9d15 0000 232f 0000 5eb7 0000 8b5e 0000
00000230: 411f 0000 c7e0 0000 63c5 0080 281d 0000
00000240: 2eef d63d 67b3 aebc 017a 20be cc6b ca3d
00000250: 095e 15bb d30f 57bd cd68 013f 4ca3 513e
00000260: 67bc c03d 8854 babd 8028 08be 039a aebd
00000270: d6b8 b8bd f36d c4bd f629 11bd 2da8 98bd
00000280: 86b9 46bd 6dcc 4b3c cf06 f63c 2a79 1fbd
00000290: 8587 13bc 2989 3cbe 7700 bc3c 9599 c43d
000002a0: 5a71 5dbe b33f 8f3d 79a6 243e 700d 493c
000002b0: f5f7 2c3c abab 933c d07c 853c 5ae9 863c
000002c0: 3f05 d83c 49ea 7bba 9f32 883c 84a3 f13c
000002d0: 935a 4039 9ccb fc38 5d00 ee39 7269 0ab8
000002e0: 55ea 6a39 6e56 683a 629e 3f38 8df5 c039
000002f0: a150 9f3a 28e0 babb 5aff c2bc ea87 0abd
00000300: 39c5 663b e9fa d4ba ce20 e8bb 6150 323c
00000310: beac e13c 0697 bf3c 5067 fb3d 694b 5cbd
00000320: 86c4 80bc a87e 203e 2b33 1e3d 42a3 96bc
00000330: 2de0 3f3e 61e7 403d 8501 6d3d cbc2 30be
00000340: 6f9b dcbc cbdf 703d 1ffb 0fbe a81a d7bd
00000350: 73a9 d83a 64f6 7dbd c2aa 9dbd c054 0abe
00000360: dec7 8e3c 5686 c6bd cdeb 8dbd 7633 683d
00000370: 6120 8cbd 7481 f8bc 36b3 8e3d 2b5d 9b3d
00000380: 8257 573d 4685 0080 da1c 0080 06e0 d891
00000390: f3a2 0000 c142 0080 e94f 5607 adc2 0000
000003a0: 3e24 0000 528f 0080 c351 eab9 e37d 3ab7
000003b0: e4de d839 0d1f 56ba 8970 b0b9 13de fa35
000003c0: a21b 71ba 8a1f b2b9 c057 a5b9 54c1 0000
000003d0: 22b4 0000 f4df 0000 9ece 0000 91bc 0000
000003e0: 58de 0080 33bc 0080 c958 0000 82d2 0000
000003f0: 9dd4 8eba d875 d6ba fe5b d7ba 6f2a 0ebb

bias f4 [32]
0.004990344 -0.058923446 0.026228394 -0.030491523 0.048233803 -0.059470393 -0.06984554 0.022216694
0.018137783 0.09385769 0.07076864 0.07526992 0.0067641633 0.058209836 0.018992575 -0.03881537
-0.091012634 -0.013142261 0.042666808 0.04265441 -0.027243013 0.004832533 0.012956876 0.07452571
-0.009546849 -0.067916475 0.101079516 0.043502804 -0.057901066 0.044449665 0.006023388 0.034374338
00000000: 0a86 a33b b659 71bd eedc d63c 5cc9 f9bc
00000010: cf90 453d 3a97 73bd 2e0b 8fbd c9ff b53c
00000020: b095 943c 7638 c03d 26ef 903d 1e27 9a3d
00000030: eaa5 dd3b 706d 6e3d 5196 9b3c defc 1ebd
00000040: d564 babd a352 57bc 64c3 2e3d 64b6 2e3d
00000050: bd2c dfbc 3a5a 9e3b 1449 543c efa0 983d
00000060: 636a 1cbc cb17 8bbd c702 cf3d ff2f 323d
00000070: ab29 6dbd da10 363d d75f c53b 1bcc 0c3d

weight f4 [32, 16, 2, 2]
0.03561 -0.04794453 0.03063421 -0.043874737 -0.4232206 -0.29712838 -0.259144 -0.13996002
0.13935557 -0.23400475 0.1225494 -0.12973493 -0.04170504 0.31176797 -0.12456199 0.17950025
0.66070056 0.6226654 0.5255154 0.4671085 0.3203134 -0.117492504 0.21636201 -0.052784506
-0.042812724 0.25012794 -0.055231757 0.14998604 0.050118983 -0.09387924 0.10362543 0.049295332
0.054893915 0.1442073 0.10860544 0.15969868 0.13939458 -0.17371678 0.21840684 -0.10245225
-0.05345114 0.2886491 -0.17799264 0.073263615 -0.27282137 -0.11387632 -0.14455828 -0.17955597
0.01860623 -0.026213082 -0.0017965285 0.006042121 -0.14014083 0.1383318 -0.2860672 0.014978261
-0.04236944 0.046752173 -0.10739807 0.027152436 -0.15300599 0.22474399 -0.2517148 0.0471329
0.0044127954 0.0277316 0.05948266 0.030813646 -0.22594984 -0.128004 -0.042557094 0.009748273
0.014974792 0.061126966 -0.10655881 0.0117455525 0.092515185 0.01847663 0.16094702 0.07232224
0.0030960129 0.059087455 0.027095903 0.029378371 -0.012263023 0.019458067 0.020258874 -0.05189865
0.073357396 0.008986045 0.09785293 0.048039425 -0.029011203 -0.10589862 0.0033404308 -0.07448124
0.031960268 -0.048968937 0.039381076 -0.07842226 -0.039032526 0.10689959 0.053464435 0.09811621
-0.040251013 0.011661364 -0.005241252 -0.057456672 -0.025240237 0.031348906 -0.041555583 -0.097036555
0.07314795 -0.021313611 0.07541483 -0.033839528 0.04182904 -0.010491217 0.055727653 -0.0009836232
-0.03864607 0.05090456 0.1200292 0.12646055 -0.00064441987 -0.05623714 0.031720165 0.025999125
-0.08095998 -0.024725275 -0.0010883742 -0.05824421 0.030229364 -0.02661787 -0.040622663 -0.093199685
0.0588435 0.06761257 0.021476217 -0.0065028258 0.0566709 0.019983998 0.028980596 0.056037374
-0.15173288 -0.1351576 -0.12135966 -0.08056391 -0.020769456 0.047237817 -0.026951216 -0.08408533
-0.034275647 0.06375367 -0.0770374 0.016502513 0.025917491 0.034323975 -0.042842135 0.05574996
-0.042576447 0.09417596 -0.10103617 0.041586947 -0.15095536 -0.05692082 -0.18567517 -0.076362945
-0.03464918 0.05647025 0.05389311 0.07627129 -0.1487551 -0.071472995 -0.029374842 -0.037503593
0.09029272 -0.029527714 0.087376975 0.07060345 -0.041097876 0.041049354 -0.0764677 -0.053281926
0.065868504 0.0039619254 -0.023214886 0.036345705 0.061922688 0.031648953 -0.024229668 -0.0017584476
0.011388113 -0.036397576 0.058167987 -0.0154167665 0.03876392 0.0049285833 0.16252898 0.21443741
-0.0671255 -0.14039747 0.07982805 0.01641659 0.022103861 0.10454251 0.0018203834 0.016463658
-0.011717514 -0.038106482 0.05387061 0.036133356 0.0010320301 -0.043249175 0.09443473 0.10776826
0.07515792 0.11771181 0.023325056 0.069462575 -0.03614449 -0.030252833 -0.0033392156 -0.063213855
0.09987643 0.025633395 0.030881964 -0.04352115 0.033120062 -0.080099024 0.14671706 0.10512344
0.15714566 0.21770525 -0.028153745 -0.0324596 -0.049728267 -0.08259262 -0.20725451 -0.19270578
-0.0676356 -0.0636932 0.06075578 0.011050978 0.12143919 0.018724672 -0.11078492 -0.13647977
0.04468813 -0.013750305 -0.0053249346 -0.05461376 0.08265286 0.115415685 -0.12120901 0.007813604
00000000: cbdb 113d 7c61 44bd 98f4 fa3c ffb5 33bd
00000010: 5fb0 d8be 3621 98be 86ae 84be ae51 0fbe
00000020: 3ab3 0e3e f19e 6fbe 2efb fa3d 3cd9 04be
00000030: e7d2 2abd 0da0 9f3e 5b1a ffbd eace 373e
00000040: ac23 293f 0067 1f3f 2d88 063f d828 ef3e
00000050: 1e00 a43e e99f f0bd 018e 5d3e 9134 58bd
00000060: 655c 2fbd c510 803e b23a 62bd f195 193e
00000070: 9049 4d3d c243 c0bd 9239 d43d e7e9 493d
00000080: 71d8 603d 14ab 133e 876c de3d 0d88 233e
00000090: 74bd 0e3e d0e2 31be 0ba6 5f3e 7cd2 d1bd
000000a0: 95ef 5abd d1c9 933e b443 36be 3c0b 963d
000000b0: 3eaf 8bbe fd37 e9bd 1607 14be 85dd 37be
000000c0: 186c 983c d1bc d6bc 7e79 ebba fcfc c53b
000000d0: 1481 0fbe daa6 0d3e 6677 92be 6167 753c
000000e0: 948b 2dbd 357f 3f3d 85f3 dbbd c96e de3c
000000f0: 9aad 1cbe 4a23 663e c3e0 80be 6e0e 413d
00000100: 3699 903b 612d e33c 17a4 733d e66c fc3c
00000110: 655f 67be 7b13 03be 5950 2ebd 38b7 1f3c
00000120: d458 753c 4560 7a3d 813b dabd 6b70 403c
00000130: 9a78 bd3d 4d5c 973c 4ccf 243e af1d 943d
00000140: 7ae6 4a3b b005 723d 3af8 dd3c e9aa f03c
00000150: d9ea 48bc 8666 9f3c f0f5 a53c ae93 54bd
00000160: 673c 963d 343a 133c 1e67 c83d fdc4 443d
00000170: e7a8 edbc 60e1 d8bd 21eb 5a3b 9f89 98bd
00000180: c5e8 023d a793 48bd 0d4e 213d da9b a0bd
00000190: 92e0 1fbd 2cee da3d 86fd 5a3d 27f1 c83d
000001a0: 3fde 24bd 4e0f 3f3c cfbe abbb b057 6bbd
000001b0: 9dc4 cebc b667 003d 3036 2abd 1abb c6bd
000001c0: 98ce 953d e299 aebc 1773 9a3d 519b 0abd
000001d0: ed54 2b3d 5ae3 2bbc ae42 643d ebec 80ba
000001e0: 574b 1ebd 4d81 503d dfd1 f53d e07e 013e
000001f0: 49ee 28ba ea58 66bd 01ed 013d 1efc d43c
00000200: 59ce a5bd a98c cabc c7a7 8eba 7b91 6ebd
00000210: 92a3 f73c b80d dabc f363 26bd 7adf bebd
00000220: e205 713d 7678 8a3d e4ee af3c a815 d5bb
00000230: bf1f 683d 7bb5 a33c b768 ed3c 7287 653d
00000240: dd5f 1bbe c166 0abe 6a8b f8bd b1fe a4bd
00000250: b524 aabc 717c 413d ccc8 dcbc ee34 acbd
00000260: 9f64 0cbd 4991 823d c9c5 9dbd 4730 873c
00000270: eb50 d43c 4c97 0c3d 3c7b 2fbd 125a 643d
00000280: a464 2ebd 53df c03d 0dec cebd 1357 2a3d
00000290: 0b94 1abe ce25 69bd a221 3ebe 2d64 9cbd
000002a0: 4cec 0dbd 594d 673d 06bf 5c3d 1f34 9c3d
000002b0: 4253 18be 6f60 92bd 82a3 f0bc 5e9d 19bd
000002c0: 64eb b83d 1be4 f1bc b3f2 b23d 8b98 903d
000002d0: 3f56 28bd 5e23 283d 199b 9cbd 263e 5abd
000002e0: 11e6 863d 0ad3 813b 252d bebc 3cdf 143d
000002f0: a5a2 7d3d 55a2 013d 4c7d c6bc b67b e6ba
00000300: 3595 3a3c a015 15bd 8e41 6e3d 9b96 7cbc
00000310: ebc6 1e3d f47f a13b ff6d 263e 7b95 5b3e
00000320: 1879 89bd 5bc4 0fbe e47c a33d 167c 863c
00000330: 2813 b53c 621a d63d ee99 ee3a cbde 863c
00000340: d1fa 3fbc 8b15 1cbd 6ea7 5c3d 9200 143d
00000350: 2f45 873a 0c26 31bd ff66 c13d 9bb5 dc3d
00000360: 65ec 993d e412 f13d 3014 bf3c 6542 8e3d
00000370: 3f0c 14bd cad4 f7bc bed6 5abb 4476 81bd
00000380: 048c cc3d 20fd d13c 2cfc fc3c 3c43 32bd
00000390: e7a8 073d f50a a4bd ff3c 163e f54a d73d
000003a0: cbea 203e 20ee 5e3e afa2 e6bc 5cf4 04bd
000003b0: deaf 4bbd 5226 a9bd 873a 54be aa54 45be
000003c0: 8984 8abd 9571 82bd 0edb 783d 290f 353c
000003d0: 1cb5 f83d 7c64 993c 34e3 e2bd 5ac1 0bbe
000003e0: e70a 373d f648 61bc ca7c aebb aeb2 5fbd
000003f0: e745 a93d 0f5f ec3d 6e3c f8bd a104 003c

bias f4 [16]
-0.1146332 -0.0069243563 -0.10708002 0.055863332 -0.012403612 -0.13019197 0.05721638 -0.04393114
0.1477993 0.015973752 0.04076849 0.13425943 -0.1729769 -0.056821827 -0.06190147 -0.028524406
00000000: d0c4 eabd b6e5 e2bb c54c dbbd f3d0 643d
00000010: 8538 4bbc 0b51 05be b95b 6a3d 24f1 33bd
00000020: b358 173e 63db 823c dcfc 263d 4e7b 093e
00000030: db20 31be 01be 68bd 658c 7dbd 04ac e9bc

weight f4 [16, 32, 3, 3]
-0.032214317 -0.07183008 0.004140837 -0.018989516 -0.034240145 0.046296306 -0.0711961 0.020362763
0.0021892916 0.05793763 -0.011997805 0.0666369 0.014183983 -0.0080205165 -0.016331283 0.048595816
-0.049884256 -0.09736659 -0.04385107 -0.029998966 0.055336278 -0.061334573 -0.062223163 0.018868063
-0.06501458 -0.06778196 0.060456134 -0.010208328 0.027164273 -0.036924504 0.036773674 0.06212085
0.0016175717 0.057848576 0.08049886 0.022972362 0.04628391 0.047902152 0.1426812 0.01058167
-0.0004984808 0.08694893 -0.09742711 -0.09776446 -0.0037906046 -0.049456425 -0.05909735 0.0029531915
-0.04399362 0.01348239 -0.005799028 -0.015716828 -0.017747153 0.014492653 -0.01795918 0.121414125
0.12389213 -0.13297772 -0.009496405 0.016957488 0.012178949 -0.048510835 -0.018846046 -0.014213041
-0.03421827 -0.102857105 -0.031523027 -0.032573715 0.01831341 -0.11285993 -0.05985531 -0.026611647
0.10006574 0.02486669 -0.018219225 -0.04255794 -0.05301925 -0.09613449 0.023932125 0.065286584
-0.06894628 0.054286398 -0.004642473 0.006524265 0.010124649 0.034961626 0.008981647 -0.068435065
-0.021864397 0.024952121 -0.027591236 0.028091617 -0.06401975 0.060544804 0.04347873 0.04576686
0.020147871 -0.04556321 -0.03791588 0.056921493 -0.01275964 -0.02760238 0.05079244 0.023280444
-0.058346957 0.088640876 0.047619585 0.057325225 -0.013658195 0.03945176 0.123847716 0.064803064
0.066977896 0.11583722 0.069967 0.049181435 0.025889765 -0.10727681 -0.12688072 -0.17017427
-0.12521422 -0.12497822 -0.12286698 -0.15123394 -0.16368769 -0.07808517 -0.038584996 -0.0467693
-0.028665397 -0.12033682 -0.10077262 -0.030105358 -0.09096393 -0.043156415 -0.02014568 -0.021179307
-0.028076801 -0.038236834 -0.014590351 0.022528024 -0.02172885 -0.040378846 -0.025755037 -0.06752325
0.0050314767 -0.07517498 -0.08819349 -0.011222711 0.0131239835 -0.057617664 -0.05228334 -0.08246441
-0.07985168 0.018689875 0.0073234052 0.059620954 0.029833281 -0.012796799 -0.058975417 -0.014615334
-0.06317829 -0.10094036 0.10159963 0.023751855 0.064698584 0.030887151 0.033835698 0.06932057
0.008507341 0.057168573 0.14605863 -0.14351396 -0.18427765 -0.12421041 -0.13093197 -0.08804219
-0.099020876 -0.15293579 -0.13782057 -0.17668934 -0.017411917 -0.090193845 -0.18079266 -0.0069706263
-0.03357313 -0.13247705 -0.07568001 -0.069722 -0.16655926 -0.032932907 0.039870076 0.07770899
-0.0055996813 -0.018625414 0.07189279 0.028650595 0.03184889 0.1366195 0.15609327 0.14957052
0.1927148 0.06955065 0.05632478 0.11854164 0.073404245 0.10110526 0.12326826 -0.18757695
-0.12615575 -0.18980975 -0.14013752 -0.05737585 -0.103993036 -0.09576303 -0.113142654 -0.17829305
-0.0432935 -0.048249222 -0.06295373 0.0057485458 -0.020189278 0.034938972 -0.035209663 0.08158347
0.11183374 0.09161619 0.05233369 0.041333955 0.009631923 0.01901789 0.06083236 0.082137555
0.09896541 0.14756462 0.110322766 0.08941437 0.07665765 0.08525543 0.009758928 0.06691646
0.03263599 0.0488348 0.054438256 -0.09142188 -0.09466028 -0.15597309 -0.037608676 -0.020113733
-0.043845393 -0.012230708 0.07730049 -0.019035973 0.09239448 0.030212753 0.13277113 0.023559092
00000000: 29f3 03bd a61b 93bd dcaf 873b e78f 9bbc
00000010: 653f 0cbd 32a1 3d3d 43cf 91bd cfcf a63c
00000020: 387a 0f3b 0250 6d3d 7192 44bc ed78 883d
00000030: f063 683c 7c68 03bc 2fc9 85bc 680c 473d
00000040: 6f53 4cbd 2268 c7bd 2e9d 33bd 64c0 f5bc
00000050: 4ba8 623d f639 7bbd b7dd 7ebd 3291 9a3c
00000060: 5d26 85bd 45d1 8abd daa0 773d d540 27bc
00000070: 9c87 de3c 263e 17bd fe9f 163d 6f72 7e3d
00000080: b304 d43a a1f2 6c3d 96dc a43d 8930 bc3c
00000090: 3294 3d3d 0c35 443d 051b 123e be5e 2d3c
000000a0: 7bac 02ba 4812 b23d dd87 c7bd bc38 c8bd
000000b0: cb6b 78bb d292 4abd 1010 72bd 558a 413b
000000c0: a732 34bd 3ee5 5c3c c605 bebb 94c0 80bc
000000d0: 7a62 91bc 9872 6d3c 211f 93bc f8a7 f83d
000000e0: 28bb fd3d 502b 08be cf96 1bbc 6eea 8a3c
000000f0: 378a 473c 4cb3 46bd 0663 9abc d1dd 68bc
00000100: 7528 0cbd bfa6 d2bd 4a1e 01bd 046c 05bd
00000110: 0106 963c 1b23 e7bd d72a 75bd ab00 dabc
00000120: 44ef cc3d 3bb5 cb3c 7c40 95bc 3c51 2ebd
00000130: b72a 59bd 29e2 c4bd 4e0d c43c f9b4 853d
00000140: b533 8dbd 6a5b 5e3d e31f 98bb 80c9 d53b
00000150: dbe1 253c ec33 0f3d c227 133c af27 8cbd
00000160: f71c b3bc 6468 cc3c 0407 e2bc 6420 e63c
00000170: c91c 83bd d4fd 773d c116 323d 0876 3b3d
00000180: 260d a53c 7da0 3abd af4d 1bbd 8326 693d
00000190: cf0d 51bc 631e e2bc bc0b 503d a1b6 be3c
000001a0: 38fd 6ebd 5989 b53d c10c 433d dbcd 6a3d
000001b0: 9fc6 5fbc 2b98 213d dfa3 fd3d 78b7 843d
000001c0: b52b 893d 103c ed3d dc4a 8f3d 7972 493d
000001d0: c616 d43c f2b3 dbbd 05ed 01be 2a42 2ebe
000001e0: 2838 00be 95f4 ffbd afa1 fbbd 12dd 1abe
000001f0: bf9d 27be 1eeb 9fbd 4d0b 1ebd 2a91 3fbd
00000200: b2d3 eabc 2773 f6bd e061 cebd 839f f6bc
00000210: 4c4b babd c8c4 30bd 8e08 a5bc 3a80 adbc
00000220: 5201 e6bc 3a9e 1cbd 5e0c 6fbc b18c b83c
00000230: b400 b2bc 4a64 25bd 3afc d2bc a149 8abd
00000240: 16df a43b 57f5 99bd ca9e b4bd 76df 37bc
00000250: fa05 573c 8000 6cbd 0e27 56bd 1ae3 a8bd
00000260: 4789 a3bd 821b 993c 2df9 ef3b 1a35 743d
00000270: ed64 f43c aaa9 51bc 3590 71bd 2775 6fbc
00000280: 9f63 81bd d2b9 cebd 7813 d03d 4093 c23c
00000290: b180 843d 0d07 fd3c 4d97 0a3d f1f7 8d3d
000002a0: 6062 0b3c 9829 6a3d 6590 153e 53f5 12be
000002b0: 48b3 3cbe 0762 febd 0813 06be 774f b4bd
000002c0: 75cb cabd 339b 1cbe d620 0dbe 0dee 34be
000002d0: 70a3 8ebc 8db7 b8bd b621 39be da69 e4bb
000002e0: fa83 09bd 10a8 07be 1ffe 9abd 68ca 8ebd
000002f0: 838e 2abe a8e4 06bd ce4e 233d e425 9f3d
00000300: 887d b7bb 5394 98bc 873c 933d a7b4 ea3c
00000310: fb73 023d fbe5 0b3e ead6 1f3e 0429 193e
00000320: 0757 453e 9270 8e3d d0b4 663d f6c5 f23d
00000330: f754 963d 4610 cf3d 1274 fc3d 2c14 40be
00000340: f92e 01be 7d5d 42be 3680 0fbe f002 6bbd
00000350: 4dfa d4bd 681f c4bd 56b7 e7bd 7492 36be
00000360: 8654 31bd faa0 45bd e3ed 80bd 4c5e bc3b
00000370: fc63 a5bc 2b1c 0f3d 0238 10bd 3c15 a73d
00000380: 1609 e53d 45a1 bb3d da5b 563d cb4d 293d
00000390: 37cf 1d3c 68cb 9b3c 5a2b 793d bc37 a83d
000003a0: 60ae ca3d 2e1b 173e e7f0 e13d e21e b73d
000003b0: b0fe 9c3d 669a ae3d e9e3 1f3c 7f0b 893d
000003c0: 51ad 053d 0007 483d a6fa 5e3d 653b bbbd
000003d0: 40dd c1bd 69b7 1fbe 8e0b 1abd 8ec5 a4bc
000003e0: 3a97 33bd 4f63 48bc b84f 9e3d 54f1 9bbc
000003f0: 5139 bd3d bc80 f73c 28f5 073e fffe c03c

bias f4 [16]
-0.0031274941 -0.17501384 -0.010250604 -0.041058883 0.033321436 -0.028109113 -0.10220119 -0.085129574
-0.13499835 0.003024552 0.26520896 0.083390474 -0.056643594 0.1154859 -0.01667015 -0.29980692
00000000: a5f6 4cbb d436 33be 26f2 27bc 5c2d 28bd
00000010: 0f7c 083d 1545 e6bc dc4e d1bd 6a58 aebd
00000020: 023d 0abe 9037 463b 78c9 873e a0c8 aa3d
00000030: 1d03 68bd df83 ec3d d78f 88bc 4b80 99be

weight f4 [16, 16, 3, 3]
-0.04059964 -0.09932119 -0.0016156615 -0.071550034 -0.06514737 -0.049659625 -0.043264385 -0.009419205
-0.06783264 0.052022584 0.05372065 0.031413194 -0.005238858 0.013281493 -0.03691229 -0.10719107
-0.04832064 -0.06424009 -0.25110692 -0.21569847 -0.20283806 -0.22115041 -0.1850706 -0.16129072
-0.22731438 -0.19244704 -0.16196999 -0.002024366 -3.5933104e-07 0.12591122 -0.010645791 0.004350646
0.07123712 0.045805987 0.11593473 0.11005928 0.12960385 0.104994774 0.12776202 0.14057547
0.05986461 0.076950155 0.11267255 0.053273413 -0.020973915 -0.0809518 -0.08176039 -0.09956735
-0.055972815 -0.063174225 -0.07644635 -0.036456745 -0.053645127 -0.067309625 -0.07596771 -0.04057091
-0.034982264 -0.034470882 -0.028050307 -0.033744056 -0.069836445 -0.07386316 -0.072904795 0.016983178
0.021591637 0.009131496 0.04734252 0.054716494 0.045187816 0.0369664 0.030982282 0.021746093
-0.082512744 -0.10969373 -0.13175249 -0.07409 -0.09769504 -0.09922966 -0.07417669 -0.03494453
0.0010208378 -0.16263011 -0.07732959 -0.09114463 -0.051000126 -0.11237187 -0.054174345 0.0049326825
-0.00017465782 -0.038743023 -0.08845705 -0.16051501 -0.11876121 -0.16560872 -0.11024511 -0.17742978
-0.18352416 -0.07840773 -0.07968251 0.15724489 0.18337303 0.2065729 0.06551591 0.03477164
0.1360204 0.10159802 0.079269245 0.016044417 -0.013389638 0.038477093 0.069862194 0.07105682
0.096894525 0.13310914 0.14066206 0.15127155 0.19286445 -0.16007504 -0.05264794 -0.16671023
-0.16834605 -0.19404683 -0.118129805 -0.111704424 -0.12290532 -0.19333468 0.111110196 0.09820827
0.09550898 0.1166792 0.1074901 0.107995465 0.18360546 0.18548767 0.19459586 -0.0867524
-0.036224082 0.028393092 -0.12923805 -0.12172444 -0.083782144 -0.078398384 -0.098908186 -0.0752528
0.14713033 0.009322916 0.016846852 0.01956975 0.09605626 0.08697796 0.016185313 0.0671721
0.092508845 -0.09785068 -0.22455122 -0.34460583 -0.057773016 -0.098302096 -0.12342108 -0.11293144
-0.08956747 -0.028738039 0.2538598 0.18828753 0.14540397 0.32226044 0.2639783 0.20371437
0.43605712 0.37787467 0.29498246 0.028589064 0.052623283 0.01318414 -0.0036845603 -0.07510745
0.021677205 0.022446334 0.03266644 0.09003293 0.12074108 0.0564205 0.055120792 0.03353687
0.10932889 0.13306303 0.021894915 0.0039681406 0.15173241 -0.038191285 -0.025633756 0.025651183
0.00043649436 0.017213788 0.06717639 0.037956476 0.052558314 0.10013538 0.12242718 0.04353237
-0.13537548 0.039329644 -0.007968172 -0.11380233 -0.06648169 -0.04911826 -0.06738345 -0.045320705
-0.04849321 -0.036979064 -0.06115652 -0.061076324 -0.041393552 -0.05151772 -0.046399307 -0.04005317
0.08228579 0.123888716 0.11084757 0.042769153 0.09331462 0.1438902 0.08589043 0.14084171
0.22637168 -0.11807649 -0.022701362 -0.075426966 -0.04507649 -0.057969064 -0.07421496 -0.06757468
-0.06994819 -0.12098779 -0.03765445 -0.107309006 -0.092971526 -0.04818734 0.06135494 0.03942945
0.082692 -0.027769024 0.0047994964 -0.10992337 -0.06268397 0.018652804 0.047485128 -0.06119601
-0.046816435 0.072302595 0.116921835 0.09730209 -0.009584911 -0.02932872 -0.06042538 -0.037053082
00000000: cf4b 26bd e868 cbbd 9bc4 d3ba d388 92bd
00000010: fc6b 85bd e467 4bbd ff35 31bd 0253 1abc
00000020: d7eb 8abd a215 553d 2f0a 5c3d 1fab 003d
00000030: baaa abbb 9f9a 593c 5731 17bd fe86 dbbd
00000040: ddeb 45bd 4f90 83bd 1691 80be 0fe0 5cbe
00000050: c8b4 4fbe 4175 62be 2683 3dbe 6529 25be
00000060: 1ac5 68be d610 45be 76db 25be 3aab 04bb
00000070: 15ea c0b4 dfee 003e af6b 2ebc dd8f 8e3b
00000080: c4e4 913d 0f9f 3b3d 306f ed3d c366 e13d
00000090: dfb6 043e 8007 d73d 0cd4 023e 04f3 0f3e
000000a0: 9834 753d 0b98 9d3d dec0 e63d 3935 5a3d
000000b0: 7dd1 abbc 0fca a5bd fe71 a7bd f7e9 cbbd
000000c0: c043 65bd 7d61 81bd e78f 9cbd ab53 15bd
000000d0: feba 5bbd a1d9 89bd f594 9bbd af2d 26bd
000000e0: 9049 0fbd 5731 0dbd c2c9 e5bc 3537 0abd
000000f0: 6906 8fbd 9245 97bd 1c4f 95bd 4e20 8b3c
00000100: f2e0 b03c 459c 153c 3bea 413d 671e 603d
00000110: dc16 393d 146a 173d 8ece fd3c dd24 b23c
00000120: 71fc a8bd 1ba7 e0bd 20ea 06be 7fbc 97bd
00000130: 5614 c8bd ec38 cbbd f3e9 97bd ff21 0fbd
00000140: a2cd 853a 8288 26be fa5e 9ebd 09aa babd
00000150: 82e5 50bd 3923 e6bd ebe5 5dbd 57a2 a13b
00000160: 5a24 37b9 01b1 1ebd f828 b5bd 0c5e 24be
00000170: 1439 f3bd 5595 29be 30c8 e1bd 27b0 35be
00000180: c2ed 3bbe 3b94 a0bd 9530 a3bd ce04 213e
00000190: 24c6 3b3e d987 533e 352d 863d b56c 0e3d
000001a0: ef48 0b3e 9f12 d03d ea57 a23d 956f 833c
000001b0: 3660 5bbc 289a 1d3d e913 8f3d 3d86 913d
000001c0: a370 c63d c34d 083e b709 103e eee6 1a3e
000001d0: 427e 453e b6ea 23be 5ea5 57bd 16b6 2abe
000001e0: e862 2cbe 36b4 46be 0aee f1bd 4ac5 e4bd
000001f0: c9b5 fbbd 87f9 45be be8d e33d 6b21 c93d
00000200: 369a c33d 81f5 ee3d c523 dc3d ba2c dd3d
00000210: 1203 3c3e 7bf0 3d3e 2344 473e 3eab b1bd
00000220: b45f 14bd a198 e83c fb56 04be aa4a f9bd
00000230: f995 abbd 558f a0bd 6090 cabd 241e 9abd
00000240: 55a9 163e 25bf 183c 6902 8a3c be50 a03c
00000250: 25b9 c43d 8021 b23d 1097 843c 8791 893d
00000260: 4775 bd3d f065 c8bd c1f0 65be 2d70 b0be
00000270: 66a3 6cbd 9c52 c9bd 31c4 fcbd 9948 e7bd
00000280: 266f b7bd 096c ebbc e9f9 813e 72ce 403e
00000290: c7e4 143e 52ff a43e 2a28 873e 809a 503e
000002a0: e142 df3e ca78 c13e f107 973e 9d33 ea3c
000002b0: 838b 573d 4b02 583c aa78 71bb efd1 99bd
000002c0: 6594 b13c 60e1 b73c 3fcd 053d 2f63 b83d
000002d0: 1947 f73d 2f19 673d 57c6 613d f55d 093d
000002e0: d3e7 df3d ad41 083e f75c b33c 2d07 823b
000002f0: be5f 1b3e 776e 1cbd e2fd d1bc 6e22 d23c
00000300: 48d9 e439 ee03 8d3c c693 893d 4078 1b3d
00000310: 6347 573d c713 cd3d 1abb fa3d 004f 323d
00000320: df9f 0abe 1f18 213d f08c 02bc 3211 e9bd
00000330: 8d27 88bd 3b30 49bd 5600 8abd 34a2 39bd
00000340: d1a0 46bd 5c77 17bd 427f 7abd 2b2b 7abd
00000350: 498c 29bd 3f04 53bd 330d 3ebd cb0e 24bd
00000360: 7485 a83d 5eb9 fd3d 0d04 e33d b52e 2f3d
00000370: bc1b bf3d f457 133e 52e7 af3d cf38 103e
00000380: facd 673e 16d2 f1bd 35f8 b9bc 7479 9abd
00000390: 20a2 38bd f870 6dbd 03fe 97bd 9864 8abd
000003a0: ff40 8fbd 72c8 f7bd 8d3b 1abd d3c4 dbbd
000003b0: db67 bebd 1760 45bd 514f 7b3d c680 213d
000003c0: 6c5a a93d dd7b e3bc 1845 9d3b 811f e1bd
000003d0: 7460 80bd c4cd 983c c47f 423d aba8 7abd
000003e0: 97c2 3fbd 6213 943d b774 ef3d 5146 c73d
000003f0: 080a 1dbc c942 f0bc 9a80 77bd f9c4 17bd

bias f4 [16]
-0.02797084 0.19776404 0.05841733 -0.021082098 -0.09187108 0.16026244 0.42346233 0.30724218
-0.1511031 0.097833574 0.15354298 -0.24971622 -0.24961933 0.24610814 0.029987177 -0.0046005445
00000000: 1a23 e5bc a882 4a3e 0347 6f3d 5db4 acbc
00000010: e826 bcbd d61b 243e 0ed0 d83e d94e 9d3e
00000020: c5ba 1abe f85c c83d 5f3a 1d3e 9cb5 7fbe
00000030: 369c 7fbe c603 7c3e aba7 f53c 2ac0 96bb
